scripts/models/602/34/3/actorModel.pth (torch, 216555 bytes, 12 tensors)

policy_net.0.input_layer.weight f4 [81, 128]
0.0057596825 -0.014086709 -0.033383433 0.0249365 -0.06072761 -0.04450079 0.083303474 0.026323246
-0.05608282 0.055451185 -0.07966143 0.05760335 0.07181926 0.04637957 -0.07927194 -0.0659263
-0.03043547 -0.021066142 -0.025940826 -0.029510127 -0.017749196 -0.0009981429 0.07359399 0.06313462
0.00016613181 0.08321914 -0.028955517 0.029205248 -0.054940503 0.007444956 0.056887824 -0.0559919
-0.023550995 -0.017123822 -0.060716126 0.085264646 -0.015474774 0.030460212 0.08129458 -0.08724305
0.0107762115 -0.07775224 0.07254579 -0.07333244 0.012450167 0.038496584 0.039198782 -0.0519984
0.023142181 0.04504849 -0.074307166 0.036858577 0.027733902 -0.051914908 0.07130394 0.04899076
-0.009134466 -0.05232155 0.07832273 0.056951508 -0.0055569257 -0.018862516 -0.035747703 -0.072597094
-0.05773351 -0.025736183 -0.048563737 0.03988155 -0.026856845 -0.008293278 0.016106565 0.012351755
-0.033544056 0.067872085 0.05961721 -0.058286056 0.08407302 -0.003880714 -0.054342534 -0.05793278
-0.020555839 0.004463151 0.08558021 -0.049246043 -0.076463155 0.053635698 -0.00488816 -0.027697064
-0.08036162 0.017055586 0.007986449 -0.05992801 -0.0768312 -0.0425568 -0.06748352 -0.055851664
-0.08090791 0.08766934 -0.041427042 -0.082296476 -0.012520608 -0.01922107 -0.043206505 0.041280244
0.06552539 0.0037185533 0.069891825 -0.021081422 0.04039968 0.07175011 0.01936968 -0.027681839
-0.052552864 -0.052258383 0.016383417 -0.07259819 0.06461258 -0.06593261 -0.02152624 0.06166339
0.05887669 0.046347857 0.039406564 -0.02152862 -0.020997297 0.024159921 -0.05805761 -0.055721283
0.05975991 0.013550727 -0.01259291 -0.032531224 0.018768929 -0.059006345 -0.082335256 -0.029086478
-0.07942505 -0.019387865 -0.0050738086 0.06840052 0.023593131 -0.079103805 0.087310135 0.074187554
-0.064183265 -0.009124615 -0.00243076 -0.03502326 0.0047745625 -0.052467432 0.07773753 0.07237543
0.055749923 -0.04169888 -0.02102976 0.0019444847 -0.010593748 -0.08611819 -0.012039447 0.052796356
0.08221211 -0.022246024 0.071201116 -0.013338899 -0.051455263 0.04880905 0.0037532258 -0.06916066
-0.07153673 -0.0031779285 -0.08422996 -0.0015933963 -0.062917255 -0.074048944 0.010811329 -0.06137484
-0.036798306 -0.063185856 0.058800478 -0.029722104 -0.08080424 -0.039804906 -0.040510222 0.035749145
0.022723114 0.060191505 0.01857773 -0.080780186 -0.03942587 -0.037059616 -0.020438924 -0.0016216139
-0.034209795 -0.04518869 0.08424889 0.04000429 0.027881267 -0.07159457 -0.0681896 0.018762587
-0.0655523 0.069952086 -0.071641505 -0.047681466 -0.03481677 0.022251954 0.015648734 0.0006081753
0.05038077 0.0059622386 -0.06586713 0.07462478 0.039055735 -0.054107342 -0.07519667 0.065460674
-0.044787675 -0.054965623 0.025115928 0.01657643 0.014355446 0.07066103 0.038626026 -0.057423532
0.06722437 0.07372114 0.0045757876 0.07596828 -0.045210693 -0.03841952 -0.0072525777 0.055313785
-0.03106662 0.053570244 0.004798405 0.022493415 -0.064002916 0.047579367 0.029034847 0.009165357
0.06329922 0.07140011 0.057354074 0.020721583 0.08593672 -0.029978937 0.050169837 -0.039751537
0.035368856 0.004467575 -0.06924934 0.060008354 0.0012519166 0.06355706 0.07811289 0.072824284
00000000: b8bb bc3b f1cb 66bc 11bd 08bd a147 cc3c
00000010: 84bd 78bd 7646 36bd 039b aa3d d9a3 d73c
00000020: 19b7 65bd c820 633d 8825 a3bd 7ef1 6b3d
00000030: fa15 933d 81f8 3d3d 5459 a2bd 5e04 87bd
00000040: cf53 f9bc e792 acbc db81 d4bc 39bf f1bc
00000050: c366 91bc 1ed4 82ba 72b8 963d b94c 813d
00000060: ab33 2e39 cc6e aa3d 1f34 edbc d83f ef3c
00000070: 4b09 61bd d1f4 f33b 3503 693d c357 65bd
00000080: 04ee c0bc 4247 8cbc 79b1 78bd 3b9f ae3d
00000090: e889 7dbc b287 f93c c67d a63d 7cac b2bd
000000a0: b58e 303c 913c 9fbd e392 943d 512f 96bd
000000b0: c9fb 4b3c 98ae 1d3d e78e 203d 46fc 54bd
000000c0: ac94 bd3c c484 383d 5b2e 98bd 05f9 163d
000000d0: 3532 e33c baa4 54bd cd07 923d 89aa 483d
000000e0: baa8 15bc 1f4f 56bd ab67 a03d fc45 693d
000000f0: df16 b6bb 9085 9abc 2f6c 12bd c9ad 94bd
00000100: f979 6cbd b0d4 d2bc c5ea 46bd d65a 233d
00000110: e302 dcbc 87e0 07bc eaf1 833c 045f 4a3c
00000120: 7e65 09bd 8500 8b3d 2d31 743d 5cbd 6ebd
00000130: 7a2e ac3d 9453 7ebb 4796 5ebd ec4a 6dbd
00000140: b864 a8bc a03f 923b ad44 af3d 38b6 49bd
00000150: b798 9cbd 1bb1 5b3d dc2c a0bb f4e4 e2bc
00000160: a294 a4bd 28b8 8b3c 98d9 023c 1377 75bd
00000170: ad59 9dbd 0a50 2ebd cd34 8abd b7c4 64bd
00000180: 0cb3 a5bd fc8b b33d 67af 29bd 0e8b a8bd
00000190: 3c23 4dbc 8175 9dbc 4ef9 30bd 7915 293d
000001a0: 2d32 863d f9b2 733b 7223 8f3d f2b2 acbc
000001b0: 237a 253d b9f1 923d 2aad 9e3c 06c5 e2bc
000001c0: ac41 57bd e30c 56bd 8436 863c 5cae 94bd
000001d0: 9a53 843d ad07 87bd cc57 b0bc c092 7c3d
000001e0: af28 713d 40d7 3d3d c768 213d ca5c b0bc
000001f0: 8602 acbc 07eb c53c d1cd 6dbd 003c 64bd
00000200: cfc6 743d de03 5e3c 7e52 4ebc 763f 05bd
00000210: 4cc1 993c a3b0 71bd 639f a8bd c446 eebc
00000220: 9aa9 a2bd 4dd3 9ebc 3142 a6bb 9215 8c3d
00000230: 6246 c13c 2d01 a2bd a8cf b23d a5ef 973d
00000240: 8472 83bd 697f 15bc 634d 1fbb 8d74 0fbd
00000250: ef73 9c3b 17e8 56bd db34 9f3d 9239 943d
00000260: 085a 643d 72cc 2abd 9a46 acbc 14de fe3a
00000270: 6691 2dbc bc5e b0bd 1a41 45bc fe40 583d
00000280: d35e a83d 4b3d b6bc e4d1 913d 668b 5abc
00000290: c1c2 52bd 00ec 473d aef8 753b 1ba4 8dbd
000002a0: d981 92bd cb44 50bb c280 acbd 82d9 d0ba
000002b0: c3da 80bd f9a6 97bd 0022 313c 2f64 7bbd
000002c0: d2b9 16bd 9667 81bd c5d8 703d c57b f3bc
000002d0: b27c a5bd 780a 23bd 0cee 25bd b26d 123d
000002e0: d325 ba3c 5e8b 763d 5330 983c 1570 a5bd
000002f0: 057d 21bd d3cb 17bd 886f a7bc 558c d4ba
00000300: 921f 0cbd c717 39bd af8a ac3d 8adb 233d
00000310: 4167 e43c 2da0 92bd fda6 8bbd ffb3 993c
00000320: 4940 86bd 0a43 8f3d c8b8 92bd a44d 43bd
00000330: 089c 0ebd bb49 b63c c631 803c f46d 1f3a
00000340: 115c 4e3d e25e c33b 59e5 86bd e0d4 983d
00000350: e8f8 1f3d a99f 5dbd b600 9abd 3f10 863d
00000360: 4873 37bd a223 61bd ebbf cd3c 4bcb 873c
00000370: 1b33 6b3c bbb6 903d 5336 1e3d f034 6bbd
00000380: eeac 893d 1cfb 963d 7df0 953b 4295 9b3d
00000390: d92e 39bd c95d 1dbd 08a7 edbb b590 623d
000003a0: 6d7f febc 796c 5b3d f03b 9d3b 1c44 b83c
000003b0: f613 83bd 95e2 423d 7dda ed3c 4b2a 163c
000003c0: 05a3 813d 393a 923d 1bec 6a3d 4fc0 a93c
000003d0: 97ff af3d 6396 f5bc e37e 4d3d 82d2 22bd
000003e0: efde 103d bc64 923b 99d2 8dbd 52cb 753d
000003f0: 5a17 a43a 342a 823d a7f9 9f3d e624 953d

policy_net.0.input_layer.bias f4 [81]
-0.04376511 -0.023671778 0.0066802786 0.04276515 -0.060872212 0.030756095 0.01133528 -0.05848618
-0.0749054 -0.024926541 0.07421804 0.03664251 -0.07878593 0.088256784 -0.03471957 0.020915622
-0.0696791 -0.026628442 0.0789279 -0.011348054 -0.011041178 -0.070081934 0.033014745 0.026972266
-0.06642922 0.013098189 -0.028171353 -0.022202127 -0.06372654 -0.008850583 0.030677943 0.04048134
0.04948273 0.06972686 -0.062331565 -0.0106270015 -0.06055632 0.017104719 -0.026326839 0.049072336
-0.046229992 -0.039359327 -0.0138799455 -0.046599884 0.056285206 0.053581465 -0.08769069 0.081704095
0.005579948 0.0031428167 -0.016188309 0.022360018 0.039097525 0.07671056 0.020856705 0.022878416
0.028278776 0.04577705 -0.0054293512 -0.08519073 0.08103551 0.005225446 -0.030126514 -0.06127883
-0.049151853 0.023271699 0.056548607 0.056293227 0.039129388 0.02010843 0.031065198 0.0225263
0.0476566 0.007642951 0.027670385 0.07751108 -0.029005302 0.022844307 0.044132564 0.08063083
0.032696366
00000000: 0b43 33bd 51eb c1bc 3de6 da3b 832a 2f3d
00000010: 2455 79bd 35f4 fb3c 9cb7 393c 348f 6fbd
00000020: 0168 99bd bf32 ccbc a1ff 973d 7516 163d
00000030: 855a a1bd f9bf b43d 1c36 0ebd 3d57 ab3c
00000040: eab3 8ebd e423 dabc f3a4 a13d 30ed 39bc
00000050: 0fe6 34bc 1e87 8fbd 783a 073d f1f4 dc3c
00000060: 0b0c 88bd c999 563c 9cc7 e6bc 3ce1 b5bc
00000070: 0f83 82bd 0902 11bc 4f50 fb3c c3cf 253d
00000080: 67ae 4a3d f5cc 8e3d 624f 7fbd e01c 2ebc
00000090: e709 78bd 321f 8c3c 62ab d7bc 1300 493d
000000a0: a95b 3dbd 3f37 21bd b668 63bc 85df 3ebd
000000b0: 518b 663d 3d78 5b3d 2d97 b3bd 7a54 a73d
000000c0: ffd7 b63b b7f7 4d3b 589d 84bc 5b2c b73c
000000d0: ba24 203d 6d1a 9d3d aedb aa3c 846b bb3c
000000e0: e4a8 e73c b780 3b3d b3e8 b1bb 7a78 aebd
000000f0: f2f5 a53d 383a ab3b e1cb f6bc 83ff 7abd
00000100: 7453 49bd 4aa4 be3c 839f 673d ba93 663d
00000110: 2346 203d 6fba a43c 717c fe3c 1389 b83c
00000120: 9133 433d b871 fa3b 01ad e23c 21be 9e3d
00000130: 879c edbc fc23 bb3c 59c4 343d c721 a53d
00000140: a0ec 053d

policy_net.0.output_layer.weight f4 [81, 81]
0.0942212 -0.012435516 -0.05950946 -0.023883158 -0.04485664 0.08028049 -0.09494931 -0.10784568
0.019554073 -0.017421696 -0.062098835 0.05515068 0.04150653 -0.028364526 -0.04168982 0.084997445
0.07335027 -0.07201082 0.06607531 -0.0059761927 -0.04196041 0.04334536 -0.005505113 -0.013696101
0.0051621436 -0.08353843 0.087051354 0.058339756 0.026395122 0.10654795 0.08115933 0.016674016
0.04169394 0.08438889 0.017553793 -0.02798475 -0.012034376 0.07274198 -0.017118176 0.09960488
-0.06624956 0.044740148 0.06030548 -0.10210293 -0.09423031 0.10281379 -0.10558048 0.0020353664
-0.053675216 0.09045597 -0.008802587 -0.08529413 0.007953419 0.0047905818 -9.238753e-05 -0.10686753
0.035375465 -0.109851345 -0.0036275717 0.10853938 -0.06579804 -0.09487242 0.07440007 -0.07761216
0.0868105 0.040741563 -0.08020379 0.08037714 -0.010902949 0.08109723 0.082509056 0.052043904
-0.00081140373 -0.0623341 0.06953524 0.0588736 0.039457917 0.0042666993 -0.021707948 0.0105655845
0.09018818 -0.039960135 0.058879297 -0.012863356 0.009204468 0.085092336 0.055519514 0.0063631013
-0.029633906 0.0958444 0.10904661 0.030280152 -0.106028214 -0.011986256 -0.011328577 -0.058034923
0.09334236 0.11096064 -0.008658432 -0.029931294 0.06233298 -0.072758116 0.09013372 -0.05392435
0.05305195 -0.09542159 -0.096093945 0.042998843 -0.080721736 -0.028060013 -0.06993694 0.10372988
0.028036175 -0.043276776 -0.08661824 0.01225074 0.054918993 0.02492392 0.062231798 -0.0017123092
-0.025607403 -0.03811912 -0.06981684 -0.054403443 0.011166811 -0.022796193 -0.0013075781 0.00091898494
-0.08124483 0.052027132 -0.033279393 0.015586852 0.07100599 -0.09176085 -0.10724655 -0.018318098
0.053553943 -0.032058477 -0.024075003 -0.0360619 -0.09975501 0.072582036 -0.08646439 0.008213533
-0.028665 -0.056838684 -0.07170357 0.08816029 -0.099056825 -0.04310482 -0.07108351 0.008420916
0.060623895 0.06434941 0.027391076 -0.08100479 0.07885361 -0.083254606 0.09240852 -0.039178297
-0.04734371 0.042445168 -0.046329312 -0.08356188 -0.08673758 0.071192265 0.04640879 -0.015094531
0.004842863 -0.00690402 0.04495132 -0.0027753352 -0.057215307 -0.10063914 -0.09821937 0.068650655
-0.051366832 -0.091027394 0.076201424 -0.056321926 -0.077500686 0.07152087 -0.017219994 -0.06725279
-0.09916083 0.02519834 0.042105146 0.08548073 0.02557189 -0.10569705 -0.0616429 0.046616606
0.015115857 -0.019963834 0.109114155 0.02092805 -0.0017127082 0.0322177 0.08025067 -0.032629058
-0.07611189 0.017909277 0.07031976 0.042997587 -0.026275076 -0.05468113 0.07028038 0.047439057
0.055034783 0.06535404 0.07111543 -0.069461145 0.032540653 0.095745035 0.007014725 -0.09777812
0.040157147 -0.0032777372 0.065604806 0.10619388 0.03753849 -0.00248301 -0.039332602 0.08322436
0.108960696 -0.09353963 0.10659536 -0.06589118 0.046176463 -0.110324316 0.088802524 -0.103737555
0.046310637 0.056828644 -0.07889145 -0.1025675 0.07996198 -0.04711044 -0.0060901507 -0.0675129
-0.023154125 -0.10024663 -0.047462292 0.08794533 -0.030333934 0.041006677 -0.05763523 -0.0124208825
0.001991395 0.019013418 0.04900262 -0.045561183 0.090168186 -0.002104105 -0.053907923 0.04762549
00000000: 0bf7 c03d 56be 4bbc 31c0 73bd 9da6 c3bc
00000010: 99bb 37bd 196a a43d c974 c2bd 32de dcbd
00000020: dd2f a03c f2b7 8ebc 595b 7ebd aee5 613d
00000030: c002 2a3d b95c e8bc f2c2 2abd 2413 ae3d
00000040: ab38 963d 697a 93bd 7e52 873d f0d3 c3bb
00000050: aede 2bbd e78a 313d 3c64 b4bb 9c65 60bc
00000060: 3327 a93b 3216 abbd fb47 b23d abf5 6e3d
00000070: 953a d83c d035 da3d dd36 a63d f297 883c
00000080: 44c7 2a3d 15d4 ac3d f9cc 8f3c 4640 e5bc
00000090: d52b 45bc bff9 943d 6b3b 8cbc a5fd cb3d
000000a0: d9ad 87bd 7241 373d e102 773d 571b d1bd
000000b0: d2fb c0bd 0990 d23d 943a d8bd c863 053b
000000c0: 8bda 5bbd fb40 b93d ba38 10bc b0ae aebd
000000d0: 0f4f 023c 50fa 9c3b 2dc0 c1b8 5ddd dabd
000000e0: dde5 103d bef9 e0bd 8ebc 6dbb e549 de3d
000000f0: 1fc1 86bd 794c c2bd 105f 983d 20f3 9ebd
00000100: b4c9 b13d a0e0 263d e241 a4bd c59c a43d
00000110: 48a2 32bc 4e16 a63d 82fa a83d fd2b 553d
00000120: 62b4 54ba 0b52 7fbd 7e68 8e3d 7225 713d
00000130: a09e 213d abcf 8b3b ded4 b1bc 461b 2d3c
00000140: 95b4 b83d 3dad 23bd 6b2b 713d d3c0 52bc
00000150: 56ce 163c e444 ae3d 6e68 633d 9081 d03b
00000160: cec2 f2bc 124a c43d d453 df3d 150e f83c
00000170: 5225 d9bd 0062 44bc 7f9b 39bc 07b6 6dbd
00000180: 472a bf3d 553f e33d 19dc 0dbc 7932 f5bc
00000190: de50 7f3d 3502 95bd 0798 b83d c7df 5cbd
000001a0: 004d 593d 656c c3bd e7cc c4bd 8e1f 303d
000001b0: 7051 a5bd 1dde e5bc 193b 8fbd 5570 d43d
000001c0: 1fac e53c fd42 31bd e764 b1bd 54b7 483c
000001d0: bdf2 603d 402d cc3c c5e6 7e3d 906f e0ba
000001e0: 9ec6 d1bc cb22 1cbd 22fc 8ebd 25d6 5ebd
000001f0: 00f5 363c 15bf babc 0a63 abba 09e8 703a
00000200: b063 a6bd 671a 553d f94f 08bd ff5f 7f3c
00000210: 976b 913d 1ded bbbd 14a4 dbbd d60f 96bc
00000220: 615b 5b3d c04f 03bd f138 c5bc a5b5 13bd
00000230: 5b4c ccbd e4a5 943d 3e14 b1bd 0e92 063c
00000240: ddd2 eabc aecf 68bd 52d9 92bd 628d b43d
00000250: 4ede cabd ae8e 30bd 3b94 91bd e2f7 093c
00000260: c350 783d a0c9 833d 4063 e03c d7e5 a5bd
00000270: 007e a13d 6481 aabd ae40 bd3d 6c79 20bd
00000280: 7aeb 41bd fcda 2d3d cec3 3dbd 7e22 abbd
00000290: 79a3 b1bd 40cd 913d 2517 3e3d 0d4f 77bc
000002a0: e1b0 9e3b 1e3b e2bb e01e 383d 66e2 35bb
000002b0: 995a 6abd e51b cebd 3d27 c9bd b798 8c3d
000002c0: 0766 52bd 926c babd 7e0f 9c3d d2b1 66bd
000002d0: aeb8 9ebd 8979 923d f210 8dbc d5bb 89bd
000002e0: d514 cbbd c06c ce3c 7276 2c3d 8510 af3d
000002f0: 247c d13c b277 d8bd 447d 7cbd 0ef1 3e3d
00000300: 80a8 773c 328b a3bc 3e77 df3d 4d71 ab3c
00000310: f37c e0ba b5f6 033d 775a a43d 0ca6 05bd
00000320: 8de0 9bbd 7ab6 923c ce03 903d 3d1e 303d
00000330: d43e d7bc 52f9 5fbd 29ef 8f3d 754f 423d
00000340: 276c 613d 57d8 853d f7a4 913d a541 8ebd
00000350: 5949 053d f915 c43d c7db e53b e53f c8bd
00000360: d27b 243d 4ecf 56bb d05b 863d 2d7c d93d
00000370: f6c1 193d ffb9 22bb 391b 21bd 8971 aa3d
00000380: c926 df3d b591 bfbd ab4e da3d f4f1 86bd
00000390: 8823 3d3d b7f1 e1bd 19de b53d 5b74 d4bd
000003a0: 39b0 3d3d 27c5 683d d791 a1bd e90e d2bd
000003b0: 1bc3 a33d e0f6 40bd e38f c7bb 3444 8abd
000003c0: b8ad bdbc 1b4e cdbd d267 42bd ae1c b43d
000003d0: df7e f8bc 9ef6 273d eb12 6cbd f580 4bbc
000003e0: 1082 023b 07c2 9b3c f9b6 483d 5d9e 3abd
000003f0: 19aa b83d 06e5 09bb 8ece 5cbd f212 433d

policy_net.0.output_layer.bias f4 [81]
-0.06477463 -0.004516745 0.046566896 0.07504727 -0.005303806 -0.009591034 0.061072577 -0.043644402
-0.023504019 0.00035779824 -0.10076524 0.09164671 0.06064858 0.075344086 -0.07994493 -0.06950736
-0.029625997 0.02461175 0.047119644 0.052430127 -0.070697404 0.08439365 0.09894398 0.068644695
-0.0071852547 0.100641556 -0.04014373 -0.067863226 0.002018412 -0.03667449 0.05393786 0.012450973
-0.090887286 2.329972e-05 0.02826205 0.011455762 -0.01206655 -0.06665824 0.06858075 -0.06401465
-0.073684216 0.010492085 0.014934551 -0.09197417 -0.069628 -0.10899993 -0.029772177 -0.083427824
0.023389524 -0.045232218 -0.09460933 0.02623182 -0.061490722 -0.070568286 -0.042003434 -0.091974355
-0.0885729 0.080821306 -0.012121079 -0.055999704 0.06426801 -0.063521095 -0.04691977 -0.09175364
-0.08781665 -0.06284119 -0.021865759 -0.013756347 -0.004206614 -0.026124384 0.023422902 0.0047881207
0.06502383 -0.09737013 0.055667784 -0.040681906 0.041719954 -0.035897322 0.07369324 0.10997885
-0.068075635
00000000: 90a8 84bd 3401 94bb eebc 3e3d 62b2 993d
00000010: 8dcb adbb b623 1dbc 3d27 7a3d 79c4 32bd
00000020: 808b c0bc de96 bb39 025e cebd 45b1 bb3d
00000030: a56a 783d 004e 9a3d 2bba a3bd e059 8ebd
00000040: 38b2 f2bc 959e c93c 8700 413d f9c0 563d
00000050: cdc9 90bd 94d6 ac3d 24a3 ca3d 9795 8c3d
00000060: 4972 ebbb 291d ce3d c06d 24bd e0fb 8abd
00000070: 5647 043b fd37 16bd f2ed 5c3d 2aff 4b3c
00000080: 1d23 babd c573 c337 d185 e73c f3b0 3b3c
00000090: c7b2 45bc 1e84 88bd 1074 8c3d 1d1a 83bd
000000a0: c0e7 96bd fee6 2b3c 0cb0 743c f45c bcbd
000000b0: 2099 8ebd 5b3b dfbd c8e4 f3bc 35dc aabd
000000c0: 639b bf3c 6b45 39bd 89c2 c1bd 1de4 d63c
000000d0: b2dd 7bbd 1b86 90bd cb0b 2cbd 0d5d bcbd
000000e0: b565 b5bd a485 a53d 7d97 46bc f25f 65bd
000000f0: f29e 833d 5917 82bd f22e 40bd 55e9 bbbd
00000100: 37d9 b3bd e2b2 80bd d21f b3bc 4d62 61bc
00000110: a3d7 89bb ce02 d6bc 63e1 bf3c abe5 9c3b
00000120: 372b 853d fe69 c7bd e703 643d 12a2 26bd
00000130: 8be2 2a3d 1209 13bd 7bec 963d 973c e13d
00000140: 3d6b 8bbd

policy_net.0.attention.in_proj_weight f4 [243, 81]
0.014068151 -0.045827515 0.1084052 -0.07821929 0.13243946 -0.116684414 0.12138878 -0.10112866
0.014655188 -0.052086316 0.03131218 0.0658178 -0.07518284 0.120158814 0.08173616 -0.039001662
-0.010750976 0.090028755 0.08098077 0.055349145 -0.06954719 -0.047554754 -0.009351022 0.10743355
-0.0037868922 0.08604485 0.122271225 0.061144654 0.040559217 -0.11421426 -0.022482576 -0.07845043
-0.093649596 -0.07076479 0.10539521 0.12328259 -0.06688924 -0.04860335 0.10858379 -0.0063195545
0.06290862 -0.09393326 0.101709954 -0.050624344 0.033881214 0.001058069 -0.03323157 -0.06860179
-0.101432264 -0.009370813 -0.024276538 0.036400475 0.08227955 0.13207889 -0.11813527 -0.016174441
-0.019977977 0.06263414 0.09696815 -0.034613162 0.03311868 -0.088045694 -0.06995914 0.036696143
-0.036366407 -0.12701783 0.03912362 0.0058981637 -0.110300064 -0.02955801 0.11419557 -0.043560315
0.0065892995 0.09791388 0.07230734 0.036673885 -0.12444399 -0.10056156 0.051254746 0.0038791972
-0.095994696 0.062098786 -0.046206355 -0.074280284 0.07168408 -0.072318755 -0.13146497 -0.008762945
0.13313998 -0.041373253 -0.04842377 -0.009324563 0.08296004 -0.07491422 -0.008976285 0.022621017
0.13276778 -0.13245282 -0.022804039 -0.12074689 -0.018785441 -0.13213718 0.026899429 -0.060376983
-0.09330855 0.084165215 -0.004230151 -0.12780634 -0.088290505 0.0002682849 0.07180558 -0.03635919
0.11908065 -0.061159354 0.13204333 0.106168546 -0.016951557 0.12705475 -0.11730944 0.05778863
-0.03243817 0.13523309 0.09882111 0.018683955 0.027432755 -0.085259214 0.111896895 -0.005282202
-0.099608354 0.06436125 0.043933135 0.05006318 -0.0065385723 -0.1285064 -0.059732243 -0.123197585
-0.13491437 -0.04489707 0.06766194 -0.08958722 0.10861671 0.011615383 0.009626736 0.09777611
0.008485057 0.05968273 -0.072598286 -0.055385616 0.017374538 0.1083738 0.02194985 -0.0434294
-0.06631478 0.07857701 -0.13397546 -0.042305924 -0.0053809467 0.034060974 0.066688575 -0.07989551
-0.05012773 0.044925425 -0.025539739 -0.03837908 0.009001349 -0.079570204 -0.10097617 -0.05521103
0.051019713 -0.106184006 -0.100353 0.05805057 -0.08313845 -0.1255625 -0.01964628 0.12170399
0.09923115 0.110117696 -0.04388197 0.067729004 0.014540901 -0.11708113 -0.07245585 -0.09834267
0.120017745 0.063421085 -0.05071133 0.12108333 0.03360921 -0.0022499885 0.07859432 -0.05060744
-0.08234682 -0.031647284 0.09249256 -0.08804907 0.12916085 -0.09980675 0.0041992636 0.027265942
-0.1015494 -0.06505748 -0.07216371 -0.02287837 0.123742916 -0.060263976 -0.05620656 0.026145464
-0.030691301 -0.0013795794 0.12012176 -0.010203521 -0.023029463 -0.067874976 0.024590505 0.0026074152
0.030791994 -0.052633204 -0.073335804 0.02726745 -0.0016774052 0.09695501 0.11555552 -0.061973616
0.09876139 0.0801728 0.12355708 0.05754054 0.045476608 0.12006794 -0.09896824 0.038559977
-0.012226689 -0.079077125 -0.00931212 0.13297486 0.101647496 0.042122804 -0.08660085 -0.064714685
-0.04237177 0.072318584 -0.07337134 0.02807263 0.12721199 -0.043280672 0.098219655 0.026617892
0.03454589 -0.03446087 -0.050113406 -0.10938156 0.06213931 0.065000445 0.010388975 0.13220936
00000000: 1a7e 663c a2b5 3bbd 8c03 de3d 6f31 a0bd
00000010: 369e 073e 3df8 eebd ae9a f83d 8b1c cfbd
00000020: 501c 703c 7658 55bd 3341 003d 7ccb 863d
00000030: 76f9 99bd d315 f63d 4a65 a73d 35c0 1fbd
00000040: dd24 30bc ff60 b83d 3fd9 a53d c9b5 623d
00000050: c26e 8ebd c6c8 42bd 0735 19bc 1f06 dc3d
00000060: 822d 78bb 4838 b03d 5669 fa3d d172 7a3d
00000070: 6c21 263d 2ae9 e9bd 612d b8bc 9eaa a0bd
00000080: 5ccb bfbd 21ed 90bd 72d9 d73d 957b fc3d
00000090: 3afd 88bd 4e14 47bd 2e61 de3d 4414 cfbb
000000a0: 3cd6 803d 1560 c0bd 4f4d d03d 795b 4fbd
000000b0: 07c7 0a3d e8ae 8a3a d41d 08bd 187f 8cbd
000000c0: b8bb cfbd 0a88 19bc 97df c6bc aa18 153d
000000d0: 2e82 a83d b03f 073e e8f0 f1bd 4380 84bc
000000e0: dba8 a3bc 5446 803d 3d97 c63d 88c6 0dbd
000000f0: 74a7 073d 4d51 b4bd bd46 8fbd b24e 163d
00000100: f1f4 14bd f610 02be 1740 203d 6245 c13b
00000110: 00e5 e1bd a423 f2bc 5edf e93d 4d6c 32bd
00000120: 0deb d73b 1387 c83d df15 943d 5b37 163d
00000130: 7edc febd 38f3 cdbd 7ff0 513d 213a 7e3b
00000140: de98 c4bd 4c5b 7e3d e042 3dbd 4320 98bd
00000150: 1acf 923d db1b 94bd c19e 06be 7592 0fbc
00000160: d955 083e 0077 29bd 0158 46bd 0dc6 18bc
00000170: f4e6 a93d a06c 99bd 4511 13bc b64f b93c
00000180: 47f4 073e b6a1 07be 89cf babc 254a f7bd
00000190: ede3 99bc f84e 07be 315c dc3c db4d 77bd
000001a0: 8e18 bfbd d05e ac3d 149d 8abb aadf 02be
000001b0: a7d1 b4bd 97a8 8c39 ce0e 933d 60ed 14bd
000001c0: 8ee0 f33d 3b82 7abd 5e36 073e e56e d93d
000001d0: fedd 8abc a41a 023e ef3f f0bd c5b3 6c3d
000001e0: e3dd 04bd 8b7a 0a3e b962 ca3d 180f 993c
000001f0: a8ba e03c 629c aebd 332a e53d 5216 adbb
00000200: 77ff cbbd d5cf 833d 3bf3 333d 0d0f 4d3d
00000210: 8541 d6bb 2f97 03be cca9 74bd 044f fcbd
00000220: fe26 0abe fde5 37bd 5892 8a3d 8179 b7bd
00000230: 7072 de3d 734e 3e3c 75b9 1d3c d73e c83d
00000240: e904 0b3c e175 743d 69ae 94bd 07dc 62bd
00000250: 0c55 8e3c 15f3 dd3d 2cd0 b33c 07e3 31bd
00000260: 0bd0 87bd fcec a03d dd30 09be fa48 2dbd
00000270: a752 b0bb 8583 0b3d 0594 883d 42a0 a3bd
00000280: bc52 4dbd b903 383d b738 d1bc 6233 1dbd
00000290: 657a 133c b4f5 a2bd 98cc cebd f624 62bd
000002a0: 0cfa 503d 0077 d9bd e085 cdbd 6fc6 6d3d
000002b0: 7e44 aabd 7593 00be 3cf1 a0bc f13f f93d
000002c0: b339 cb3d 6385 e13d 95bd 33bd 81b5 8a3d
000002d0: f63c 6e3c 3bc8 efbd bc63 94bd e267 c9bd
000002e0: ddcb f53d eae2 813d afb6 4fbd 89fa f73d
000002f0: d0a9 093d 8b74 13bb 0ff6 a03d bf49 4fbd
00000300: 73a5 a8bd 95a0 01bd bd6c bd3d 1253 b4bd
00000310: be42 043e 7b67 ccbd fa99 893b d35c df3c
00000320: 22f9 cfbd db3c 85bd 91ca 93bd 6b6b bbbc
00000330: ed6c fd3d 5cd7 76bd da38 66bd 032f d63c
00000340: 536c fbbc 01d3 b4ba 6602 f63d ab2c 27bc
00000350: 49a8 bcbc 0902 8bbd 0772 c93c 2be1 2a3b
00000360: 7e3f fc3c ea95 57bd 1531 96bd fd5f df3c
00000370: 61dc dbba 5990 c63d 5fa8 ec3d 0cd8 7dbd
00000380: 6943 ca3d a331 a43d 7f0b fd3d a1af 6b3d
00000390: ae45 3a3d 2ee6 f53d dcaf cabd 11f1 1d3d
000003a0: 7352 48bc 30f3 a1bd dd91 18bc 902a 083e
000003b0: 902c d03d f688 2c3d c95b b1bd 2289 84bd
000003c0: 058e 2dbd c41b 943d b743 96bd 92f8 e53c
000003d0: dc43 023e 1347 31bd 6327 c93d c40d da3c
000003e0: fe7f 0d3d d726 0dbd b743 4dbd 7003 e0bd
000003f0: ca85 7e3d f41e 853d 8536 2a3c e461 073e

policy_net.0.attention.in_proj_bias f4 [243]
-3.4248086e-12 -9.511372e-11 2.2911919e-11 5.1741045e-11 -1.7826783e-11 3.920325e-11 2.77249e-11 -3.9512567e-11
1.5979225e-10 -1.9105825e-11 2.451514e-11 7.0915794e-11 8.545668e-11 8.4337655e-11 -5.517247e-12 1.5304655e-11
4.7408223e-11 -4.088665e-11 3.7607997e-11 6.785762e-11 -1.9553753e-12 -1.1970223e-11 -4.2903466e-11 -4.7983496e-11
-1.01259764e-11 5.1593917e-11 -2.0533214e-11 3.9179025e-11 -2.1642835e-12 1.1558826e-11 -5.7956147e-11 2.2739907e-11
3.0859815e-11 2.4310746e-11 3.9263936e-11 8.907129e-12 2.0235199e-11 -4.1229214e-11 1.7683535e-12 -4.3045942e-11
-5.830352e-11 3.7017295e-11 -4.0681975e-11 -1.196472e-10 -2.1136738e-12 -1.9125503e-11 1.3290436e-12 -7.518804e-12
1.7186887e-11 3.6428787e-11 2.6610224e-11 4.172129e-11 -8.5220875e-12 6.499862e-11 -3.7591055e-11 -1.00743955e-10
1.364853e-11 -1.8037193e-11 -2.8645314e-11 2.6751087e-11 4.3946364e-11 -1.6652972e-11 7.898637e-11 2.7674306e-11
5.914424e-11 -1.0752152e-11 -4.389605e-11 7.12067e-11 1.346651e-11 6.522409e-11 4.612741e-11 2.7752278e-11
-2.5566337e-11 7.393154e-12 5.402679e-12 6.211724e-11 -3.7657846e-11 8.0948144e-11 -7.8263895e-11 -6.704303e-12
-5.590035e-11 5.000771e-18 -2.3940491e-17 -9.717419e-18 1.156897e-18 9.760859e-18 -1.5831198e-17 1.339494e-17
-6.2753594e-18 -2.2153755e-17 -4.0568643e-18 7.478724e-18 -2.436322e-17 -1.2568057e-18 -3.044657e-18 -1.1443593e-18
2.1233106e-17 -1.0073106e-17 -2.5912694e-18 1.8163459e-17 2.2613588e-17 -5.134997e-18 -5.657478e-18 1.4404169e-17
-6.9124394e-18 -1.4952438e-17 1.2644233e-17 -8.1064444e-18 8.531257e-18 3.5968555e-18 5.2073125e-18 -5.520109e-18
5.9689667e-18 6.358115e-18 3.4918917e-18 7.453109e-18 9.572588e-18 -5.606945e-19 1.8641174e-17 2.0866816e-19
8.465612e-18 -1.0521073e-17 3.6334327e-19 -9.198132e-18 -4.4612473e-18 -6.020708e-18 2.2620941e-18 -1.0472045e-18
-7.9339246e-19 -3.6005836e-18 -9.721818e-18 -3.8343643e-18 -2.2575525e-18 -5.060202e-18 7.891801e-18 -4.477342e-18
-1.496064e-18 -2.183178e-18 1.2400027e-18 -3.1016303e-18 8.7231415e-18 1.2081259e-18 1.9499431e-19 -3.3298647e-19
-1.5539353e-19 1.539545e-17 3.1335612e-18 -5.8069266e-18 -2.69536e-18 -4.384915e-19 5.3266156e-19 -1.1246425e-18
6.334127e-18 -6.749155e-18 7.687637e-18 4.6152335e-18 -5.8847097e-18 -4.1786236e-18 7.531681e-19 -6.797244e-18
-2.3435032e-18 6.3906953e-18 1.0471175e-08 -4.670687e-09 -8.6952e-09 4.2239403e-09 -4.9634656e-09 6.5586607e-09
-1.3595165e-09 -4.0925274e-10 -3.6361625e-09 1.592227e-08 1.2465748e-08 5.3303237e-09 7.962721e-09 -1.912056e-08
6.387649e-09 5.0588094e-09 4.3309747e-09 -1.4761502e-09 -1.0652195e-09 8.881477e-09 -8.77141e-09 2.438257e-09
-1.4306148e-08 -7.2105713e-09 -1.1127534e-09 -9.686e-10 -2.4116635e-09 4.785663e-09 7.964787e-10 2.6509694e-09
-1.3091149e-09 -1.2632819e-08 3.925771e-09 1.4249406e-09 1.232314e-08 4.08409e-09 2.3077227e-09 -3.16102e-09
-5.503892e-10 4.960277e-09 -3.0156364e-09 -4.114916e-10 4.1254009e-10 1.3774846e-09 -4.3868305e-09 3.3894838e-09
8.061004e-10 -2.0172374e-08 -6.6233636e-09 -3.4512462e-09 -1.3802101e-09 8.579103e-09 1.2642453e-08 -2.5587212e-09
6.505621e-09 8.730807e-09 -7.401465e-09 7.3072273e-09 -8.347093e-09 1.2712832e-09 8.1329793e-10 7.623939e-09
-9.750589e-09 2.1578341e-09 -1.4336163e-09 -3.0898823e-09 -5.399977e-09 -8.48107e-09 -1.1225145e-09 -2.3068755e-10
-4.5777715e-09 -4.236972e-09 2.0297788e-09 6.61905e-10 6.7485284e-09 1.3842226e-09 -1.1873324e-08 7.2365722e-09
-9.182527e-09 -1.0933989e-09 -9.812726e-09
00000000: deff 70ac 4428 d1ae 0e89 c92d 3d8f 632e
00000010: 59ce 9cad ef6a 2c2e edde f32d 32c7 2dae
00000020: 85b1 2f2f 7e0e a8ad 30a3 d72d 0bf2 9b2e
00000030: d6eb bb2e e175 b92e f11e c2ac 059f 862d
00000040: ea80 502e 47d2 33ae d766 252e 7238 952e
00000050: e998 09ac 1895 52ad 02b1 3cae 9d08 53ae
00000060: 5823 32ad 96e9 622e b09c b4ad a94f 2c2e
00000070: 444c 18ac 5358 4b2d d2e4 7eae b805 c82d
00000080: 10b9 072e efd6 d52d 43af 2c2e 25b2 1c2d
00000090: 9efd b12d f853 35ae a6df f82b 6c51 3dae
000000a0: f735 80ae c5cd 222e d5eb 32ae b18d 03af
000000b0: 90bc 14ac ce3a a8ad d80b bb2b af45 04ad
000000c0: 6e2d 972d 2b37 202e e610 ea2d ff7d 372e
000000d0: 12ec 15ad f8ee 8e2e c453 25ae ce89 ddae
000000e0: 841b 702d 26a8 9ead 83f7 fbad 184e eb2d
000000f0: 3547 412e 297b 92ad 60b1 ad2e ff6c f32d
00000100: 3f0f 822e 6327 3dad 8f0e 41ae cf95 9c2e
00000110: c5e7 6c2d e66d 8f2e d9de 4a2e 931c f42d
00000120: 46e2 e0ad ce0f 022d 0217 be2c e698 882e
00000130: f79e 25ae c101 b22e a81a acae fee2 ebac
00000140: 33da 75ae f27e b822 e3cf dca3 3741 33a3
00000150: 55ba aa21 5a0e 3423 5c04 92a3 d117 7723
00000160: 1885 e7a2 1355 cca3 00ac 95a2 47f5 0923
00000170: 07b6 e0a3 c778 b9a1 f2a7 60a2 ace0 a8a1
00000180: 41d7 c323 e6d0 39a3 b233 3fa2 4187 a723
00000190: d392 d023 ad72 bda2 5eb9 d0a2 e2da 8423
000001a0: 2506 ffa2 72e9 89a3 b43e 6923 9a89 15a3
000001b0: b95f 1d23 57b3 8422 ad1d c022 f5a7 cba2
000001c0: 4c37 dc22 b392 ea22 fcd3 8022 507c 0923
000001d0: 4595 3023 e17c 25a1 3aef ab23 155a 7620
000001e0: b929 1c23 5d14 42a3 e27a d620 f3ac 29a3
000001f0: 4a97 a4a2 fb1f dea2 c0e9 2622 448a 9aa1
00000200: 0a2b 6aa1 8dd6 84a2 fd55 33a3 8c76 8da2
00000210: f693 26a2 42b0 baa2 fa93 1123 4d2f a5a2
00000220: b3c7 dca1 1117 21a2 fafd b621 24dc 64a2
00000230: dfe9 2023 b549 b221 6a35 6620 7e8f c4a0
00000240: d074 37a0 7bff 8d23 4c37 6722 df3c d6a2
00000250: e9e1 46a2 7b6b 01a1 c536 1d21 cbf7 a5a1
00000260: 23b0 e922 f7ff f8a2 d7cf 0d23 a645 aa22
00000270: 831b d9a2 fc29 9aa2 c64b 5e21 28c6 faa2
00000280: 86eb 2ca2 69c6 eb22 b7e4 3332 cc7b a0b1
00000290: e561 15b2 2c22 9131 1b8b aab1 975a e131
000002a0: bcd9 bab0 34fd e0af 0ce0 79b1 71c5 8832
000002b0: f128 5632 0626 b731 6bcc 0832 8e3e a4b2
000002c0: 5b7a db31 c2d1 ad31 a8cf 9431 6be1 cab0
000002d0: 1467 92b0 2695 1832 12b1 16b2 458e 2731
000002e0: 1bc7 75b2 dbc0 f7b1 88ef 98b0 951f 85b0
000002f0: 6fba 25b1 236f a431 35ef 5a30 592c 3631
00000300: 63ec b3b0 ba07 59b2 72e3 8631 a4d7 c330
00000310: beb5 5332 0954 8c31 e395 1e31 4039 59b1
00000320: 324a 17b0 0f6f aa31 a33b 4fb1 4b38 e2af
00000330: dbcb e22f ee51 bd30 f8ba 96b1 6eec 6831
00000340: 4694 5d30 8547 adb2 b993 e3b1 f72a 6db1
00000350: d3b1 bdb0 4b63 1332 1932 5932 80d5 2fb1
00000360: 0c88 df31 7ffe 1532 fa4f feb1 0d13 fb31
00000370: e766 0fb2 4db9 ae30 c18e 5f30 70fa 0232
00000380: 8b83 27b2 0549 1431 e408 c5b0 c955 54b1
00000390: b38a b9b1 24b4 11b2 f846 9ab0 c6a4 7daf
000003a0: 814a 9db1 cd94 91b1 3f7c 0b31 6cf1 3530
000003b0: afe0 e731 013f be30 6efb 4bb2 90a5 f831
000003c0: 2ec1 1db2 8e46 96b0 d394 28b2

policy_net.0.attention.out_proj.weight f4 [81, 81]
-0.07335606 -0.04463 0.07208136 0.0072042136 -0.10501512 0.037464738 -0.015219026 -0.023262832
0.006589479 -0.05811228 0.06634699 0.107250415 0.08083668 -0.059525967 0.0344307 -0.07394841
0.025727259 -0.09943448 -0.052597005 -0.039880447 -0.09123259 0.06022762 0.038174935 -0.05801854
-0.009381281 -0.035534143 0.1010538 -0.022505296 -0.08471216 0.055797696 -0.085837156 0.09789341
-0.030582296 -0.045967527 0.02980345 0.018726494 -0.06325074 0.09477047 0.041769493 0.10978862
0.09743941 0.08716173 -0.10807917 -0.0645237 0.08753901 0.019178152 -0.110112205 -0.039492145
0.098975636 0.069772705 0.044450123 0.025787843 -0.07463506 0.057492375 -0.035364985 -0.012049543
-0.07868893 0.011620349 0.021869805 0.026802275 0.048925746 0.07061977 -8.132741e-05 0.106439576
0.10033015 0.04547992 0.049717586 -0.09881062 0.041736748 0.047031906 0.05168724 -0.10299507
-0.076260604 0.013084014 -0.0175348 0.025783459 -0.037183776 -0.10766743 -0.0693797 -0.062938794
0.02219975 0.090445414 0.006573055 0.014678611 -0.05752251 -0.0414747 0.08758114 0.03482726
0.089159966 0.0377357 -0.07132128 -0.051942375 -0.02906169 -0.102647886 -0.0006240613 -0.04565811
-0.075772025 0.07435095 0.023305548 -0.0062726466 -0.07670898 0.017455552 -0.011899524 0.06270584
-0.068687916 -0.018545615 -0.096183896 0.092633925 -0.07379144 0.08993193 0.024481297 -0.056223895
-0.045412328 -0.043677263 -0.09030035 -0.07956871 0.005198863 -0.03817659 -0.07720366 0.10904927
0.07015744 0.0138447415 -0.012755156 0.043229833 -0.017913898 -0.07546821 -0.023456905 -0.056408633
-0.0014562866 0.011215965 0.04070379 0.057047118 -0.0025274493 0.072310485 -0.06897202 0.035789266
-0.0917178 0.061749432 0.05354521 -0.10735052 -0.05789423 -0.0053091454 -0.03404281 0.04001538
0.014177177 0.037748456 -0.0026574535 -0.10107071 -0.10877546 -0.07994399 -0.040824745 0.053291813
0.049785033 -0.09782199 0.06429745 0.101841904 0.08950995 0.04451234 -0.011923022 0.04265266
-0.065658845 0.05732078 -0.018679116 0.090276696 0.109192915 -0.031674862 -0.021086097 -0.10333649
-0.09860676 0.06990985 -0.0071384525 -0.017924124 -0.034163713 0.0072805816 -0.012302028 0.06672825
0.043923166 -0.09206837 -0.056851838 0.09293828 -0.1072912 -0.083478555 -0.013739744 0.08415159
-0.08927499 -0.06528192 -0.0551908 -0.036197025 0.033298094 -0.0012809368 -0.07654553 0.0024496068
-0.07176154 -0.10991648 -0.05266656 -0.09320959 0.066168904 0.07104037 -0.058891363 0.09904442
0.09480374 -0.098070964 0.010162115 0.06940864 0.075987644 -0.0754552 0.0043826494 0.08877674
-0.010090047 0.08209021 -0.08893315 -0.055535782 0.0981788 -0.009943247 0.039128967 -0.054702442
0.022233406 0.016014377 0.085069604 0.007996109 0.09185505 -0.005569902 0.010177043 -0.102384426
0.07311145 -0.047598243 -0.015458425 -0.09492358 0.006967043 0.021821221 -0.058943976 -0.10470654
0.019587675 -0.024808262 0.059046943 -0.068295516 0.10405571 -0.044282187 0.045489922 -0.074187435
0.09841532 -0.04162072 0.06997613 -0.0057690926 -0.06448294 -0.10321168 0.039094184 -0.094755396
-0.06593251 0.0063743326 0.020921204 -0.075486146 -0.069567524 0.081731 -0.06922168 0.10900225
00000000: b43b 96bd f2cd 36bd 649f 933d 5311 ec3b
00000010: 2b12 d7bd a074 193d 3959 79bc b291 bebc
00000020: 8eec d73b 2407 6ebd eee0 873d 1ba6 db3d
00000030: b48d a53d 80d1 73bd 3507 0d3d 4472 97bd
00000040: f9c1 d23c 4ea4 cbbd f56f 57bd ae59 23bd
00000050: 27d8 babd 3db1 763d 525d 1c3d d9a4 6dbd
00000060: f2b3 19bc 408c 11bd 4bf5 ce3d 075d b8bc
00000070: 927d adbd 208c 643d 64cb afbd 577c c83d
00000080: b987 fabc 7248 3cbd 5d26 f43c 4e68 993c
00000090: 9b89 81bd 0517 c23d 7d16 2b3d dbd8 e03d
000000a0: 508e c73d d981 b23d 9d58 ddbd 0025 84bd
000000b0: a747 b33d 801b 9d3c 8282 e1bd 84c2 21bd
000000c0: bdb3 ca3d fee4 8e3d 5511 363d 0741 d33c
000000d0: 44da 98bd 207d 6b3d e0da 10bd 726b 45bc
000000e0: a927 a1bd 4763 3e3c 4e28 b33c 7290 db3c
000000f0: 5d66 483d 19a1 903d 528e aab8 fefc d93d
00000100: e579 cd3d 2749 3a3d aba4 4b3d 395d cabd
00000110: 27f4 2a3d 87a4 403d 00b6 533d 14ef d2bd
00000120: 852e 9cbd 555e 563c 24a5 8fbc d537 d33c
00000130: 044e 18bd be80 dcbd f216 8ebd 0ee6 80bd
00000140: 40dc b53c 723b b93d c862 d73b 8f7e 703c
00000150: b99c 6bbd 60e1 29bd be5d b33d 07a7 0e3d
00000160: 8099 b63d c090 1a3d e410 92bd 87c1 54bd
00000170: c812 eebc 0e39 d2bd 0b98 23ba 0004 3bbd
00000180: 5d2e 9bbd 5045 983d 47eb be3c c68a cdbb
00000190: 9919 9dbd f2fe 8e3c 39f6 42bc eb6b 803d
000001a0: 40ac 8cbd f9ec 97bc 10fc c4bd dbb6 bd3d
000001b0: f71f 97bd 3b2e b83d 008d c83c 074b 66bd
000001c0: 4702 3abd eee6 32bd 64ef b8bd ebf4 a2bd
000001d0: 395b aa3b 0e5f 1cbd f41c 9ebd 3955 df3d
000001e0: b4ae 8f3d 0ed5 623c 00fb 50bc c411 313d
000001f0: 2bc0 92bc 148f 9abd b228 c0bc bd0c 67bd
00000200: dfe0 beba 2bc3 373c 04b9 263d 3daa 693d
00000210: 90a3 25bb 8517 943d 3441 8dbd c497 123d
00000220: 8bd6 bbbd f9ec 7c3d 3952 5b3d 97da dbbd
00000230: 8022 6dbd 57f8 adbb 7970 0bbd 2be7 233d
00000240: 6447 683c 209e 1a3d ac28 2ebb 29fe cebd
00000250: abc5 debd adb9 a3bd d937 27bd 8448 5a3d
00000260: 64eb 4b3d e556 c8bd 62ae 833d 7d92 d03d
00000270: fe50 b73d 9252 363d c758 43bc 8eb4 2e3d
00000280: 2578 86bd 32c9 6a3d f204 99bc fde2 b83d
00000290: 89a0 df3d 80bd 01bd c0bc acbc 15a2 d3bd
000002a0: 57f2 c9bd e52c 8f3d aee9 e9bb 9dd5 92bc
000002b0: 40ef 0bbd f291 ee3b 728e 49bc d2a8 883d
000002c0: c7e8 333d 578e bcbd 79dd 68bd 6d56 be3d
000002d0: 7dbb dbbd cef6 aabd aa1c 61bc ab57 ac3d
000002e0: ced5 b6bd 87b2 85bd c00f 62bd 5543 14bd
000002f0: 9563 083d 1be5 a7ba e7c3 9cbd 9589 203b
00000300: b7f7 92bd e41b e1bd e4b8 57bd abe4 bebd
00000310: 9083 873d 9d7d 913d 1238 71bd cdd7 ca3d
00000320: 7728 c23d 6ed9 c8bd 007f 263c 1e26 8e3d
00000330: 699f 9b3d 4288 9abd 549c 8f3b 94d0 b53d
00000340: b950 25bc e91e a83d 9522 b6bd 7d79 63bd
00000350: f711 c93d 00e9 22bc b245 203d ab0f 60bd
00000360: d522 b63c 9530 833c f938 ae3d 1d02 033c
00000370: 801e bc3d b983 b6bb 9dbd 263c edae d1bd
00000380: 75bb 953d 60f6 42bd 5545 7dbc 4b67 c2bd
00000390: cb4b e43b 6bc2 b23c 3d6f 71bd 6270 d6bd
000003a0: 5576 a03c b23a cbbc 35db 713d 85de 8bbd
000003b0: 291b d53d 3d61 35bd a453 3a3d 95ef 97bd
000003c0: f98d c93d 7d7a 2abd a54f 8f3d a80a bdbb
000003d0: a20f 84bd a560 d3bd 3921 203d 1e0f c2bd
000003e0: a007 87bd c7df d03b f262 ab3c 7b98 9abd
000003f0: 6b79 8ebd 9562 a73d 19c4 8dbd 923c df3d

policy_net.0.attention.out_proj.bias f4 [81]
-2.0666593e-09 -2.413007e-09 -1.7302352e-08 3.837285e-09 -1.5729816e-08 -2.472285e-08 1.1601677e-08 -1.4778691e-08
1.0837901e-08 4.022587e-09 -9.136626e-09 1.4185292e-08 -5.8658696e-09 -2.1269182e-08 -1.5389245e-08 -1.9752413e-08
8.468988e-09 -7.531016e-09 -2.4565119e-09 -9.280722e-09 3.4524872e-09 -2.0484807e-08 -1.0862476e-08 4.3377946e-09
5.6950302e-09 1.0252063e-08 3.7109673e-09 4.334864e-09 -1.5743115e-08 7.620301e-09 -1.3461794e-09 -4.7169912e-09
6.5650116e-09 -1.5226565e-08 -7.789547e-09 -9.338653e-09 1.1375238e-08 -1.3994555e-08 7.1513933e-09 1.6033669e-08
5.6336407e-09 -1.6687034e-08 -1.1334392e-08 -1.6325739e-08 -1.750361e-08 -9.451159e-09 2.7954053e-08 -1.4585237e-09
-6.362455e-09 1.1725959e-09 2.2211536e-08 -4.136532e-09 9.083592e-09 -1.1954295e-08 1.2729983e-08 2.1977553e-09
5.3958044e-10 -7.706611e-09 1.677643e-08 8.218768e-10 -1.85397e-08 1.2802337e-08 1.4023518e-09 1.2162386e-08
-1.1430815e-08 8.73506e-09 -3.760404e-09 -3.9318886e-09 1.0727291e-08 9.689336e-09 7.050287e-09 1.6901203e-09
-1.7754735e-09 -8.52338e-09 1.0710026e-08 -4.9340194e-09 8.027316e-11 -2.1063635e-09 1.6694719e-09 6.4884147e-09
-1.0377462e-08
00000000: 0e05 0eb1 11d2 25b1 46a0 94b2 1ed9 8331
00000010: 3b1e 87b2 1f5e d4b2 b750 4732 5fe5 7db2
00000020: 9831 3a32 0d37 8a31 4ef7 1cb2 93b3 7332
00000030: bc8c c9b1 6db3 b6b2 4f31 84b2 04ac a9b2
00000040: 017f 1132 c261 01b2 6acf 28b1 0c71 1fb2
00000050: cc40 6d31 91f6 afb2 ad9d 3ab2 a50b 9531
00000060: 04ae c331 0d21 3032 0704 7f31 def1 9431
00000070: 7a3b 87b2 70ea 0232 7a04 b9b0 1813 a2b1
00000080: 7492 e131 92cb 82b2 cad2 05b2 d56f 20b2
00000090: d36c 4332 b46c 70b2 52b8 f531 69ba 8932
000000a0: 0792 c131 2d57 8fb2 2fb9 42b2 ae3c 8cb2
000000b0: d85a 96b2 a35e 22b2 9d1f f032 3e75 c8b0
000000c0: bf9c dab1 0d29 a130 afcb be32 5221 8eb1
000000d0: 0f0e 1c32 8c5f 4db2 0fb3 5a32 5207 1731
000000e0: 9951 1430 0966 04b2 c21b 9032 70ea 6130
000000f0: 3b41 9fb2 46f1 5b32 debc c030 bdf2 5032
00000100: 4261 44b2 3311 1632 dd34 81b1 4219 87b1
00000110: 204b 3832 2676 2632 fb3e f231 d249 e830
00000120: ec04 f4b0 396e 12b2 31ff 3732 1888 a9b1
00000130: c685 b02e 8abf 10b1 5273 e530 b3f0 de31
00000140: 8f48 32b2

policy_net.1.weight f4 [81, 81]
-0.019936057 0.003857551 0.10837861 -0.083767034 0.06511111 -0.10577539 -0.009364776 0.028090212
-0.099235654 -0.0354676 0.047130626 -0.08449401 -0.05219839 -0.07130871 -0.010761063 0.09695547
-0.011155498 -0.10332313 0.042115543 -0.10995449 0.02724568 0.015246471 0.02073645 0.0017152298
0.096442305 0.035692673 0.046192937 -0.07341225 -0.053768344 -0.02047164 -0.09642734 0.08777664
-0.07142087 0.009685729 0.08805833 0.014338917 0.104882464 0.07941476 -0.0493591 0.09241251
0.10940584 -0.07245415 0.012467798 -0.0083383825 -0.04897446 0.050109643 0.033196382 0.07267216
0.029892405 0.09042796 -0.10534211 -0.028478438 0.092241384 0.014366829 0.022406936 -0.09197889
0.10380851 -0.07494942 -0.083627276 0.07513911 0.0640944 -0.0012051128 0.07316743 -0.08785186
0.0012752083 -0.084236875 -0.0516097 0.0879996 0.0504199 -0.024807546 0.059699696 0.022795465
0.062061667 -0.043337215 0.09715545 0.006980976 -0.0605129 0.0075877244 0.009311585 -0.013593288
-0.07800472 -0.05751394 0.059209693 0.10894903 0.11104952 0.08187895 0.0093698185 0.013189422
-0.0065407753 0.0063508484 -0.019180829 0.052170873 -0.04990656 0.09439904 0.025555823 -0.04511685
-0.058255978 -0.03255472 -0.037267275 -0.057977345 -0.04949017 0.09446071 0.080545954 -0.10091019
-0.09634532 -0.092800856 -0.05749215 -0.076053806 0.08753557 -0.104214646 0.0033380324 0.06830747
-0.004801945 0.04082701 -0.054575868 0.08839468 -0.084114924 0.005917019 -0.023819683 -0.09877544
0.041569393 0.004985937 -0.03383614 0.07663979 0.044946246 -0.07815703 -0.09021599 -0.018048167
0.03503928 0.0619783 -0.0063434253 0.10367201 0.058753517 -0.101402946 0.09898386 -0.09598432
0.01227559 0.06891317 0.043468144 -0.05745603 0.010236516 0.047409255 0.02235312 -0.003520382
0.012927672 0.04812594 0.0035972463 0.092225924 -0.025982685 0.023019874 -0.015526984 0.047667067
0.09116843 0.020953633 0.09481678 0.0051051355 0.019296804 -0.05457792 -0.015953885 -0.016205894
-0.07691685 -0.061746478 1.4793835e-05 -0.089448914 -0.04705568 -0.02266456 0.050321408 0.043593008
-0.109269604 -0.073402815 -0.11073616 -0.07411688 0.022361465 0.03851195 0.033611417 0.004368993
0.038173106 -0.05010874 -0.06719126 0.015612523 -0.04324161 -0.08298229 0.10238487 -0.048362494
0.10021382 0.044172395 0.052940566 -0.043142874 0.04159057 -0.09841449 -0.006836719 -0.020907827
0.06400613 -0.0049099387 -0.02409519 -0.0535479 0.07261399 0.10879874 -0.09694321 -0.053896785
-0.047939036 0.07326031 0.03804975 -0.03786499 -0.08450185 0.09206775 -0.063786425 -0.090162255
-0.003774431 -0.07777451 0.062497735 -0.05893318 -0.05740395 -0.10896059 0.036271982 -0.10958195
-0.103828296 -0.00092919666 -0.0037939702 -0.034569316 -0.041541234 -0.100751266 0.10059273 -0.11078325
0.04880692 0.0020639203 0.110399775 0.048067916 0.0036368994 0.061630487 -0.07519816 -0.06221142
-0.059834097 0.084137626 -0.1059238 -0.04468424 -0.0027571672 -0.04788168 -0.100793816 0.023483673
-0.06034266 0.10449765 -0.04230576 -0.055211175 -0.012923966 -0.055657785 -0.040285483 -0.013119009
0.08853886 -0.005997356 0.042406294 0.02462987 0.057086747 -0.004224907 -0.062105693 0.09942457
00000000: f150 a3bc f7ce 7c3b 9bf5 dd3d 0d8e abbd
00000010: f958 853d c5a0 d8bd b86e 19bc 721d e63c
00000020: 103c cbbd 7946 11bd 0b0c 413d 320b adbd
00000030: fbcd 55bd 4d0a 92bd 2b4f 30bc 9790 c63d
00000040: 8dc5 36bc 149b d3bd 5981 2c3d d22f e1bd
00000050: 5532 df3c 56cc 793c 7ddf a93c 90d1 e03a
00000060: 8b83 c53d 7b32 123d ce34 3d3d 2959 96bd
00000070: 323c 5cbd 24b4 a7bc b27b c5bd 3dc4 b33d
00000080: 1b45 92bd e4b0 1e3c ed57 b43d c7ed 6a3c
00000090: 9ecc d63d 35a4 a23d c52c 4abd c542 bd3d
000000a0: 2b10 e03d d762 94bd bc45 4c3c b69d 08bc
000000b0: 7299 48bd c53f 4d3d eef8 073d 24d5 943d
000000c0: ebe0 f43c 4b32 b93d 9bbd d7bd 9d4b e9bc
000000d0: 0de9 bc3d d962 6b3c c08e b73c 6e5f bcbd
000000e0: 8e99 d43d 157f 99bd c744 abbd 89e2 993d
000000f0: ed43 833d e0f4 9dba ced8 953d adeb b3bd
00000100: e424 a73a 6284 acbd b164 53bd 2239 b43d
00000110: 1985 4e3d 3239 cbbc ab87 743d 8ebd ba3c
00000120: 6034 7e3d 5d82 31bd 70f9 c63d acc0 e43b
00000130: 60dc 77bd 72a2 f83b 9e8f 183c 62b6 5ebc
00000140: f0c0 9fbd bd93 6bbd dd85 723d ab20 df3d
00000150: ee6d e33d 27b0 a73d de83 193c 7218 583c
00000160: 0054 d6bb c71a d03b 1d21 9dbc 20b1 553d
00000170: d26a 4cbd 4954 c13d 725a d13c 72cc 38bd
00000180: d29d 6ebd 1958 05bd 92a5 18bd a779 6dbd
00000190: 34b6 4abd 9e74 c13d 47f5 a43d 00aa cebd
000001a0: b250 c5bd 600e bebd e47c 6bbd 19c2 9bbd
000001b0: d945 b33d 7d6e d5bd e4c2 5a3b c9e4 8b3d
000001c0: a259 9dbb 393a 273d f28a 5fbd 4508 b53d
000001d0: 7244 acbd 8ee3 c13b 7f21 c3bc c74a cabd
000001e0: ab44 2a3d 1261 a33b c497 0abd 52f5 9c3d
000001f0: 8e19 383d cb10 a0bd 29c3 b8bd c0d9 93bc
00000200: 5985 0f3d f5dc 7d3d 82dc cfbb fe51 d43d
00000210: 87a7 703d 59ac cfbd 0db8 ca3d 6d93 c4bd
00000220: 8e1f 493c 5922 8d3d a70b 323d 0457 6bbd
00000230: 0fb7 273c 3530 423d e41d b73c 36b6 66bb
00000240: 96ce 533c b51f 453d c7bf 6b3b f2e0 bc3d
00000250: a4d9 d4bc 2d94 bc3c e464 7ebc 8b3e 433d
00000260: 84b6 ba3d f4a6 ab3c 4d2f c23d fb48 a73b
00000270: 5514 9e3c 198d 5fbd b9b1 82bc 39c2 84bc
00000280: 9586 9dbd e0e9 7cbd 0a33 7837 fe30 b7bd
00000290: 75bd 40bd 07ab b9bc d21d 4e3d 958e 323d
000002a0: bec8 dfbd 3754 96bd a4c9 e2bd 97ca 97bd
000002b0: 642f b73c b5be 1d3d 20ac 093d c529 8f3b
000002c0: 675b 1c3d d23e 4dbd 929b 89bd abcb 7f3c
000002d0: 1d1e 31bd 9ef2 a9bd 29af d13d c017 46bd
000002e0: e73c cd3d 1dee 343d 35d8 583d 95b6 30bd
000002f0: e05a 2a3d 898d c9bd 8e06 e0bb e446 abbc
00000300: a515 833d 8de3 a0bb 4763 c5bc 0b55 5bbd
00000310: a5b6 943d e0d1 de3d 298a c6bd e0c2 5cbd
00000320: b95b 44bd 8009 963d 0eda 1b3d 5218 1bbd
00000330: 4e0f adbd 048e bc3d 75a2 82bd fda6 b8bd
00000340: 725c 77bb 3e48 9fbd a0fd 7f3d eb63 71bd
00000350: 6720 6bbd bb26 dfbd ee91 143d 806c e0bd
00000360: eea3 d4bd 5595 73ba 42a4 78bb 8e98 0dbd
00000370: 2427 2abd ae56 cebd 9003 ce3d 54e2 e2bd
00000380: c4e9 473d d642 073b 4719 e23d dde2 443d
00000390: 0c59 6e3b 4070 7c3d 7e01 9abd 67d1 7ebd
000003a0: 9914 75bd 5950 ac3d 94ee d8bd d206 37bd
000003b0: 97b1 34bb 951f 44bd fd6c cebd d560 c03c
000003c0: dd29 77bd dd02 d63d ce48 2dbd 1d25 62bd
000003d0: 0bbf 53bc 6bf9 63bd 6402 25bd 1df1 56bc
000003e0: dd53 b53d 7885 c4bb 39b2 2d3d 95c4 c93c
000003f0: cbd3 693d 1771 8abb 8a62 7ebd 1c9f cb3d

policy_net.1.bias f4 [81]
-0.10861036 0.0035762794 0.055247255 0.0059609357 -0.025887635 0.09049156 0.085027285 -0.030351749
0.09085555 0.094539605 0.09452178 0.07131356 -0.045496866 0.023655044 -0.06771488 -0.04194967
-0.06070775 -0.01976894 -0.010856588 -0.017206516 -0.07557584 0.10491848 0.025059406 -0.015366903
-0.0644233 0.077573776 0.04862168 0.09670466 0.040573098 -0.04465209 -0.038122896 -0.070494264
-0.045542724 0.044480056 0.035926178 0.11108084 0.09350337 -0.072748184 0.017068503 0.05102371
-0.0019261941 0.024475433 -0.033031397 -0.087378226 0.07336507 -0.1092341 0.019955596 0.06421787
-0.023957409 -0.013732159 -0.058068983 -0.042215314 -0.04005317 0.08808232 0.026027022 -0.10353751
-0.09914003 0.09769558 0.053368025 -0.09684157 -0.0646353 0.092143394 0.09491563 0.015435351
0.027488085 0.060087457 0.0446284 -0.015613216 0.06329134 0.043581985 0.050882466 0.060935907
-0.045305192 0.10621418 -0.009423672 0.06829773 0.10540502 -0.06299128 -0.017075062 -0.056687646
-0.053340632
00000000: 1c6f debd 0360 6a3b f24a 623d f453 c33b
00000010: 4e12 d4bc a453 b93d c922 ae3d 3ba4 f8bc
00000020: 7912 ba3d fb9d c13d a394 c13d d80c 923d
00000030: ec5a 3abd 39c8 c13c 19ae 8abd 6bd3 2bbd
00000040: b1a8 78bd 79f2 a1bc d5df 31bc aef4 8cbc
00000050: 82c7 9abd 80df d63d 6249 cd3c 76c5 7bbc
00000060: 5df0 83bd 00df 9e3d 8727 473d 180d c63d
00000070: fa2f 263d 1ce5 36bd c126 1cbd 4c5f 90bd
00000080: 028b 3abd b830 363d 5427 133d 5a7e e33d
00000090: b27e bf3d 00fd 94bd 3fd3 8b3c 3dfe 503d
000000a0: 5978 fcba b480 c83c ee4b 07bd 5bf3 b2bd
000000b0: 6d40 963d 21b6 dfbd eb79 a33c a984 833d
000000c0: 5442 c4bc d9fc 60bc bed9 6dbd f7e9 2cbd
000000d0: cb0e 24bd 8164 b43d 9f36 d53c 790b d4bd
000000e0: ee09 cbbd 9f14 c83d 6e98 5a3d e054 c6bd
000000f0: 835f 84bd adb5 bc3d 2063 c23d 8ee4 7c3c
00000100: b12e e13c 441e 763d 45cc 363d 93ce 7fbc
00000110: e49e 813d 0683 323d 226a 503d ee97 793d
00000120: f091 39bd d286 d93d bf65 1abc aedf 8b3d
00000130: 96de d73d 9201 81bd 00e1 8bbc 4e31 68bd
00000140: b57b 5abd
