scripts/models/602/34/3/qModel.pth (torch, 264307 bytes, 11 tensors)

value_net.0.input_layer.weight f4 [96, 128]
000000 ef 0c 41 3d d6 0f 7c ba 08 7c 50 3d 67 63 ff 3c
       0.047131475 -0.0009615397 0.050899535 0.031175328
000010 07 5b 51 bd 5d 90 93 bd 8f 1b 04 bd 2b 24 85 bc
       -0.0511122 -0.072052695 -0.032252844 -0.016252598
000020 97 82 87 3c 15 1f 7e 3d 24 e4 0f 3d 13 3e 89 3d
       0.016541762 0.06204136 0.03512968 0.06701293
000030 1c 4c 64 bd ab 45 7d 3d 0c bb 93 3d 22 f8 1f bc
       -0.055736646 0.06183402 0.07213411 -0.009763749
000040 37 a0 44 bc aa 14 7e 3d 00 75 a3 3c bd ab 50 3d
       -0.012001089 0.062031426 0.01995325 0.050945032
000050 93 fd a6 bc 44 ae 5d bd ff 30 24 3d c6 93 19 ba
       -0.020384585 -0.05412127 0.04008579 -0.0005858507
000060 54 01 fc bc 79 b9 91 3b 40 45 79 bd b9 71 99 3b
       -0.030762352 0.004447159 -0.060857058 0.0046827463
000070 dc a2 f2 3c ef aa 5d bd 3c f0 fd bc e4 c0 33 3c
       0.029618673 -0.054118093 -0.030998342 0.010971282
000080 33 c0 84 3d 60 e0 97 3d a3 ae 64 3d e7 86 bc bd
       0.064819716 0.07415843 0.05583061 -0.09205418
000090 50 29 2a 3c 32 86 5b 3c 0b 3a c5 bc 49 a4 9b bd
       0.010385826 0.013398694 -0.024075529 -0.07599694
0000a0 19 bd 8a bd 9f 8b 42 bd ed 72 87 bd d2 27 22 3d
       -0.06774349 -0.047496434 -0.06613717 0.039588757
0000b0 49 69 84 bd f6 91 fa 3c 65 ac 65 3c 8d 2b af bd
       -0.06465394 0.030587178 0.014018153 -0.085532285
0000c0 3c e7 86 3d 65 5b e8 3c ce bb c2 bd 50 29 23 bd
       0.06587073 0.028363893 -0.09508477 -0.03983432
0000d0 c8 e7 9b bd a6 24 0c bd 5f 5f 1c 3d 89 34 34 3c
       -0.07612568 -0.03421464 0.03817689 0.0109988535
0000e0 9d 80 65 3d 0e 37 68 3c 21 37 8d bd 1f 03 1b bd
       0.05603086 0.014173282 -0.06895281 -0.037844773
0000f0 48 85 d5 3c 1b 22 a6 3d e8 c5 09 3a 74 40 53 bc
       0.02606453 0.08111974 0.00052556256 -0.012893785
000100 19 04 94 3d 62 98 b8 bd 28 65 d8 bb a3 0d 3c bd
       0.07227344 -0.0901344 -0.0066038556 -0.045911442
000110 9d 6a 32 3d aa e9 8c bc fe c3 f1 3b 81 49 14 3c
       0.043558706 -0.017201263 0.0073781004 0.009050728
000120 6c 81 5b bc 0c 06 52 3d fd cb 37 bc cc 17 97 bd
       -0.013397556 0.051275298 -0.011218068 -0.07377586
000130 25 04 0e 3c 86 34 93 bd 3b 23 9c 3a 14 74 44 bd
       0.00866798 -0.071877524 0.0011912355 -0.047962263
000140 53 76 5a bc 15 b3 7c bd 3a c2 a7 bd ba 4a 4d bd
       -0.013333875 -0.061694223 -0.08191343 -0.050120093
000150 05 8a 01 bd e0 62 7e bc d8 ab d1 3c bc c8 83 3d
       -0.031625766 -0.015526503 0.025594637 0.064347714
000160 65 e2 02 3d d0 04 b2 b9 a6 f1 29 bd 38 a0 9e bd
       0.031954188 -0.0003395439 -0.04149022 -0.07745403
000170 e4 0d c4 bb 94 1c 91 3d 00 17 20 3d 5b 50 1d 3d
       -0.005983101 0.07085529 0.039084435 0.03840671
000180 ac 5e b1 bd 6b 5e 3e bc 13 ff af bc 5b 6a a8 3c
       -0.08660635 -0.011619191 -0.021483934 0.020558527
000190 82 d2 2f 3c ba 76 a2 3d b9 5a 70 3c 32 10 5c bd
       0.010731341 0.079328015 0.0146700675 -0.053726383
0001a0 9d a9 93 3d ee ee a0 bd 19 b9 a3 bd e3 1c 90 3d
       0.072100855 -0.07858072 -0.07994289 0.0703676
0001b0 d7 d2 e6 3b 59 54 e6 bc bb 19 9b bd e1 70 9b 3b
       0.007044177 -0.028116392 -0.07573267 0.004743681
0001c0 bd 24 a0 3b 2b 27 65 bd d5 a8 b2 3c 65 39 50 bd
       0.004887192 -0.055945557 0.021809021 -0.050835986
0001d0 78 5e df bb 05 bc 3b 3d 27 1b af bc e9 00 29 3d
       -0.0068166815 0.045833606 -0.021375252 0.041260634
0001e0 dc ff 67 3b e4 2b 94 3d e2 77 9c 3c a3 91 01 3c
       0.0035400307 0.07234934 0.019100133 0.007908258
0001f0 47 14 12 bd 86 72 15 3c 4a 5d 1a 3d 7f 1c 8f bd
       -0.03566387 0.009121543 0.037686624 -0.06987857
000200 a5 e3 8f bd 0d 10 3b 3c d0 09 35 b9 84 e8 ba 3c
       -0.070258416 0.011417401 -0.0001726516 0.02281595
000210 33 68 8a bd a8 22 83 3d cf db a7 3d 01 83 80 3d
       -0.06758156 0.064030945 0.08196222 0.06274987
000220 ed f5 05 bd a1 70 30 bd 81 9c 27 3d 51 7c 77 bd
       -0.032705236 -0.04307616 0.040920738 -0.06042129
000230 f3 1e ee bb 2b 87 18 bd 52 03 6c bd d9 4e 25 bd
       -0.007266873 -0.03723828 -0.057620354 -0.040358398
000240 2d 47 10 bd 06 63 4e bc 54 65 94 3c 99 3c 12 3d
       -0.03522413 -0.012596851 0.018114723 0.03570232
000250 79 8f 19 bc b6 84 18 3c 31 11 9f 3d 4d 3c 8f 3c
       -0.009372585 0.0093089845 0.07766951 0.017484808
000260 44 1a ce 3d 53 d0 cf bc 3f 66 2a 3d 04 d2 02 bd
       0.100636035 -0.025367891 0.041601416 -0.031938568
000270 dd 79 67 bd d2 c0 ff bc 05 e7 6e 3d ef ba bd bc
       -0.056512702 -0.031219874 0.058325786 -0.023160426
000280 76 48 94 bd a6 7e 51 bd 1e cb a9 3d d1 62 a0 bc
       -0.07240383 -0.051146172 0.08290695 -0.01957837
000290 87 97 31 3d 4f 1d a1 bc 51 1d 89 bd 7e ed 37 bd
       0.0433574 -0.019667296 -0.06695045 -0.044904225
0002a0 a4 61 71 bd 70 00 19 3d c4 e6 37 3c c6 78 2d bc
       -0.058931008 0.037353933 0.011224452 -0.010587877
0002b0 81 43 f4 3c a1 93 6a bd 21 08 d7 bb 34 b4 b1 3c
       0.029817345 -0.057269696 -0.0065622483 0.021692373
0002c0 79 56 d0 bb 57 4a a0 3d cc 0f 96 3a 5e de ad 3d
       -0.0063579646 0.07826679 0.00114488 0.08489679
0002d0 fc 32 8c bd fd 9a 8c 3c 55 90 ef b7 30 31 51 bd
       -0.06845662 0.017163748 -2.855823e-05 -0.0510723
0002e0 42 fa 1a bd c4 9d 2e bc c9 be 96 bd 42 44 04 3d
       -0.03783632 -0.010657731 -0.07360608 0.03229166
0002f0 5e b3 99 bc 43 cd 8c bd 33 5d cb 3a 20 13 d1 bc
       -0.018762287 -0.06875088 0.0015515446 -0.025521815
000300 58 da 9e bd 09 01 9b 3d 6c 48 5e bd af 14 ab 3c
       -0.077564895 0.07568557 -0.054268286 0.020883886
000310 ed 16 f7 3b c5 24 c0 bb b9 e0 50 bd 77 20 86 3d
       0.0075405748 -0.0058637583 -0.050995562 0.06549161
000320 c9 12 73 bc f6 bb ca 3b fc 92 b7 bc f0 ef d6 3c
       -0.014836022 0.0061869575 -0.022408955 0.026237458
000330 66 15 b6 3d a4 29 40 bd b1 ee 23 3d 2a df 5b bd
       0.088908 -0.04691471 0.040022556 -0.053679623
000340 5a 72 f3 bc bc ff 33 3d 53 31 8d 3d 02 60 a8 3d
       -0.029717613 0.04394506 0.068941735 0.08221437
000350 69 97 83 3d b3 e9 03 3d 8a 96 83 3d ca 3a 94 3a
       0.064253636 0.032205295 0.064251974 0.0011309024
000360 a1 60 7e 3d 23 0c 2a bd d4 6d 96 bd 10 97 a0 3d
       0.06210387 -0.04151548 -0.07345167 0.07841313
000370 eb 6c 9c 3d 67 c4 ab 3d 8d 6a 84 3d 4f e0 87 3b
       0.07637962 0.0838707 0.064656354 0.0041466127
000380 52 e2 98 bd aa 84 31 bd d1 e9 ad 3c 70 c0 7a 3d
       -0.07465042 -0.04333941 0.021229656 0.06121868
000390 2b f7 e2 bc 86 2c 59 3d 86 af c7 3b 8b dd a0 bc
       -0.02770575 0.053020976 0.006093922 -0.01963689
0003a0 e5 1a 7a 3c 21 68 97 3d d9 a0 d9 3c 86 30 b8 bd
       0.015265201 0.07392908 0.026565956 -0.0899363
0003b0 45 36 4d bd cd 77 49 3d 2d 3e 95 3d 83 b7 b1 3d
       -0.050100584 0.049186517 0.0728725 0.0867758
0003c0 aa b1 43 3a 8e aa 45 3d 3d 75 7f bd 5b 31 59 bd
       0.00074651337 0.048258357 -0.062367667 -0.053025585
0003d0 fb 0b d5 bc 9f 2c 91 bd 57 aa 80 bd d3 ee 05 bc
       -0.02600669 -0.07088589 -0.0628249 -0.008174616
0003e0 75 59 bf 3b 57 15 fe 3c f2 dd bb bc b2 d1 88 bd
       0.0058395215 0.031016035 -0.02293298 -0.06680621
0003f0 24 63 e4 3c 81 fc e4 bc 12 8c b7 bd 2f 43 09 bd
       0.027879305 -0.027952434 -0.08962263 -0.033511337

value_net.0.input_layer.bias f4 [96]
000000 83 26 aa 3c 9e 1e d4 3c 09 6d 79 bd fa 59 8c bd
       0.020770317 0.025893506 -0.060895 -0.06853099
000010 55 31 87 bc 7d 0e 9c bc 1a 1b 01 3d 02 64 ed 3a
       -0.016503016 -0.019049877 0.031519987 0.001811147
000020 30 a6 9f bc d4 b2 8c 3d 90 a6 48 3d 14 a3 70 3c
       -0.019488424 0.06870046 0.04898697 0.014687318
000030 7d 9c 71 3d fd 65 8c 3d e5 95 fe bc fa 16 a3 bd
       0.05898713 0.0685539 -0.031077335 -0.07963367
000040 b7 02 ef bc e2 db b7 bd 71 58 80 3d b1 33 9a 3c
       -0.0291761 -0.08977486 0.06266869 0.018823477
000050 aa dd 27 3c 53 34 e2 3c a1 a7 07 3d 5f e5 33 3d
       0.01024572 0.02761284 0.033118848 0.043919917
000060 45 a1 4c bd b6 3f 02 3b b0 78 6a bb f3 37 e0 bb
       -0.049958486 0.00198744 -0.0035777502 -0.006842607
000070 e5 c4 2d bc 05 ff 01 bc 5b 7d 0d 3d 54 ad d7 bc
       -0.010606025 -0.007934337 0.034543376 -0.026327766
000080 e3 1f 4a bd db 81 fa bc 9d fd a8 3d 4e da 8b bc
       -0.049346816 -0.030579498 0.08251498 -0.01707187
000090 86 5a af bd 83 c3 1c bb ea 6f 6c bc 6c 90 98 3d
       -0.08562188 -0.0023920245 -0.014430979 0.07449421
0000a0 bc 17 a0 3d e3 38 e3 3b 75 79 b9 bd b8 12 9f 3d
       0.07817027 0.0069342717 -0.09056369 0.07767242
0000b0 5a 03 29 3d de 67 a0 bd d5 ff 91 3d 01 42 7e bb
       0.041262962 -0.07832311 0.07128874 -0.0038796666
0000c0 d7 b9 a1 bd 59 11 b1 bd 01 be d3 3c b9 32 69 3d
       -0.07896774 -0.08645887 0.025847437 0.05693314
0000d0 9b 8b 76 3d 2d 9c 87 bb fe e4 79 3c 0d 4d 14 3d
       0.060191732 -0.0041384907 0.01525235 0.036206294
0000e0 8a 8d 3f 3d 1e 6c 01 bd fa cc 7e bd d5 17 f8 3c
       0.04676584 -0.03159725 -0.0622072 0.030284801
0000f0 da 76 ff bc 68 4d 5f 3d 48 0c 17 3d 8b a7 0a 3d
       -0.031184603 0.05451718 0.036876947 0.033851188
000100 17 5e 1b bd a4 e1 a2 bd 68 af 5a bc 03 de 0f 3d
       -0.037931528 -0.07953194 -0.013347484 0.035123836
000110 d0 56 30 3c b1 29 61 bd c4 17 46 bd 34 95 11 3d
       0.010762885 -0.0549714 -0.04836251 0.03554268
000120 5d cb 50 3d 99 8e 05 3d ae 07 a3 bc 5f 17 e4 3c
       0.050975192 0.032606695 -0.019901123 0.027843175
000130 9d c3 8d bc 9f fc 5a bd 8b 86 00 bd a6 ca b6 bc
       -0.01730519 -0.053463574 -0.03137831 -0.022313427
000140 1c d6 8d 3d 22 af b1 bc c0 e9 00 bd f4 f5 a8 3d
       0.06925604 -0.021689955 -0.03147292 0.08250037
000150 5e de 37 3d 03 5a 21 3c 97 37 77 bd 81 82 b9 bd
       0.0448898 0.009848121 -0.06035575 -0.09058095
000160 ce 21 66 bd 6b bc 0d 3d 32 01 79 bc 34 0d bd 3b
       -0.056184582 0.034603518 -0.015198039 0.005769396
000170 94 74 ab bd 00 06 b7 bd 0f 98 98 bd 62 24 e7 3c
       -0.08371845 -0.08936691 -0.07450878 0.02821559

value_net.0.output_layer.weight f4 [96, 96]
000000 7d 8d d4 3b 30 63 d1 3c 29 e3 bc 3c 10 bd a7 bd
       0.0064865933 0.025559992 0.023057537 -0.08190358
000010 19 13 73 bd 36 bb aa 3d 36 d3 65 3d 94 46 bc 3d
       -0.059344385 0.08336489 0.05610963 0.09193149
000020 85 19 f6 3c a1 28 64 bd 6e 41 e9 bc 88 44 03 3d
       0.030041466 -0.05570281 -0.028473582 0.03204778
000030 29 36 88 3d 04 3a bb 3d d0 c6 af bd cc c1 8b bd
       0.06650955 0.09141925 -0.08582842 -0.06824073
000040 62 21 1e 3d 0b e4 e4 3b ae 9c 72 3b 9d ad 0b bd
       0.038606055 0.0069851927 0.0037019658 -0.034101117
000050 38 e8 8a bd 42 2d c2 bc 3b c6 91 bd 29 4c d3 3c
       -0.067825735 -0.023703221 -0.071178876 0.025793152
000060 73 93 63 bd 33 03 3d 3d 52 d8 5f bc a2 e7 41 3d
       -0.05556054 0.04614563 -0.013662415 0.047340043
000070 b1 72 ab 3d 0e fe 20 3c be b9 81 3c 71 00 b6 bd
       0.08371485 0.009826196 0.01583564 -0.08886803
000080 9f f7 96 3d 94 41 83 bd 35 3c ed 3c ba e6 20 3b
       0.07371449 -0.064089924 0.028959373 0.0024551586
000090 68 69 b9 bc e2 7f 14 3d 48 c7 bd bd 9b 92 81 bc
       -0.02263327 0.03625477 -0.092665255 -0.015816977
0000a0 ed ff bf bd ec cf 07 3d 3d cb 3b bd 24 45 b0 3d
       -0.09374986 0.033157274 -0.04584812 0.086069375
0000b0 a3 65 bd bc ef 24 8f bd 79 28 f0 3c b2 82 a0 3d
       -0.023119753 -0.069894664 0.029316174 0.07837428
0000c0 8a 5f d1 3c 7b 2f c3 3c 8a 91 95 bc f8 83 89 bd
       0.025558252 0.023826351 -0.018257875 -0.06714624
0000d0 9f 29 82 bc 88 c8 a4 3d a9 66 68 3d cc 8f 07 bd
       -0.015888987 0.08046061 0.05673853 -0.03309612
0000e0 51 cf cc 3d 0a 2d 88 bd 6e 32 9b 3c a3 ed fb 3c
       0.1000048 -0.066492155 0.018944945 0.030752962
0000f0 57 3b 57 3d 66 5a 9b bc 3d f9 25 bd f9 a5 c5 bd
       0.052546825 -0.018964004 -0.040520895 -0.096507974
000100 68 dc 7d 3d 20 43 81 3d 7d f9 1d 3d b4 4b d4 bc
       0.061977774 0.06311631 0.03856801 -0.025915004
000110 2a b1 8e 3d 4f b8 d6 bd 73 a9 fb 3a 79 58 03 bd
       0.06967385 -0.10484373 0.001920028 -0.032066796
000120 7a bc 63 3d a4 23 8e bd ba 19 0c 3d c0 c0 fa bc
       0.055599667 -0.06940392 0.034204222 -0.030609488
000130 83 e7 88 bd 56 f8 21 3c 3f 71 67 bd a5 af 90 3d
       -0.06684782 0.009885868 -0.056504484 0.070647515
000140 d0 68 85 3d 1b 31 e6 bc 47 c2 42 bc 99 a8 b3 3d
       0.06514132 -0.028099587 -0.01188714 0.08772392
000150 58 7a f4 3c 6e d8 c5 3b 92 dd 4a bc 22 1e f5 3b
       0.029843494 0.0060377633 -0.012381928 0.0074803988
000160 2f 6b 99 bd 52 b1 28 bd 21 01 ca 3d b0 4f 10 3c
       -0.07491147 -0.04118473 0.098634966 0.0088080615
000170 03 5a b7 bd b9 57 d2 bd 70 95 9e bb ea 0e 34 bc
       -0.08952715 -0.10270638 -0.0048395917 -0.010989884
000180 e7 00 96 bd cc 61 0f 3d 4a 38 8c 3c 6b 45 89 3c
       -0.07324391 0.035005376 0.017116684 0.016756734
000190 a0 a4 c8 bd 83 e6 48 ba d5 b4 a7 bd ea d0 37 bd
       -0.09797025 -0.00076637435 -0.08188788 -0.04487697
0001a0 55 13 e0 3c 27 0c 5a bb d8 be 49 bc b4 e4 3c 3d
       0.027352968 -0.0033271404 -0.012313567 0.046116546
0001b0 e1 35 1d bd f8 57 7a bd 64 52 89 bd c8 b5 c2 3d
       -0.03838146 -0.06111905 -0.06705168 0.09507328
0001c0 63 7f 98 bd 87 46 a4 bd 4e 90 17 bd 84 f7 c4 bb
       -0.07446172 -0.080212645 -0.037002854 -0.0060109515
0001d0 8b fc 37 3d d8 51 88 bd d3 7d f6 bc 60 50 b3 bd
       0.044918578 -0.066562355 -0.030089295 -0.08755565
0001e0 cb b4 31 bd 83 23 ba bd d8 74 59 bd 1b 1b a3 bd
       -0.04338531 -0.090888046 -0.053089947 -0.07964154
0001f0 22 68 8d 3d 3e a9 a7 3d d9 73 92 3d 5c 84 d3 bd
       0.069046274 0.08186577 0.071510024 -0.1032798
000200 c6 82 4d bd cd 6b 99 bd ce 09 c6 3d 52 7e 0e 3d
       -0.050173543 -0.074912645 0.09669839 0.034788437
000210 d4 7a ae bd 19 74 bf 3c 45 98 75 3c dd 09 cb 3d
       -0.08519521 0.02337079 0.014989917 0.09913991
000220 06 b1 f2 bc 76 73 15 bc 0d c0 1b 3d 40 35 22 3d
       -0.029625427 -0.009121766 0.03802495 0.039601564
000230 6c 63 4b 3d a7 79 2f 3d e7 f6 bf 3d 3f d8 fa bc
       0.049655363 0.042840626 0.09373265 -0.030620692
000240 7d bf c4 bd 58 e2 0a bd a8 e6 87 3d 6f 9a 1b 3d
       -0.09606836 -0.033907264 0.06635791 0.037989076
000250 5a be 56 bc e7 7f 66 3d 1e 71 d4 bc 39 17 af bd
       -0.013106907 0.05627432 -0.025932845 -0.08549351
000260 bf 7a 54 3d 71 d5 4f 3d 88 bb 0b 3d 45 28 53 bd
       0.051874872 0.050740663 0.03411439 -0.051552076
000270 82 de 56 bd e4 2b b3 3d 64 60 99 3d 3d 80 59 3d
       -0.052458294 0.08748606 0.07489088 0.053100813
000280 32 42 a2 3d 0a ea cb bd 36 ce af 3d c5 62 d4 bd
       0.07922782 -0.09956749 0.085842535 -0.10370401
000290 f2 46 87 bd 5f 58 a1 bc e3 41 98 bd 8b cd 01 3d
       -0.066053286 -0.019695459 -0.07434442 0.03169016
0002a0 95 2d 9e 3d 6f b3 0b bd 4d d6 83 3c 97 03 40 bd
       0.07723538 -0.034106668 0.016093398 -0.046878424
0002b0 c5 56 13 3a ae 16 63 3d 34 fe 20 3d 29 ea b0 bd
       0.00056205346 0.05544155 0.039304927 -0.086384125
0002c0 1b 87 6c 3c bd 0a ca bd f4 a9 3a bc 8a 13 4e 3c
       0.0144365085 -0.098653294 -0.011393059 0.012577901
0002d0 b5 80 39 bd 54 2b 2c 3d e9 63 d6 bd 40 54 c7 bd
       -0.04528876 0.04203351 -0.10468275 -0.09732866
0002e0 5e cb 93 bd 81 4a 27 3c 6d 3d 72 bd ff 24 b7 3b
       -0.072165236 0.010210634 -0.05914061 0.005589127
0002f0 22 72 40 3d 90 d6 09 3d e7 09 a3 bc 59 8a 8f 3b
       0.046983846 0.03365189 -0.019902183 0.004380506
000300 f1 4e 43 bd bb fd c9 bd f3 eb c1 3d 87 e8 a1 3c
       -0.047682706 -0.09862848 0.09468832 0.019764198
000310 c8 32 ce 3d 22 e9 94 bd 19 66 37 3d e1 6c 00 bc
       0.100682795 -0.07271029 0.044775102 -0.007838459
000320 0d cd 90 bd 48 33 95 bd 27 51 ee bc d7 c7 f5 b9
       -0.0707036 -0.07285172 -0.02909143 -0.00046878934
000330 fc b2 d6 bd 9f 64 4b bd 98 28 4c bc 9a 11 b1 3d
       -0.10483357 -0.049656507 -0.01246085 0.08645935
000340 87 ab f2 bc 77 c7 13 3c 9c 4d 7f bd d4 7c b7 3c
       -0.029622806 0.009019724 -0.062329873 0.02239839
000350 83 43 a3 bd 06 fc a2 bc 57 82 53 bc c0 52 af bd
       -0.07971861 -0.019895565 -0.012909493 -0.08560705
000360 63 dc e4 3d 24 0c d7 3d e9 16 c7 bd c6 60 24 3d
       0.11174848 0.105003625 -0.09721167 0.040131353
000370 87 dd c5 bd 32 e3 80 bd 98 8d 43 3d fe cf ba bd
       -0.096613936 -0.06293334 0.047742456 -0.091217026
000380 a9 08 75 3d 23 e7 0f bc 34 bc bc 3d a7 dd b5 bc
       0.059822712 -0.008783135 0.092155844 -0.022200419
000390 ca af 94 3d f2 c8 a1 bd c7 f1 83 3c 42 ef b0 bc
       0.072600916 -0.078996554 0.0161065 -0.021598462
0003a0 bd 4e b5 bd ec 95 9d bd 6b 22 0f 3d 4b b3 e4 3c
       -0.08852909 -0.07694611 0.034944933 0.027917525
0003b0 a4 d6 a4 3d e6 86 5d 3d 5f fe 96 bc 00 a2 26 bd
       0.08048752 0.054083727 -0.01843184 -0.04068184
0003c0 c2 d5 06 ba 0c a7 f0 3c 9c e9 90 bd b6 08 ea bc
       -0.0005143547 0.02937653 -0.070758075 -0.028568607
0003d0 9a a2 b1 bd 53 4e 1f 3d 58 61 10 bd 10 61 8f bd
       -0.08673592 0.038893055 -0.035249084 -0.07000935
0003e0 fa a0 81 bd ef dc 73 bd b8 bb 9a 3d b3 16 2e 3b
       -0.06329532 -0.05953687 0.07555336 0.0026563823
0003f0 6b 4f ab bc f8 d9 85 bd e3 f8 da 3c 3b ed 98 3d
       -0.020911893 -0.06535715 0.026730007 0.07467123

value_net.0.output_layer.bias f4 [96]
000000 a8 f0 42 bc 4c ee fe bc 88 05 b8 bd c1 8d 0a bc
       -0.011898197 -0.031119488 -0.0898543 -0.008456648
000010 b0 c1 5c 3d fa 4c f1 ba 85 a0 d8 3c f7 59 a7 3c
       0.053895652 -0.0018409782 0.02644373 0.02042864
000020 f9 ed 89 3b 5c fe 6e 3d 3e aa ad 3c 53 e4 af 3d
       0.0042092768 0.058348045 0.021199342 0.08588471
000030 4c 00 a1 bd 0f ab b9 bb 31 a9 ae bd a4 ad 83 bd
       -0.07861385 -0.0056661437 -0.085283644 -0.06429604
000040 4d ae ca bb 8e 1a 0b bb c6 08 df bc 13 15 4c bd
       -0.006185329 -0.0021225545 -0.027225863 -0.049824785
000050 8b 69 cc bd 5f 2b eb bd ac e5 05 bb 6e 41 a8 3d
       -0.09981068 -0.11482882 -0.0020431085 0.08215605
000060 73 0e a6 ba cc fe 36 bd 4c ef 68 3d b5 e6 e8 3c
       -0.0012669101 -0.044676587 0.056868836 0.028430322
000070 f8 9c df 3d 51 0f de bb 2b ce 3b bd 56 18 82 3c
       0.10918611 -0.006776728 -0.045850914 0.015880745
000080 fe b6 6d bc 02 8d dd 3c 5e 6a d9 3c f8 5b b8 bd
       -0.014508961 0.027044777 0.026539978 -0.09001917
000090 9c c6 bc bc 34 51 ad bc ec d7 aa 3d 17 b0 73 bd
       -0.023043923 -0.021156885 0.08341965 -0.059494104
0000a0 ea 17 da bd 9e 99 4a bc 82 11 99 3d 43 48 65 bb
       -0.106490925 -0.012365727 0.074740425 -0.0034985698
0000b0 e3 3b 59 bd c4 1e e2 bb a5 97 35 3d 7b 53 ac 3d
       -0.053035628 -0.00690064 0.044334073 0.0841436
0000c0 55 5c b3 3d 5d 30 70 bc 66 ff 10 bd 26 1a c4 bc
       0.08757845 -0.014659968 -0.035399817 -0.02393825
0000d0 1f 75 7f 3d 34 ef 77 bd 32 f0 34 3d fb d3 c8 bb
       0.062367555 -0.060530856 0.04417438 -0.0061287857
0000e0 2f 4d 01 bc 19 67 57 3d c3 d3 b0 3d 6a 43 54 bd
       -0.007891937 0.052588556 0.0863414 -0.051822104
0000f0 7a 96 bb bd 29 11 b0 bd 42 79 09 3c e6 8f 31 3d
       -0.091595605 -0.08597023 0.0083907265 0.043350123
000100 63 44 90 3c d1 75 9c 3c a3 9d 88 3d 48 1e dd 3c
       0.017610734 0.019099148 0.06670692 0.026991978
000110 85 e1 06 bd f3 e6 63 bd 6b 62 aa 3d 11 d6 af bd
       -0.032929916 -0.055640172 0.08319553 -0.08585752
000120 49 bc 64 bd d7 19 b6 3d cb 42 6d 3d 5d 3c 9f bd
       -0.055843625 0.08891647 0.057925027 -0.07775185
000130 24 3e b2 3b 48 c6 2c bb 87 47 ea 3c ba 13 b7 bd
       0.0054395366 -0.0026363302 0.02859856 -0.089393094
000140 21 0c b0 bd e3 36 4f 3d 6e df 5f bc 43 e5 b3 bd
       -0.085960634 0.050589453 -0.01366411 -0.087839626
000150 40 e9 ae 3b a0 65 61 3d 39 ba 2c 3d 56 7f db bd
       0.005337864 0.055028558 0.042169783 -0.10717647
000160 dd 27 28 3d 2a 84 8b bd d3 96 95 3d 6b fe d3 bc
       0.04105364 -0.06812318 0.07304158 -0.025878152
000170 ee af 50 bc ea 82 60 3d 1d 06 85 bd 7c ca c7 bd
       -0.012737257 0.05481235 -0.06495307 -0.09755418

value_net.0.attention.in_proj_weight f4 [288, 96]
000000 62 3f a8 bd bb 33 29 bb 96 25 98 3d c9 09 17 bd
       -0.08215214 -0.0025818187 0.07429044 -0.036874566
000010 43 92 bd bd 29 75 7e 3c 38 b2 80 bd 00 88 f6 bd
       -0.09256413 0.015530863 -0.062839925 -0.12037659
000020 ec 88 6c bd 40 81 6c 3d bc 00 f3 bd 67 ba 97 3d
       -0.057747766 0.05774045 -0.118653744 0.074086
000030 bc 6c 96 bd 5c fc d1 bd d5 81 2b bd 5a 2f 13 bd
       -0.07344958 -0.10253212 -0.041871864 -0.03593383
000040 1d 51 e3 3c 03 ce bd 3d 30 b5 c4 3d 42 b4 84 3c
       0.027748639 0.09267809 0.09604871 0.016199235
000050 7a 9a a5 bc cd 5b 9e 3d 6b ad d9 bd a9 64 9b 3d
       -0.020215262 0.07732353 -0.1062878 0.07587559
000060 7d 2b c0 3d 76 ed 74 3b 5e cb 69 bd 9e 4c ac bd
       0.09383295 0.0037372983 -0.05707871 -0.08413051
000070 76 0f c7 bc 93 c8 ed 3d de c6 17 bc 89 cc a6 3d
       -0.024299365 0.11610522 -0.009263722 0.08144481
000080 52 6f 8f 3d b6 22 c5 bd f0 56 8d bb 8e 13 af bd
       0.070036545 -0.09625761 -0.0043133423 -0.08548652
000090 d7 3d f0 bc 42 cb 96 bd 14 a1 bf bd 15 cd b3 3d
       -0.029326363 -0.07362987 -0.09356895 0.08779351
0000a0 5f 6a 9f 3d 8e 93 e0 bd 5f 10 ca 3d c4 5e ce bd
       0.077839606 -0.10965644 0.09866404 -0.10076669
0000b0 85 ec ed 3d db f0 a0 3d ef 3d 20 3d be 7c 80 3d
       0.11617378 0.078584395 0.039121564 0.06273793
0000c0 cc 41 cf bd 4a 2e fe bd 74 b3 ef bd ad 15 d5 bd
       -0.10119972 -0.12411173 -0.1170415 -0.10404525
0000d0 f4 e2 81 bd d4 b9 c3 bd 2d fd d6 3d 4c 0a a9 3c
       -0.06342116 -0.09556928 0.10497508 0.020634793
0000e0 bb 2b 73 bb 8d 71 fb 3d 60 f8 23 3d 77 25 30 bd
       -0.0037104923 0.122775175 0.04003179 -0.04300448
0000f0 a8 3d 00 3d 2b 92 ae bc cb 7b a0 bd fc 8c f5 bc
       0.0313088 -0.021309933 -0.07836112 -0.029974453
000100 fe b2 b9 bd 04 d9 cf 3c 97 dd 31 3c de 74 01 3d
       -0.09067343 0.025372036 0.010856054 0.031605594
000110 1f fc c2 3c a7 2c 37 bc 82 ad 36 bd e5 c8 b9 bd
       0.023801861 -0.01118008 -0.044599064 -0.09071521
000120 28 19 47 3d 51 7f 0f bd 8f cc 7d 3d 77 6d e2 bd
       0.048607975 -0.035033528 0.06196266 -0.11056035
000130 26 1c 2c 3b 3d 32 21 3d 5c b4 dd bd 50 62 44 3c
       0.0026261895 0.03935455 -0.108254164 0.01198633
000140 39 9f 61 3d c7 d5 a7 bc 6c a9 f0 3d 7d b9 5d 3c
       0.055083487 -0.02048768 0.11751065 0.013532993
000150 bd 35 56 bc 8d 9a 9e 3c 70 53 d0 bd a6 af fa bd
       -0.013074336 0.019360805 -0.101721644 -0.122405335
000160 8d 71 80 bd 71 9c f4 3d c1 0b b4 bd 69 b3 7d 3d
       -0.06271658 0.11943901 -0.087913044 0.061938677
000170 ee 78 4e 3d 76 bf 7a 3c e1 1d 4f bd c0 44 f2 bd
       0.050408296 0.015304437 -0.050565604 -0.11829519
000180 3d 6a a0 3d b6 85 cd bd 20 54 88 3d c6 c2 ca 3d
       0.07832763 -0.10035269 0.066566706 0.09900431
000190 5c a3 a0 3d 4b 5f e2 3d e0 0a f6 bd 08 8e 06 3e
       0.07843658 0.11053332 -0.12013793 0.13140118
0001a0 28 2d 9f bd f2 7f d2 bd d1 06 17 bd f0 57 47 bd
       -0.07772285 -0.1027831 -0.036871735 -0.048667848
0001b0 06 a9 4c 3d 78 6b 4c bd 30 ba ba 3b a3 b4 e2 3d
       0.04996588 -0.049907178 0.005698465 0.1106961
0001c0 b5 0d c0 bd c4 57 de bd db 4d 51 3d bd 00 d5 bd
       -0.093776144 -0.10856584 0.05109964 -0.104005314
0001d0 f1 4a 5d 3d 54 b9 e0 bd 2b 0e a5 bd 8d a1 01 be
       0.054026548 -0.109728485 -0.08059343 -0.12659283
0001e0 06 f4 50 3d a4 69 bb 3d 29 33 94 3d b5 66 3f bc
       0.05101397 0.09151009 0.072363205 -0.011682202
0001f0 d0 ed 57 bd 45 4d c4 bd 7e 23 c7 bd 18 ee 2e 3d
       -0.05271703 -0.095850505 -0.097235665 0.042707533
000200 ba c9 80 3d c5 b1 89 3d 82 b2 fc bc 06 29 c8 bd
       0.06288476 0.0672336 -0.030846838 -0.097734496
000210 13 2b 3b bd 84 a1 2a bd bc 94 8e bd e6 96 0d bd
       -0.045695376 -0.04165794 -0.069619626 -0.034567736
000220 47 ef a5 bd f1 21 60 bd 7a aa ec 3c 9e d0 59 3d
       -0.08102279 -0.05471987 0.028889883 0.05317747
000230 eb 13 f5 3d 02 6b 98 bd 06 f7 aa bd 0d 38 bc bd
       0.1196669 -0.07442285 -0.08347897 -0.09190378
000240 0a 12 f4 bd 8e e1 93 bc 89 0a 61 3d 34 8a 09 be
       -0.11917503 -0.018051889 0.054941688 -0.13431627
000250 66 63 2c 3d 76 cd 6e bd 45 56 09 3c 3f 19 a2 3d
       0.04208698 -0.05830141 0.008382385 0.079149716
000260 f6 25 ad 3d 16 83 c4 bc 45 73 6d bd d0 f2 c2 bc
       0.08454506 -0.023988288 -0.057971258 -0.023797423
000270 3d ce 2b bd 04 16 e6 3b 64 87 26 3d c0 24 c3 3d
       -0.04194473 0.0070216674 0.040656462 0.09528494
000280 ca 9c b5 3d 32 f6 ca ba 3e 10 f5 3d 8c 7a 68 3d
       0.08867796 -0.0015484749 0.119659886 0.056757495
000290 f8 41 16 bd b6 a2 8f bd e7 35 83 3d f5 ab bb 3d
       -0.036684006 -0.070134565 0.064067654 0.091636576
0002a0 9a a5 bc 3b 5f 6c cd bd 97 c6 09 bd 83 d4 ca 3c
       0.005757046 -0.10030436 -0.033636656 0.024759537
0002b0 f7 08 d2 3d 9b 26 e2 bd 3d 92 e5 bd 70 20 75 3d
       0.10255616 -0.1104252 -0.11209533 0.059845388
0002c0 dc 78 d4 3d d4 be d4 3d 7b da 4b 3d d8 42 53 3d
       0.103746146 0.1038796 0.049768906 0.05157742
0002d0 36 23 c8 bd 76 f9 a3 bd d7 16 53 3c fc 00 ba bd
       -0.09772341 -0.08006565 0.012883863 -0.09082219
0002e0 63 8f 47 3d 2f e0 00 be bc bd ff 3d 46 dc de 3b
       0.04872073 -0.12585519 0.12487361 0.006801161
0002f0 77 87 b6 bd 19 1c dd 3b a3 9c 04 3e 58 5f 98 bd
       -0.089125566 0.0067477343 0.12950377 -0.074400604
000300 bc e2 8a 3d 46 e6 e3 3c 33 79 2b bd b9 e8 85 bd
       0.067815274 0.027819764 -0.04186363 -0.06538529
000310 3e c4 53 3d 5f 6f 88 bd 75 0f 0f bd b3 ad 20 bd
       0.051700823 -0.06661867 -0.03492685 -0.039228152
000320 4e 7b d3 3c d3 a2 e7 bc b1 59 c6 bd 23 55 7d bd
       0.025815632 -0.028275883 -0.09685076 -0.06184877
000330 f5 e6 ed bd 7a 91 d2 bb 28 16 a7 bd 27 c5 e4 bd
       -0.11616317 -0.0064260336 -0.08158523 -0.11170416
000340 b0 f4 a5 bd ec e1 94 3d 1d 28 e8 bd c1 10 31 3d
       -0.08103311 0.07269654 -0.11335776 0.04322887
000350 2a a4 fa 3d 05 ee 9d bd c5 db 14 3d 7c ae f0 bc
       0.12238343 -0.07711414 0.0363424 -0.029380076
000360 1e ed a6 bd ae a5 92 3c fd a7 fb bc 13 42 ad bd
       -0.08150695 0.017901268 -0.030719751 -0.08459868
000370 ad 64 2e 3d f8 26 da 3d ea 00 33 bd 73 1f 97 3c
       0.04257648 0.10651964 -0.043702044 0.018447613
000380 f2 ee 5e 3d 26 e0 c4 bc 03 6b c3 3d 74 f5 d8 3c
       0.054427095 -0.024032664 0.09541895 0.026484229
000390 cc 0a c3 bc da ee 90 ba c6 61 a8 3d d4 9d 57 bd
       -0.02380886 -0.0011057511 0.08221774 -0.05264075
0003a0 4e 19 6c 3d 60 0d de 3d 4f 18 73 bd 6d c4 c9 3c
       0.05764132 0.10842395 -0.059349354 0.024629796
0003b0 cc 58 66 bd 52 f9 e2 bd 82 77 7f bd 06 82 d2 bc
       -0.056237027 -0.1108271 -0.06236983 -0.025696766
0003c0 94 50 09 3e ab d6 a4 bd 2a a2 48 bd 74 cc 0a 3e
       0.13409644 -0.08048757 -0.048982777 0.13554555
0003d0 e3 79 a6 bd 5c f1 b1 3d 6e ea 2e bd 8e 29 13 3c
       -0.08128717 0.08688614 -0.04270404 0.008982075
0003e0 56 2b 84 3a 62 8c e3 3d a6 8b b8 bd 33 1b 98 bc
       0.0010083716 0.1111076 -0.09011011 -0.018567657
0003f0 94 d2 cb 3d 8b 62 d9 bd eb 79 c1 bd 47 da 92 3d
       0.09952274 -0.10614499 -0.09447082 0.07170539

value_net.0.attention.in_proj_bias f4 [288]
000000 e3 ec 03 bb 95 3e 3f 3b 37 73 8b 3a 4d b5 8c 3b
       -0.002013021 0.002918159 0.0010639195 0.0042940737
000010 a1 e4 ee bb f7 b5 09 3b ce 9d 6d 3b 46 0f 05 bc
       -0.0072904383 0.0021013 0.003625739 -0.008121317
000020 5d 02 81 b9 8f 91 ef bb ca 9c b1 3b c4 c9 6a 3c
       -0.00024606558 -0.007311053 0.005420302 0.014330331
000030 dd 77 75 bb 21 53 c0 bb e5 c5 bc bb 64 f4 8e 3b
       -0.0037455477 -0.0058692847 -0.0057608956 0.0043626297
000040 4f d7 32 bb f4 bc 84 3b a0 5f 01 3c aa 69 60 bc
       -0.0027288978 0.0040508453 0.007896334 -0.013697067
000050 d4 3b 7d bb 95 b7 ff 3a 5f 82 3f 3c d8 31 6e bb
       -0.0038640397 0.0019509668 0.011688798 -0.0036345627
000060 fc ac 2a bc 07 dd 75 3c 34 93 af 3b 70 47 16 bb
       -0.010417219 0.01500631 0.005358124 -0.0022930764
000070 3a e7 d3 3b 14 e4 86 ba ab 07 d2 ba 5c 0a 00 3c
       0.0064667733 -0.0010291361 -0.0016024014 0.00781497
000080 d1 9b 8e bb 49 80 6e bc 07 6b 90 3b e4 73 17 bc
       -0.004352071 -0.014556953 0.00440729 -0.009243939
000090 fc 70 a4 3b db 7b a8 bb 06 b9 e9 3b eb a2 4b bb
       0.0050183516 -0.005141718 0.007132652 -0.0031072448
0000a0 ed 4d 34 3c 11 bd c4 bb 39 95 b1 3b 37 0c 8c 3b
       0.011004907 -0.006003984 0.0054194 0.004273917
0000b0 8d 27 bd bb 44 bc 81 bc 92 03 5f bb 13 d6 93 ba
       -0.005772537 -0.015836842 -0.0034029228 -0.0011279009
0000c0 c7 dd 82 bb 82 d8 f3 3b 76 8b 02 3a da 04 ac 39
       -0.003993723 0.007441581 0.0004979888 0.0003281001
0000d0 59 ce 30 bb 62 92 aa 3b 4c dd 94 ba 8f f2 ed bb
       -0.0026978462 0.0052054385 -0.0011357456 -0.0072615813
0000e0 0a 01 7e ba f8 b0 9b 3a 22 e5 84 3a af 76 28 bb
       -0.0009689486 0.0011878302 0.0010139088 -0.0025705507
0000f0 c4 cf 41 3b 48 66 8f bb 68 56 06 3c a4 91 ae 3a
       0.00295733 -0.0043762065 0.008199312 0.0013318551
000100 d3 e9 91 bb 46 7b 24 bc c8 4c a8 bb 68 76 16 3c
       -0.004452923 -0.010039156 -0.005136106 0.009183504
000110 a4 d6 74 3c b7 25 bb bb 13 e1 54 3c 5d 3f 12 3b
       0.014943752 -0.005711283 0.012993115 0.00223156
000120 98 bd fb bb d7 42 64 bc f5 30 34 ba 93 ad d1 3b
       -0.0076825134 -0.0139319515 -0.000687375 0.0063988655
000130 a3 ba 8c bb de 25 e5 bb 42 82 30 3c ee 88 4a bb
       -0.00429471 -0.0069930395 0.010773243 -0.003090437
000140 84 76 c0 bb 42 d8 54 bb 43 60 5e bb 1c 67 aa 3b
       -0.005873503 -0.0032477533 -0.0033931888 0.00520028
000150 28 d2 9b bb e5 44 dc 3b 7c a0 8f 3a ad e7 03 3c
       -0.004755277 0.00672208 0.0010957862 0.008050841
000160 8a 3a 4d 3c 08 54 e6 3a 97 6c 25 ba 3f 8e 2a ba
       0.012526164 0.0017572651 -0.00063104316 -0.00065061817
000170 08 5f f0 3a 1c 1c 19 bc 3a 95 69 bb fd a6 7e bc
       0.0018338868 -0.009345081 -0.0035641924 -0.015542743
000180 bd e7 8d 36 ed 4b 71 b5 24 08 86 b7 75 2c b7 b7
       4.2291053e-06 -8.988998e-07 -1.5977836e-05 -2.1836002e-05
000190 f9 f7 a5 b7 9e cc 81 36 23 80 e8 36 16 d3 30 36
       -1.9785004e-05 3.86832e-06 6.929056e-06 2.6348912e-06
0001a0 fd d8 34 37 58 e2 ef 36 73 de a0 b6 d4 5a 6d b6
       1.0779358e-05 7.149105e-06 -4.794268e-06 -3.536862e-06
0001b0 d0 c4 15 b5 e0 18 fe 36 61 ea 3b 36 34 e1 c9 36
       -5.5793225e-07 7.5726857e-06 2.8001598e-06 6.016484e-06
0001c0 e8 45 c3 35 d3 ae 1d b7 e7 bd b8 b6 00 4a 0b 37
       1.4548978e-06 -9.398634e-06 -5.505735e-06 8.302275e-06
0001d0 17 f1 d9 b7 f1 16 c0 b6 97 e5 1c 36 ae dc 0d b7
       -2.5980682e-05 -5.7247166e-06 2.337945e-06 -8.455636e-06
0001e0 e3 70 0e 37 9f fd a5 b7 13 bb a9 36 f2 23 94 36
       8.490143e-06 -1.9787634e-05 5.058371e-06 4.4149283e-06
0001f0 22 09 80 37 91 da bc b6 1f f0 a8 36 49 59 1c b7
       1.5263042e-05 -5.628281e-06 5.034744e-06 -9.319113e-06
000200 fb 71 1b 37 65 b4 97 36 da fa 65 36 0d 2c dc b5
       9.265258e-06 4.5211514e-06 3.4269674e-06 -1.6404098e-06
000210 ca 1c 95 37 2f 15 ac b7 d8 8d 4e 36 99 e1 10 37
       1.777559e-05 -2.0513862e-05 3.0778956e-06 8.635595e-06
000220 e4 d8 86 37 5f 6d e0 b7 c6 4e 2a b7 e3 bd 44 b7
       1.6075042e-05 -2.675381e-05 -1.01511305e-05 -1.1726722e-05
000230 18 4a 94 37 f0 48 08 37 99 41 0a 37 7a 74 17 37
       1.7677477e-05 8.123214e-06 8.240714e-06 9.027421e-06
000240 68 30 9f 36 55 25 ed 36 3f 61 53 b6 fd fe 04 b6
       4.7442045e-06 7.0674964e-06 -3.1498055e-06 -1.9817955e-06
000250 d7 ff 1a 36 25 29 e1 b6 cc 72 27 36 4a 09 6f 35
       2.3096707e-06 -6.7103124e-06 2.495176e-06 8.9047955e-07
000260 2f f4 6c 34 b1 45 6a 36 07 46 62 b6 c5 68 37 36
       2.2068046e-07 3.4909283e-06 -3.3717386e-06 2.733011e-06
000270 68 dd 16 b5 90 d1 f9 35 e9 38 f0 35 71 29 bd b5
       -5.6201543e-07 1.8612936e-06 1.7897956e-06 -1.4093658e-06
000280 db 95 c6 b6 79 4e 3a b6 29 8b 87 36 f9 0c 88 b4
       -5.9183053e-06 -2.7761837e-06 4.039514e-06 -2.5341413e-07
000290 d3 4f ad 36 75 e4 9e 34 ee 99 eb 34 cc da ca 36
       5.1650945e-06 2.9596018e-07 4.388416e-07 6.0455404e-06
0002a0 9b df 21 b7 99 45 98 b4 9f 0e 70 b4 79 61 91 36
       -9.64841e-06 -2.8362845e-07 -2.2357061e-07 4.332684e-06
0002b0 7c e6 75 36 17 c7 85 35 5d d8 6a b6 b3 48 30 35
       3.6642004e-06 9.967215e-07 -3.4994657e-06 6.56709e-07
0002c0 63 5c 27 37 73 a7 5d b5 f0 d6 17 b6 10 40 bb b3
       9.975486e-06 -8.2572586e-07 -2.2625863e-06 -8.719519e-08
0002d0 65 09 ec b6 66 a7 2e 37 69 c1 0e b7 6d 71 36 37
       -7.0344418e-06 1.0410184e-05 -8.508891e-06 1.0874454e-05
0002e0 18 30 f6 36 a8 58 0f 36 73 9d 63 b6 83 a0 f3 b6
       7.33697e-06 2.1360265e-06 -3.3917283e-06 -7.2606504e-06
0002f0 c1 fb 8a 37 ab 60 89 36 f6 e8 ff b6 b2 b6 5c b7
       1.6568114e-05 4.094172e-06 -7.6267124e-06 -1.3155559e-05
000300 52 d5 21 bc 1e c3 1f 3b ea 11 da bb e3 1e b2 bb
       -0.00987752 0.0024377774 -0.0066549676 -0.005435811
000310 f9 a9 62 bb 26 67 58 ba 97 88 16 3b 76 aa 82 bb
       -0.0034586175 -0.00082551164 0.0022969597 -0.0039876057
000320 b5 52 08 3c 38 6d 35 3a bd a4 79 3a ff 31 e2 ba
       0.0083205 0.0006920877 0.0009523144 -0.0017257332
000330 1a 34 4d 3b 69 6d 1a bb b9 77 9b 3a 69 57 bf 3b
       0.0031311573 -0.0023563749 0.0011861242 0.0058392775
000340 09 05 8b 3b 08 c3 54 3b 8b 7d 75 bb a0 b3 16 3c
       0.0042425436 0.003246488 -0.0037458863 0.009198099
000350 0e 0a 6b bb d0 3b 67 b9 82 f3 e4 3b 30 65 42 bb
       -0.0035864147 -0.00022052159 0.006987036 -0.0029662363
000360 a4 85 6b 3c a8 7d cd 3b 89 1b a7 ba c0 9b a1 ba
       0.014375124 0.006271083 -0.0012749295 -0.0012329742
000370 df 64 df 3a ec 69 37 bc ee 8b ee bb ef 2c 33 bb
       0.0017043612 -0.011194687 -0.0072798645 -0.0027340015
000380 06 fd dc 3b be e6 85 38 22 1c 2c bb 6b 04 0d 3a
       0.00674403 6.384913e-05 -0.0026261886 0.00053793815
000390 17 f3 fd 3b fe 12 a2 3b eb 80 70 bb d8 ed d3 3b
       0.007749926 0.0049461117 -0.0036697935 0.006467562
0003a0 2a 45 b0 3b 0f 81 7a bb 03 67 09 3a 8c 7b 25 bc
       0.0053793387 -0.0038223898 0.0005241485 -0.010100257
0003b0 b3 82 6e bb 1d ae 20 ba 31 fc 39 39 b3 bc 17 bb
       -0.003639382 -0.00061294605 0.00017736923 -0.0023153245
0003c0 97 73 51 3b 58 2f 30 3b 52 e5 34 3b d9 b0 52 3b
       0.0031959766 0.0026883688 0.0027602506 0.0032148866
0003d0 0c d5 be 3b 42 4c ad 3a 9d 87 21 bb db 53 d7 3b
       0.005823737 0.0013221579 -0.0024647482 0.0065712756
0003e0 ea 58 e6 b8 ec b6 06 3c 7b 4f b0 3a 83 f5 73 bb
       -0.00010983816 0.008222323 0.0013451421 -0.0037225194
0003f0 cd b2 41 bc 95 78 57 3c 90 c7 0f bc 6a 0d 76 3b
       -0.011822415 0.013151308 -0.008775607 0.0037544616

value_net.0.attention.out_proj.weight f4 [96, 96]
000000 78 ac d1 3c ff 64 c0 bd 68 e8 b9 bc 06 77 3e bc
       0.025594935 -0.093942635 -0.022693828 -0.011625057
000010 dc 2c 90 3d f7 8a d6 3c a4 14 72 3d 6f 49 78 bd
       0.07039806 0.02618931 0.059101716 -0.060616907
000020 75 70 c7 ba 50 b4 90 bd 90 69 56 3d b0 b0 1d bc
       -0.001521601 -0.07065642 0.052346766 -0.009624645
000030 36 fe c9 bd 3a 63 97 bb 90 f8 54 bc c7 71 b2 bc
       -0.0986294 -0.004619983 -0.012998715 -0.021782769
000040 ee 0b 36 bc f8 34 1f bd f7 b2 c4 3d 6d 88 7f 3c
       -0.011111243 -0.038868874 0.09604447 0.015596491
000050 bc d7 ba bd 99 d6 89 3c a1 20 81 bd 07 67 26 bc
       -0.09123179 0.016825961 -0.063050516 -0.0101564
000060 85 65 a0 3c 18 ea 60 bd 67 bb 9a bc 38 ad 77 bd
       0.019579658 -0.05491075 -0.018888189 -0.06046793
000070 f6 91 08 bd 57 fd 73 3d 27 7d 37 3c 69 87 34 bd
       -0.033342324 0.059567776 0.011199272 -0.04407445
000080 84 c7 b7 bd 29 2d cd 3d a1 9a 98 3d 6a af d9 3d
       -0.089736015 0.10018379 0.07451368 0.10629161
000090 a4 e7 83 3d e2 c2 c6 bd 61 45 03 3d f5 d6 b9 3c
       0.06440666 -0.0970514 0.032048587 0.022685507
0000a0 53 80 3f bd 13 2b 9a 3d b1 55 12 3c 31 b6 19 bd
       -0.04675324 0.07527747 0.008931563 -0.037527267
0000b0 38 b8 97 bd 3c 81 d4 bd 36 d4 a6 3d 2f 30 7b bd
       -0.07408184 -0.10376212 0.08145945 -0.06132525
0000c0 f8 a7 e5 3c b4 9a 34 3d 6a fc 69 3d d6 62 0c 3d
       0.028034195 0.04409285 0.057125486 0.034273945
0000d0 4d 29 9d b9 23 f5 4f 3d 3f 57 21 3c 00 09 11 bc
       -0.00029976145 0.05077089 0.009847461 -0.008852243
0000e0 3c 8b 5d 3b 30 d2 81 bc b0 25 9b 3d f6 7f dc bc
       0.0033804914 -0.015847296 0.07575548 -0.026916485
0000f0 55 7f 56 bd 88 5e a3 3d 74 7e 40 3d e8 0b 93 3d
       -0.052367527 0.07977015 0.046995595 0.07180005
000100 9a 4f aa 3d f3 7f 9a 3d 3d 2d 18 bd 82 13 86 bd
       0.08315964 0.075439356 -0.037152518 -0.065466896
000110 4e 81 7c 3d ee 12 92 bd c1 27 ee 3b 2b 20 e7 bc
       0.061646752 -0.07132517 0.0072679226 -0.028213581
000120 ef 49 c4 3d 36 07 5b 3d 6b 80 da 3c ec be ba bd
       0.09584414 0.053473674 0.026672563 -0.09118447
000130 af 6b d2 bd 42 35 ba 3d 03 43 b4 bd 0f 06 57 bd
       -0.10274445 0.09092189 -0.08801844 -0.052496012
000140 77 bd d1 bc 08 db 71 bd c5 ee 1b bc 6b 72 9b ba
       -0.02560304 -0.059046775 -0.009517376 -0.0011859661
000150 df 30 b8 bc 53 18 30 bc 31 8d a8 3b 17 58 4f bd
       -0.022484241 -0.010747987 0.0051437845 -0.05062112
000160 92 4a 9c bd a5 4f 0c 3d f1 6b 06 bb a1 a4 93 bc
       -0.07631411 0.034255642 -0.0020511115 -0.018022837
000170 7b d0 c7 3d 98 5d ac 3d 4e a6 01 3c d5 29 cb 3d
       0.09756561 0.08416289 0.007913185 0.09920088
000180 18 16 0f bd a1 03 9c 3b 25 af 93 3d 8c 45 7b 3d
       -0.03493318 0.004761175 0.072111405 0.061345622
000190 1b 7a 6f 3b e8 b5 b7 bd f1 dc 1e 3c c2 94 2d 3d
       0.0036541286 -0.08970243 0.009696231 0.042378195
0001a0 1e 16 9a bd ef 07 8c 3d 64 95 c3 bc 47 b6 b0 3d
       -0.0752375 0.06837451 -0.023874946 0.08628517
0001b0 7a 48 43 bd e2 ce 8e bd cb 3d be ba e5 b9 ac bd
       -0.04767654 -0.069730535 -0.0014514265 -0.08433894
0001c0 78 3d 9d bd e6 55 7d 3d 8b 3e 8e 3c aa 58 ac bd
       -0.0767774 0.061849497 0.017363807 -0.08415349
0001d0 5a f1 0b bc 29 8b 28 bc 08 87 34 3d 39 93 d8 bd
       -0.008541429 -0.010287085 0.04407409 -0.105749555
0001e0 c1 7a a2 bb 4b 55 6b 3d e4 31 e6 3c 02 fd 5c 3d
       -0.004958481 0.05745439 0.028099962 0.053952225
0001f0 7a 78 14 3c 05 63 ff 3c 7b 82 b0 bd c3 07 72 bd
       0.009061927 0.031175146 -0.08618637 -0.059089433
000200 3d 6c ec b9 9e e9 70 bd ae bf 69 3c 02 be dd bd
       -0.00045094072 -0.058816545 0.014266891 -0.10827257
000210 6a 54 d0 bd e9 c5 15 bd b2 ff 8f bc e8 fd 8a 3d
       -0.10172351 -0.036565695 -0.01757798 0.0678671
000220 b5 94 9c bc ca ff 09 3d 45 57 1c 3d 69 9c ad bc
       -0.019113878 0.033691205 0.038169164 -0.021192746
000230 f5 77 44 3b cb 58 1c 3d e5 cd fe ba cc b3 98 3d
       0.0029978727 0.038170617 -0.0019440023 0.074561685
000240 8b cc 2b 3d b7 c2 b4 3d ad de 8b bd 73 7f 05 bd
       0.041943114 0.088262014 -0.068295814 -0.03259225
000250 f2 80 2e bd fb 94 0c bb 37 ea d7 3c cc 38 c3 3c
       -0.04260344 -0.0021451104 0.0263568 0.023830794
000260 53 f3 c8 3c b4 84 81 bd 4c a4 80 3d f2 d7 aa 3d
       0.024530089 -0.06324139 0.06281337 0.083419695
000270 4f e7 3f bd aa 06 aa bd 3d 6a b4 bd d7 46 98 3d
       -0.046851452 -0.08302052 -0.08809326 0.07435387
000280 ef f0 30 3c 01 24 a0 bd 25 b9 46 bd 57 16 97 bd
       0.010799631 -0.07819367 -0.04851641 -0.07377308
000290 c2 17 ad bd 37 0a d0 3d 7b 4f b4 bd 3f 8a 98 bd
       -0.08451797 0.10158198 -0.08804222 -0.07448243
0002a0 20 69 23 bd 59 6f 7c 3d c6 13 3b bd 58 92 a6 3d
       -0.039895177 0.061629627 -0.045673154 0.081333816
0002b0 40 98 5d bd 00 cf 3d bd 02 5f 99 3d 19 39 19 3d
       -0.054100275 -0.04633999 0.074888244 0.03740797
0002c0 af 65 b7 bc c2 8d 7f bd 48 55 ba 3c fb 44 1b bd
       -0.022387354 -0.06239105 0.022745743 -0.03790758
0002d0 c6 48 b1 bd f6 73 0d 3c 05 70 f4 bb 77 41 b2 bd
       -0.086564586 0.008633604 -0.007459643 -0.08703893
0002e0 d4 36 ed 3c ab 17 4a bd 7a 43 3c bd 85 80 1b bc
       0.028956808 -0.049338978 -0.04596279 -0.009491091
0002f0 66 cb c6 3d fb 92 bd bc 81 fc b6 bd 5c 12 46 bc
       0.09706764 -0.023141375 -0.0893488 -0.012089338
000300 37 01 bb 3d e3 d3 b6 3d ea 79 a5 3c 16 d5 cf 3d
       0.09131091 0.08927133 0.020199735 0.10148065
000310 04 68 a4 bd 8e a6 6d 3d d1 cb 94 3d 44 2e 2b bd
       -0.08027652 0.058020167 0.072654374 -0.04179217
000320 e8 ea d0 bd d1 a4 98 3d d7 f4 c8 3d 76 89 29 bd
       -0.10201055 0.07453311 0.098123245 -0.04139086
000330 3d ee 2b bd 19 86 c2 bd b8 9e 4d bd ec 46 dc bc
       -0.04197525 -0.09498233 -0.050200194 -0.026889287
000340 55 b6 60 bd 1b c7 a4 bb c7 b0 09 bd ee 48 b4 3d
       -0.054861385 -0.005028618 -0.033615854 0.08802973
000350 31 15 4d 3c 40 53 0b bd 91 c9 44 3d 7e 0a b9 bd
       0.012517259 -0.03401494 0.04804379 -0.09035204
000360 00 fb 84 bd fb 6e 5e 3d c6 90 87 3d c3 da 38 3c
       -0.06493187 0.054305058 0.0661941 0.011282626
000370 f4 21 05 bd cf 62 fe bc be ee 80 bd 07 cd 87 3d
       -0.032503083 -0.031052975 -0.062955365 0.06630903
000380 60 be 83 bd 87 cb d0 3d cd 79 37 bc cb 7e bf bd
       -0.064327955 0.1019507 -0.011198473 -0.09350356
000390 4c ff 58 bd 2c cc 9f bd 2e 65 b7 3d 03 80 f1 3c
       -0.052977845 -0.078026146 0.08954845 0.029479986
0003a0 04 09 32 3d b0 50 0d 3b d2 51 1f bc f3 b9 09 ba
       0.04346563 0.0021562986 -0.009724097 -0.0005253844
0003b0 7a 7b 92 3d 0c f7 aa bc f6 05 a7 bc 09 b6 a7 bd
       0.071524575 -0.020869754 -0.020388585 -0.08189017
0003c0 81 f6 5d bc ad 7f 04 bd 22 bd 96 bd 78 83 84 bd
       -0.013547541 -0.032348324 -0.07360293 -0.06470388
0003d0 32 6b 1d 3d 6f a5 05 3d 5b 28 f6 3c cd 39 cc bc
       0.038432308 0.032628473 0.03004854 -0.024929905
0003e0 3a 99 9a bc f9 ca fc bc 1c 25 c2 bd 18 63 cb bd
       -0.018871892 -0.030858504 -0.09479734 -0.0993101
0003f0 06 13 46 bc c5 0c 52 3d f6 9e 2f bd 5d c9 53 3d
       -0.0120894965 0.05128171 -0.042876206 0.051705707

value_net.0.attention.out_proj.bias f4 [96]
000000 77 93 15 bb 01 95 2b bb 30 e3 f4 bb 83 4c 17 bc
       -0.0022823492 -0.0026181343 -0.007473372 -0.00923455
000010 60 64 a7 bb bd 15 9b 3b bb 83 89 bb 6e ef 6f 3c
       -0.005108401 0.004732816 -0.0041966117 0.014644487
000020 86 ed a8 bb df 5b 80 3b 45 1b 11 3c 2e e1 02 b8
       -0.005155268 0.003917202 0.008856599 -3.120413e-05
000030 5c bd 34 bb 9e a4 61 3b 01 b9 f8 bb 50 91 18 bb
       -0.0027578687 0.0034430395 -0.0075904136 -0.0023279972
000040 be ec 2b bb 7f ce 93 bb 36 17 fc bb 88 48 49 bb
       -0.0026233639 -0.0045107002 -0.0076931966 -0.0030713398
000050 d5 d5 fc 3a 5f 05 3c bb d6 c4 57 bc 8c cf 94 bb
       0.0019289801 -0.0028689725 -0.013169488 -0.004541343
000060 00 5d 28 bc 83 37 cd 3b 30 dc fe bb a2 ad 46 bc
       -0.010276079 0.006262721 -0.0077777132 -0.012126358
000070 d2 59 81 3b 40 78 55 bb 8d 19 d0 bb 38 4b b5 3b
       0.003947475 -0.0032572895 -0.006350702 0.0055326484
000080 cf dd fe bb d6 74 b7 3b 3e 22 8c 3a 1b 79 01 3b
       -0.0077779065 0.0055986447 0.0010691357 0.0019756022
000090 5f 48 7e bb c7 e4 ea bb bc 72 0b 3b 8f 13 a1 bb
       -0.003880046 -0.0071683857 0.0021278104 -0.0049156616
0000a0 0e 68 98 3b 13 70 86 bb d0 df 09 bc 06 2e fb ba
       0.004651076 -0.0041027158 -0.008415177 -0.0019163496
0000b0 56 e6 c8 3a de c0 02 3c 71 4d 3b bc 20 01 1a 3a
       0.0015327435 0.007980553 -0.011432038 0.00058748014
0000c0 b5 61 40 3c ec c9 bb 3b 4b 60 9c bb b9 88 ed 38
       0.011742045 0.005730858 -0.004772221 0.00011326507
0000d0 ba b0 fa 3a cc af 37 bc 27 a4 cd bb 41 13 fe ba
       0.0019126155 -0.011211347 -0.006275672 -0.00193844
0000e0 4f e0 55 bc 17 3b 75 3a 1a a2 75 bb 3f 18 09 bb
       -0.013053968 0.00093548134 -0.0037480653 -0.0020918993
0000f0 d2 b6 fd 3b 66 c4 65 3b 84 a1 e1 3a 09 94 19 bc
       0.007742741 0.003505969 0.0017214273 -0.009373673
000100 a1 41 f2 3b 92 f4 16 3b d3 ff cb bb c0 25 14 bb
       0.0073930775 0.002303396 -0.006225565 -0.0022605509
000110 e1 8f 8a 3b 13 14 19 3b 0f dc 68 3b 89 22 3a bb
       0.0042285775 0.0023357912 0.0035531556 -0.0028401932
000120 b9 83 99 3b 86 d3 c8 3b 73 8a 50 bc f7 28 bc 3c
       0.004684892 0.006128731 -0.012728321 0.022968752
000130 e1 7d 54 3b e0 d6 e0 3b 54 93 90 3a 93 d2 8f 3b
       0.0032423662 0.0068615526 0.0011030235 0.004389116
000140 93 be aa ba c7 4e b7 3b 5a d4 1a 3c 60 71 a5 3b
       -0.0013026766 0.005594108 0.009450043 0.0050489157
000150 c5 55 f3 3b 55 3c 97 bb e4 10 93 ba 17 f2 06 bb
       0.007425996 -0.0046153464 -0.0011220244 -0.0020591074
000160 66 30 9f ba 70 d5 06 3b 77 93 8d 3a 59 a1 c0 3b
       -0.0012145161 0.0020573996 0.0010801394 0.005878609
000170 16 8b e6 3b 3c d4 18 bb 85 82 48 3c 29 c3 28 ba
       0.0070356233 -0.002331986 0.0122381495 -0.00064377725
