scripts/models/602/34/3/vModel.pth (torch, 264307 bytes, 11 tensors)

value_net.0.input_layer.weight f4 [96, 128]
0	0xbd1eb58c	-0.038747355
1	0x3da41037	0.08010905
2	0xbc7b0ba6	-0.015322601
3	0xbc35f6f3	-0.011106241
4	0x3cfbf7d2	0.030757818
5	0xbc80f687	-0.015742553
6	0xbd61de94	-0.055143908
7	0xbd7d9ecc	-0.06191902
8	0x3d8f91ce	0.07010232
9	0xbd3bff65	-0.04589786
10	0x3d99947a	0.07499023
11	0x3d68a2d4	0.05679591
12	0x3da3d300	0.079992294
13	0xbd16055b	-0.0366262
14	0xbd0aba06	-0.033868812
15	0xbcdf5626	-0.027262758
16	0x3cb15fc6	0.021652114
17	0xbda84a82	-0.08217336
18	0xbd7f12fd	-0.062273968
19	0xbc99fba0	-0.018796742
20	0xbd506ab4	-0.05088301
21	0xbb22ca63	-0.002483987
22	0xbdbda789	-0.092604704
23	0xbd063d2d	-0.032773186
24	0x3cb0a5d0	0.02156344
25	0xbd332243	-0.043733846
26	0xbb056fef	-0.0020360907
27	0xbd8b175e	-0.06791566
28	0xbda016fe	-0.078168854
29	0xbc5c5089	-0.013446935
30	0x3d917ad6	0.07103507
31	0xbdc34e39	-0.09536404
32	0xbbbddc4b	-0.0057940832
33	0x3c229f56	0.009925684
34	0xbd96a5b4	-0.07355824
35	0xbca48aba	-0.020085681
36	0xbd1ede2c	-0.0387861
37	0xbca5f4b4	-0.020258285
38	0xbd832077	-0.064026766
39	0xbd089627	-0.03334632
40	0xbd8f3561	-0.06992603
41	0x3cd4f094	0.025993623
42	0x3d0a9c4b	0.03384046
43	0x3d784254	0.06061013
44	0xbd266727	-0.040625717
45	0xbd6c1bf3	-0.057643842
46	0xbd3f5b7f	-0.046718117
47	0x3cb707eb	0.022342643
48	0xbd82d3c9	-0.06388051
49	0xbd377c2a	-0.044796146
50	0xbd92c7fa	-0.07167049
51	0x3d837a43	0.06419804
52	0xbd045f62	-0.032317527
53	0x3d5f584a	0.05452756
54	0xbd671415	-0.056415636
55	0x3ca452d3	0.020059025
56	0x3ce169b3	0.027516222
57	0xbc69ab43	-0.014262023
58	0x3b77074c	0.0037693558
59	0x3d53ba32	0.05169124
60	0x3d542316	0.051791273
61	0xbd1253be	-0.035724394
62	0xbd5f3c06	-0.054500602
63	0xbdc1a9f2	-0.094562426
64	0x3db000a4	0.08593872
65	0xbd260afc	-0.04053782
66	0xbc08609c	-0.008323815
67	0xbdc9ca8f	-0.09853088
68	0xbd04bcec	-0.032406732
69	0xbdc88cc2	-0.097924724
70	0x3c5a80ff	0.013336419
71	0x3d9c5248	0.076328814
72	0x3ca45e48	0.020064488
73	0x3cdb596f	0.026776044
74	0xbd057174	-0.0325789
75	0xbd1562ca	-0.036471166
76	0xbc93bbbc	-0.018033855
77	0x3c4a58a7	0.012350238
78	0x3d55caa7	0.052195217
79	0xbdbb6e02	-0.09151842
80	0x3bcff709	0.0063465876
81	0xbdb52d7e	-0.088465676
82	0xbd09b61d	-0.033620942
83	0xbdba1821	-0.090866335
84	0x3d10dee7	0.035368826
85	0xbd0c739e	-0.03428995
86	0xbda7f83f	-0.08201646
87	0x3d28c689	0.041204963
88	0xbd84eb6a	-0.06490214
89	0x3bee69dc	0.007275803
90	0xbd5676fe	-0.052359574
91	0xbd4ecfe8	-0.050491244
92	0xbd7d4911	-0.06183726
93	0x3d0dc5e8	0.034612566
94	0x3c517fff	0.012786864
95	0xbd9ff11d	-0.078096606
96	0xbcd7abff	-0.026327131
97	0x3d25892b	0.040414017
98	0x3d74ef1e	0.059798352
99	0x3c35159d	0.011052516
100	0x3d217f3c	0.03942798
101	0xbbc949d7	-0.0061428356
102	0x3d408c8f	0.047009047
103	0xbdb3893f	-0.08766412
104	0x3db240be	0.08703755
105	0x3b237f2a	0.0024947622
106	0xbca43d26	-0.02004869
107	0x3d3d22cf	0.046175774
108	0xbbdfbd70	-0.0068280026
109	0x3d9a56aa	0.07536061
110	0xbdc04a7b	-0.09389206
111	0xbd568845	-0.05237605
112	0x3d8f3b82	0.06993772
113	0x3d673242	0.056444414
114	0x3d1dcab0	0.038523376
115	0xbd44e0f4	-0.048066095
116	0xbd19dd21	-0.0375644
117	0xbcf0c5e1	-0.029391231
118	0x3d18c90b	0.037301105
119	0x3ce14ce4	0.027502485
120	0x3d64d8cf	0.055870827
121	0xbcf9058a	-0.030398149
122	0xbd85397a	-0.065051034
123	0x3d8c90a4	0.068635255
124	0xbdb1f468	-0.08689195
125	0xbd0792e6	-0.033099078
126	0xbd80c69e	-0.06287883
127	0x3d4e38d8	0.05034718
128	0xbd8177b2	-0.06321658
129	0xbca58d65	-0.020209024
130	0x3d66c271	0.056337778
131	0xbb9c4d87	-0.004769984
132	0xbbcbf1f5	-0.006223912
133	0xbdab9cac	-0.08379492
134	0x3d86837d	0.06568048
135	0xbd851796	-0.06498639
136	0xbd207ab6	-0.039179526
137	0xbd0261f4	-0.031831697
138	0xbd5a2c73	-0.053265046
139	0xbd349bb1	-0.04409379
140	0xbcb0b0cb	-0.021568676
141	0xbc69d166	-0.014271116
142	0xbda9cde4	-0.08291224
143	0xbdb42ed1	-0.08797992
144	0x3d0d9ba5	0.034572262
145	0x3d66d063	0.056351077
146	0xbd0ccc15	-0.034374315
147	0x3d22cfab	0.03974883
148	0xbd516c6a	-0.051128782
149	0x3da0c1b8	0.07849449
150	0xbc1c41ba	-0.009537155
151	0x3d722fea	0.059127726
152	0x3d8a2023	0.06744411
153	0x3c103efc	0.008804079
154	0xbd4b68c9	-0.049660478
155	0xbd92e579	-0.07172675
156	0xbd95f80b	-0.07322701
157	0x3ce7f409	0.028314607
158	0xbd31bd7d	-0.0433936
159	0xbc9d19bb	-0.019177308
160	0xbc1dc79a	-0.009630108
161	0x3d2e6d5a	0.042584755
162	0x3d8f95e1	0.07011009
163	0xbd8cb59a	-0.06870575
164	0x3b8a87e9	0.0042276275
165	0x3d701034	0.058609203
166	0xbdc9d871	-0.09855736
167	0x3cfe08a1	0.031009974
168	0x3cfe9e40	0.031081319
169	0xbd973973	-0.073840044
170	0x3ccd60c1	0.02507055
171	0xbdb05f1a	-0.08611889
172	0xbc9ae58c	-0.018908285
173	0xbce6551a	-0.028116751
174	0x3d87d0e7	0.06631642
175	0xbd87b556	-0.06626384
176	0xbb9d2d4e	-0.0047966605
177	0xbd528eda	-0.051405765
178	0x3d750923	0.059823167
179	0xbc47079f	-0.012147813
180	0x3bd97a16	0.006636868
181	0x3c14492e	0.0090506505
182	0xbd9f805e	-0.07788156
183	0x3d0ee06a	0.034881987
184	0xbd7ea41b	-0.062168222
185	0x3d0690fd	0.032853115
186	0xbd0ee39a	-0.034885027
187	0xbd27472a	-0.04083935
188	0xbdb73223	-0.0894511
189	0x3c4ca756	0.012491068
190	0x3d98aff0	0.074554324
191	0x3c1759df	0.0092377355
192	0xbdbd148f	-0.09232437
193	0xbd991f05	-0.0747662
194	0xbdae4acf	-0.08510362
195	0xbc82350a	-0.015894432
196	0x3af10c6b	0.0018390542
197	0xbd9e07aa	-0.077163056
198	0x3c97c4c3	0.01852644
199	0x3d833347	0.06406265
200	0x3d7d6925	0.06186785
201	0x3d24cd86	0.040235065
202	0xbd07e18c	-0.033174083
203	0xbdc22ddf	-0.094814055
204	0x3d13fc60	0.036129355
205	0x3d25a858	0.04044375
206	0xbd74ab49	-0.059733663
207	0x3d6c19c1	0.05764175
208	0xbc8b4ed7	-0.017005367
209	0x3acc2b92	0.001557695
210	0x3d8d7c73	0.069085024
211	0x3d55daf5	0.052210767
212	0xbd996f69	-0.07491953
213	0x3d8fd85b	0.070236884
214	0xbb276422	-0.0025541862
215	0xbd874f45	-0.06606916
216	0x3d8fcb90	0.07021248
217	0xbdb3240e	-0.08747111
218	0x3d5fb24d	0.0546134
219	0x3d9095e8	0.07059842
220	0x3b259250	0.002526421
221	0x3d4891bb	0.048967104
222	0x3d870311	0.06592382
223	0xbd5a872f	-0.053351577
224	0xbd61ab74	-0.05509515
225	0xbd91c3d3	-0.07117429
226	0x3d4afa9c	0.049555406
227	0x3d871762	0.06596257
228	0x3cae2e64	0.021262355
229	0x3be15f68	0.0068778284
230	0xbcd43073	-0.025902009
231	0xbdc55086	-0.09634499
232	0xbc553d88	-0.0130151585
233	0xbd6aafed	-0.057296682
234	0xbd17ea78	-0.03708884
235	0xbd47a221	-0.048738603
236	0x3d5f1d98	0.054471582
237	0xbd7e1d37	-0.06203958
238	0x3c1c9f49	0.009559461
239	0xbc08e709	-0.008355864
240	0x3d57ce54	0.052687004
241	0xbdb5f3fa	-0.088844255
242	0x3d222072	0.039581724
243	0xbba4e54b	-0.0050322167
244	0xbd251aaf	-0.04030865
245	0x3d93b096	0.072114155
246	0xbd34d4ce	-0.04414826
247	0x3a819809	0.0009887229
248	0xbd8fc742	-0.07020427
249	0xbb9ad3ac	-0.0047249403
250	0xbd9f883f	-0.07789659
251	0xbdaa78a3	-0.08323791
252	0x3ce6eec6	0.028190028
253	0xbdabb4c5	-0.083840884
254	0x3cab9d02	0.02094889
255	0x3bd16420	0.0063901097

value_net.0.input_layer.bias f4 [96]
0	0x3d0d3bf1	0.034480993
1	0xbdb521c8	-0.08844334
2	0xbcc99a21	-0.024609627
3	0xbdaf15ba	-0.08549066
4	0x3cb804e7	0.022463275
5	0xbd4bcc1b	-0.049755197
6	0x3d3222a4	0.043490067
7	0xbcf9c7d7	-0.030490799
8	0xbdbcd35c	-0.09220001
9	0xbd84340c	-0.0645524
10	0xbc0c0682	-0.008546473
11	0x3d548ef9	0.05189416
12	0x3b682776	0.0035423911
13	0xbd90857b	-0.070567094
14	0xbc6370cd	-0.013881874
15	0xbca859ba	-0.020550597
16	0x3bb5c93b	0.00554767
17	0xbd2a7e63	-0.041624438
18	0xbc655a8c	-0.013998639
19	0xbd707f4b	-0.058715146
20	0xbd8cdbcb	-0.0687786
21	0x3d8a04a9	0.0673917
22	0x3d1103a8	0.035403877
23	0xbd3b8c92	-0.045788355
24	0xbce1c22d	-0.02755841
25	0xbd2b0e1d	-0.041761506
26	0xbd1b5746	-0.037925027
27	0x3cf73c04	0.030179985
28	0x3d83b147	0.06430297
29	0x3d8cd8d0	0.06877291
30	0xbca43b4d	-0.020047808
31	0xbd429cc8	-0.0475128
32	0x3d9ce78e	0.07661353
33	0xbd0e9b23	-0.03481592
34	0xbcd48bf8	-0.025945649
35	0x3d8f9076	0.070099756
36	0x3ca8131c	0.020516925
37	0xbcb92c2d	-0.022604072
38	0x3d1eefeb	0.038803022
39	0xbdca9d59	-0.09893293
40	0xbc866a8f	-0.016408233
41	0x3d92571f	0.07145523
42	0xbc639c33	-0.013892221
43	0xbca34670	-0.019931048
44	0x3d97a7c6	0.07405047
45	0x3cbc0773	0.02295277
46	0x3cec0795	0.02881221
47	0x3d9bcb79	0.07607169
48	0xbce58855	-0.02801911
49	0x3d5869cc	0.05283527
50	0xbd94ab7a	-0.07259269
51	0xbd2a3932	-0.041558452
52	0x3d78b981	0.060723785
53	0x3985019c	0.00025368936
54	0x3d6b8e16	0.05750855
55	0xbd1edbe0	-0.038783908
56	0xbd815eb6	-0.06316893
57	0x3c86e45c	0.016466312
58	0xbd06eca2	-0.032940514
59	0xbd6f31bd	-0.058397043
60	0xbd3dc40e	-0.04632955
61	0xbd8f6976	-0.07002537
62	0x3d893327	0.0669921
63	0x3d7041c2	0.05865646
64	0x3d59118a	0.052995242
65	0x3d4724dd	0.04861914
66	0x3d8f9c5a	0.070122436
67	0xbd3035ff	-0.043020245
68	0x3c61c411	0.013779656
69	0xbc175e41	-0.0092387805
70	0xbb2f11b9	-0.0026713444
71	0xbccb91a1	-0.024849715
72	0xbd492c7a	-0.04911468
73	0x3dad0769	0.08448679
74	0xbcaf2d25	-0.021383831
75	0xbda7c00e	-0.081909284
76	0xbba3e135	-0.005001212
77	0x3da87b36	0.082266256
78	0xbd75ad15	-0.059979517
79	0xbdbee626	-0.09321241
80	0x3d307473	0.043079805
81	0xbcf9879d	-0.030460173
82	0xbd345646	-0.04402759
83	0xbdb4e9a8	-0.08833629
84	0x3d90d96e	0.070727214
85	0xbb6ee2db	-0.0036451134
86	0xbda1b431	-0.07895697
87	0xbccc8563	-0.024965947
88	0x3d343697	0.043997373
89	0xbd74c2bf	-0.059756037
90	0xbc6f95c0	-0.0146231055
91	0x3d0c04ea	0.034184374
92	0x3d4cda5e	0.05001294
93	0xbd7006b2	-0.058600135
94	0xbd268364	-0.040652648
95	0xbc9a6642	-0.018847588

value_net.0.output_layer.weight f4 [96, 96]
0	0xbd8f1f8a	-0.069884375
1	0x3ccf27ec	0.02528759
2	0xbc1aee08	-0.009456165
3	0xbd8f119e	-0.06985782
4	0x3abdfe46	0.0014495335
5	0x3db898bb	0.09013506
6	0x3db3ad65	0.08773307
7	0x3ca04a10	0.019566566
8	0x3d36d1da	0.044633724
9	0x3dbbe662	0.091748014
10	0x3d74272b	0.059607666
11	0x3c4a4bb8	0.012347154
12	0x3da34437	0.07971995
13	0xbd6ac395	-0.057315428
14	0xbdaa4c47	-0.0831533
15	0xbd3c68a5	-0.045998234
16	0xbcd20e64	-0.025641628
17	0xbd27ff97	-0.041015234
18	0xbd8a8a5f	-0.067646734
19	0x3dae44f5	0.08509246
20	0xbd24260f	-0.040075358
21	0xbd3122ed	-0.0432462
22	0xbd34a444	-0.04410197
23	0xbcfbf00b	-0.03075411
24	0xbdb4e8b5	-0.08833448
25	0x3db8833a	0.090094045
26	0xbd691cd7	-0.05691227
27	0xbce1cad0	-0.027562529
28	0xbd5b61a1	-0.053559903
29	0xbc249ff9	-0.010047906
30	0x3d5b3ca3	0.053524625
31	0xbd09cdbd	-0.033643473
32	0xbdb18fe1	-0.08670021
33	0xbd0d40ce	-0.03448563
34	0x3c4baa29	0.012430706
35	0x3dc6d7f2	0.09709157
36	0x3d73c634	0.059515193
37	0x3cc780e2	0.024353448
38	0xbd091c0b	-0.03347401
39	0xbd94f0bf	-0.07272481
40	0xbdd9cee5	-0.10635165
41	0x3d1eb570	0.03874725
42	0x3d89893f	0.06715631
43	0xbda00536	-0.07813494
44	0x3d838647	0.06422096
45	0xbc3f6590	-0.011681929
46	0xbb20e989	-0.002455326
47	0xbcbb0eac	-0.022834145
48	0xbd3144da	-0.043278553
49	0x3cb70be5	0.022344539
50	0x3db2fa13	0.08739104
51	0xbcfeb3d1	-0.031091603
52	0xbcc34d6d	-0.02384063
53	0xbd77d65f	-0.060507175
54	0x3d92f975	0.071764864
55	0x3d41f94d	0.047356892
56	0x3d3870f0	0.04502958
57	0x3da70c08	0.08156592
58	0x3ddc3c4e	0.1075369
59	0x3d83b152	0.064303055
60	0x3da03d36	0.07824175
61	0x3d673e11	0.056455676
62	0x3cc80e7d	0.024420971
63	0x3ced33e4	0.028955407
64	0xbd999a91	-0.07500184
65	0x3dab55ec	0.08365998
66	0xbd45ba76	-0.048273526
67	0x3d8a76c0	0.06760931
68	0xbd9b2001	-0.07574464
69	0xbd06afa5	-0.03288235
70	0x3ce12f1d	0.027488286
71	0xbd7249e3	-0.059152495
72	0xbd9710d6	-0.07376258
73	0x3d4589ab	0.048226994
74	0xbdb73ceb	-0.08947166
75	0xbdb2b7f8	-0.087264955
76	0x3c480a35	0.012209465
77	0x3d8a9a0f	0.067676656
78	0x3c8eec88	0.017446771
79	0x3d0badd6	0.03410133
80	0xbda38576	-0.0798444
81	0xbd9e3138	-0.077242315
82	0xbdb34028	-0.08752471
83	0x3d9149c7	0.0709415
84	0x3db910ab	0.09036382
85	0xbdb39772	-0.0876912
86	0x3caac3d0	0.020845324
87	0x3c978ea0	0.018500626
88	0xbc901cfa	-0.017591942
89	0x3da8f1fe	0.08249281
90	0x3d304fcd	0.043044854
91	0xbd816a59	-0.06319112
92	0x3d6a40a2	0.057190545
93	0x3dbf74f2	0.093484774
94	0xbcba24ab	-0.022722563
95	0x3d8657e3	0.06559732
96	0x3a1a4deb	0.00058862445
97	0xbdbb91f9	-0.091587014
98	0xbd5840d6	-0.052796207
99	0x3ba8ad86	0.0051476387
100	0x3d09563a	0.033529498
101	0x3ce5f67e	0.028071638
102	0x3d8d0bcc	0.06887016
103	0xbccc007f	-0.02490258
104	0xbcc22fbf	-0.023704408
105	0x3dd54640	0.1041379
106	0xbd15e104	-0.036591545
107	0x3bd7b487	0.0065828
108	0x3c14ec92	0.009089606
109	0xbd287a98	-0.04113254
110	0xbd0a05d2	-0.033696957
111	0x3d39b65f	0.04533994
112	0xbd8bba13	-0.068226
113	0xbdaf7aa2	-0.08568312
114	0x3d7985af	0.060918506
115	0x3c0882b3	0.008331942
116	0x3d91f51d	0.0712683
117	0x3d473031	0.048629943
118	0x3da4f64b	0.08054789
119	0x392726b3	0.00015940778
120	0x3db0716a	0.08615382
121	0xbc438904	-0.011934523
122	0xbde9b3de	-0.1141126
123	0x3dd60d34	0.10451737
124	0xbdd93794	-0.10606304
125	0x3d55fc19	0.052242372
126	0xbdbf0ad0	-0.09328234
127	0xbd78ee06	-0.06077387
128	0xbd850745	-0.06495527
129	0xbd9840a3	-0.074342035
130	0xbd2d1510	-0.042256415
131	0xbc1c9390	-0.009556666
132	0xbdc041bc	-0.09387538
133	0xbd85e307	-0.06537443
134	0x3cd6a471	0.026201459
135	0xbc470f69	-0.01214967
136	0x3d5e80d5	0.054322083
137	0xbd3fd143	-0.046830427
138	0xbda5f415	-0.081031956
139	0xbd1be409	-0.03805927
140	0xbd4c9bbc	-0.049953207
141	0x3dac1990	0.08403313
142	0xbc7ad4d5	-0.015309532
143	0xbd4bdb45	-0.04976966
144	0x3d80dbbb	0.0629191
145	0x3dc6cfae	0.097075805
146	0xbda4c99c	-0.080462664
147	0xbd4af700	-0.049551964
148	0xbce9206d	-0.028457845
149	0x3d0b852b	0.034062546
150	0x3d30726e	0.04307788
151	0x3d7e9791	0.062156264
152	0xbcb7ea74	-0.022450663
153	0xbd998e32	-0.07497825
154	0x3d9fcff2	0.07803334
155	0x3ccc2b68	0.024923041
156	0x3d01cd04	0.03168966
157	0xbcad4868	-0.02115269
158	0x3db02582	0.08600904
159	0x3dadbf76	0.08483784
160	0x3d4fc3d5	0.05072387
161	0xbd8fed00	-0.07027626
162	0x3b79369d	0.0038026937
163	0xbd580c00	-0.05274582
164	0x3d49041e	0.049076192
165	0xbd660930	-0.056161106
166	0x3c1ee05a	0.009697044
167	0x3d36fc73	0.044674348
168	0xbd403008	-0.046920806
169	0xbd3aa23b	-0.04556487
170	0xbd5a347a	-0.0532727
171	0xbc66370b	-0.014051209
172	0xbcaff7ef	-0.021480529
173	0xbdc0c798	-0.094130695
174	0x3cedad8a	0.029013414
175	0x3cad8554	0.02118174
176	0x3d5d9f3d	0.05410694
177	0x3db26f20	0.08712602
178	0x3d145494	0.036213472
179	0x3d9f1634	0.07767907
180	0xbd653d5e	-0.055966727
181	0xbd7ccb4b	-0.061717313
182	0xbd3e74d9	-0.046498153
183	0x3da09749	0.07841355
184	0x3be4371e	0.0069645783
185	0xbd83021c	-0.06396887
186	0xbdb8c908	-0.09022719
187	0x3db74727	0.08949118
188	0xbddce100	-0.10785103
189	0xbdb26a42	-0.08711673
190	0xbcb3c026	-0.02194221
191	0xbd70798d	-0.05870967
192	0x3d170ac6	0.03687551
193	0xbbb23c37	-0.005439307
194	0x3c974f7b	0.018470516
195	0xbda08f81	-0.07839871
196	0x3ce52c68	0.027975276
197	0x3d522987	0.051309135
198	0x3cac74e2	0.021051828
199	0xbdd296c6	-0.10282664
200	0x3d38e4e3	0.04514016
201	0xbb5bbcac	-0.0033529205
202	0x3cb3edf1	0.021964045
203	0x3d986c11	0.07442487
204	0x3da32105	0.07965282
205	0xbd23366d	-0.039846826
206	0x3d7c6b2c	0.061625645
207	0x3dd09cad	0.101861335
208	0x3ca8fa08	0.020627037
209	0x3cf67917	0.030087037
210	0x3cd89d4c	0.026442192
211	0x3c97cd72	0.018530581
212	0xbcbf74fa	-0.023371208
213	0xbc07a70a	-0.008279571
214	0x3d2c5b1c	0.042079076
215	0x3da3f33d	0.080053784
216	0x3c93919d	0.01801377
217	0xbd4e6a22	-0.050394185
218	0x3d50e97e	0.051003926
219	0x3d8d2efd	0.06893728
220	0xbd98ce1d	-0.07461188
221	0xbdac4439	-0.0841145
222	0xbcbe9031	-0.023262115
223	0x3da069a4	0.07832649
224	0x3dba66af	0.091016166
225	0xbb89c83e	-0.004204779
226	0xbd6c3f98	-0.057677835
227	0x3d3eed8c	0.04661326
228	0x3de35cc2	0.111016765
229	0x3dc670c4	0.09689477
230	0x3b782f2b	0.0037869911
231	0xbd297493	-0.04137094
232	0x3db1cde4	0.08681849
233	0x3cef28c3	0.029194241
234	0xbd866130	-0.06561506
235	0x3dc02554	0.0938212
236	0x3d76079c	0.06006585
237	0xbd25feab	-0.040526073
238	0x3da2af9a	0.079436496
239	0xbcb01585	-0.021494636
240	0xbc9eba67	-0.019375993
241	0x3cd37919	0.02581458
242	0xbd11a29b	-0.035555463
243	0xbd84c786	-0.064833686
244	0x3d8a95d2	0.06766857
245	0xbd77cee7	-0.06050005
246	0x3cb01ff3	0.02149961
247	0x3db6d8e5	0.08928088
248	0x3d0a4eac	0.033766434
249	0xbc0b6117	-0.008507035
250	0xbc692c0d	-0.014231694
251	0xbd9ea99f	-0.077471964
252	0xbd9eb081	-0.07748509
253	0xbb8ced4c	-0.004300749
254	0x3d7750b2	0.06037969
255	0xbda3e787	-0.08003145

value_net.0.output_layer.bias f4 [96]
0	0xbdae6690	-0.08515656
1	0x3c9b3e8f	0.018950729
2	0xbba99a7e	-0.0051758876
3	0xbd8c55ac	-0.06852278
4	0x3cb1d8d1	0.021709831
5	0xbda050c2	-0.07827903
6	0xbd6d8feb	-0.05799858
7	0xbddf5f7c	-0.10906884
8	0xbd980cfd	-0.07424352
9	0xbd438170	-0.047730863
10	0xbcf53ad5	-0.02993528
11	0x3d76b540	0.060231447
12	0x3d861828	0.06547576
13	0xbdc28394	-0.09497753
14	0xbca505bb	-0.020144334
15	0x3d6a4988	0.05719903
16	0xbd66855f	-0.056279536
17	0x3da1d93f	0.079027645
18	0xbdbaccb5	-0.09121076
19	0x3c751222	0.0149579365
20	0x3d8bebed	0.06832109
21	0xbbd3a80a	-0.006459241
22	0xbdadc46a	-0.08484729
23	0xbd271844	-0.040794626
24	0x3da0d878	0.07853788
25	0xbcc3f7f6	-0.023921948
26	0x3d909316	0.070593044
27	0x3cd7185c	0.026256733
28	0xbc2cd92c	-0.010549825
29	0xbc9adcee	-0.018904176
30	0xbde3758c	-0.11106405
31	0xbd7269dd	-0.05918299
32	0xbd262281	-0.04056025
33	0x3cd20412	0.025636707
34	0xbdbde150	-0.092714906
35	0x3c903ee5	0.017608115
36	0x3db12eed	0.086515285
37	0xbc82179e	-0.015880402
38	0x3d290d61	0.041272525
39	0x3d2c5db2	0.042081542
40	0xbd375fcf	-0.044769105
41	0x3d2794a7	0.04091325
42	0xbdcd714e	-0.10031377
43	0xbd848c59	-0.06472082
44	0x3da1e129	0.07904274
45	0xbdcfd9ad	-0.1014894
46	0x3acb958f	0.0015532243
47	0xbbaddefb	-0.0053061224
48	0xbdabc834	-0.08387795
49	0xbd4373b0	-0.04771775
50	0xbd6877c3	-0.05675484
51	0xbd053065	-0.032516856
52	0x3cc550c8	0.024086371
53	0x3d8b7aea	0.06810553
54	0x3c8a1c8e	0.016859319
55	0x3dc90385	0.098151244
56	0xbdbb4a10	-0.09144986
57	0x3c149968	0.009069778
58	0xbdadcb04	-0.08485988
59	0xbd45c8fb	-0.048287373
60	0x3d9c2551	0.07624305
61	0x3d999fc4	0.07501176
62	0x3d158305	0.036501903
63	0xbc5e38b6	-0.013563326
64	0x3d26f66b	0.040762346
65	0x3d0bbd07	0.034115817
66	0xbd0421c0	-0.03225875
67	0xbda52c7d	-0.08065126
68	0xbd1aa4ac	-0.0377547
69	0xbd1215ff	-0.03566551
70	0xbdb2bc2f	-0.087272994
71	0x3d90ba3d	0.07066772
72	0x3d31e9e7	0.043435957
73	0xbd925744	-0.07145551
74	0x3dd009a0	0.10158086
75	0xbd3f47ef	-0.04669946
76	0x3ba8dc7d	0.0051532374
77	0x3d4252e1	0.04744232
78	0x3db7acd6	0.08968513
79	0x3d9a1ded	0.07525239
80	0x3da5fcf8	0.081048906
81	0x3ccabf7f	0.024749516
82	0x3d4deabf	0.0502727
83	0xbdb3e5e2	-0.08784081
84	0x3d350fa6	0.044204377
85	0x3d3a51f5	0.045488317
86	0x3d6ad11c	0.05732833
87	0x3d29e42c	0.041477367
88	0xbd89760a	-0.06711967
89	0xbd9bea09	-0.07612998
90	0xbdc17639	-0.09446377
91	0x3c918f45	0.017768512
92	0xbd0d92f7	-0.034563985
93	0xbd9e59fb	-0.07732006
94	0x3c8a1069	0.016853528
95	0x3c386eb4	0.011256862

value_net.0.attention.in_proj_weight f4 [288, 96]
0	0x3d1fb620	0.038992047
1	0x3da65cbc	0.081231564
2	0xbd890314	-0.0669004
3	0xbca907c0	-0.020633578
4	0xbd0f26dc	-0.03494917
5	0xbc4ea1f0	-0.012611851
6	0xbd4ac364	-0.049502745
7	0xbc460640	-0.012086451
8	0x3d78fbec	0.060787126
9	0xbd178868	-0.03699532
10	0x3da20dde	0.07912801
11	0xbdb0c294	-0.08630863
12	0xbab13e00	-0.0013522506
13	0xbd310228	-0.043214947
14	0xbd8e5aae	-0.069508895
15	0x3df65fbc	0.12029979
16	0x3d4c06cc	0.04981117
17	0xbdab6462	-0.08368756
18	0x3db4e4f4	0.08832732
19	0x3d6e2d00	0.058148384
20	0x3d314268	0.04327622
21	0xbdc1aef8	-0.09457201
22	0xbd8a5968	-0.06755334
23	0xbddc11fe	-0.10745619
24	0xbda9296a	-0.08259852
25	0xbd70e9cc	-0.058816716
26	0x3c80e648	0.015734807
27	0x3d3a9594	0.045552805
28	0x3d078a14	0.033090666
29	0x3da23b28	0.079214394
30	0xbdd0c8ee	-0.10194574
31	0xbd89763a	-0.06712003
32	0xbcbeba60	-0.02328223
33	0xbcfa0120	-0.030518115
34	0xbdca259e	-0.09870456
35	0x3d83c08e	0.06433211
36	0xbdf4f55c	-0.11960861
37	0x3c5d8630	0.013520762
38	0x3c4cdd90	0.0125039965
39	0x3c84c5a0	0.016207516
40	0x3d1360d8	0.03598103
41	0x3db1c13e	0.08679436
42	0xbc9f4a90	-0.019444734
43	0x3ce0d810	0.027446777
44	0x3d222624	0.039587155
45	0xbc430800	-0.011903763
46	0xbd6ffadc	-0.058588848
47	0xbd90306e	-0.07040487
48	0xbd95d2b8	-0.07315582
49	0x3d3f8b30	0.0467636
50	0x3cf0bbb8	0.029386386
51	0xbde195fa	-0.11014934
52	0xbd92bf48	-0.0716539
53	0x3d7d2a4c	0.061807916
54	0xbc42e840	-0.011896193
55	0xbd12d9a4	-0.03585209
56	0x3cacd650	0.021098286
57	0x3dfc4c74	0.1231927
58	0x3d1def98	0.038558573
59	0x3dca8444	0.09888509
60	0xbd3116e4	-0.04323472
61	0xbde13690	-0.10996735
62	0xbc00d8d0	-0.007864192
63	0x3c9e17b0	0.019298404
64	0xbd1a0d70	-0.03761047
65	0xbd8206c2	-0.06348945
66	0xbd89e180	-0.06732464
67	0x3de224aa	0.11042149
68	0x3d6449a4	0.05573429
69	0xbd23500c	-0.03987126
70	0xbc644770	-0.013933048
71	0xbd9a09ba	-0.075213864
72	0xbdcff7a6	-0.10154657
73	0xbdf8d168	-0.12149316
74	0x3d03a068	0.032135397
75	0xbd606734	-0.054785922
76	0x3d9b274e	0.07575856
77	0xbbdb5540	-0.006693512
78	0xbda217d4	-0.07914701
79	0xbdba01f2	-0.09082402
80	0x3c12ef60	0.008968204
81	0x3da62ef6	0.08114426
82	0x3d902130	0.0703758
83	0xbde28df8	-0.11062235
84	0xbcbad268	-0.022805408
85	0xbd9c4cba	-0.07631822
86	0xbcf480e8	-0.029846624
87	0xbdd0c6de	-0.10194181
88	0x3dc70e8e	0.09719573
89	0xbce1efe8	-0.027580217
90	0x3de8dd64	0.11370352
91	0x3d8e8b40	0.069601536
92	0xbdcb489e	-0.0992596
93	0xbdc40458	-0.09571141
94	0x3cd6c6a8	0.026217774
95	0xbcb465c8	-0.02202119
96	0xbdaa86c0	-0.08326483
97	0xbd852162	-0.06500508
98	0xbddec6d2	-0.10877766
99	0xbdd5b658	-0.1043517
100	0xbd39f4f4	-0.04539962
101	0x3d9da54e	0.07697545
102	0xbdd6fcba	-0.104974225
103	0xbdfd4430	-0.12366521
104	0xbd57b210	-0.052660048
105	0xbce18ce8	-0.02753301
106	0xbcd19de8	-0.02558799
107	0x3de362e8	0.11102849
108	0xbdc95c30	-0.098320365
109	0x3d69b848	0.05706051
110	0x3d25c6b4	0.0404727
111	0xbda6870c	-0.08131227
112	0xbdc9459c	-0.0982773
113	0x3d140f40	0.036147356
114	0xbcb1bcd8	-0.021696493
115	0xbd9a904a	-0.07547052
116	0x3cbe3b30	0.023221582
117	0xbd9a0b72	-0.07521714
118	0x3dfa6ecc	0.12228164
119	0x3d591988	0.053002864
120	0xbde223d0	-0.11041987
121	0xbdf35346	-0.118811175
122	0xbdeceddc	-0.115688056
123	0xbd84a7c0	-0.06477308
124	0x3db21326	0.086950585
125	0xbdac2a42	-0.084064975
126	0xbde59a9e	-0.112111315
127	0xbcf80fb0	-0.030280918
128	0x3d881c06	0.0664597
129	0x3dc36b6c	0.095419735
130	0xbdae496e	-0.08510099
131	0xbd8a96a4	-0.06767014
132	0x3d28e384	0.0412326
133	0xbdc93d86	-0.09826188
134	0x3d8f1b8e	0.069876775
135	0xbc03f5c0	-0.008054197
136	0x3db4d356	0.08829372
137	0xbcb89f60	-0.022536933
138	0x3dc86002	0.09783937
139	0x3d77d8a0	0.060509324
140	0xbdccaed8	-0.09994286
141	0x3d286b64	0.04111804
142	0xbd281b4c	-0.041041657
143	0x3c91dc70	0.017805308
144	0xbc9f0160	-0.019409835
145	0xbcb373a0	-0.02190572
146	0xbda936ee	-0.0826243
147	0xbdab00d8	-0.0834977
148	0x3da57b98	0.08080214
149	0xbd51c3d8	-0.05121216
150	0x3d3102c4	0.043215528
151	0x3d961c6e	0.07329641
152	0x3dc085de	0.09400533
153	0xbdc3aaec	-0.09554085
154	0x3dcabe46	0.09899573
155	0x3de96348	0.113958895
156	0xbdc25d8c	-0.09490499
157	0x3d83bcf0	0.06432521
158	0xbd7748c0	-0.060372114
159	0x3db5d79a	0.08879013
160	0xbbf5fb60	-0.007506773
161	0x3d5c2e54	0.05375512
162	0x3dda52f6	0.10660355
163	0x3d255dec	0.040372774
164	0xbdaadac6	-0.08342509
165	0xbdcb35fe	-0.099224076
166	0xbdf257cc	-0.11833152
167	0xbca8e980	-0.020619154
168	0x3db52c14	0.08846298
169	0xbdae0a4a	-0.08498056
170	0x3d2c04e0	0.041996837
171	0xbddbaeec	-0.10726723
172	0xbd498cf0	-0.049206674
173	0x3d86f086	0.06588845
174	0xbc5ae9b0	-0.0133613795
175	0x3d739150	0.059464753
176	0xbc825ea8	-0.015914276
177	0xbdc32c26	-0.09529905
178	0x3beb1160	0.007173702
179	0xbd65d2ec	-0.056109354
180	0x3d996556	0.074900314
181	0x3df6a382	0.120429054
182	0x3de5b472	0.11216058
183	0xbdae596c	-0.085131496
184	0x3db9fb98	0.09081191
185	0x3d719b30	0.05898589
186	0xbdfe94e6	-0.12430744
187	0x3d3bbb6c	0.045833036
188	0x3d106570	0.03525299
189	0x3d7cc2a0	0.061709046
190	0xbd0e4ed8	-0.03474316
191	0xbba9c900	-0.005181432
192	0x3de812bc	0.11331698
193	0xbc6875d0	-0.014188245
194	0x3d354880	0.044258595
195	0xbd955646	-0.07291846
196	0x3daf9120	0.08572602
197	0x3dd4b400	0.10385895
198	0x3de0dc38	0.109795034
199	0xbc6b2060	-0.0143509805
200	0xbd0a5710	-0.033774436
201	0x3dabed3c	0.08394858
202	0xbdedc9f0	-0.11610782
203	0xbd4e89d8	-0.050424427
204	0xbcdb9cc0	-0.026808143
205	0xbd5731a8	-0.05253759
206	0xbdca9032	-0.09890784
207	0x3c660a50	0.014040545
208	0xbde7a082	-0.11309911
209	0xbd94aa82	-0.07259084
210	0x3d978aae	0.07399498
211	0x3db54a74	0.088520914
212	0xbd749df8	-0.059720963
213	0x3dfe35de	0.12412618
214	0x3db760b8	0.089539945
215	0x3d04c21c	0.03241168
216	0xbd8ee504	-0.06977275
217	0xbded1d84	-0.11577895
218	0x3d51d1a0	0.051225305
219	0x3de428ae	0.111405715
220	0x3daacd6a	0.08339961
221	0x3d9e6d54	0.077356964
222	0x3d4a8af0	0.049448907
223	0xbc2872e0	-0.010281295
224	0x3deceff4	0.11569205
225	0x3da8c1c8	0.08240086
226	0xbdcb1264	-0.09915617
227	0x3dd4a366	0.10382728
228	0x3df34a88	0.1187945
229	0xbd05a890	-0.032631457
230	0x3d99499a	0.074847415
231	0x3cf8db28	0.03037794
232	0xbdb70bb6	-0.089377806
233	0x3bdbca80	0.0067074895
234	0xbdebe306	-0.11517911
235	0xbdee197c	-0.116259545
236	0x3d8ea0c8	0.0696426
237	0xbd047200	-0.03233528
238	0xbdad0126	-0.08447485
239	0x3bab7800	0.005232811
240	0xbdb8aa36	-0.0901684
241	0xbdca2b30	-0.098715186
242	0xbdec6074	-0.115418345
243	0xbdd001ea	-0.10156615
244	0xbce1a388	-0.027543798
245	0x3ce0f178	0.027458891
246	0xbdd8b0f4	-0.10580626
247	0x3db3a148	0.08770996
248	0x3dc11988	0.09428698
249	0x3dcb49d4	0.09926191
250	0xbdeabedc	-0.11462185
251	0x3dc68be8	0.09694654
252	0x3d88f56a	0.06687434
253	0xbd8fd56a	-0.070231274
254	0xbd8c5716	-0.06852548
255	0x3d6252bc	0.055254683

value_net.0.attention.in_proj_bias f4 [288]
0	0x00000000	0.0
1	0x00000000	0.0
2	0x00000000	0.0
3	0x00000000	0.0
4	0x00000000	0.0
5	0x00000000	0.0
6	0x00000000	0.0
7	0x00000000	0.0
8	0x00000000	0.0
9	0x00000000	0.0
10	0x00000000	0.0
11	0x00000000	0.0
12	0x00000000	0.0
13	0x00000000	0.0
14	0x00000000	0.0
15	0x00000000	0.0
16	0x00000000	0.0
17	0x00000000	0.0
18	0x00000000	0.0
19	0x00000000	0.0
20	0x00000000	0.0
21	0x00000000	0.0
22	0x00000000	0.0
23	0x00000000	0.0
24	0x00000000	0.0
25	0x00000000	0.0
26	0x00000000	0.0
27	0x00000000	0.0
28	0x00000000	0.0
29	0x00000000	0.0
30	0x00000000	0.0
31	0x00000000	0.0
32	0x00000000	0.0
33	0x00000000	0.0
34	0x00000000	0.0
35	0x00000000	0.0
36	0x00000000	0.0
37	0x00000000	0.0
38	0x00000000	0.0
39	0x00000000	0.0
40	0x00000000	0.0
41	0x00000000	0.0
42	0x00000000	0.0
43	0x00000000	0.0
44	0x00000000	0.0
45	0x00000000	0.0
46	0x00000000	0.0
47	0x00000000	0.0
48	0x00000000	0.0
49	0x00000000	0.0
50	0x00000000	0.0
51	0x00000000	0.0
52	0x00000000	0.0
53	0x00000000	0.0
54	0x00000000	0.0
55	0x00000000	0.0
56	0x00000000	0.0
57	0x00000000	0.0
58	0x00000000	0.0
59	0x00000000	0.0
60	0x00000000	0.0
61	0x00000000	0.0
62	0x00000000	0.0
63	0x00000000	0.0
64	0x00000000	0.0
65	0x00000000	0.0
66	0x00000000	0.0
67	0x00000000	0.0
68	0x00000000	0.0
69	0x00000000	0.0
70	0x00000000	0.0
71	0x00000000	0.0
72	0x00000000	0.0
73	0x00000000	0.0
74	0x00000000	0.0
75	0x00000000	0.0
76	0x00000000	0.0
77	0x00000000	0.0
78	0x00000000	0.0
79	0x00000000	0.0
80	0x00000000	0.0
81	0x00000000	0.0
82	0x00000000	0.0
83	0x00000000	0.0
84	0x00000000	0.0
85	0x00000000	0.0
86	0x00000000	0.0
87	0x00000000	0.0
88	0x00000000	0.0
89	0x00000000	0.0
90	0x00000000	0.0
91	0x00000000	0.0
92	0x00000000	0.0
93	0x00000000	0.0
94	0x00000000	0.0
95	0x00000000	0.0
96	0x00000000	0.0
97	0x00000000	0.0
98	0x00000000	0.0
99	0x00000000	0.0
100	0x00000000	0.0
101	0x00000000	0.0
102	0x00000000	0.0
103	0x00000000	0.0
104	0x00000000	0.0
105	0x00000000	0.0
106	0x00000000	0.0
107	0x00000000	0.0
108	0x00000000	0.0
109	0x00000000	0.0
110	0x00000000	0.0
111	0x00000000	0.0
112	0x00000000	0.0
113	0x00000000	0.0
114	0x00000000	0.0
115	0x00000000	0.0
116	0x00000000	0.0
117	0x00000000	0.0
118	0x00000000	0.0
119	0x00000000	0.0
120	0x00000000	0.0
121	0x00000000	0.0
122	0x00000000	0.0
123	0x00000000	0.0
124	0x00000000	0.0
125	0x00000000	0.0
126	0x00000000	0.0
127	0x00000000	0.0
128	0x00000000	0.0
129	0x00000000	0.0
130	0x00000000	0.0
131	0x00000000	0.0
132	0x00000000	0.0
133	0x00000000	0.0
134	0x00000000	0.0
135	0x00000000	0.0
136	0x00000000	0.0
137	0x00000000	0.0
138	0x00000000	0.0
139	0x00000000	0.0
140	0x00000000	0.0
141	0x00000000	0.0
142	0x00000000	0.0
143	0x00000000	0.0
144	0x00000000	0.0
145	0x00000000	0.0
146	0x00000000	0.0
147	0x00000000	0.0
148	0x00000000	0.0
149	0x00000000	0.0
150	0x00000000	0.0
151	0x00000000	0.0
152	0x00000000	0.0
153	0x00000000	0.0
154	0x00000000	0.0
155	0x00000000	0.0
156	0x00000000	0.0
157	0x00000000	0.0
158	0x00000000	0.0
159	0x00000000	0.0
160	0x00000000	0.0
161	0x00000000	0.0
162	0x00000000	0.0
163	0x00000000	0.0
164	0x00000000	0.0
165	0x00000000	0.0
166	0x00000000	0.0
167	0x00000000	0.0
168	0x00000000	0.0
169	0x00000000	0.0
170	0x00000000	0.0
171	0x00000000	0.0
172	0x00000000	0.0
173	0x00000000	0.0
174	0x00000000	0.0
175	0x00000000	0.0
176	0x00000000	0.0
177	0x00000000	0.0
178	0x00000000	0.0
179	0x00000000	0.0
180	0x00000000	0.0
181	0x00000000	0.0
182	0x00000000	0.0
183	0x00000000	0.0
184	0x00000000	0.0
185	0x00000000	0.0
186	0x00000000	0.0
187	0x00000000	0.0
188	0x00000000	0.0
189	0x00000000	0.0
190	0x00000000	0.0
191	0x00000000	0.0
192	0xbb2ce215	-0.0026379873
193	0xbaa1bc26	-0.0012339398
194	0x3aca6ba2	0.0015443454
195	0xbbd1be28	-0.006400842
196	0xbc0a1445	-0.008427684
197	0xbbb654e3	-0.0055643185
198	0xbc18fa0a	-0.009336958
199	0xbb802b01	-0.0039113765
200	0xbc5177c2	-0.0127849
201	0xbb44441c	-0.0029947823
202	0xbbcebfbe	-0.0063094785
203	0xba631d95	-0.0008663771
204	0xbb324de1	-0.0027207064
205	0xbc137135	-0.008999159
206	0x3bd7f6b4	0.0065906886
207	0x3c41adb2	0.011821197
208	0x3c25ba59	0.0101152295
209	0xbb7eb200	-0.003886342
210	0x3c3026e2	0.010751458
211	0xbc0356e5	-0.008016323
212	0xba88362a	-0.0010392119
213	0x3bf5672e	0.0074891066
214	0x3c5b4960	0.013384193
215	0xbc45f738	-0.012082867
216	0xbb9b459e	-0.0047385236
217	0x3b922299	0.004459691
218	0x3b933db4	0.0044934396
219	0x3b6ad49b	0.003583229
220	0xbafe44d5	-0.0019399176
221	0xbbc73b66	-0.006080079
222	0x3c109fb6	0.008827141
223	0x3ad72ab4	0.0016415925
224	0xbb597d9a	-0.0033186437
225	0xbc3aa780	-0.011392474
226	0x390554d9	0.00012715477
227	0x3c211086	0.0098306
228	0x3a05645e	0.0005088503
229	0xbb4de20a	-0.0031415247
230	0xbc4ea7e8	-0.012613274
231	0x3a02f0f7	0.0004995013
232	0x3b926a8c	0.004468268
233	0x3aaa26fd	0.001298159
234	0xba60f232	-0.0008581012
235	0xbbc91ffc	-0.006137846
236	0x3ac62839	0.0015118188
237	0xbc37f3ff	-0.011227607
238	0x3bd2d014	0.0064334963
239	0x3c3ba92b	0.011453907
240	0xbbaf1695	-0.005343268
241	0x3be45ab3	0.00696882
242	0xbc53e3a2	-0.01293269
243	0xbc05d062	-0.008167358
244	0x3baac737	0.0052117365
245	0x3aa28acc	0.0012400984
246	0xbc24db42	-0.010062041
247	0xbc126ff0	-0.008937821
248	0x3c5cd9d8	0.013479672
249	0xbc48867d	-0.012239096
250	0xba9eabd3	-0.0012105651
251	0xbcb2871c	-0.02179294
252	0x3a0dff29	0.0005416745
253	0x3a84ccae	0.00101318
254	0x3c14cc1b	0.009081866
255	0xbc1b04da	-0.009461606

value_net.0.attention.out_proj.weight f4 [96, 96]
0	0xbcf98cbd	-0.030462617
1	0xbd90d868	-0.07072526
2	0x3ceb718a	0.028740663
3	0x3d8b9400	0.06815338
4	0x3d5c0740	0.05371785
5	0xbd959d2a	-0.07305367
6	0x3c848409	0.01617624
7	0x3d8261e0	0.063663244
8	0x3d13b5f2	0.03606219
9	0xbc8aa034	-0.016922094
10	0xbc84af1e	-0.016196784
11	0xbdb2a49e	-0.087228045
12	0xbd5b8b3e	-0.05359959
13	0xbd1d3f6c	-0.038390562
14	0x3c0d8ad3	0.008639055
15	0x3d2b18fc	0.041771874
16	0xbd8a591a	-0.06755276
17	0x3d598b4a	0.053111352
18	0xbdb37e40	-0.08764315
19	0xbd7f74a8	-0.06236711
20	0x3dacf267	0.08444672
21	0x3dcf3b2d	0.10118709
22	0x3d838262	0.06421353
23	0x3d1cd3c6	0.0382879
24	0x3d8beec0	0.06832647
25	0xbde26435	-0.11054269
26	0xbd31073a	-0.043219782
27	0xbc9cdc5c	-0.019148044
28	0x3b9bfe28	0.0047605224
29	0x3dd977ad	0.106185295
30	0x3dd0d43f	0.10196733
31	0xbd731714	-0.05934818
32	0xbd018a7e	-0.031626217
33	0xbd567e27	-0.052366402
34	0xbd2d7841	-0.04235101
35	0x3dc22e5a	0.09481497
36	0x3d2da26f	0.042391237
37	0x3dd5d0a4	0.10440186
38	0x3db657e9	0.08903486
39	0xbbea49b8	-0.0071499012
40	0xbdce35e2	-0.10068871
41	0x3d932a1b	0.07185765
42	0x3d289d65	0.041165728
43	0xbc4d23b2	-0.012520717
44	0x3d3c48fb	0.045968037
45	0x3d48d8ca	0.04903487
46	0x3b9dbe4c	0.004813945
47	0x3dc4ea19	0.09614963
48	0x3d8b6d28	0.06807929
49	0xbd4a000b	-0.049316447
50	0xbd25039b	-0.04028664
51	0xbd438123	-0.047730576
52	0xbd8dc26d	-0.069218494
53	0xbda1d3ce	-0.07901727
54	0x3daf6aa9	0.08565266
55	0x3c8e63b4	0.017381527
56	0xbd81c6ff	-0.063367836
57	0x3b96c904	0.0046015996
58	0x3d9ef422	0.077614084
59	0x3cbeaa9e	0.023274716
60	0x3d773e42	0.060362108
61	0xbccf8bce	-0.025335219
62	0xbbcc6756	-0.0062379045
63	0x3c650443	0.013978067
64	0xbcbebfe3	-0.023284858
65	0x3dc9fca5	0.09862641
66	0x3d8a3f5e	0.067503676
67	0x3d33e849	0.043922696
68	0x3d524002	0.051330574
69	0x3dc83265	0.09775237
70	0xbc186c01	-0.009303094
71	0xbc08a1c8	-0.008339353
72	0xbc2928b8	-0.0103246495
73	0x3d145622	0.036214955
74	0xbdb8fa6d	-0.0903214
75	0x3db6abd3	0.089194916
76	0x3d61a5fd	0.05508994
77	0x3d589e21	0.05288518
78	0xbd39d352	-0.045367546
79	0x3d394c52	0.0452388
80	0xbdbb95d1	-0.091594346
81	0x3da53272	0.08066262
82	0xbcdf89d2	-0.027287398
83	0xbda83da3	-0.08214881
84	0x3d9c86f8	0.07642931
85	0x3dc3d952	0.09562935
86	0xbce33e14	-0.027739562
87	0xbd822886	-0.063553855
88	0xbd889aee	-0.066701755
89	0x3d8ae32c	0.06781611
90	0x3cef0a9e	0.029179867
91	0xbd074199	-0.033021543
92	0xbcf0ed6e	-0.02941009
93	0x3d2426c3	0.04007603
94	0xbd8726a2	-0.065991655
95	0x3da1b84e	0.078964815
96	0x3db40f06	0.08791928
97	0x3b015845	0.001973645
98	0x3d0dffe7	0.034667876
99	0x3d975512	0.07389273
100	0xbc13ee3a	-0.009028966
101	0xbdc32e06	-0.09530263
102	0xbd6f350e	-0.058400206
103	0xbda3443f	-0.07972001
104	0x3b17e734	0.002317858
105	0x3d384930	0.044991672
106	0xb9c03c7f	-0.00036666167
107	0x3c1cb8c1	0.009565533
108	0x3d978ea1	0.07400251
109	0xbd1e3cff	-0.03863239
110	0x3ceac9c5	0.028660664
111	0xbc1717f1	-0.009222017
112	0x3dafcb64	0.085837156
113	0x3dc1986c	0.094529
114	0xbd8a7eac	-0.06762442
115	0xbd6d3b20	-0.057917714
116	0xbd03752a	-0.03209416
117	0x3dc32976	0.095293924
118	0x3dab9b34	0.08379212
119	0xbcfb374b	-0.030666014
120	0x3dbafdf9	0.09130473
121	0x3d03d528	0.032185704
122	0xbc807886	-0.01568247
123	0x3dadc583	0.08484938
124	0x3d3c1307	0.045916583
125	0x3da63c00	0.08116913
126	0x3998e2fc	0.00029160816
127	0x3d3798d6	0.04482349
128	0xbdcdc01d	-0.10046408
129	0x3c719e51	0.014747218
130	0x3dc6fc08	0.0971604
131	0x3ceea68a	0.029132146
132	0x3b8ce8d3	0.0043002157
133	0xbd63c792	-0.055610247
134	0x3c70e8a8	0.014703907
135	0xbdccf5ff	-0.100078575
136	0x3d9b0a0a	0.07570274
137	0x3d3a806b	0.045532625
138	0x3d9c752f	0.076395385
139	0xbca7f310	-0.020501643
140	0x3d3814e6	0.044941805
141	0x3da9a7c4	0.08283952
142	0xbd2b0ff5	-0.041763265
143	0xbdc8001c	-0.09765646
144	0x3ac3f929	0.0014951575
145	0x3ddb44ba	0.10706468
146	0x3c50af27	0.012737072
147	0xbc9f7011	-0.019462617
148	0x3dc66573	0.09687319
149	0xbdc8a13a	-0.097963765
150	0x3d0d4664	0.034490958
151	0x3c00f548	0.00787098
152	0xba268c5d	-0.0006353313
153	0xbbe97c20	-0.0071253926
154	0x3b65677a	0.0035004304
155	0xbdaab24a	-0.08334787
156	0xbcc294ad	-0.023752535
157	0x3d9b7a0a	0.075916365
158	0x3d0c65ea	0.03427688
159	0xbd516e20	-0.051130414
160	0xbd76fb1a	-0.060298063
161	0xbd8db4a7	-0.06919222
162	0x3d2878ee	0.041130953
163	0x3d95898d	0.07301626
164	0x3d27405f	0.040832873
165	0xbd124320	-0.035708547
166	0x3db0f826	0.086410806
167	0xbcfdfc10	-0.031003982
168	0x3d44a6f2	0.048010774
169	0xbd358ec1	-0.044325594
170	0x3bc767de	0.00608538
171	0xbd3a9563	-0.045552623
172	0x3d88b98c	0.06676015
173	0x3c9a5983	0.01884151
174	0x3d4b4662	0.04962767
175	0x3d2bdb65	0.041957278
176	0xbd2db516	-0.042409025
177	0xbd27ced6	-0.04096874
178	0xbc980064	-0.018554874
179	0x3d504699	0.050848577
180	0x3d5f3215	0.05449112
181	0xbd556ecd	-0.05210762
182	0x3cc786d8	0.02435629
183	0x3da78e31	0.08181418
184	0xbdd2ea3e	-0.102985844
185	0x3ca125b9	0.019671308
186	0xbda7aff0	-0.08187854
187	0xbd30a5a6	-0.043126725
188	0xbd229e1f	-0.039701577
189	0xbd9870df	-0.074434035
190	0x3a61339f	0.0008590761
191	0x3d949819	0.07255573
192	0x3d5e1308	0.05421737
193	0xbbdb5e0c	-0.006694561
194	0xbd7b4458	-0.061344475
195	0xbd79330c	-0.060839698
196	0x3ca070e3	0.019585079
197	0x3bb2eeac	0.005460581
198	0xbd1e2f83	-0.03861953
199	0xbd919087	-0.071076445
200	0xbc0f83dd	-0.008759466
201	0xbd3c8890	-0.046028674
202	0xbcb11694	-0.021617211
203	0x3d0a1637	0.033712592
204	0xbdbd108b	-0.09231671
205	0x3dc19f3f	0.09454202
206	0x3cc6dd99	0.024275588
207	0x3d06fe94	0.03295763
208	0x3c521b4a	0.012823889
209	0x3ca0491e	0.019566115
210	0xbcf91d4f	-0.030409483
211	0x3cfa954c	0.030588768
212	0xbd6ac089	-0.057312522
213	0x3dafce7c	0.08584306
214	0x3c8285df	0.015932975
215	0xbda3712b	-0.079805695
216	0x3b8f3d96	0.0043713553
217	0xbd658084	-0.056030765
218	0x3d535552	0.05159504
219	0x3d649136	0.055802546
220	0x3d5eedfb	0.054426175
221	0x3ce88c87	0.028387321
222	0x3d348489	0.044071708
223	0xbd8724bf	-0.06598806
224	0xbd8b18f1	-0.067918666
225	0x3d20e3fd	0.039279927
226	0x3d3506fe	0.04419612
227	0x3dce6061	0.100769766
228	0x3d9d425d	0.076786734
229	0x3da6a4d2	0.08136906
230	0x3d904d5e	0.070460066
231	0x3d5795c5	0.052633066
232	0xbdb90d20	-0.090357065
233	0x3d66a9b6	0.056314193
234	0x3db8b490	0.090188146
235	0x3d6e1cd1	0.05813295
236	0x3d88fbb7	0.06688636
237	0xbccc0518	-0.024904773
238	0x3c51c440	0.012803137
239	0x3c8263f7	0.015916808
240	0x3c671f0c	0.014106523
241	0x3beafd39	0.0071713
242	0xbb912197	-0.004429053
243	0xbd62ca9c	-0.055369005
244	0xbd891b75	-0.0669469
245	0x3d997e23	0.07494762
246	0x3cbee5e6	0.023302983
247	0xbd95e059	-0.073181815
248	0xbd4c1541	-0.049824957
249	0x3dba0214	0.090824276
250	0xbc4fee50	-0.0126910955
251	0x3d5e1d80	0.054227352
252	0x3db5fe72	0.08886422
253	0xbcc1e7b0	-0.023670048
254	0x3d2a7940	0.04161954
255	0x3cc3e062	0.023910705

value_net.0.attention.out_proj.bias f4 [96]
0	0xbc0c5e05	-0.008567338
1	0x3aafe51b	0.0013419719
2	0xbb343de5	-0.0027502712
3	0xbbf82a70	-0.0075734183
4	0xbb127181	-0.0022345486
5	0x3b5e02d1	0.003387619
6	0xbb5a7a50	-0.0033337064
7	0xbc3371d7	-0.0109524345
8	0xbc32ed3f	-0.010920822
9	0xbc46f6b6	-0.012143781
10	0x3b369ad3	0.0027863279
11	0xbb056d81	-0.002035946
12	0x3b36358c	0.0027802913
13	0xba70536e	-0.00091677054
14	0x3bb58424	0.005539434
15	0xbbd32871	-0.00644403
16	0xbbc9db2e	-0.0061601615
17	0x3ad1065b	0.0015947329
18	0x3c0471a5	0.008083736
19	0x3bdf6faa	0.0068187313
20	0x3b2cd144	0.002636985
21	0xbbd3be7c	-0.0064619165
22	0x3c6d2cb6	0.014475992
23	0x3b9d8034	0.004806543
24	0xbc356f85	-0.011073952
25	0xbc2599bb	-0.010107453
26	0x3b92a8ee	0.0044757044
27	0xbab342e5	-0.0013676552
28	0xbbf1e608	-0.007382158
29	0xbc397c07	-0.011321074
30	0xbb0ff505	-0.0021966111
31	0xb961cb6b	-0.00021533451
32	0x3b908aac	0.004411062
33	0x3c345268	0.011005975
34	0x3b759b78	0.00374767
35	0x3b8abfae	0.004234276
36	0xbc3ff749	-0.011716672
37	0x3ae42e99	0.0017408907
38	0x3a7c6696	0.00096283236
39	0xbc0f00a3	-0.008728179
40	0xbb92471e	-0.0044640442
41	0xbc6b1ff2	-0.014350878
42	0x393d7327	0.00018067342
43	0x3aa6c10e	0.001272233
44	0xbba724f8	-0.0051008426
45	0x3b033699	0.0020021556
46	0xbbeee3ad	-0.0072903247
47	0x3c7d2a49	0.015451976
48	0xbc166383	-0.009178999
49	0x3bf29d53	0.0074040084
50	0xbba93c6c	-0.0051646736
51	0x3b84fda1	0.0040585552
52	0xba5b48d9	-0.0008365042
53	0x3b03df85	0.0020122242
54	0x3b2b3ea5	0.0026129868
55	0xbb104620	-0.0022014454
56	0xbb21ba8b	-0.0024677839
57	0xbbed01c2	-0.0072328756
58	0x3bb4b5e4	0.005514847
59	0xbb413cc0	-0.0029485673
60	0xbb779a30	-0.0037781112
61	0x399f32a0	0.00030364562
62	0xbbf0af1f	-0.007345095
63	0x3c2a3655	0.01038893
64	0xba505e6d	-0.0007948641
65	0xbb9a703a	-0.0047130855
66	0xbc0591e4	-0.008152459
67	0xbc2074e7	-0.009793497
68	0xbaccf457	-0.0015636784
69	0xba811ad6	-0.0009849917
70	0xba7fb4ff	-0.00097544485
71	0xb903e411	-0.00012578095
72	0x3b8f3666	0.0043704985
73	0x3ac2f2bd	0.0014873367
74	0xbbe7e343	-0.0070766523
75	0x3b2b8b91	0.0026175717
76	0x3c2b5852	0.010458069
77	0x3be5b605	0.007010224
78	0xbbed59ae	-0.0072433567
79	0xbb5c058d	-0.0033572644
80	0xbc2a5626	-0.010396516
81	0x3c3344eb	0.010941724
82	0x3ab6308f	0.001389997
83	0xbbb60ddc	-0.0055558514
84	0xbc147025	-0.00905994
85	0xbb461a53	-0.0030228093
86	0xbc6b0e67	-0.0143466955
87	0x3b9f8649	0.004868303
88	0x3b6ddc84	0.0036294768
89	0xbc5118a7	-0.012762225
90	0x3b9599f0	0.00456547
91	0x3c118ab9	0.008883172
92	0x3a1d7780	0.00060068816
93	0xbbd0341a	-0.0063538672
94	0x3c06eb98	0.008234881
95	0xbb43f13e	-0.002989843

value_net.1.weight f4 [64, 96]
0	0xbd4075e3	-0.046987426
1	0xbd774689	-0.060370002
2	0x3c36d5d0	0.011159375
3	0xbd523c9a	-0.051327325
4	0xbd4ece19	-0.05048952
5	0xbc88837a	-0.016664255
6	0xbd608064	-0.054809943
7	0xbc79c727	-0.0152452355
8	0x3d7a43f6	0.06109997
9	0x3d952a28	0.07283431
10	0xbdb5687f	-0.08857822
11	0x3d628bfb	0.055309277
12	0x3d414871	0.047188226
13	0xbd53b692	-0.051687784
14	0x3be54ba0	0.0069975406
15	0xbce498da	-0.027904917
16	0xbd2911e8	-0.041276842
17	0xbc5ba26c	-0.013405424
18	0x3c324d95	0.010882755
19	0x3dd967b9	0.10615487
20	0x3d1f4cc0	0.038891554
21	0xbdce7506	-0.10080914
22	0xbdc13f05	-0.09435848
23	0xbdc7d76f	-0.097578876
24	0x3d51c7f7	0.051216092
25	0xbc8b1b63	-0.016980832
26	0x3d3e02f7	0.046389546
27	0xbdd1457b	-0.102183305
28	0x3c198601	0.009370328
29	0xbd8f8ffe	-0.07009886
30	0xbdbbf4ab	-0.09177526
31	0x3d748b57	0.059703197
32	0xbd9c3eff	-0.07629203
33	0x3d764ac8	0.06012991
34	0xbda4ce53	-0.08047166
35	0x3c672f9a	0.01411047
36	0x3d49849b	0.049198728
37	0x3b814127	0.0039445343
38	0x3d80639c	0.06268999
39	0xbd3c1a73	-0.04592366
40	0xbd465b87	-0.04842713
41	0x3d9fe258	0.078068435
42	0x3c6a78f7	0.014311067
43	0x3da96875	0.08271877
44	0x3dc4e773	0.09614458
45	0xbddced31	-0.10787428
46	0x3cf64b9e	0.030065354
47	0xbccdd53e	-0.025126096
48	0x3c83a085	0.016067753
49	0xbc96b4c8	-0.01839675
50	0xbcd24bac	-0.025670849
51	0x3b055ec9	0.0020350686
52	0xbdd4d740	-0.10392618
53	0x3d6f3686	0.058401607
54	0xbd8c0d01	-0.06838418
55	0x3d973bac	0.073844284
56	0xbab00aa0	-0.0013430901
57	0x3c4bc7c4	0.012437765
58	0xbd206fd0	-0.039169133
59	0x3d9af849	0.07566888
60	0x3d8c1c1d	0.068413
61	0xbd26fd5d	-0.04076897
62	0xbd6f2d03	-0.058392536
63	0x3d245d33	0.040127944
64	0x3d9151d3	0.07095685
65	0x3d138316	0.036013685
66	0x3c1eaba3	0.009684476
67	0xbd85657d	-0.06513498
68	0x3d03cff2	0.032180734
69	0x3d22d046	0.039749406
70	0x3dc0e735	0.09419099
71	0x3d93d62d	0.07218585
72	0x3cb0207d	0.021499867
73	0x3d04b8bb	0.032402735
74	0x3d5eaab4	0.054362014
75	0xbdaa9301	-0.0832882
76	0x3c18d564	0.00932822
77	0xbcf87865	-0.030330846
78	0xbd3c6ef7	-0.04600426
79	0x3d2aca18	0.041696638
80	0xbbe735a6	-0.007055956
81	0x3cc16d58	0.02361171
82	0x3db8b546	0.0901895
83	0x3cc9b1ff	0.024621008
84	0xbd471982	-0.04860831
85	0xbd23df89	-0.0400081
86	0x3cdee959	0.027210878
87	0xb9b93bc4	-0.0003533048
88	0xbda17a07	-0.07884603
89	0xbc77159a	-0.015080834
90	0xbd2997d1	-0.04140455
91	0xbc917b77	-0.017759068
92	0x3d5a9147	0.053361204
93	0xbd4d228c	-0.050081775
94	0x3d713b55	0.058894474
95	0x3d87d277	0.0663194
96	0xbdce4c30	-0.10073125
97	0x3db41ad3	0.08794179
98	0xbd878868	-0.06617814
99	0x3d5a5d90	0.053311884
100	0x3cbd6203	0.023118025
101	0x3d676ae4	0.056498423
102	0xbb6b4d22	-0.003590413
103	0xbd88c0d5	-0.06677405
104	0xbda45e9e	-0.08025859
105	0x3cac088d	0.021000171
106	0xbd3ae935	-0.04563256
107	0x3bbc4ec5	0.0057466947
108	0xbd851428	-0.06497985
109	0x3dbb0ebc	0.0913367
110	0xbdd1c32a	-0.10242303
111	0x3daa70fa	0.0832233
112	0xbd047d86	-0.03234627
113	0x3c126160	0.008934349
114	0xbd8a5c07	-0.06755834
115	0x3d7ad851	0.06124145
116	0x3d3accd0	0.04560548
117	0x3ce71c60	0.028211772
118	0x3bf8a05c	0.0075874757
119	0x3dbad52b	0.0912269
120	0xbd24e44a	-0.040256776
121	0xbda14b0d	-0.07875643
122	0xbdd35bda	-0.10320254
123	0x3d1eb885	0.03875019
124	0x3dd142f7	0.10217851
125	0xbbaa6752	-0.005200305
126	0xbd4986e5	-0.04920091
127	0x3ce2c602	0.027682308
128	0xbd868299	-0.06567878
129	0xbd2c2284	-0.042025104
130	0x3cbbd4f3	0.02292869
131	0x3db55316	0.08853738
132	0x3d0c6d8d	0.034284163
133	0xbd9dd1e7	-0.07706051
134	0xbd3ced3f	-0.046124693
135	0xbd90c30e	-0.07068454
136	0x3c18533b	0.009297187
137	0x3bf78ca3	0.007554607
138	0xbc068c4f	-0.008212163
139	0x3c3ce370	0.011528835
140	0xbd91ae6c	-0.071133465
141	0xbbdf2f2e	-0.006811044
142	0x3dc7710a	0.09738357
143	0x3d848d25	0.06472234
144	0xbdadadcc	-0.08480415
145	0xbd4cd12e	-0.050004177
146	0xbda55d32	-0.08074416
147	0xbdd40cb7	-0.10353988
148	0xbb547bb5	-0.0032422368
149	0x3db0640b	0.08612832
150	0x3d29d386	0.04146149
151	0xbd656852	-0.05600769
152	0x3db409fb	0.08790966
153	0x3d99de23	0.07513072
154	0x3d8a0729	0.06739647
155	0xbd9c3ba6	-0.076285645
156	0xbdcfdce3	-0.10149553
157	0xbdb126de	-0.086499915
158	0xbdd33d00	-0.10314369
159	0x3ce7d4b1	0.028299661
160	0x3dc4d150	0.09610236
161	0xbdc20592	-0.09473719
162	0x3da3dd1b	0.08001157
163	0xbbb72204	-0.005588772
164	0x3d85a76f	0.06526076
165	0xbdc543fd	-0.09632108
166	0x3b5ff6d2	0.0034174216
167	0xbd876807	-0.066116385
168	0xbd85a009	-0.06524665
169	0xbda39280	-0.07986927
170	0x3d2c0a52	0.04200203
171	0xbd83a089	-0.06427104
172	0x3cced32c	0.025247179
173	0xbcb9db0f	-0.022687463
174	0x3c8ac9cd	0.01694193
175	0xbdca555b	-0.098795615
176	0x3d28a2be	0.041170828
177	0x3caeeee9	0.021354156
178	0xbd857d25	-0.0651801
179	0xbd2c633e	-0.042086832
180	0xbcca5ab1	-0.024701448
181	0xbd7f1be1	-0.062282447
182	0x3d3e9856	0.046531998
183	0x3ab3e645	0.0013725242
184	0xbcd1afe8	-0.025596574
185	0x3bcd72ba	0.00626978
186	0x3d1fb9aa	0.038995422
187	0x3ce9cd35	0.028540233
188	0xbd1c20f8	-0.03811738
189	0x3cbbc8ea	0.022922952
190	0xbd5af4fc	-0.05345629
191	0xbd1fbf98	-0.039001077
192	0x3db3ccb7	0.08779281
193	0x3d924ce2	0.071435705
194	0xbd5c6fda	-0.053817607
195	0xbdc5fecf	-0.096677415
196	0xbd7ae216	-0.06125077
197	0xbd3cfca0	-0.04613936
198	0x3de06e8b	0.109585844
199	0xbbadc771	-0.0053033163
200	0xbd8d2c4f	-0.06893217
201	0x3da7520c	0.08169946
202	0xbdb72a5e	-0.08943628
203	0x3d40c8ec	0.047066614
204	0xbd40667c	-0.046972737
205	0x3b9dc360	0.0048145503
206	0x3dabb545	0.08384184
207	0x3d9ee2e9	0.077581234
208	0xbd97bb45	-0.07408766
209	0x3d41fa7f	0.047358032
210	0x3dc3177a	0.09525962
211	0x3d96f41b	0.07370778
212	0x3d8903e5	0.06690196
213	0xbdad80a0	-0.08471799
214	0xbd200146	-0.039063714
215	0xbd95ae9a	-0.07308693
216	0x3c8d7356	0.01726691
217	0x3d81d040	0.06338549
218	0xbda299d3	-0.07939496
219	0x3d865c23	0.065605424
220	0x3d9d87cd	0.076919176
221	0xbd3c2cfb	-0.045941334
222	0xbdac63e5	-0.08417491
223	0xbdc52693	-0.09626498
224	0xbc879060	-0.016548336
225	0xbd85ab7f	-0.06526851
226	0x3d253579	0.0403342
227	0x3d89f1fb	0.06735607
228	0xbdcc3cd1	-0.09972537
229	0x3dbcb335	0.092138685
230	0xbd6754b0	-0.05647725
231	0xbdb3d88f	-0.0878154
232	0xbdbe181b	-0.092819415
233	0x3d1243bd	0.03570913
234	0x3be6206f	0.0070229094
235	0x3ce2f11e	0.027702864
236	0xbceff0f3	-0.029289698
237	0xbd52e105	-0.051484127
238	0xbc3618b9	-0.011114293
239	0x3daae696	0.08344762
240	0x3dce7371	0.100806125
241	0x3cfdb50b	0.030970117
242	0xbd8aa413	-0.06769576
243	0x3d0161b2	0.03158731
244	0xbda38e3b	-0.07986113
245	0xbdad1d30	-0.08452833
246	0xbdb83033	-0.08993568
247	0x3d854b85	0.06508545
248	0xbdc88bd1	-0.09792293
249	0x3dab2632	0.083568946
250	0x3cd6087f	0.026127098
251	0x3d8c8929	0.06862099
252	0xbd8e26e6	-0.06941013
253	0xbd9ae6d9	-0.07563562
254	0x3ccf2c82	0.025289778
255	0xbd9a33d0	-0.07529414

value_net.1.bias f4 [64]
0	0xbd328144	-0.04358031
1	0x3cf796ab	0.030223211
2	0xbb2b4f3f	-0.0026139764
3	0xbda381e4	-0.07983759
4	0x3cf94759	0.030429529
5	0x3c082e41	0.008311809
6	0xbd8ed4e2	-0.06974198
7	0x3d42fdec	0.04760544
8	0xbca32ce1	-0.01991886
9	0xbd8c3b1b	-0.06847211
10	0xbd5fa6cc	-0.05460243
11	0xbc089ef5	-0.00833868
12	0xbdc5ee27	-0.096645646
13	0xbd663dfb	-0.056211453
14	0xbcd5d87d	-0.026104206
15	0xbd3a9681	-0.045553688
16	0x3d88f493	0.06687274
17	0xbd656fb8	-0.056014746
18	0xbcec7f23	-0.028869217
19	0x3d2d523e	0.04231476
20	0x3c1cda5b	0.009573544
21	0x3d614a1d	0.05500232
22	0x3d600fd4	0.054702595
23	0xbc93211b	-0.017960122
24	0x3c928824	0.017887183
25	0xbd641475	-0.05568357
26	0xbc76e800	-0.015069962
27	0xbd9069fc	-0.07051465
28	0x3db344bd	0.08753345
29	0x3c2fef88	0.010738261
30	0x3d084993	0.03327329
31	0xbdc1f510	-0.0947057
32	0xbd855ee6	-0.06512241
33	0xbc5e2b70	-0.013560161
34	0x3d4609a7	0.04834905
35	0xbde0c09a	-0.10974236
36	0xbd2bd45b	-0.041950565
37	0xbc86dc9e	-0.01646262
38	0x3c013718	0.0078866705
39	0x3cced3fc	0.025247566
40	0xbcf7e730	-0.030261606
41	0x3ce63dab	0.028105577
42	0xbdae873b	-0.08521887
43	0xbc31d326	-0.010853564
44	0x3d11752b	0.03551213
45	0x3dab1dc9	0.083552904
46	0xbd716f0e	-0.0589438
47	0x3daad906	0.08342175
48	0x3daa4f27	0.08315878
49	0x3dc0fbc3	0.0942302
50	0xbbcdf0db	-0.0062848157
51	0xbcec7df7	-0.028868658
52	0x3d44a515	0.048008997
53	0xbdd1800e	-0.102295026
54	0xbd5d79a5	-0.054071087
55	0x3bb8ce2b	0.0056398115
56	0xbd442520	-0.047886968
57	0x3d6edb42	0.05831457
58	0x3b96d7cb	0.0046033612
59	0x3d733eab	0.059385937
60	0xbd99d4b8	-0.07511276
61	0x3cdf7b32	0.027280424
62	0x3db11a4a	0.08647592
63	0xbd84f867	-0.064926915
