Learner-latest.pth (torch, 288983 bytes, 36 tensors)

dense.Linear1.weight f4 [64, 78]
-0.022889936 -0.06251714 0.067673475 -0.04916699 -0.07154391 -0.046915263 -0.04075613 -0.08947218
-0.017939912 0.06655629 -0.04303932 -0.031203868 0.04828893 -0.02522774 -0.0454982 0.078969255
-0.019196361 0.10002316 0.091420375 -0.051684055 -0.04046435 -0.0137872705 0.039105218 -0.038970675
-0.078060426 -0.09213346 -0.022348551 -0.019136066 -0.06867204 0.03200277 -0.013998118 0.086316526
0.013364994 0.0059744096 -0.08233162 0.052610092 -0.07386262 0.012554075 -0.07094225 -0.10956544
0.03499358 -0.08019701 -0.0099109765 -0.005652421 -0.025918335 -0.01002477 0.06435278 -0.063200645
-0.031597547 -0.091058955 -0.025236607 -0.07078349 0.040773 -0.11070327 0.0063498537 0.00018610596
0.10622306 -0.012301244 0.04294589 -0.003064729 0.09865746 0.03936569 0.08887404 -0.10319682
-0.05604845 0.10666334 0.074849285 0.0074288445 -0.068444945 0.116027914 0.05004688 -0.0122112045
0.0349832 0.10160095 -0.056702618 -0.0044946424 -0.082086176 0.09661653 0.01806591 -0.008833939
-0.06196038 -0.03135732 0.045075092 -0.09794129 0.055537496 -0.050432 0.009439656 -0.02530514
-0.020092078 0.08379552 -0.105965145 0.061298568 -0.04988278 0.08439999 0.099463336 -0.10904824
-0.03575219 -0.109392084 0.043385915 -0.047558412 0.09071553 0.049887918 0.061509628 0.029521374
-0.042242095 -0.08470283 0.06899031 0.0329679 -0.064083695 0.056049466 0.027292509 -0.0012134134
-0.098813966 0.066249534 0.022250606 -0.06256639 0.012188223 0.11404351 -0.010728453 0.08300511
0.10785652 -0.0013489645 0.0035235265 0.038608074 0.008326035 0.018215524 -0.013624409 -0.06326187
-0.0070474427 0.09300086 0.044211198 0.07934051 0.026950078 -0.06916915 0.098009355 0.0727663
0.012574822 0.0043271636 -0.00023330355 0.028032834 -0.10218288 0.10287103 -0.04098327 0.052573394
-0.027584516 0.09308537 0.0054110307 0.10581909 -0.08931146 0.046728518 0.000488039 0.06815332
0.076319225 0.11273442 0.09266031 -0.07093818 0.036814354 0.073856264 0.11345891 -0.10870378
-0.09850057 0.03314123 0.04389124 0.10979739 -0.030817509 0.09617699 -0.005070305 0.10868903
0.041164204 -0.016187167 0.05027537 -0.031641208 0.05369236 -0.011492793 0.06373682 -0.078780055
0.057628475 0.10245482 0.09907088 -0.07084671 -0.099419706 0.02196562 -0.08367971 -0.10936426
0.0139271505 -0.0760746 -0.072898455 0.01424001 0.0060537485 -0.0024127015 -0.008116566 0.027474897
-0.029621933 0.05474715 -0.055173635 -0.09393132 -0.016519405 -0.03581504 0.05428864 0.08807317
0.0047984286 0.007890903 0.1084513 -0.06427648 -0.033778083 0.09744962 0.056594003 0.056594815
0.021619886 0.10938465 0.04000041 -0.04548136 0.101237275 0.08960244 -0.05736538 0.09622516
0.073309734 -0.08016986 0.04125075 -0.050978024 0.09140281 0.0019700567 0.030346662 -0.071358755
0.046577398 0.027984291 0.010708372 0.06244451 -0.084992774 -0.06649767 0.083822384 0.020115908
0.0011943318 -0.011829586 -0.07366497 0.014197233 0.031771228 0.0332493 -0.026796378 0.04835033
0.052058544 -0.090037055 0.052267272 -0.048466332 -0.07828471 0.023430876 -0.027892465 -0.03006949
-0.044365738 0.022254191 0.019857515 -0.087184004 -0.019743025 -0.07805016 0.058849048 -0.041804355
00000000: ad83 bbbc fc08 80bd 6498 8a3d 5363 49bd
00000010: 9d85 92bd 382a 40bd e6ef 26bd 313d b7bd
00000020: b9f6 92bc aa4e 883d ff49 30bd 419f ffbc
00000030: 9dca 453d 68aa cebc 525c 3abd a2ba a13d
00000040: b041 9dbc f1d8 cc3d 9b3a bb3d a9b2 53bd
00000050: f2bd 25bd 01e4 61bc cb2c 203d b79f 1fbd
00000060: 25de 9fbd 78b0 bcbd 4f14 b7bc 3dc3 9cbc
00000070: eda3 8cbd 5615 033d 5d58 65bc b8c6 b03d
00000080: d9f8 5a3c fbc4 c33b 7b9d a8bd ae7d 573d
00000090: 4945 97bd 9baf 4d3c 2c4a 91bd d863 e0bd
000000a0: 6e55 0f3d 543e a4bd a661 22bc f237 b9bb
000000b0: b052 d4bc ef3e 24bc 64cb 833d 576f 81bd
000000c0: 6e6c 01bd 1e7d babd 00bd cebc eff6 90bd
000000d0: 9701 273d 65b8 e2bd 6f12 d03b 7025 4339
000000e0: 7a8b d93d 288b 49bc 08e8 2f3d 9fd9 48bb
000000f0: ec0c ca3d eb3d 213d 9803 b63d db58 d3bd
00000100: 0f93 65bd 4f72 da3d 954a 993d aa6d f33b
00000110: dd2c 8cbd 0ba0 ed3d f5fd 4c3d 8111 48bc
00000120: 8b4a 0f3d 2914 d03d 0141 68bd cb47 93bb
00000130: cc1c a8bd e3de c53d f6fe 933c 3abc 10bc
00000140: 2bca 7dbd 8870 00bd a9a0 383d 7195 c8bd
00000150: 497b 633d c991 4ebd c9a8 1a3c ba4c cfbc
00000160: 2498 a4bc fc9c ab3d 4104 d9bd 3514 7b3d
00000170: e351 4cbd e7d9 ac3d 6fb3 cb3d af54 dfbd
00000180: e370 12bd f508 e0bd 6eb5 313d 9ccc 42bd
00000190: 10c9 b93d 4657 4c3d 85f1 7b3d cfd6 f13c
000001a0: 0c06 2dbd ad78 adbd cb4a 8d3d 5909 073d
000001b0: 503e 83bd 2094 653d 8a94 df3c 660b 9fba
000001c0: fa5e cabd d6ad 873d e746 b63c cf22 80bd
000001d0: 1db1 473c a58f e93d 65c6 2fbc 95fe a93d
000001e0: e1e3 dc3d bdcf b0ba f7ea 663b 8023 1e3d
000001f0: ec69 083c b938 953c ea38 5fbc 708f 81bd
00000200: 3cee e6bb 3c77 be3d cd16 353d 477d a23d
00000210: 69c6 dc3c 8ea8 8dbd 21b9 c83d 7f06 953d
00000220: a006 4e3c e1ca 8d3b f2a2 74b9 1da5 e53c
00000230: 4245 d1bd 0cae d23d 13de 27bd 3357 573d
00000240: ecf8 e1bc 8ba3 be3d 044f b13b aeb7 d83d
00000250: ede8 b6bd 6766 3f3d 7cdf ff39 f893 8b3d
00000260: 414d 9c3d 4ee1 e63d b0c4 bd3d 0948 91bd
00000270: a6ca 163d f441 973d 255d e83d 16a0 debd
00000280: abba c9bd 19bf 073d 4dc7 333d 74dd e03d
00000290: 0075 fcbc 71f8 c43d cd24 a6bb 5b98 de3d
000002a0: cc9b 283d f39a 84bc 8ced 4d3d 369a 01bd
000002b0: 85ec 5b3d 454c 3cbc 7388 823d 7057 a1bd
000002c0: d60b 6c3d d5d3 d13d ace5 ca3d 1418 91bd
000002d0: 8f9c cbbd 3ef1 b33c 4560 abbd 5ffa dfbd
000002e0: b42e 643c 00cd 9bbd c94b 95bd ee4e 693c
000002f0: 865e c63b 6a1e 1ebb 58fb 04bc 0913 e13c
00000300: b2a9 f2bc 8c3e 603d c0fd 61bd 105f c0bd
00000310: b453 87bc cbb2 12bd c45d 5e3d b55f b43d
00000320: 233c 9d3b d948 013c b71b de3d 63a3 83bd
00000330: e35a 0abd ab93 c73d 1dcf 673d f7cf 673d
00000340: 301c b13c 0f05 e03d 78d7 233d aa4a 3abd
00000350: 7d55 cf3d 7c81 b73d f6f7 6abd b211 c53d
00000360: 6a23 963d 1830 a4bd 8cf6 283d 55ce 50bd
00000370: 6531 bb3d 111c 013b 9099 f83c 8a24 92bd
00000380: f1c7 3e3d 503f e53c 2b72 2f3c d1c5 7f3d
00000390: b110 aebd ee2f 88bd 12ab ab3d 1eca a43c
000003a0: 208b 9c3a e1d0 41bc a9dd 96bd 839b 683c
000003b0: 8c22 023d 6b30 083d 1484 dbbc ff0a 463d
000003c0: 573b 553d 5965 b8bd 3516 563d a284 46bd
000003d0: bc53 a0bd 1cf2 bf3c bd7e e4bc 4b54 f6bc
000003e0: d9b8 35bd 6c4e b63c 3aac a23c 878d b2bd
000003f0: 20bc a1bc c3d8 9fbd b30b 713d 0b3b 2bbd

dense.Linear1.bias f4 [64]
0.08465518 -0.08742052 -0.06331879 0.069781214 -0.06834791 0.025307495 -0.022456994 -0.010446431
-0.00952166 -0.09475181 0.0018880226 0.07235528 0.04063079 0.06443047 -0.008345382 -0.035516743
-0.013487299 0.09068592 0.09660307 0.10202896 0.07509388 -0.06591236 0.09350234 -0.051803667
-0.023830472 -0.112884425 0.05070153 -0.103941865 -0.0100608645 -0.02318848 -0.092435464 -0.09288611
0.020625876 0.023937995 0.039133854 -0.0075823264 -0.048984826 -0.05977436 -0.032299634 -0.054555934
-0.0030983023 0.017168079 -0.035141096 -0.04831322 -0.014477179 0.075537324 0.080912404 -0.020821525
-0.069264315 0.03799533 -0.08177135 0.023524743 0.039884917 0.056593638 0.04270679 -0.02515715
-0.008034701 0.106353536 0.03351113 0.026248466 0.10111742 -0.104543634 -0.046443246 0.04141278
00000000: b25f ad3d 8809 b3bd 48ad 81bd 74e9 8e3d
00000010: fdf9 8bbd aa51 cf3c bbf7 b7bc 8227 2bbc
00000020: bd00 1cbc 3d0d c2bd 8777 f73a 012f 943d
00000030: 796c 263d 1ff4 833d 12bb 08bc 017a 11bd
00000040: d5f9 5cbc 8ab9 b93d d5d7 c53d 8ff4 d03d
00000050: d2ca 993d 0ffd 86bd 287e bf3d 1530 54bd
00000060: 1f38 c3bc f32f e7bd 68ac 4f3d 79df d4bd
00000070: 53d6 24bc c4f5 bdbc ce4e bdbd 133b bebd
00000080: 99f7 a83c 9d19 c43c d24a 203d 2a75 f8bb
00000090: 50a4 48bd f6d5 74bd 9f4c 04bd 0b76 5fbd
000000a0: e30c 4bbb 12a4 8c3c 1cf0 0fbd 15e4 45bd
000000b0: b131 6dbc 50b3 9a3d 67b5 a53d e791 aabc
000000c0: 73da 8dbd fea0 1b3d bd77 a7bd f6b6 c03c
000000d0: 5e5e 233d bbce 673d 51ed 2e3d 5e16 cebc
000000e0: fba3 03bc e2cf d93d f742 093d 0607 d73c
000000f0: a616 cf3d f91a d6bd 463b 3ebd 72a0 293d

dense.ResidualBlock1.block.Linear1.weight f4 [64, 64]
-0.031622704 0.09322898 -0.03396792 -0.091290005 0.03460491 -0.10824846 0.09418791 0.04263608
-0.08451807 0.04245755 -0.05624256 0.00952319 0.1113143 -0.09355915 0.07222234 0.017545344
0.08666547 -0.05740457 -0.0139854355 0.09125009 -0.100042626 -0.12151021 -0.019318808 -0.0009762519
-0.014127028 0.085067615 -0.025954802 -0.07161147 0.04766092 0.06921194 0.07657872 0.07111878
-0.06996093 0.03204449 0.08162019 0.0065292963 -0.004553856 -0.0227163 0.014786274 0.076122835
-0.07671646 0.07925174 0.09151931 0.011938389 -0.05931452 -0.018729158 -0.028286025 0.060920727
0.091630705 -3.3714583e-05 -0.09436332 0.0872481 -0.019435292 -0.018975502 -0.115892485 -0.033346124
-0.09152331 -0.09403433 0.105146244 -0.07087188 -0.03687893 -0.060708325 -0.065523736 1.5765761e-05
0.102858424 0.0823881 0.085154675 -0.12185565 0.06065376 0.0569896 -0.065257505 0.032012396
0.06702668 -0.085734084 -0.07078478 -0.105195105 0.08627466 -0.049631737 0.06649724 0.016868582
0.091799304 -0.062433504 0.098897316 0.0042276173 0.04890427 0.034122333 -0.016574115 0.083310835
0.0010232262 0.11935351 -0.10085451 0.122788735 -0.1154428 -0.058517843 0.111955225 0.027424527
-0.07648321 -0.10827473 -0.09858618 0.057239883 -0.00639294 -0.06399033 -0.005617124 0.031059913
0.0003487019 0.05106127 -0.04673268 -0.039760225 -0.08526857 0.05900756 -0.007227258 -0.10423607
-0.11356332 -0.039689437 -0.050287988 0.023182536 0.042258475 0.093393 0.058054212 0.05467428
-0.085117586 0.11774449 -0.10851655 -0.069747314 -0.05540191 0.051397108 -0.078983516 0.078226745
-0.10933148 -0.073949195 0.086096354 0.027264819 0.11719676 0.008289729 -0.11049696 0.0041403216
-0.0789759 -0.015438154 0.10135505 0.087509096 0.020542476 -0.11187345 0.09715788 0.06250416
-0.080291025 0.11013114 -0.04025194 0.012392424 -0.056747768 0.085868694 -0.03555503 -0.09969792
0.04962119 -0.11075431 -0.03404199 0.0491726 0.014990119 -0.059226025 0.017641608 -0.09637891
0.04773358 -0.11343403 0.07202981 0.020054076 -0.03551043 -0.033403564 0.040134 -0.05853222
0.03446673 -0.040041283 0.101694144 0.1143287 -0.032104313 -0.07630901 0.11906705 0.035137765
-0.062005486 -0.04544779 0.064887464 -0.06352821 0.064895324 0.061461635 0.09443151 0.0023939216
-0.004585161 0.07429281 0.050891213 -0.0027840747 0.11065004 -0.004174478 -0.032455068 1.0634664e-05
-0.050047632 -0.11656638 0.047709487 -0.06874038 -0.057635047 -0.033537254 -0.10466618 -0.018195163
-0.075851895 -0.08828915 0.017224114 0.033602666 -0.10595293 0.085586436 0.08682606 0.065190345
0.088576645 -0.05013571 0.0589352 -0.022832751 -0.026696049 0.022504846 0.06626134 -0.014414776
0.061473828 0.10633844 0.10619886 -0.11447477 0.014965695 -0.022944206 0.045950115 -0.100450024
-0.053849913 -0.07111213 0.04907878 0.03786732 -0.1133291 -0.09335708 0.032999676 0.01911751
-0.06477703 -0.08234801 -0.082291745 0.0739538 0.032397415 0.09343803 -0.010209007 0.03393908
-0.09183342 0.050566092 -0.10670364 -0.03130725 -0.11148947 0.048026703 -0.10080848 -0.062293887
0.059202895 0.042614944 -0.0028425953 0.07126425 -0.045150835 -0.07679804 0.0064547346 -0.074362
00000000: cf86 01bd d6ee be3d f221 0bbd 41f6 babd
00000010: e1bd 0d3d 5eb1 ddbd 97e5 c03d 2ca3 2e3d
00000020: cf17 adbd f8e7 2d3d 995e 66bd 2707 1c3c
00000030: c0f8 e33d f19b bfbd 4ee9 933d 41bb 8f3c
00000040: aa7d b13d 0e21 6bbd 2b23 65bc 54e1 ba3d
00000050: 26e3 ccbd 58da f8bd 7a42 9ebc 28eb 7fba
00000060: 0d75 67bc ee37 ae3d 2a9f d4bc 09a9 92bd
00000070: 1938 433d fdbe 8d3d 4ed5 9c3d b9a6 913d
00000080: ad47 8fbd 1541 033d 7c28 a73d b5f3 d53b
00000090: 8338 95bb 8917 babc 2142 723c 4ae6 9b3d
000000a0: 851d 9dbd bc4e a23d 7a6e bb3d 3c99 433c
000000b0: c8f3 72bd e46d 99bc 18b8 e7bc 0388 793d
000000c0: e1a8 bb3d c268 0db8 8e41 c1bd 22af b23d
000000d0: c336 9fbc 8372 9bbc 0a59 edbd f295 08bd
000000e0: 9370 bbbd 1295 c0bd ea56 d73d 4725 91bd
000000f0: 5c0e 17bd 4ba9 78bd 4f31 86bd b740 8437
00000100: 70a7 d23d 18bb a83d 9365 ae3d 748f f9bd
00000110: 1470 783d ed6d 693d baa5 85bd 6e1f 033d
00000120: 4945 893d 5a95 afbd 9cf7 90bd 8870 d7bd
00000130: c5b0 b03d a64a 4bbd b42f 883d fb2f 8a3c
00000140: 4601 bc3d 46ba 7fbd ad8a ca3d d387 8a3b
00000150: d84f 483d dcc3 0b3d 70c6 87bc df9e aa3d
00000160: c61d 863a 9d6f f43d cf8c cebd a978 fb3d
00000170: 466d ecbd 68b0 6fbd c848 e53d 67a9 e03c
00000180: 3ba3 9cbd 24bf ddbd 8de7 c9bd 5e74 6a3d
00000190: de7b d1bb 5d0d 83bd da0f b8bb 5c71 fe3c
000001a0: fad1 b639 9f25 513d c46a 3fbd 9edb 22bd
000001b0: 4aa1 aebd e9b1 713d a2d2 ecbb b879 d5bd
000001c0: e393 e8bd 6491 22bd c7fa 4dbd 4de9 bd3c
000001d0: 3917 2d3d d444 bf3d 41ca 6d3d 23f2 5f3d
000001e0: 2152 aebd 0624 f13d ed3d debd aed7 8ebd
000001f0: 1ded 62bd c685 523d 1cc2 a1bd 5835 a03d
00000200: 2fe9 dfbd ad72 97bd 4953 b03d 785a df3c
00000210: db04 f03d a5d1 073c 3b4c e2bd 89ab 873b
00000220: 1ebe a1bd 50f0 7cbc 3d93 cf3d f837 b33d
00000230: b248 a83c e81d e5bd b6fa c63d 2e02 803d
00000240: 9f6f a4bd 6f8c e13d 38df 24bd 9809 4b3c
00000250: 5970 68bd eddb af3d 27a2 11bd 6c2e ccbd
00000260: 973f 4b3d 28d3 e2bd 9d6f 0bbd 3569 493d
00000270: 1e99 753c fd96 72bd 2285 903c 4e62 c5bd
00000280: 4984 433d 1a50 e8bd 5d84 933d 7248 a43c
00000290: 6273 11bd 2dd2 08bd 8d63 243d 7bbf 6fbd
000002a0: fc2c 0d3d 5402 24bd 0545 d03d 2a25 ea3d
000002b0: d07f 03bd e647 9cbd 6dd9 f33d 9eec 0f3d
000002c0: 77f9 7dbd 7627 3abd b8e3 843d 141b 82bd
000002d0: d7e7 843d 32bf 7b3d 4f65 c13d 57e3 1c3b
000002e0: 1e3f 96bb d426 983d 4e73 503d 0675 36bb
000002f0: 7d9c e23d 0fca 88bb 9bef 04bd 896b 3237
00000300: bffe 4cbd 5bba eebd 066b 433d c2c7 8cbd
00000310: ba12 6cbd 5c5e 09bd 395b d6bd 060e 95bc
00000320: 3d58 9bbd f1d0 b4bd 9619 8d3c f3a2 093d
00000330: dafd d8bd f147 af3d ddd1 b13d 8482 853d
00000340: ac67 b53d 1a5b 4dbd 0966 713d c00b bbbc
00000350: acb1 dabc 155c b83c 07b4 873d f42b 6cbc
00000360: fbcb 7b3d f8c7 d93d ca7e d93d c071 eabd
00000370: ad32 753c 7df5 bbbc 3036 3c3d beb8 cdbd
00000380: ba91 5cbd 3da3 91bd d506 493d c31a 1b3d
00000390: 1619 e8bd ff31 bfbd ab2a 073d 539c 9c3c
000003a0: d2a9 84bd 13a6 a8bd 9388 a8bd 1775 973d
000003b0: 27b3 043d 705c bf3d ae43 27bc b403 0b3d
000003c0: 2913 bcbd 641e 4f3d 7087 dabd 083c 00bd
000003d0: 9754 e4bd a6b7 443d ad74 cebd e027 7fbd
000003e0: bc7e 723d 028d 2e3d d64a 3abb fef2 913d
000003f0: 15f0 38bd 4a48 9dbd 3d82 d33b 1b4b 98bd

dense.ResidualBlock1.block.Linear1.bias f4 [64]
-0.01952865 0.091026805 0.104730345 1.0063382e-05 -0.08792262 0.10268546 -0.015609391 0.09468215
-0.09523145 -0.03120373 0.038863726 -0.09443054 1.6200323e-05 -0.0861779 0.022456747 0.038781762
-3.556477e-05 0.069962606 0.052512296 0.074839346 -0.081401736 -0.01936801 -0.07128022 -2.1442776e-05
0.023989258 0.033684716 0.029199274 -0.088598594 0.059173718 0.10453941 -0.051824674 0.09084502
0.035239346 -0.08896743 0.08831397 -0.068389975 3.947929e-06 -0.07266987 0.07305849 -0.095040835
-0.018133821 0.030851588 -0.0442286 0.01663826 0.040600836 -0.06786358 -0.06376078 -0.092387475
-0.07853057 -0.1095976 0.00072425784 0.060070142 0.09163289 0.0695713 0.031124538 -0.00020654418
-0.04380009 0.09278383 -0.057163473 -0.0046645324 -0.02885912 0.041277803 0.052308794 -0.09470016
00000000: 8cfa 9fbc 436c ba3d dd7c d63d e6d5 2837
00000010: c610 b4bd c14c d23d 88be 7fbc b7e8 c13d
00000020: b508 c3bd f79e ffbc 922f 1f3d cd64 c1bd
00000030: eee5 8737 0a7e b0bd 36f7 b73c a0d9 1e3d
00000040: 622b 15b8 8e48 8f3d 2217 573d 5f45 993d
00000050: f4b5 a6bd a9a9 9ebc 5dfb 91bd 03e0 b3b7
00000060: 1f85 c43c fcf8 093d 5133 ef3c 2e73 b5bd
00000070: 2460 723d c218 d63d 1c46 54bd f40c ba3d
00000080: 2257 103d 8e34 b6bd f4dd b43d 0b10 8cbd
00000090: 7478 8436 f1d3 94bd b19f 953d c5a4 c2bd
000000a0: 618d 94bc 78bc fc3c 0c29 35bd f64c 883c
000000b0: 104d 263d 10fc 8abd 0395 82bd a535 bdbd
000000c0: a3d4 a0bd b574 e0bd 1fdc 3d3a 1c0c 763d
000000d0: 06aa bb3d 667b 8e3d e3f8 fe3c c893 58b9
000000e0: b967 33bd 7305 be3d 3f24 6abd efd8 98bb
000000f0: f669 ecbc ea12 293d bf41 563d 28f2 c1bd

dense.ResidualBlock1.block.BatchNorm1d1.weight f4 [64]
0.98943746 0.9910876 0.9884832 0.9885453 0.99040633 0.9889241 0.99103045 0.9912372
0.9885448 0.990899 0.9892246 0.9904912 0.9915146 0.9904709 0.98862714 0.9891869
0.98927313 0.98902583 0.9914386 0.9879739 0.9893658 0.9917505 0.98931885 0.9894585
0.9905017 0.99054277 0.98962796 0.9900972 0.98913556 0.9904102 0.98851615 0.9893204
0.98942095 0.98873454 0.9895298 0.98919654 0.9888482 0.9913406 0.9903435 0.9890773
0.9886655 0.989227 0.9887515 0.98851573 0.9889199 0.98841894 0.9888105 0.9895455
0.9943816 0.9905693 0.9893627 0.98923016 0.9910596 0.98938984 0.9900767 0.9888409
0.98937917 0.9914232 0.98973596 0.9899823 0.9877991 0.9892947 0.99088675 0.9888263
00000000: c64b 7d3f ebb7 7d3f 3c0d 7d3f 4e11 7d3f
00000010: 458b 7d3f 212a 7d3f 2cb4 7d3f b9c1 7d3f
00000020: 4611 7d3f 8fab 7d3f d33d 7d3f d590 7d3f
00000030: e7d3 7d3f 808f 7d3f ab16 7d3f 5a3b 7d3f
00000040: 0141 7d3f cc30 7d3f ecce 7d3f dceb 7c3f
00000050: 1447 7d3f 5ce3 7d3f 0044 7d3f 274d 7d3f
00000060: 8591 7d3f 3694 7d3f 4258 7d3f 0377 7d3f
00000070: fd37 7d3f 868b 7d3f 650f 7d3f 1a44 7d3f
00000080: b14a 7d3f b51d 7d3f d351 7d3f fc3b 7d3f
00000090: 2825 7d3f 7fc8 7d3f 2787 7d3f 2c34 7d3f
000000a0: 2f19 7d3f fb3d 7d3f d11e 7d3f 5e0f 7d3f
000000b0: db29 7d3f 0609 7d3f af22 7d3f db52 7d3f
000000c0: cb8f 7e3f f395 7d3f e046 7d3f 303e 7d3f
000000d0: 15b6 7d3f a748 7d3f ab75 7d3f ad24 7d3f
000000e0: f447 7d3f e9cd 7d3f 565f 7d3f 7b6f 7d3f
000000f0: 67e0 7c3f 6b42 7d3f c1aa 7d3f b823 7d3f

dense.ResidualBlock1.block.BatchNorm1d1.bias f4 [64]
-0.0045875665 0.004882601 -0.0031189425 -0.0018447024 0.0033957157 -0.0064336336 0.0010009919 0.000338738
-0.00081519515 0.0003025886 -0.006615223 -0.003742897 -0.005408341 -0.0013295449 0.0034430414 0.003193638
-0.0034262976 0.0009164667 -0.002682656 -0.0026853594 0.0029523852 -0.0033243801 0.008213599 -0.002386045
0.0013347015 -0.0036758767 -0.0051243096 -0.0043807384 -0.0013691087 0.00023051191 0.0047410815 0.0020572662
-0.0043570246 -0.00059093174 -0.000774652 0.00051149284 0.003944078 2.7285569e-05 0.0011895665 0.0017487458
-0.003011281 -0.004299266 -0.004738714 0.008513128 0.0040990002 -0.00021816732 -0.0050271438 0.0019773976
0.0059379665 -0.0036053741 -0.008351513 -0.001319152 -0.0021073637 -0.0011011234 -0.0025133456 -0.0008212634
0.004399427 -0.0021151379 0.0026201815 -0.0017312923 -0.0024420307 -0.00076521805 -0.00097511825 0.0058891033
00000000: 4c53 96bb 3afe 9f3b 2c67 4cbb f1c9 f1ba
00000010: a88a 5e3b 3bd1 d2bb b733 833a a598 b139
00000020: d2b2 55ba c1a4 9e39 83c4 d8bb 644b 75bb
00000030: 7438 b1bb 2044 aeba a6a4 613b 5b4c 513b
00000040: bc8b 60bb 0a3f 703a 80cf 2fbb dbfc 2fbb
00000050: ce7c 413b d8dd 59bb 5592 063c 315f 1cbb
00000060: 27f1 ae3a fae6 70bb d3e9 a7bb 4c8c 8fbb
00000070: aa73 b3ba 92b5 7139 135b 9b3b 33d3 063b
00000080: 5fc5 8ebb c2e8 1aba 0412 4bba b415 063a
00000090: 533d 813b 50e3 e437 3aeb 9b3a 2c36 e53a
000000a0: e958 45bb dbe0 8cbb 3747 9bbb a67a 0b3c
000000b0: e850 863b d8c3 64b9 bdba a4bb 3a97 013b
000000c0: 4693 c23b 2448 6cbb c9d4 08bc 65e7 acba
000000d0: b21b 0abb 9253 90ba f1b6 24bb 0e4a 57ba
000000e0: 1229 903b 209e 0abb 5ab7 2b3b 88ec e2ba
000000f0: 7a0a 20bb ea98 48ba 149f 7fba 61f9 c03b

dense.ResidualBlock1.block.BatchNorm1d1.running_mean f4 [64]
-1120.7725 335.29364 1481.0269 -1365.4999 -542.87396 -2613.931 1817.377 -1162.0276
239.86264 648.9759 -531.3508 -1718.6272 -562.6 3000.5103 -3215.9426 297.89804
866.954 975.10754 -835.03394 835.2973 218.86472 -781.1821 475.64655 -855.7675
49.38736 -440.35767 392.12073 226.13046 -202.071 -1347.2549 -75.22553 3043.1057
-1059.9166 -361.17548 341.212 -1579.6323 104.02376 1277.1348 -1486.7905 2328.1047
277.0057 -2067.6335 4277.4595 602.96094 1897.9198 1689.0786 -116.92424 -578.25116
-431.11777 -2685.3223 -1063.0867 -1002.25726 -395.77554 -537.51843 -923.3956 1251.6467
-329.94788 -763.2551 -881.79767 -2072.5056 1849.9021 2442.4568 3294.9282 -652.20044
00000000: b818 8cc4 96a5 a743 dc20 b944 ffaf aac4
00000010: efb7 07c4 e55e 23c5 102c e344 e240 91c4
00000020: d6dc 6f43 753e 2244 74d6 04c4 12d4 d6c4
00000030: 66a6 0cc4 2a88 3b45 15ff 48c5 f3f2 9443
00000040: 0ebd 5844 e2c6 7344 2cc2 50c4 07d3 5044
00000050: 5edd 5a43 a84b 43c4 c2d2 ed43 1ff1 55c4
00000060: a88c 4542 c82d dcc3 740f c443 6621 6243
00000070: 2d12 4ac3 2868 a8c4 7973 96c2 b131 3e45
00000080: 557d 84c4 7696 b4c3 239b aa43 3c74 c5c4
00000090: 2a0c d042 50a4 9f44 4cd9 b9c4 ad81 1145
000000a0: bb80 8a43 233a 01c5 adab 8545 80bd 1644
000000b0: 6f3d ed44 8422 d344 36d9 e9c2 1390 10c4
000000c0: 138f d7c3 28d5 27c5 c6e2 84c4 7790 7ac4
000000d0: 45e3 c5c3 2e61 06c4 52d9 66c4 b274 9c44
000000e0: 54f9 a4c3 54d0 3ec4 0d73 5cc4 1788 01c5
000000f0: de3c e744 4fa7 1845 daee 4d45 d40c 23c4

dense.ResidualBlock1.block.BatchNorm1d1.running_var f4 [64]
275173.03 698366.5 949706.8 728257.8 443291.12 1.0994689e+06 1.1792261e+06 393045.16
820892.9 614214.8 921115.7 482728.12 248581.38 998203.06 1.4158861e+06 252479.42
1.0528451e+06 287218.88 587844.2 345990.5 1.01692825e+06 455450.25 654849.94 369044.16
585572.5 202371.34 389153.97 300124.03 193481.4 807941.56 500530.88 1.6821181e+06
329954.7 322292.4 724434.94 501604.25 471676.94 504438.44 808246.0 661027.75
979424.6 755375.25 1.7275846e+06 338730.7 455766.22 461433.7 302820.06 746872.25
229219.16 1.4843024e+06 333471.22 235972.47 1.139968e+06 393694.9 181807.4 1.1406382e+06
329616.34 334865.66 761248.6 871749.56 540704.8 677997.4 1.341864e+06 546737.8
00000000: a15c 8648 e87f 2a49 addc 6749 1dcc 3149
00000010: 6473 d848 6736 8649 d1f2 8f49 a5ea bf48
00000020: ce69 4849 6df4 1549 bbe1 6049 04b5 eb48
00000030: 58c1 7248 b1b3 7349 71d6 ac49 db8f 7648
00000040: 6985 8049 5c3e 8c48 4384 0f49 d0f0 a848
00000050: 0446 7849 4863 de48 1fe0 1f49 8532 b448
00000060: 48f6 0e49 d6a0 4548 3f04 be48 818b 9248
00000070: 5af2 3c48 5940 4549 5c66 f448 3156 cd49
00000080: 561c a148 8d5e 9d48 2fdd 3049 88ec f448
00000090: 9e4f e648 ce4e f648 6053 4549 3c62 2149
000000a0: 0a1e 6f49 f46a 3849 05e3 d249 5665 a548
000000b0: c78a de48 364f e148 82dc 9348 8457 3649
000000c0: cad8 5f48 7330 b549 e7d3 a248 1e71 6648
000000d0: 0028 8b49 dd3b c048 da8b 3148 f23c 8b49
000000e0: 0bf2 a048 3582 a348 0ada 3949 59d4 5449
000000f0: 0d02 0449 d686 2549 40cd a349 1d7b 0549

dense.ResidualBlock2.block.Linear1.weight f4 [64, 64]
-0.11099485 0.101083815 -0.046884883 0.06007873 0.12631513 -0.034654044 0.10995943 -0.016338581
-0.08907822 -0.029720416 0.09043105 -0.10655515 -0.11823637 0.013702078 0.080301225 -0.03463394
0.11114505 -0.11777368 -0.06578221 -0.016492592 -0.011685783 0.008217597 -0.025525834 0.0053157387
0.016230442 -0.02464283 -0.07852226 0.11932889 0.014014751 -0.07651006 0.048549015 0.09676116
0.013531344 -0.032035675 0.03260079 -0.05091583 0.04010596 -0.001247853 -0.051820345 0.07544577
-0.025518484 -0.06337886 0.087198436 0.034247983 0.0666966 -0.10735913 0.019455872 -0.07132653
-0.004220035 -0.0732367 -0.053841375 -0.10572073 0.10805113 -0.0812645 0.068084456 0.060030952
0.076589674 0.111939885 0.011597881 -0.05711869 -0.030353509 0.05176124 0.12542494 0.094419844
0.044847492 -0.033239987 -0.002552479 -0.024702754 -0.059755906 -0.09078375 -0.10151623 -0.09784568
0.016673498 -0.059463575 0.11133835 0.06974485 -0.007266757 -0.12228197 0.060059223 0.09206365
0.12418762 0.03200966 0.060310263 -0.09106343 0.10030164 0.013203129 -0.08648057 0.11103674
0.04999314 0.05951561 -0.114471115 -0.008403537 0.06591889 0.018883727 -0.060429394 0.098428085
-0.09767595 -0.046645474 -0.04366275 -0.06971042 -0.110370435 -0.027581884 -0.1083945 -0.071913175
-0.09147415 0.022221178 -0.051794916 0.060204435 0.0028614262 -0.05660573 0.100797504 -0.065500624
0.064415485 -0.09081279 -0.020889966 -0.116603196 0.017104948 0.042451225 -0.06052517 0.107001565
0.08472302 -0.06088118 -0.04810595 0.028854007 0.09938898 0.005017731 -0.02050913 -0.045890015
-0.07319823 0.04377868 0.103105515 -0.0023921966 -0.015201209 -0.09950497 -0.115005404 0.10392399
0.024362037 -0.11952285 -0.11439065 0.049646232 0.086088546 -0.021927226 0.0974083 0.07796735
-0.00022199469 0.009451009 0.098153956 0.07059877 -0.05132867 0.012665402 0.10963294 -0.08914239
-0.090235375 -0.11010839 0.10086194 0.11778539 0.11045005 -0.10165203 -0.10779404 -0.05319371
0.060702123 0.09209238 0.11648873 0.046208784 -0.0109034395 0.074353665 0.12206504 -0.072902985
0.05047923 0.0848637 -0.11956369 -0.08845731 -0.07536387 -0.10463981 0.011155132 0.01708437
-0.12052159 0.103654355 -0.09177352 0.11327876 -0.069273375 0.011751175 -0.10403525 -0.08087034
-0.037902668 0.0783651 -0.006325041 -0.1164597 -0.1172686 -0.07035211 -0.0050988905 -0.022167798
0.01029589 0.059861045 -0.08505501 -0.10441348 -0.056202512 0.04700695 -0.086456865 -0.0032736764
-0.04998575 -0.07740061 -0.09465372 0.09709017 -0.08152718 -0.066210784 0.015044905 0.028225502
-0.03272127 0.04915416 0.014129015 0.06937687 0.0013513381 -0.021518588 -0.08525398 -0.044995736
0.10129589 -0.009343673 0.07651535 0.08514043 0.09945987 0.059373844 -0.06223782 0.06631819
-0.12257705 0.106221445 0.029961394 0.06936215 0.0019499046 0.11651733 -0.11185893 -0.09172605
0.061239153 -0.059068237 -0.012119456 0.0072628045 0.10792384 0.054874323 -0.066027954 0.098785505
0.018760925 4.8156027e-05 0.118160516 0.09697799 -0.08328298 -0.06322471 -0.09205083 -0.02072388
-0.030077288 -0.011160384 -0.10687402 0.0051117796 0.049270324 -0.0403022 0.047583546 0.07632845
00000000: 4551 e3bd 0805 cf3d 5d0a 40bd 1d15 763d
00000010: c158 013e 66f1 0dbd 6932 e13d 7dd8 85bc
00000020: a46e b6bd 3b78 f3bc ea33 b93d 9639 dabd
00000030: e925 f2bd ae7e 603c f874 a43d 51dc 0dbd
00000040: 04a0 e33d 5433 f1bd d3b8 86bd 791b 87bc
00000050: ba75 3fbc 1aa3 063c 8e1b d1bc a62f ae3b
00000060: b4f5 843c c3df c9bc 47d0 a0bd b562 f43d
00000070: 209e 653c 4eb1 9cbd 55db 463d b72a c63d
00000080: 92b2 5d3c d737 03bd 6888 053d 1e8d 50bd
00000090: 2646 243d 008f a3ba 9241 54bd 5083 9a3d
000000a0: 240c d1bc c7cc 81bd 1895 b23d 9d47 0c3d
000000b0: 3a98 883d 1bdf dbbd ec61 9f3c a513 92bd
000000c0: 3848 8abb 1ffd 95bd c688 5cbd 1c84 d8bd
000000d0: e949 dd3d 016e a6bd dd6f 8b3d 04e3 753d
000000e0: 0cdb 9c3d bd40 e53d 0a05 3e3c 4af5 69bd
000000f0: eca7 f8bc 9803 543d 656f 003e 315f c13d
00000100: 01b2 373d a726 08bd 7e47 27bb 6e5d cabc
00000110: 9cc2 74bd d5ec b9bd bee7 cfbd 5163 c8bd
00000120: dc96 883c 1490 73bd 5c05 e43d 63d6 8e3d
00000130: fa1d eebb f86e fabd a900 763d de8b bc3d
00000140: 1456 fe3d 901c 033d e507 773d 777f babd
00000150: f26a cd3d f051 583c ba1c b1bd 3b67 e33d
00000160: 9bc5 4c3d a4c6 733d d56f eabd fdae 09bc
00000170: 7c00 873d 0cb2 9a3c d084 77bd aa94 c93d
00000180: 540a c8bd 530f 3fbd b6d7 32bd 56c4 8ebd
00000190: e509 e2bd 67f3 e1bc f0fd ddbd 3747 93bd
000001a0: cd56 bbbd 3009 b63c e826 54bd ed98 763d
000001b0: c486 3b3b 69db 67bd ec6e ce3d 3125 86bd
000001c0: 44ec 833d 0efc b9bd 6f21 abbc a8cd eebd
000001d0: ad1f 8c3c 56e1 2d3d 3ee9 77bd a323 db3d
000001e0: 4383 ad3d 8b5e 79bd bf0a 45bd 3d5f ec3c
000001f0: 738c cb3d c76b a43b c302 a8bc 2bf7 3bbd
00000200: f4e8 95bd 4651 333d fc28 d33d 66c6 1cbb
00000210: 7e0e 79bc 43c9 cbbd f487 ebbd 1ad6 d43d
00000220: e592 c73c 65c8 f4bd a545 eabd d959 4b3d
00000230: 314f b03d baa0 b3bc 017e c73d 59ad 9f3d
00000240: 3fc7 68b9 68d8 1a3c f104 c93d 1796 903d
00000250: 033e 52bd 8c82 4f3c 3c87 e03d 4990 b6bd
00000260: 53cd b8bd 8280 e1bd b490 ce3d 7739 f13d
00000270: a333 e23d f12e d0bd 1fc3 dcbd a6e1 59bd
00000280: caa2 783d ee9a bc3d a591 ee3d 6c45 3d3d
00000290: 57a4 32bc bc46 983d 3cfd f93d 294e 95bd
000002a0: 4fc3 4e3d 05cd ad3d cfdd f4bd 1b29 b5bd
000002b0: 5f58 9abd 664d d6bd 04c4 363c 85f4 8b3c
000002c0: 06d4 f6bd bc48 d43d c1f3 bbbd b2fe e73d
000002d0: 33df 8dbd 0088 403c 6f10 d5bd 599f a5bd
000002e0: d43f 1bbd e27d a03d 4a42 cfbb 6c82 eebd
000002f0: 852a f0bd c414 90bd 9814 a7bb 3e99 b5bc
00000300: 18b0 283c db30 753d 5231 aebd bcd6 d5bd
00000310: 9b34 66bd 5c8a 403d 4c10 b1bd 2d8b 56bb
00000320: dcbd 4cbd 3684 9ebd cfd9 c1bd 36d7 c63d
00000330: b9f7 a6bd 8599 87bd e87e 763c 2b39 e73c
00000340: bd06 06bd df55 493d 627d 673c 7615 8e3d
00000350: 621f b13a c047 b0bc a399 aebd 734d 38bd
00000360: 3874 cf3d 3416 19bc 14b4 9c3d 1b5e ae3d
00000370: 9eb1 cb3d fd31 733d 16ed 7ebd d5d1 873d
00000380: ad09 fbbd a18a d93d 9971 f53c be0d 8e3d
00000390: f193 ff3a a3a0 ee3d 4b16 e5bd deda bbbd
000003a0: e8d5 7a3d 89f1 71bd af90 46bc d2fc ed3b
000003b0: 2d07 dd3d e6c3 603d aa39 87bd 0e50 ca3d
000003c0: 83b0 993c 24fb 4938 24fe f13d 659c c63d
000003d0: 4490 aabd f57b 81bd 2585 bcbd 20c5 a9bc
000003e0: a564 f6bc 0bda 36bc c4e0 dabd b780 a73b
000003f0: aecf 493d eb13 25bd f7e6 423d 1752 9c3d

dense.ResidualBlock2.block.Linear1.bias f4 [64]
-0.08342517 -0.0023534617 -0.07778019 0.013773906 0.11214257 9.0045105e-05 -0.07813725 0.112134166
-0.018175438 0.079073556 0.015569395 0.10543555 0.02541733 0.102972046 0.054906584 0.10528807
0.042024847 -0.03198504 -0.02724065 -0.048142 0.07961214 -0.037679307 -0.09318203 -0.0085363835
-0.03524133 -0.037713815 -0.041409794 0.008204447 2.4514088e-06 -0.026901895 -0.0068297856 -0.054601427
0.059408534 -0.028855655 0.024875643 8.996249e-06 0.013608138 0.056738637 -0.10782205 0.06336008
0.09365321 0.08633925 -0.006797362 0.10426388 -0.012325306 -0.04483952 -0.03837819 -0.09755591
0.027359046 -0.093741536 0.02135465 0.090210795 -0.005268628 0.077873565 -4.0141174e-05 -0.080684066
0.009309371 -0.007536745 -0.00092791684 0.088013984 0.044201747 7.5701735e-08 -0.057763096 0.08298258
00000000: d1da aabd 893c 1abb 384b 9fbd f3ab 613c
00000010: 01ab e53d 99d6 bc38 6c06 a0bd 99a6 e53d
00000020: a8e4 94bc 51f1 a13d c716 7f3c 98ee d73d
00000030: 0138 d03c 02e3 d23d bae5 603d 46a1 d73d
00000040: 3f22 2c3d bf02 03bd c927 dfbc 8c30 45bd
00000050: b10b a33d 9e55 1abd 38d6 bebd 30dc 0bbc
00000060: 3659 10bd cd79 1abd 519d 29bd f26b 063c
00000070: e282 2436 5d61 dcbc 65cc dfbb bfa5 5fbd
00000080: 5d56 733d b262 ecbc 01c8 cb3c 98ee 1637
00000090: abf4 5e3c c666 683d cfd1 dcbd eec2 813d
000000a0: 41cd bf3d a2d2 b03d 68bc debb 4d88 d53d
000000b0: 15f0 49bc a5a9 37bd 7332 1dbd 65cb c7bd
000000c0: 1420 e03c 90fb bfbd f2ef ae3c 70c0 b83d
000000d0: 74a4 acbb 2d7c 9f3d 425d 28b8 b03d a5bd
000000e0: 5586 183c cdf6 f6bb 723f 73ba ad40 b43d
000000f0: e40c 353d 7891 a233 ff98 6cbd c5f2 a93d

dense.ResidualBlock2.block.BatchNorm1d1.weight f4 [64]
0.9898367 0.98944306 0.99121577 0.98824424 0.989451 0.9892296 0.9881244 0.99159014
0.9893337 0.9881113 0.99035674 0.9921815 0.988475 0.9881571 0.98847556 0.98921806
0.98957974 0.9896076 0.99315256 0.98854965 0.9896976 0.9891872 0.98895866 0.9895631
0.9903254 0.99057716 0.9889404 0.9890568 0.98900104 0.9895236 0.98966056 0.98981744
0.9895717 0.98898715 0.98973864 0.9889592 0.9899938 0.9889296 0.9898992 0.9882786
0.98858964 0.98977053 0.989914 0.9909679 0.9896667 0.9899281 0.9890561 0.98907626
0.9925234 0.98948383 0.98933506 0.9899126 0.9887496 0.98922205 0.989126 0.9886827
0.99039334 0.9902824 0.9891947 0.98996705 0.99041605 0.98950917 0.9895026 0.989743
00000000: f065 7d3f 244c 7d3f 51c0 7d3f 93fd 7c3f
00000010: a94c 7d3f 273e 7d3f b8f5 7c3f dad8 7d3f
00000020: f944 7d3f ddf4 7c3f 0588 7d3f 9bff 7d3f
00000030: b30c 7d3f ddf7 7c3f bc0c 7d3f 653d 7d3f
00000040: 1955 7d3f ec56 7d3f 3f3f 7e3f 9711 7d3f
00000050: d25c 7d3f 5f3b 7d3f 652c 7d3f 0254 7d3f
00000060: f785 7d3f 7796 7d3f 332b 7d3f d432 7d3f
00000070: 2c2f 7d3f 6b51 7d3f 655a 7d3f ad64 7d3f
00000080: 9254 7d3f 432e 7d3f 835f 7d3f 6e2c 7d3f
00000090: 3c70 7d3f 7e2a 7d3f 096a 7d3f d4ff 7c3f
000000a0: 3614 7d3f 9a61 7d3f 016b 7d3f 13b0 7d3f
000000b0: cc5a 7d3f ee6b 7d3f c832 7d3f 1a34 7d3f
000000c0: 0316 7e3f d04e 7d3f 1045 7d3f ea6a 7d3f
000000d0: b21e 7d3f a83d 7d3f 5d37 7d3f 4f1a 7d3f
000000e0: 6b8a 7d3f 2683 7d3f dd3b 7d3f 7b6e 7d3f
000000f0: e88b 7d3f 7950 7d3f 0b50 7d3f cc5f 7d3f

dense.ResidualBlock2.block.BatchNorm1d1.bias f4 [64]
-0.0042551565 0.0056311497 -0.0029089742 -0.0018447003 0.003737087 -0.0040799826 0.0004430255 0.0018643027
0.0021967897 -7.384707e-05 -0.006380417 -0.003742888 -0.0058915652 -0.0015700669 0.0019296878 0.001637236
-0.00050221273 0.0029528525 -0.0026826572 -0.002685486 0.0022557229 -0.0032911398 0.008717596 -0.002386039
0.0011164906 -0.0024996395 -0.0062568327 -0.0036334516 -0.006476864 0.0010326526 0.0028887053 0.00159199
-0.0021290653 -0.0002340319 -0.00077393744 0.0032050554 0.002815441 2.7399103e-05 0.00128458 0.0014034882
-0.0014164844 0.00065688987 -0.0023262468 0.0065889987 0.004952954 -0.0023760519 -0.00516511 0.0038802025
0.0039933505 -0.003196775 -0.0071529103 -0.0027531772 -0.001304206 -0.0017620154 -0.0025134983 -0.0002963483
0.004130008 -0.0021611883 0.0040249755 -0.0012392089 -0.0029344056 0.00012702309 -0.0014020809 0.0047771707
00000000: d76e 8bbb 8285 b83b 7da4 3ebb dfc9 f1ba
00000010: eae9 743b 60b1 85bb e045 e839 9e5b f43a
00000020: 04f8 0f3b 58de 9ab8 d112 d1bb 3e4b 75bb
00000030: 080e c1bb b4ca cdba 94ed fc3a 8698 d63a
00000040: eda6 03ba a584 413b 85cf 2fbb fbfe 2fbb
00000050: c0d4 133b 2ab0 57bb 3fd4 0e3c 175f 1cbb
00000060: 3557 923a fed0 23bb 1e06 cdbb 341f 6ebb
00000070: e03b d4bb 125a 873a 6f50 3d3b 52aa d03a
00000080: ca87 0bbb 7666 75b9 10e2 4aba e80b 523b
00000090: 4383 383b 20d7 e537 5a5f a83a 40f5 b73a
000000a0: 54a9 b9ba 2233 2c3a f273 18bb 87e8 d73b
000000b0: 644c a23b 89b7 1bbb 1540 a9bb ff4a 7e3b
000000c0: a7da 823b fc80 51bb f662 eabb a66e 34bb
000000d0: e4f1 aaba 6df3 e6ba 81b9 24bb 325f 9bb9
000000e0: 0555 873b b9a2 0dbb f1e3 833b f36c a2ba
000000f0: 284f 40bb 8031 0539 07c6 b7ba d089 9c3b

dense.ResidualBlock2.block.BatchNorm1d1.running_mean f4 [64]
311.77872 -314.83643 1513.1791 179.32672 -1204.8822 1681.1562 -2583.957 704.2305
1369.6666 -353.15338 -1513.6636 -654.778 -3407.9172 153.79172 1759.2819 2280.0352
174.27498 -1673.4756 -742.06415 3064.2988 240.37415 -1950.6824 -1602.9745 142.79782
449.20227 2018.1006 1306.41 2438.6655 306.08905 2948.8782 -101.45364 3079.942
2366.3037 548.3828 1778.1062 -2110.7612 257.6603 3939.303 2224.483 -239.64017
3525.3306 -908.829 -416.19238 785.4077 535.9763 803.0579 -1176.3694 -1490.14
-917.10266 -1901.9088 -842.1015 255.44583 3529.537 1360.7484 2150.3242 1705.4597
-892.98956 -928.61206 -635.41296 783.2787 -1013.02484 868.08527 -315.01648 81.87463
00000000: ade3 9b43 106b 9dc3 bb25 bd44 a453 3343
00000010: 3b9c 96c4 0025 d244 507f 21c5 c10e 3044
00000020: 5535 ab44 a293 b0c3 3c35 bdc4 cbb1 23c4
00000030: adfe 54c5 aeca 1943 05e9 db44 9080 0e45
00000040: 6546 2e43 382f d1c4 1b84 39c4 c884 3f45
00000050: c85f 7043 d6d5 f3c4 2f5f c8c4 3ecc 0e43
00000060: e499 e043 3843 fc44 1f4d a344 a66a 1845
00000070: 660b 9943 0d4e 3845 44e8 cac2 127f 4045
00000080: dce4 1345 8018 0944 6643 de44 2eec 03c5
00000090: 85d4 8043 d934 7645 ba07 0b45 e2a3 6fc3
000000a0: 4a55 5c45 0e35 63c4 a018 d0c3 185a 4444
000000b0: 7cfe 0544 b5c3 4844 d20b 93c4 7b44 bac4
000000c0: 9246 65c4 15bd edc4 7f86 52c4 2272 7f43
000000d0: 9898 5c45 f317 aa44 3065 0645 b62e d544
000000e0: 553f 5fc4 2c27 68c4 6eda 1ec4 d6d1 4344
000000f0: 9741 7dc4 7505 5944 1c82 9dc3 d0bf a342

dense.ResidualBlock2.block.BatchNorm1d1.running_var f4 [64]
248134.38 384154.38 845115.4 298287.47 509219.3 437944.1 995924.5 467745.62
939720.56 107315.984 477851.72 298280.7 1.0591701e+06 565939.2 689824.1 837222.75
208138.36 531422.25 201944.27 1.2865229e+06 136193.2 1.4193146e+06 503545.1 416683.78
941546.2 477514.62 645261.25 922345.75 156107.77 909851.5 604269.9 1.2286798e+06
557218.56 345356.53 836359.06 509526.84 304023.28 1.4058165e+06 543034.94 249625.64
1.3624532e+06 485974.78 423647.88 378629.72 117208.664 892893.94 296855.94 348984.16
743032.94 868214.56 395923.3 476942.28 1.2912479e+06 1.1621122e+06 562931.0 405906.6
735664.5 717161.5 489790.47 360621.3 548869.6 570666.8 408322.2 359424.56
00000000: 9851 7248 4c93 bb48 b653 4e49 efa5 9148
00000010: 6aa4 f848 03d7 d548 4825 7349 3464 e448
00000020: 896c 6549 fe99 d147 7753 e948 16a5 9148
00000030: 114b 8149 332b 0a49 026a 2849 6c66 4c49
00000040: 9742 4b48 e4bd 0149 1136 4548 d70b 9d49
00000050: 4d00 0548 9541 ad49 23df f548 7975 cb48
00000060: a3de 6549 5429 e948 d488 1d49 9c2e 6149
00000070: f172 1848 b821 5e49 de86 1349 3efc 9549
00000080: 290a 0849 91a1 a848 7130 4c49 dbca f848
00000090: e972 9448 c49b ab49 af93 0449 69c6 7348
000000a0: aa50 a649 d94a ed48 fcdb ce48 b7e0 b848
000000b0: 55ec e447 dffd 5949 fef2 9048 0567 aa48
000000c0: 8f67 3549 69f7 5349 6a52 c148 c9e1 e848
000000d0: 7f9f 9d49 02dc 8d49 306f 0949 5332 c648
000000e0: 089b 3349 9816 2f49 cf27 ef48 aa15 b048
000000f0: 5a00 0649 ad52 0b49 4660 c748 1280 af48

dense.ResidualBlock3.block.Linear1.weight f4 [64, 64]
-0.073045954 -0.037338138 -0.11046324 -0.05500388 0.03254241 -0.08491336 -0.061041534 -0.026820494
-0.042563505 -0.016146379 0.11588728 0.07369081 0.03842156 -0.101888105 0.08264726 -0.073017605
0.06325062 0.084956236 -0.020197885 -0.041125182 -0.0019805992 0.013727692 0.06879531 0.09712406
0.03729268 -0.09050655 0.11544756 0.07950734 -0.031832557 -0.016527707 -0.0118556665 -0.025242368
-0.016105225 0.051097404 -0.013938324 -0.030672077 0.03894681 0.11944637 -0.10573734 0.0068552834
0.06640693 0.11311691 0.018111426 0.009587638 0.025693517 -0.08791844 -0.018403191 -0.016249059
0.07031267 7.303396e-05 -0.09815924 0.022002952 -0.10191892 -0.079568855 0.12728049 0.09151503
0.052651092 0.02233806 -0.011273238 0.019475136 0.0771495 0.023342391 -0.08703584 -0.0845805
-0.11254724 -0.0047031357 -0.049163703 -0.016874166 -0.036936417 -0.056288503 0.03559229 0.044916764
0.050879326 0.091040045 0.014695733 -0.093155645 0.04484248 -0.12587102 -0.01095249 -0.08172211
-0.01217212 0.00987368 0.09178723 -0.12015553 -0.03643186 0.01159593 -0.05092335 0.104607865
-0.045447864 -0.01639435 0.01898228 0.03456422 0.06986204 -0.00038678723 0.11071003 -0.082987495
-0.05631033 0.098964185 0.118688144 0.065699555 -0.02013986 -0.107146226 0.01420219 0.069288224
0.028491735 -0.010939976 0.11705839 0.027115203 -0.0027505439 -0.09593751 0.042272408 0.057959598
0.061263498 -0.02916556 -0.009709502 0.06563894 -0.021081341 -0.052156128 -0.070213 0.020867797
-0.007050576 -0.11221149 0.06694242 -0.06187305 -0.040619705 -0.019113965 0.086141616 -0.01823091
-0.03963828 -0.08757103 0.04126763 0.01709054 0.06475216 -0.048365444 -0.05215423 0.023627404
-0.08186719 -0.026373537 0.11225037 -0.100185424 0.0093272915 0.117092595 0.014687488 -0.08088841
0.03739623 -0.093598455 -0.10779145 -0.05716562 -0.0030270945 0.0840268 -0.09829925 -0.066481635
-0.03582899 -0.037762552 0.051592845 0.123542115 0.106193505 0.064290196 -0.100364245 0.08473541
-0.0526114 -0.028957158 -0.03693945 0.023612542 0.020503037 -0.011870035 0.053278115 0.056473892
-0.10799411 -0.07559987 -0.060417484 0.08227732 -0.107675195 0.04664602 -0.04206894 0.033075187
0.10080113 0.043745037 0.03474621 -0.04229759 0.10107495 -0.023398856 -0.05075266 0.025313677
-0.1031229 0.024540836 0.0012815015 -0.0842603 0.043396406 -0.01730934 0.10262111 -2.8819331e-05
-0.04971472 0.04725674 0.03230393 0.122122765 -0.047073927 -0.101647794 -0.08540097 -0.020408686
0.023801092 -0.005912352 0.002231364 0.0028472277 0.09037982 -0.0125678405 -0.038838144 0.019918226
-0.03258129 -0.032559823 -0.10214094 -0.040299874 -0.044717148 -0.07448182 -0.07724296 0.07892949
0.061201446 0.099327266 0.084102616 -0.019385435 0.10036725 0.060234103 0.027440026 0.07812134
-0.029440872 -0.016065225 0.11568359 -0.066450134 -0.044958737 -0.037953794 -0.08378845 -0.1062593
0.010262547 0.09113154 -0.1086306 -0.029216189 0.0030199452 -0.010059703 -0.11924194 0.027224885
-0.06601789 -0.08703522 -0.08593841 0.07625771 0.06574529 -0.023301646 -0.07274061 0.04286115
-0.012531254 -0.022943387 0.052625436 0.07098605 -0.0371149 0.015945882 -0.08971426 -0.11151648
00000000: 1e99 95bd e0ef 18bd 8d3a e2bd c04b 61bd
00000010: 314b 053d 0ee7 adbd b006 7abd a7b6 dbbc
00000020: 1257 2ebd 6945 84bc 4f56 ed3d 35eb 963d
00000030: ed5f 1d3d b6aa d0bd f742 a93d 418a 95bd
00000040: 8b89 813d 89fd ad3d 0976 a5bc e172 28bd
00000050: f1cc 01bb 1dea 603c 8ee4 8c3d fbe8 c63d
00000060: 36c0 183d 805b b9bd c56f ec3d bfd4 a23d
00000070: db62 02bd 1d65 87bc 453e 42bc 15c9 cebc
00000080: 1bef 83bc 834b 513d 915d 64bc 0244 fbbc
00000090: b186 1f3d 4ca0 f43d d28c d8bd 49a2 e03b
000000a0: 5b00 883d d7a9 e73d 6a5e 943c 7815 1d3c
000000b0: 367b d23c 950e b4bd 4ac2 96bc bf1c 85bc
000000c0: 1700 903d cf29 9938 b607 c9bd 893f b43c
000000d0: deba d0bd fff4 a2bd d155 023e 3b6c bb3d
000000e0: aca8 573d 4ffe b63c 63b3 38bc 528a 9f3c
000000f0: 8f00 9e3d 8b38 bf3c d93f b2bd 8b38 adbd
00000100: 2b7f e6bd c31c 9abb e15f 49bd b13b 8abc
00000110: a44a 17bd c68e 66bd 39c9 113d a4fa 373d
00000120: d766 503d 3473 ba3d 5fc6 703c 63c8 bebd
00000130: c0ac 373d 55e4 00be 1372 33bc ec5d a7bd
00000140: 926d 47bc 37c5 213c f1fa bb3d 1a14 f6bd
00000150: 9339 15bd dbfc 3d3c 0195 50bd a63c d63d
00000160: 8a27 3abd 724d 86bc ba80 9b3c 3693 0d3d
00000170: d413 8f3d b4c9 cab9 f1bb e23d 59f5 a9bd
00000180: a9a5 66bd bcad ca3d c512 f33d 7d8d 863d
00000190: 59fc a4bc 7b6f dbbd 4db0 683c fce6 8d3d
000001a0: 8067 e93c 963d 33bc 4fbc ef3d b420 de3c
000001b0: 7842 34bb e37a c4bd d525 2d3d 0b67 6d3d
000001c0: 6fef 7a3d 9dec eebc 9a14 1fbc b56d 863d
000001d0: c7b2 acbc aaa1 55bd d5cb 8fbd f1f2 aa3c
000001e0: 8508 e7bb 23cf e5bd 1c19 893d 986e 7dbd
000001f0: d960 26bd e494 9cbc 046b b03d fd58 95bc
00000200: c05b 22bd 7158 b3bd 3f08 293d 7601 8c3c
00000210: c89c 843d d81a 46bd ad9f 55bd 428e c13c
00000220: fca9 a7bd 510d d8bc 86e3 e53d 042e cdbd
00000230: 7fd1 183c 3ece ef3d caa3 703c d3a8 a5bd
00000240: ca2c 193d 8cb0 bfbd c4c1 dcbd 7f26 6abd
00000250: 3862 46bb 3e16 ac3d 1e51 c9bd 8627 88bd
00000260: 6bc1 12bd e8ac 1abd 0553 533d a603 fd3d
00000270: fb7b d93d 94aa 833d c58b cdbd c289 ad3d
00000280: 0d7f 57bd 9037 edbc d24d 17bd 176f c13c
00000290: fcf5 a73c 897a 42bc 273a 5a3d 2b51 673d
000002a0: 042c ddbd 1bd4 9abd 5378 77bd 0381 a83d
000002b0: d084 dcbd e60f 3f3d 7b50 2cbd d979 073d
000002c0: d370 ce3d ff2d 333d 0b52 0e3d 3d40 2dbd
000002d0: 6200 cf3d f5ae bfbc 05e2 4fbd a15e cf3c
000002e0: 1932 d3bd dd09 c93c 0ef8 a73a aa90 acbd
000002f0: 6ec0 313d 51cc 8dbc 042b d23d 0bc1 f1b7
00000300: aaa1 4bbd 4990 413d 2051 043d 801b fa3d
00000310: 97d0 40bd b82c d0bd b4e6 aebd 1e30 a7bc
00000320: 82fa c23c 67bc c1bb 133c 123b 8e98 3a3b
00000330: 0e19 b93d 58e9 4dbc bf14 1fbd 8c2b a33c
00000340: f573 05bd 735d 05bd 452f d1bd 7b11 25bd
00000350: 5429 37bd ed89 98bd 8f31 9ebd c9a5 a13d
00000360: 5eae 7a3d 186c cb3d fe3d ac3d 34ce 9ebc
00000370: 588d cd3d 09b8 763d e8c9 e03c 15fe 9f3d
00000380: fc2d f1bc 389b 83bc 85eb ec3d 0217 88bd
00000390: a726 38bd 7075 1bbd 4799 abbd 7a9e d9bd
000003a0: 3e24 283c 2ca3 ba3d b879 debd ca56 efbc
000003b0: 46ea 453b 74d1 24bc 1e35 f4bd b906 df3c
000003c0: 6334 87bd 853f b2bd 7a00 b0bd 012d 9c3d
000003d0: 77a5 863d 18e3 bebc 07f9 94bd 2c8f 2f3d
000003e0: e44f 4dbc c5f3 bbbc c58d 573d 2261 913d
000003f0: cb05 18bd f0a0 823c 1cbc b7bd c162 e4bd

dense.ResidualBlock3.block.Linear1.bias f4 [64]
0.036569674 0.0071299737 -0.077259056 -0.101887375 -0.096183024 -1.3289498e-06 0.100740395 -0.113798074
0.071540944 0.09300006 -0.00010505782 -0.03303803 -1.8813416e-06 0.055902477 -0.053911217 0.06198512
0.101434804 0.05663778 0.027142495 0.028888386 -3.6879046e-05 0.09365565 0.087119624 -0.11041017
0.09811677 0.08477022 0.037033424 0.001164906 0.0026365835 -0.08194913 0.100908965 -0.070392184
0.07578403 -0.0027856135 -0.082062885 0.045944855 -0.10484408 -0.011402204 2.4853427e-05 0.032975145
-0.055909216 -0.03309559 0.053707194 0.08124591 0.0837953 -0.059980247 -0.10347267 0.09838843
-0.08599185 -0.046139166 -0.017950905 0.0012013525 -0.08594929 -0.03198528 0.10620859 0.0066903965
0.02971626 0.048225585 0.00614167 -0.045856904 -0.10109953 -0.0009460237 0.075816065 0.08007892
00000000: 15ca 153d 8ea2 e93b ff39 9ebd 54aa d0bd
00000010: 9bfb c4bd 5e5e b2b5 fb50 ce3d f70e e9bd
00000020: 0f84 923d d176 be3d 7d52 dcb8 e352 07bd
00000030: 6882 fcb5 fff9 643d 02d2 5cbd 1ce4 7d3d
00000040: 0dbd cf3d 04fd 673d f059 de3c 56a7 ec3c
00000050: 93ae 1ab8 89ce bf3d c66b b23d ba1e e2bd
00000060: 72f1 c83d 029c ad3d 5cb0 173d c2af 983a
00000070: 88ca 2c3b f2d4 a7bd 5ca9 ce3d c729 90bd
00000080: a834 9b3d d78e 36bb 9610 a8bd ac30 3c3d
00000090: 7eb8 d6bd 4fd0 3abc 547c d037 f210 073d
000000a0: 1001 65bd 3e8f 07bd 13fc 5b3d 4164 a63d
000000b0: df9c ab3d d9ad 75bd 7be9 d3bd e07f c93d
000000c0: 7f1c b0bd 6cfc 3cbd c70d 93bc b376 9d3a
000000d0: 2e06 b0bd ff02 03bd e483 d93d 1d3b db3b
000000e0: 846f f33c 3188 453d 1040 c93b 73d4 3bbd
000000f0: 450d cfbd 93fe 77ba 7445 9b3d 6b00 a43d

dense.ResidualBlock3.block.BatchNorm1d1.weight f4 [64]
0.98918223 0.98926276 0.9908563 0.98904794 0.98976445 0.98981756 0.9905012 0.99106103
0.988886 0.9901728 0.98983055 0.9915423 0.9897225 0.9928777 0.98928756 0.9888136
0.9882825 0.98905796 0.9884207 0.98854816 0.9896289 0.9905584 0.98908603 0.9883702
0.98943233 0.9903754 0.9899435 0.99042434 0.98900247 0.9906214 0.9909915 0.98916
0.9893031 0.98922193 0.9898712 0.98840445 0.98918265 0.98987347 0.98998094 0.9896919
0.9898791 0.988746 0.99085623 0.98907775 0.9892189 0.9903966 0.98916304 0.9895101
0.9929347 0.98994946 0.99026144 0.98894024 0.98791045 0.9893613 0.98964244 0.9909753
0.988879 0.98823607 0.9901147 0.9902507 0.9893755 0.9901015 0.99233663 0.9891187
00000000: 0c3b 7d3f 5340 7d3f c2a8 7d3f 3f32 7d3f
00000010: 3461 7d3f af64 7d3f 7d91 7d3f 2db6 7d3f
00000020: a227 7d3f f77b 7d3f 8965 7d3f b7d5 7d3f
00000030: 745e 7d3f 3c2d 7e3f f341 7d3f e322 7d3f
00000040: 1500 7d3f e732 7d3f 2409 7d3f 7e11 7d3f
00000050: 5258 7d3f 3c95 7d3f be34 7d3f d405 7d3f
00000060: 704b 7d3f 3e89 7d3f f06c 7d3f 738c 7d3f
00000070: 442f 7d3f 5d99 7d3f 9eb1 7d3f 9739 7d3f
00000080: f842 7d3f a63d 7d3f 3368 7d3f 1308 7d3f
00000090: 133b 7d3f 5968 7d3f 646f 7d3f 735c 7d3f
000000a0: b768 7d3f 751e 7d3f c1a8 7d3f 3334 7d3f
000000b0: 733d 7d3f a28a 7d3f ca39 7d3f 8950 7d3f
000000c0: f830 7e3f 546d 7d3f c681 7d3f 302b 7d3f
000000d0: b3e7 7c3f c846 7d3f 3559 7d3f 8fb0 7d3f
000000e0: 2d27 7d3f 0afd 7c3f 2878 7d3f 1281 7d3f
000000f0: b647 7d3f 4b77 7d3f c609 7e3f e236 7d3f

dense.ResidualBlock3.block.BatchNorm1d1.bias f4 [64]
-0.00073625566 0.0043921596 -0.003179905 -0.0018447008 0.0016005931 -0.003992151 0.0013658082 0.001296676
0.0036385928 -2.4196372e-05 -0.005517707 -0.0037428956 -0.007493331 0.0029080259 0.0016447364 -0.0005810224
-0.0010573735 -0.0016367715 -0.0026826584 -0.0026853874 0.0019480932 -0.0043342737 0.006153597 -0.0023860428
-0.00026084305 -0.0026777345 -0.0024571286 -0.0037694345 -0.0063061374 -0.00176611 0.0028781544 0.0041061016
-0.0011676963 -0.00096650847 -0.0020589766 0.0027444947 4.5170447e-05 0.00014669335 0.00017087837 0.0033238465
-0.0015670616 0.0001651276 -0.0038805727 0.006925892 -0.002748134 -0.0021070642 -0.006092114 0.0021610535
0.0039999913 -0.0042929244 -0.003995531 -0.0027533113 -0.0017231072 -0.0006234686 -0.002460119 0.0021520979
0.0063699177 -0.001356917 0.007095636 -0.0015853255 -0.0018792663 -2.8756665e-05 -0.0014923734 0.0054040975
00000000: 4801 41ba 1bec 8f3b f465 50bb e3c9 f1ba
00000010: feca d13a 97d0 82bb eb04 b33a 3af5 a93a
00000020: 7575 6e3b 50f9 cab7 e2cd b4bb 5e4b 75bb
00000030: 9e8a f5bb 9494 3e3b 3294 d73a c14f 18ba
00000040: 9197 8aba f088 d6ba 8acf 2fbb 53fd 2fbb
00000050: 2957 ff3a 8606 8ebb 1da4 c93b 285f 1cbb
00000060: c3c1 88b9 ee7c 2fbb c707 21bb 9e08 77bb
00000070: b7a3 cebb d17c e7ba 6b9f 3c3b 7a8c 863b
00000080: 630d 99ba 495d 7dba e5ef 06bb fbdc 333b
00000090: 6675 3d38 b2d1 1939 d02d 3339 e4d4 593b
000000a0: dd65 cdba 1a26 2d39 3551 7ebb 98f2 e23b
000000b0: 0a1a 34bb ac16 0abb 5ba0 c7bb 76a0 0d3b
000000c0: 5c12 833b a9ab 8cbb f1ec 82bb e670 34bb
000000d0: e2d9 e1ba 4570 23ba f339 21bb 360a 0d3b
000000e0: beba d03b 94da b1ba 8282 e83b b2ca cfba
000000f0: b751 f6ba 783a f1b7 be9b c3ba db14 b13b

dense.ResidualBlock3.block.BatchNorm1d1.running_mean f4 [64]
770.1683 -151.24551 -1984.6143 -217.87805 -1604.8877 3146.7988 556.0808 1520.7493
-194.79501 -2909.6592 -1804.5728 -111.29703 -9.272438 -615.35846 463.35236 430.36856
-1316.7618 253.17438 1955.0508 -354.03384 548.9063 -1148.1796 -1692.6245 453.82126
-522.43506 -1136.8374 -1655.4167 707.1742 2812.0776 -3060.3818 1538.8494 721.45026
-2095.8298 559.88824 -702.8835 518.1566 -545.02246 -1007.8598 -1373.0339 -3068.0063
11.87528 -742.08203 -991.9357 -529.8835 -258.58984 490.50864 -489.2893 2906.0386
-1438.3368 1167.2758 -2174.893 976.3225 180.17087 924.2808 -2866.9067 -623.9495
-1495.0818 2753.0579 -432.59705 1166.5845 1622.2977 -103.63408 1297.1824 -2644.032
00000000: c58a 4044 da3e 17c3 a813 f8c4 c8e0 59c3
00000010: 689c c8c4 c8ac 4445 2c05 0b44 fa17 be44
00000020: 86cb 42c3 8cda 35c5 5492 e1c4 1498 dec2
00000030: e85b 14c1 f1d6 19c4 1aad e743 2d2f d743
00000040: 6198 a4c4 a42c 7d43 a061 f444 5504 b1c3
00000050: 013a 0944 bf85 8fc4 fc93 d3c4 1fe9 e243
00000060: d89b 02c4 cc1a 8ec4 56ed cec4 26cb 3044
00000070: 3ec1 2f45 1c46 3fc5 2e5b c044 d15c 3444
00000080: 47fd 02c5 d9f8 0b44 8bb8 2fc4 068a 0144
00000090: 7041 08c4 07f7 7bc4 16a1 abc4 1ac0 3fc5
000000a0: 2601 3e41 4085 39c4 e3fb 77c4 8b78 04c4
000000b0: 804b 81c3 1b41 f543 08a5 f4c3 9ea0 3545
000000c0: c7ca b3c4 d3e8 9144 4aee 07c5 a414 7444
000000d0: be2b 3443 f911 6744 822e 33c5 c5fc 1bc4
000000e0: 9ee2 bac4 ed10 2c45 6c4c d8c3 b4d2 9144
000000f0: 87c9 ca44 a644 cfc2 d625 a244 8340 25c5

dense.ResidualBlock3.block.BatchNorm1d1.running_var f4 [64]
407346.84 542998.6 494217.38 166533.44 533406.25 1.0951282e+06 84060.36 638717.9
147873.12 1.701363e+06 376973.97 230171.8 277104.5 337840.06 746818.5 961446.5
446182.9 859418.7 1.4422505e+06 292257.22 376408.12 273595.53 807139.2 456215.84
479186.62 285352.72 847007.1 562490.06 1.1772895e+06 1.2569801e+06 651613.94 516272.84
812270.44 673701.2 169187.52 614486.1 219820.94 422719.0 460464.22 1.1181799e+06
178903.17 555012.2 1.5997511e+06 270340.66 390102.16 471916.62 295137.47 890828.6
1.3141041e+06 353987.94 1.1676835e+06 357070.75 78674.125 467003.9 1.132891e+06 219978.39
1.139878e+06 1.0596302e+06 270705.34 334338.6 578147.06 406658.84 220624.45 985822.4
00000000: 5be6 c648 6a91 0449 2c51 f148 5ca1 2248
00000010: e439 0249 c2ae 8549 2e2e a447 deef 1b49
00000020: 4868 1048 98af cf49 bf11 b848 f3c6 6048
00000030: 104e 8748 02f6 a448 2854 3649 68ba 6a49
00000040: dddc d948 abd1 5149 540e b049 27b4 8e48
00000050: 04cb b748 7197 8548 330e 4549 fbc2 de48
00000060: 54fa e948 1755 8b48 f2c9 4e49 a153 0949
00000070: 4cb6 8f49 a170 9949 df15 1f49 1b16 fc48
00000080: e74e 4649 537a 2449 e138 2548 6205 1649
00000090: 3cab 5648 e067 ce48 07d6 e048 1f7f 8849
000000a0: cbb5 2e48 4380 0749 3948 c349 9500 8448
000000b0: c57a be48 946d e648 2f1c 9048 ca7c 5949
000000c0: c169 a049 7ed8 ac48 1c8a 8e49 d859 ae48
000000d0: 10a9 9947 7d07 e448 d84a 8a49 99d2 5648
000000e0: 3025 8b49 7259 8149 2b2e 8448 5340 a348
000000f0: 3126 0d49 5b90 c648 1d74 5748 e6ad 7049
