scripts/elites/602/34/3/actorModel.pth (torch, 673570 bytes, 12 tensors)

policy_net.0.input_layer.weight f4 [144, 256]
000000 61 90 6b 3c b7 5b 7b bd 38 65 90 ba df 9f a3 3c
       0.014377684 -0.061366763 -0.0011016494 0.019973693
000010 f0 44 2d bc 64 a4 ea 3c 0f 9b 4a 3d a8 2d 8f bc
       -0.010575518 0.02864284 0.04946428 -0.017477825
000020 19 1e 0a 3d 30 03 08 bd f9 07 7d 3c 86 fe a1 bc
       0.03372011 -0.033206165 0.015443795 -0.019774687
000030 4a 53 5f 3c 27 31 60 bd 35 8d 10 bd 13 59 1e bd
       0.0136306975 -0.054734375 -0.035290916 -0.038659167
000040 ef aa c2 bc 50 49 0d 3d 93 a3 44 3d 2b eb 47 bd
       -0.023763148 0.034493744 0.04800756 -0.048808258
000050 90 1d 2b 3d e9 b8 f1 3c c8 1e 27 bd 51 6b 24 3d
       0.04177624 0.029507117 -0.04080084 0.040141407
000060 b3 43 f5 bc 5e 8f af 3c 0d 5d 64 3d 28 74 97 bc
       -0.029939508 0.021430667 0.055752803 -0.018488005
000070 04 92 17 3d 2e 09 49 bd 47 45 e5 bb f5 ca 35 bc
       0.037004486 -0.04908102 -0.006996784 -0.011095752
000080 34 7c 3e 3b b8 99 6e bc 38 e2 9d 3b 94 8d b2 3c
       0.002906573 -0.014563017 0.004818227 0.021796025
000090 eb 56 62 bc 32 ae 0a bc 65 a9 2c bd e8 f7 4e bd
       -0.013814668 -0.008464383 -0.042153735 -0.05052939
0000a0 03 94 e9 ba bf 77 20 3b 7b b3 d1 bc 7c 16 1b 3d
       -0.00178206 0.0024485437 -0.025598278 0.03786324
0000b0 c6 37 1f 3c 44 2e 32 bd c8 bf 05 3d d4 14 e2 bc
       0.009717887 -0.043501154 0.0326536 -0.027597822
0000c0 aa 94 63 3c 82 3e 77 bd ba 80 46 3d e5 0c 09 bb
       0.013890425 -0.060362346 0.048462607 -0.0020912227
0000d0 91 72 52 3d 0a fa 9c 3c a2 9b 42 3d 5b 89 8c bc
       0.05137879 0.019162197 0.047511704 -0.01715534
0000e0 10 a0 5f 3c 91 e3 84 3c 05 97 65 bc 51 87 d8 3c
       0.013649002 0.016221793 -0.014013057 0.026431711
0000f0 2c 72 ae 3c 0c 03 44 bd d8 d7 f9 bc 88 48 92 3c
       0.021294676 -0.04785447 -0.03049843 0.017856851
000100 b0 8d c5 3c a7 5d 38 bd 2d 5b 51 3d 2b 44 2f 3d
       0.024115413 -0.04501119 0.051112343 0.04278962
000110 66 7e 72 3d f7 31 7b 3c b0 a3 05 bd 0d 68 22 3d
       0.059202574 0.015331737 -0.032626808 0.03965001
000120 86 6c d2 bb ae 5e 84 bb 04 4e 1f bd eb 27 d8 ba
       -0.0064216284 -0.004039607 -0.03889276 -0.0016491389
000130 f9 94 76 3c de 77 52 3d 11 d1 78 3d f4 26 cb 3b
       0.015050166 0.051383846 0.060746256 0.006199712
000140 67 64 56 bd c3 bc 33 3d 3a 48 76 3d 81 52 c0 bb
       -0.052341845 0.04388119 0.060127474 -0.00586921
000150 4e 1a 88 bc 29 99 06 3d 76 76 2a 3b 34 f5 57 bd
       -0.016614106 0.03286091 0.002601055 -0.05272408
000160 04 6f 2a bc cd 39 2a bd 6b f5 31 bd 98 a2 61 3d
       -0.010402445 -0.04155903 -0.04344694 0.055086702
000170 5f 97 58 bd c0 33 02 bd 2a 8d 3d bd 33 05 b6 3c
       -0.052878734 -0.031787634 -0.046277203 0.022219276
000180 41 b6 5f 3c 42 67 f0 3c 37 85 97 bc e2 e2 97 3c
       0.013654293 0.029346112 -0.018496139 0.018540803
000190 6b 2d 10 3d 79 56 67 3d f7 fa 2b bd 69 da 66 3d
       0.035199564 0.05647895 -0.041987386 0.056360636
0001a0 f4 62 a2 3b b4 80 90 3c 14 6a 26 3d e3 d8 f0 3c
       0.004955644 0.017639495 0.040628508 0.029400295
0001b0 ef 0d 91 3c 2c a4 bb 3b c3 cb 47 bd 61 0d ef 3b
       0.01770684 0.005726358 -0.048778307 0.007295296
0001c0 aa 3b 5d bc 04 bf b9 bc 56 01 3c bd f4 42 52 3d
       -0.013502995 -0.022674091 -0.04589971 0.051333383
0001d0 3b a5 18 bd 53 07 75 bb 48 0c 68 bc 5f 8f 06 bc
       -0.03726695 -0.0037388399 -0.014163084 -0.008212893
0001e0 35 48 bf 3c 1f 4b 50 bd 72 a7 60 bd da 1d 82 3c
       0.02334986 -0.05085289 -0.05484719 0.015883375
0001f0 9b e6 85 bc 10 14 67 3d cd 03 76 bd 72 d6 49 3c
       -0.016345313 0.056415617 -0.06006222 0.012319194
000200 e1 d6 09 bb a4 a4 07 3d 4d fe 34 bd 70 b6 f7 bc
       -0.0021032619 0.033115998 -0.044187833 -0.03023836
000210 cd 00 b6 3c 5c b7 b3 3c fc 1e 04 3c c2 f7 6b 3d
       0.022217179 0.021938019 0.008064028 0.057609327
000220 91 f9 dc 3b 91 1c ac bc 1d e6 5e bc 51 3b 1b 3d
       0.006743618 -0.021009715 -0.013604668 0.037898365
000230 2a a5 ea 3c da dd 40 3b 30 12 be 3b 6f 14 e3 bc
       0.02864321 0.0029429109 0.005800508 -0.027719704
000240 ec 95 12 3d b6 5b 67 3c 71 ae 63 3d 9c 87 51 3d
       0.035787508 0.014120987 0.055586282 0.051154718
000250 72 31 59 bc 82 45 86 3c 14 7e 01 bd 14 b5 2c bd
       -0.013256418 0.016390566 -0.031614378 -0.042164877
000260 48 c1 55 3d eb 58 1a bd c8 a7 52 bd d5 7d 78 bd
       0.05218628 -0.037682455 -0.05142954 -0.060666878
000270 c3 6a da 3c f4 68 33 3d cd 87 44 bd e1 ef 3d bd
       0.026662236 0.043801263 -0.047981072 -0.046371344
000280 2c 2b 15 bc 8d 11 55 3d 6e 07 8c bb 1d f3 5a 3d
       -0.009104531 0.05201869 -0.0042733466 0.053454507
000290 e0 31 4b 3d 2b 9d 09 3d a4 9a e3 3c fc 1e b2 bc
       0.04960811 0.033597153 0.0277837 -0.02174329
0002a0 62 3d c3 bc 99 ac 6c 3a 68 9b 55 3d e2 7a 58 bd
       -0.02383298 0.00090284046 0.05215016 -0.052851565
0002b0 41 df 5e bd b7 ab 28 bc 37 db 55 bd 1d 33 e8 38
       -0.05441213 -0.010294846 -0.052211013 0.00011072143
0002c0 48 26 bd bc 7c b9 0f bd fe e4 e0 3c 62 3f 05 3c
       -0.023089543 -0.035089 0.027452942 0.008132787
0002d0 f0 8c aa bc 1d 41 32 3d 4d 1d ad 3c 87 43 f1 bc
       -0.020819157 0.043519128 0.021132136 -0.029451145
0002e0 96 73 40 3d 69 df 92 3c a1 b2 c2 bb 7b b4 0c 3d
       0.04698523 0.017928796 -0.0059417044 0.034351807
0002f0 a7 1d 97 3c 86 6a 4a bd 2c 09 21 bc a6 78 cd 3c
       0.018446757 -0.049417995 -0.009828847 0.025081944
000300 e1 75 59 bd 3e 9a 57 3d 33 7f 9c bc d7 5a 1a 3d
       -0.053090934 0.05263733 -0.019103622 0.037684288
000310 25 42 28 bd 52 b4 28 bd 90 31 1d 3d 4f 27 8e 3b
       -0.041078705 -0.04118759 0.038377345 0.004338182
000320 95 21 50 3c cb f1 71 bb 17 f0 19 bd 86 8b 86 bb
       0.012703319 -0.0036917801 -0.037582483 -0.004105988
000330 d2 d3 17 3c 93 10 24 3d 02 0b 1d 3c 6c 6a c4 3c
       0.0092668105 0.04005487 0.009585144 0.023976527
000340 be e3 19 3d a3 13 70 3d 64 be 62 bb c2 b6 04 3d
       0.037570707 0.058612477 -0.0034598345 0.032400854
000350 5f 1a 33 3d 89 2a 24 bd 6c 81 b1 bc 0b 11 37 3d
       0.04372632 -0.040079627 -0.021668158 0.044693988
000360 43 45 04 3c 59 b7 7a bd d6 1d 7c 3d 37 92 dd 3c
       0.008073154 -0.06121001 0.06155189 0.02704726
000370 39 36 62 bd f7 66 54 bd de 11 13 3d fe 7e 23 bc
       -0.055227492 -0.051856007 0.03590571 -0.009979008
000380 d2 ac 77 3d 0c 44 d1 bc 09 4c 50 3c ae 12 a1 3c
       0.06046755 -0.025545143 0.012713441 0.019662227
000390 92 8f 32 3d 8d 3a da 3a dd 87 d2 3b d6 2f 71 3d
       0.04359395 0.001664953 0.0064248876 0.05888351
0003a0 9a 46 1d 3d b5 81 23 bd c3 39 d0 3b 11 07 0b 3d
       0.03839741 -0.03991862 0.006354542 0.033942286
0003b0 97 06 f9 3c 10 c2 49 3c db 49 46 bd 03 a7 48 bd
       0.03039865 0.0123143345 -0.048410278 -0.0489874
0003c0 66 a4 99 3c 8e b2 3c 3d be c6 ee 39 54 be 58 3d
       0.01875515 0.04606872 0.00045542972 0.052915886
0003d0 2d 10 4b bd 94 fa d8 bc 2b c9 49 bd e7 de 38 3d
       -0.049575973 -0.026486672 -0.049264114 0.04513445
0003e0 ff 15 02 bd 17 58 2e 3b f4 82 36 bd 17 ff c2 bc
       -0.03175926 0.0026602799 -0.04455848 -0.023803277
0003f0 71 95 aa 3b 60 a7 c4 bc e2 b9 35 3b 20 9e 80 3c
       0.005205803 -0.024005592 0.0027729203 0.0157004

policy_net.0.input_layer.bias f4 [144]
000000 e8 5a e7 3c 54 9a 2e 3d 43 e8 f2 bc 8e d6 06 3d
       0.02824159 0.042627648 -0.029651767 0.03291946
000010 14 2b 0f bd 1b 5b 20 bd 9e 86 9d bc 3f 81 af 3a
       -0.034953192 -0.039149385 -0.01922923 0.0013389959
000020 78 92 1c 3d 9b ab 63 bd 60 b8 76 3d ed 28 12 bc
       0.03822562 -0.055583578 0.060234427 -0.00892089
000030 c7 27 dc bb 30 01 2c bd 90 d9 56 bc 21 9e 55 3d
       -0.006718609 -0.04199332 -0.013113394 0.052152757
000040 d4 d4 43 bd 2c f7 2f bd 28 de 27 bc 4c f1 29 bd
       -0.04781039 -0.04296033 -0.010245837 -0.041489884
000050 d6 82 58 3d 32 f4 7f 3d b2 b5 12 bd 1a 83 52 3d
       0.05285915 0.062488742 -0.03581781 0.05139456
000060 72 1a 33 bd d7 f6 09 3d 80 76 6e 3b 08 00 68 bd
       -0.043726392 0.03368267 0.003638655 -0.056640655
000070 6f d9 c0 bc ae 06 5c bd 0b 53 34 bc 68 4e 09 3c
       -0.02354118 -0.053717308 -0.011006127 0.00838051
000080 16 19 e1 bb 97 f0 9d 3c c5 d5 77 bc c6 5b e1 3b
       -0.0068694456 0.019279761 -0.01512665 0.0068773953
000090 5a 04 1c 3d e5 14 72 bd b8 46 f1 bc c1 60 35 3d
       0.038090087 -0.059101958 -0.029452667 0.044281725
0000a0 88 93 0c bc 86 69 17 3c 82 d4 38 3b 7b 01 55 bb
       -0.008580096 0.009241467 0.0028202836 -0.0032502103
0000b0 86 95 a2 3c 0d cf 7f bd 15 43 78 3d 6f b2 f1 3b
       0.019846689 -0.06245332 0.06061085 0.0073760073
0000c0 da fa 3e 3d d8 41 e5 3c d9 e6 7f 3d 66 62 f0 bc
       0.04662595 0.027985498 0.062476013 -0.029343795
0000d0 ff 49 61 bd d4 6b 9e 3c 0c af 09 3c 9e b4 0d 3d
       -0.05500221 0.019338526 0.008403551 0.034596078
0000e0 cc aa 50 3d 7e b6 38 bd 0c dc 5f bd 24 09 24 bd
       0.050944135 -0.045095913 -0.054653212 -0.04004778
0000f0 49 90 42 bd 07 0a 39 bd 8e ce 71 bd b5 2c d7 3c
       -0.047500882 -0.04517558 -0.059034877 0.026266435
000100 8e b0 54 bd a7 d5 05 bd 6f a4 7e bc cd e3 7f bd
       -0.05192619 -0.032674458 -0.015542134 -0.062473107
000110 12 b1 7d bd 9c 3f a1 3c fe b9 88 bb 57 4f 2b bd
       -0.061936446 0.019683652 -0.0041725626 -0.04182371
000120 86 44 36 3d d2 ce 81 3c b8 95 1e bc b4 cf af 3c
       0.044498943 0.01584569 -0.00967925 0.021461345
000130 90 48 03 bd ec b8 10 bd c4 7b b9 3c 98 96 ed bc
       -0.032051623 -0.035332605 0.022642024 -0.029002473
000140 17 35 ef 3b 14 4b d6 ba f2 f6 75 bd a6 83 47 3d
       0.00730003 -0.0016349279 -0.06004996 0.048709534
000150 da 5b f9 bb b8 8b d2 bc 45 cb 39 3b 94 0c 73 bd
       -0.0076098265 -0.025701389 0.0028349918 -0.059338167
000160 49 0f 1f bd 81 cc 10 bd d2 e4 64 3d e1 9d 32 3d
       -0.038832936 -0.03535128 0.055882283 0.043607596
000170 a8 b2 01 bd cb 0e 10 3d 2e ac 42 3c 2a 95 76 3d
       -0.03166452 0.035170358 0.011881871 0.060200848
000180 b5 4b d3 3c 1c 5b f2 bc 67 5e 16 3d 7d 7a b2 bc
       0.025792936 -0.02958446 0.036711123 -0.021786923
000190 a8 2b b3 bc 23 a1 05 3c 79 51 36 3d 57 8e 4d bc
       -0.021871403 0.008156094 0.044511292 -0.0125461435
0001a0 7d 84 6b bd e9 ac ab 3b d9 1a 75 bd 50 16 1e bd
       -0.057499398 0.0052391184 -0.059840057 -0.038595498
0001b0 c9 5e 10 3d 8a fe 09 bd 9f 15 d6 3b 30 3c 16 bc
       0.035246644 -0.033690013 0.006533339 -0.009169623
0001c0 79 94 63 3c 03 64 5c 3d 9e 58 33 3d 84 2d 79 bd
       0.013890379 0.053806316 0.043785684 -0.060834423
0001d0 f0 ae ec 3b 72 7f ed 3c 00 52 06 3b de 96 25 3d
       0.0072230026 0.028991435 0.0020495653 0.04042708
0001e0 88 50 1d bc bb 15 77 bd 83 88 f1 3b d4 35 72 3d
       -0.00960172 -0.06032346 0.00737101 0.059133366
0001f0 bd 4b 45 3d 68 e2 38 bd 49 32 e7 bc 76 44 57 bd
       0.048167933 -0.045137793 -0.02822222 -0.052555524
000200 13 61 1a 3d e3 42 2e 3d 1e a1 ef 3a b0 18 cb 3c
       0.037690233 0.042544257 0.001828227 0.024792045
000210 0c 68 46 3d 2e 32 38 bd 70 9c 6a bd 35 b2 0f bd
       0.04843907 -0.04496973 -0.057278097 -0.03508206
000220 da 87 5e 3d 90 d4 7a bd 8d bf 57 bc ed b6 43 3d
       0.054328777 -0.06123787 -0.013168228 0.047781873
000230 c6 04 d4 bb 9e 75 34 bd e9 1a 39 bd a2 2a 60 bd
       -0.0064702956 -0.04405748 -0.04519168 -0.054728158

policy_net.0.output_layer.weight f4 [144, 144]
000000 10 45 35 bc 4d 76 8f 3d 85 16 9a 3c 22 82 1c bd
       -0.011063829 0.07004986 0.018809566 -0.03821004
000010 f1 60 2c bd 9b 9e 4b 3d 47 79 5b 3d 04 1b 5a 3d
       -0.042084638 0.049711805 0.053582456 0.05324842
000020 7a a9 57 3d 85 d5 90 3d 96 ea 19 3d e9 3f 27 3d
       0.05265186 0.070719756 0.037577234 0.040832434
000030 a4 d9 45 bd 4b 70 50 bd 72 ca 6c bd 98 a3 a4 bc
       -0.04830326 -0.05088834 -0.057810254 -0.020097539
000040 26 0c b8 3c c3 dc 6d bc cd da 88 3d 0e a1 4f 3d
       0.02246673 -0.014517966 0.06682358 0.050690703
000050 cf 83 ea 3c f1 36 2e bd dd 5f 98 bc a1 cb 5b bc
       0.028627304 -0.042532865 -0.018600399 -0.013415248
000060 7a a1 3d bd 2f bd 32 3c a7 3a e0 3c d8 8b 97 bc
       -0.046296574 0.010909363 0.027371718 -0.0184993
000070 99 d0 50 3d d4 88 70 bd e0 79 8b 3d b8 88 1b bd
       0.050980184 -0.05872424 0.06810355 -0.037972182
000080 68 c8 5a 3d 04 8e 8b bb a4 a6 23 bd 49 d0 d6 bc
       0.05341378 -0.004258873 -0.039953843 -0.026222365
000090 d1 4d 82 3d 81 7c 10 3d 08 ce 97 bd 7f 9c 95 bc
       0.063624986 0.035274986 -0.07412344 -0.0182631
0000a0 be ff 8d bd 95 49 8f bd 5a ec 82 bd 03 70 df bc
       -0.069335446 -0.069964565 -0.06392737 -0.027275091
0000b0 63 8a a2 3d ea cd 85 3d 19 5d 69 bb 36 12 4e bc
       0.079365514 0.065334156 -0.003560847 -0.012577584
0000c0 d8 10 71 bd b4 3e 73 bd ad af 8c 3d 2d 9d 96 bd
       -0.058853954 -0.05938597 0.06869445 -0.07354198
0000d0 69 a2 14 3d ac b7 60 bd 3b 2d 96 3c 36 b6 1e 3d
       0.0362877 -0.054862663 0.018332114 0.03874799
0000e0 f3 cf d5 3b ae 93 17 bb c2 0e 98 bd 98 2c 43 bd
       0.0065250336 -0.0023128795 -0.0742469 -0.04764995
0000f0 ea 08 d6 3c 39 89 46 3c a6 53 4a 3d ff 42 bd bc
       0.026127297 0.012117677 0.04939618 -0.023103235
000100 4f 76 91 bd 48 ec 8b 3d 58 34 30 bd a7 89 6d bd
       -0.07102644 0.068321764 -0.04301867 -0.057992604
000110 dd 87 03 3d 6b ef 8e 3d a8 a8 0c bd 65 12 32 bd
       0.03211199 0.06979259 -0.03434053 -0.043474574
000120 5d ed e5 bc ce 0d 95 3d a8 aa 7c bd af 15 fc 3b
       -0.028067285 0.07278024 -0.061686188 0.0076930146
000130 1c 27 37 3b 96 bc 28 3c ef 2b f7 bb 09 f9 4e 3d
       0.0027946895 0.010298869 -0.007543079 0.050530467
000140 7b 5d 0e bd c1 9e 3a bb 45 92 46 bd 9d 35 b5 3c
       -0.03475712 -0.0028475972 -0.048479337 0.022120291
000150 82 6f 39 bd 9c a6 59 bd 0a 8a dd bc ea 95 a6 bd
       -0.045272358 -0.053137407 -0.027043361 -0.081340626
000160 e8 89 55 3d ee ec 2f bd 98 59 2b 3c 78 7b 68 3d
       0.05213347 -0.042950563 0.0104583725 0.056758374
000170 8c 62 58 bc ec f1 10 3d d4 da 0d bd 91 cb b3 bb
       -0.013207089 0.035386965 -0.03463252 -0.0054869135
000180 9f b5 4e 3d ac db a4 3d 5c fd 36 bc 8e 56 4e 3d
       0.050466176 0.080497116 -0.011168804 0.050375514
000190 72 ad 36 bc 86 b4 43 bd 19 be a5 3b df d6 16 3d
       -0.011149751 -0.047779582 0.005058062 0.03682601
0001a0 1e 33 65 3c f3 bf 3c bc 2b 1c c9 bc 1e 4e 96 3c
       0.013989238 -0.011520374 -0.024549564 0.018347796
0001b0 dc 6e 6a bd e7 63 5c 3b 2b 1c 6b bd d1 bd f1 bc
       -0.05723463 0.0033628882 -0.05739991 -0.029509457
0001c0 18 6a f9 bb 9f d4 de 3b a5 d5 56 3b cd cb 02 bd
       -0.0076115243 0.0068002488 0.003278115 -0.03193264
0001d0 e0 f4 6e bd 7a 1e 1a 3d f6 44 4e bd b5 a7 7e bd
       -0.058339 0.03762672 -0.050358735 -0.062171657
0001e0 87 3c 19 3d fa 6e 98 3c 92 59 87 bd f1 55 1c bd
       0.03741124 0.018607605 -0.06608881 -0.038167898
0001f0 2c 90 a1 3d fa b3 c7 3c 79 16 3d 3c 3e cd b5 bc
       0.07888827 0.024377812 0.011541002 -0.022192594
000200 8b 8f 8a 3d d6 8e 8e bd 93 10 97 3c 25 96 11 bd
       0.0676566 -0.069608375 0.01844052 -0.03554358
000210 70 cf 75 bc 16 06 43 bd 7a d7 14 3d 90 70 b2 3c
       -0.01500307 -0.047613226 0.036338307 0.02178219
000220 62 ba 92 3d bc 5b 19 bb c7 28 14 bd 43 6e 8e bd
       0.07164456 -0.0023400625 -0.0361717 -0.069546245
000230 09 66 a5 ba 54 1f 29 3d 0d f1 c2 bb 7f a3 25 3c
       -0.001261891 0.041289642 -0.0059491456 0.010109781
000240 27 70 03 3d f3 50 5b 3d 9f bc 04 3c f6 d0 2d 3c
       0.03208938 0.053543996 0.008101611 0.010608902
000250 d6 ca cf bc 98 51 22 3d b3 5e 63 3d 04 6c 94 3d
       -0.025365274 0.039628595 0.055510234 0.07247165
000260 1b 86 05 3d f8 93 81 3d ef 80 db bc 56 ea 86 3a
       0.032598596 0.06327051 -0.026794879 0.0010293226
000270 4c 73 a1 bc 5e 85 f4 3c d4 7c cc 3c 70 96 55 3d
       -0.019708298 0.02984875 0.024961866 0.05214542
000280 3b fd 57 bd ea f2 cf 3c 20 ff 6b bc 48 79 74 bd
       -0.052731734 0.025384385 -0.014404088 -0.059685975
000290 d3 c9 0c bd 3c 0d bc bc 36 0c 82 bd 95 4d 11 3c
       -0.034372162 -0.02295553 -0.06349985 0.008868595
0002a0 db e8 92 bd 3e c9 94 bd ee 44 3a bd 82 c1 8b bd
       -0.0717332 -0.072649464 -0.045475893 -0.06824018
0002b0 d6 09 95 bc 53 ef 2d 3d 62 1e 83 bd 76 4d 48 3d
       -0.018193167 0.042464565 -0.064022794 0.048901998
0002c0 06 e1 c7 bc e4 6d 8a 3d 6c 6e 1b bc 55 73 05 3d
       -0.024399292 0.06759241 -0.009486776 0.032580692
0002d0 fb 78 64 bd 8b 41 74 bd 30 0d 4d bd 07 29 77 3d
       -0.05577944 -0.05963282 -0.050061405 0.06034186
0002e0 02 a9 01 bc b6 e0 ba bc bb 34 c5 3c 03 35 7c bd
       -0.00791383 -0.022812229 0.024072995 -0.061573993
0002f0 c6 4d 95 3c 80 3a 8f bd 23 c8 62 bc aa f2 83 3b
       0.018225562 -0.0699358 -0.013841662 0.0040267305
000300 7b 6f b6 3c 50 7b 26 bd ca 59 5d 3b b6 f3 d9 3b
       0.022269955 -0.040644944 0.0033775442 0.006651367
000310 fc 50 93 3c 47 b9 97 3d 5c 0f a9 3d c7 9c a2 3d
       0.017982952 0.07408386 0.08254883 0.07940059
000320 31 4d dc bc 7b 01 b2 3c 46 a3 a5 bd 51 0c f2 bc
       -0.026892276 0.021729222 -0.080877826 -0.029546889
000330 52 18 9b bd ac 63 84 bc 08 b7 07 3d 0f f7 8d 3d
       -0.07572998 -0.016160809 0.033133537 0.06931888
000340 38 17 0e bd 38 83 69 bd 97 5c a1 3d 7c 34 7d bd
       -0.034690112 -0.057009906 0.07878988 -0.06181763
000350 f2 e2 93 bd 40 f7 23 3c 2c f6 66 ba c2 d9 95 3d
       -0.07221021 0.010007679 -0.0008810486 0.07316925
000360 1f c1 73 bd 76 42 1a 3c d0 c5 9c 3c ca c7 a1 bd
       -0.059510347 0.00941526 0.019137293 -0.07899435
000370 c6 0b 44 3d 5b b1 df bc cc 9f 7e 3c d3 c7 78 3c
       0.04786279 -0.02730625 0.015541028 0.015184361
000380 6b d4 36 3d 68 45 6a 3d e6 e2 8c 3d 30 da bb bc
       0.04463617 0.057195097 0.06879215 -0.022931188
000390 c4 4a 9c bd 16 fd 6c 3c f6 39 8e 3d 98 61 9c bd
       -0.07631448 0.014464637 0.06944649 -0.07635802
0003a0 ae 62 0d bd 76 cb 9c bc 9f f1 26 3d ca 88 f5 3c
       -0.034517936 -0.019139986 0.04075777 0.029972453
0003b0 a6 1c 2e bd fe 87 4f bd 3b 59 b8 3c 38 f1 51 3d
       -0.04250779 -0.0506668 0.022503486 0.051255435
0003c0 2f e8 30 bd 53 c0 17 bd 04 d5 fe bb 89 29 17 bd
       -0.043190178 -0.03704865 -0.0077768583 -0.036904845
0003d0 d1 19 50 3b 0d de 37 3d 54 d1 a1 bd e0 29 5b bd
       0.003175367 0.0448895 -0.07901254 -0.053506732
0003e0 4b 40 92 3c 6b 47 7c 3d 62 cb a1 bc 88 90 1b bd
       0.017852923 0.061591547 -0.0197503 -0.037979633
0003f0 21 a0 5a bc 32 22 4f 3d ef 71 e1 3c ff ff d2 bb
       -0.013343842 0.05056972 0.027520148 -0.0064392085

policy_net.0.output_layer.bias f4 [144]
000000 65 a2 9f 3d 80 52 8e bd 3b 65 0a bd bc dc f2 3b
       0.07794646 -0.069493294 -0.033787947 0.0074115675
000010 7b cd 10 3d 20 db 19 3d c9 09 2b 3d 09 50 91 3d
       0.03535221 0.03756249 0.04175738 0.070953436
000020 1d 52 e6 3c 52 03 02 3d fe b4 ce bc b6 17 21 bd
       0.028115327 0.031741448 -0.025232788 -0.039329253
000030 f8 85 a5 bd 8f c2 03 bd 1d a1 a8 3d c4 0c 9c bd
       -0.08082193 -0.032167967 0.08233855 -0.07619622
000040 50 be d7 bb ae a8 b1 3b 4f 5a ef 3c 40 b2 ae 3b
       -0.0065839663 0.0054217195 0.029217867 0.0053313076
000050 90 d7 61 bd 6f 65 b8 bc 92 68 96 bd 55 33 82 3d
       -0.055137217 -0.022509305 -0.07344164 0.06357447
000060 83 ff 00 3c 33 05 60 bd c0 94 80 3c d0 df 05 bd
       0.007873419 -0.05469246 0.01569593 -0.032684147
000070 4f d5 13 bd 89 85 80 bb 33 cc 91 3c f0 06 8b bd
       -0.0360921 -0.0039221686 0.017797565 -0.067884326
000080 34 b4 7a bd 7a ee 13 3c 84 49 a5 bc 96 bc 80 3b
       -0.06120701 0.009029025 -0.020176657 0.003928731
000090 60 20 af bc 4c 21 93 3d dd ad 99 bd a7 47 09 bd
       -0.021377742 0.07184085 -0.07503865 -0.0335156
0000a0 83 a3 14 bd 3c a4 93 bd 4e dc 6a 3d 0f fe bc 3c
       -0.03628875 -0.072090596 0.057339005 0.023070363
0000b0 dd 6f 99 bd 95 ed 35 3d 94 7b a2 3d 63 1d 2e bd
       -0.07492039 0.04441603 0.07933727 -0.042508494
0000c0 c3 63 96 bd b0 0b 8f bd fc 82 4f 3d 70 61 5f bd
       -0.07343247 -0.06984651 0.050662026 -0.054536283
0000d0 6c e1 15 bd 6c 9b ce 3c ab 11 70 3d fb 2f 67 3d
       -0.036591932 0.025220595 0.0586106 0.056442242
0000e0 a4 bc 90 bd d0 f8 82 bd a0 df 31 bc 98 75 e9 3b
       -0.0706723 -0.063951135 -0.010856539 0.007124614
0000f0 6e 29 a1 bb 43 18 97 bc 3c 41 96 3d 4b ad 74 bd
       -0.004918269 -0.018444186 0.07336661 -0.059735578
000100 55 09 a4 bd a5 60 2f bd 56 ea 9c ba c6 72 15 3c
       -0.080095924 -0.042816777 -0.0011971693 0.009121602
000110 48 7a a0 3d 23 65 87 3c 01 2a 50 bd 96 8b 0c bc
       0.07835823 0.016527718 -0.050821308 -0.008578202
000120 2e e2 b8 bb 8e f3 12 bc 26 61 d6 3c b5 bf 71 3d
       -0.005642197 -0.008969201 0.02616937 0.059020717
000130 b1 e3 a6 3d 92 43 bf bc 7c a1 83 3d 80 df b4 3c
       0.081488974 -0.02334765 0.06427285 0.02207923
000140 9e e0 7b 3d 50 73 17 3d b3 62 29 3d 2c 59 f7 3c
       0.06149351 0.036975205 0.041353893 0.030193888
000150 62 10 08 bd d0 c0 18 3d 22 e1 a5 bd 97 55 f0 bb
       -0.03321875 0.037293255 -0.08099581 -0.007334422
000160 ea 44 3c bd f6 bf 46 bc 44 ca 81 3d 21 ab 91 3c
       -0.04596416 -0.012130728 0.06337407 0.017781796
000170 fb d1 cf bc 47 0f 3b bc 68 d0 b9 bc 87 e4 97 3d
       -0.025368681 -0.011417217 -0.022682384 0.07416635
000180 c6 95 e7 bc 4a 51 8c 3d b2 f2 d1 bc 85 db 30 bc
       -0.02826966 0.06851442 -0.025628421 -0.010794525
000190 0a d7 04 bd 05 ee 72 bd 70 de 4a bd 39 f6 9c bc
       -0.03243164 -0.059309024 -0.04952854 -0.019160377
0001a0 0f 4c 9b 3d db da 95 bd 27 57 4f bd 68 e2 46 3d
       0.075828664 -0.07317134 -0.050620224 0.04855576
0001b0 99 f1 81 bd 0a ed cc 3c ea 25 8b 3d 2a ae 22 bd
       -0.06344909 0.025015373 0.06794341 -0.039716877
0001c0 04 42 81 bd 91 55 88 3c 25 b0 36 bc f4 11 83 bd
       -0.063114196 0.016642364 -0.011150395 -0.06399909
0001d0 84 38 19 3b d6 1a ab 3c 6e e9 43 bc 13 34 96 3d
       0.0023379633 0.02088682 -0.011957509 0.07334151
0001e0 e7 a4 8d bc dd da 87 3d 03 ab 28 3c b8 ac 2f 3d
       -0.017290546 0.06633542 0.010294679 0.042889327
0001f0 f0 c3 53 bd de ad a9 bb cb ac 94 bc 0f a9 65 3d
       -0.051700532 -0.0051781973 -0.0181488 0.05606943
000200 9e 4b 04 3c 93 30 12 bd 14 cf bc ba 28 d2 16 3d
       0.008074669 -0.035690855 -0.0014404976 0.036821514
000210 5a ee 26 bd 03 87 eb 3c 1f 4d 47 3d 30 30 8f bd
       -0.040754654 0.028750902 0.048657533 -0.06991613
000220 33 5a 41 3d a8 0b 1a bd b4 1d d4 bb 1e 64 67 bd
       0.04720516 -0.037608773 -0.0064732675 -0.056491964
000230 d3 60 5b bd 3d 98 5b bd 48 3c 16 bd de a5 8b 3d
       -0.053559136 -0.053611983 -0.036678582 0.06818746

policy_net.0.attention.in_proj_weight f4 [432, 144]
000000 4a 34 b6 bd c8 88 7e 3d d6 d7 f1 bc d8 55 7c 3c
       -0.08896692 0.062142164 -0.029521864 0.015401326
000010 20 37 89 bd 0c d2 b5 3c 4b f8 d5 3a a1 20 d9 3c
       -0.066999674 0.022194885 0.0016324607 0.026504816
000020 55 25 47 3d 27 58 8f 3d a9 69 64 3d 64 27 22 bd
       0.048619587 0.069992356 0.055764828 -0.039588347
000030 9b 95 eb bc a0 29 9e 3d 03 e3 b8 bc 72 32 ed 3c
       -0.02875786 0.07722783 -0.022569185 0.028954718
000040 11 21 9b bb 9a b3 a3 bd 6e 0f d5 bc 45 d8 24 bd
       -0.0047341664 -0.07993241 -0.026008334 -0.040245313
000050 80 91 98 bc 6f a2 92 3c 2b 0d 88 3c 06 de 6a bb
       -0.018624067 0.01789972 0.016607841 -0.0035837903
000060 37 69 08 3d 3d 77 b4 b9 4b 70 c9 b9 dd 43 ce bb
       0.033303466 -0.00034421115 -0.00038421372 -0.006294711
000070 87 d2 80 3d d2 98 98 3d fe 9f e1 3c 2b ec af 3d
       0.06290155 0.07451023 0.02754211 0.08589967
000080 00 1e 0f 3d c7 98 75 bd 5a 8a 8f bd 46 84 8b bc
       0.03494072 -0.059960153 -0.0700881 -0.017030846
000090 2a 40 62 bd c0 64 94 3d 98 30 2d bd ae 29 09 3d
       -0.055236973 0.07245779 -0.04228267 0.033487014
0000a0 24 6a 61 3d 21 68 08 3d f1 de df 3c 6f e3 63 bd
       0.055032864 0.03330243 0.027327986 -0.05563682
0000b0 72 68 2a 3d 32 6f 6c 3c 80 35 dc bb 10 25 bb bc
       0.041603513 0.014430808 -0.006720245 -0.022844821
0000c0 c9 cb ce 3d 66 ee 9b 3d d6 67 b1 3c a6 92 19 bd
       0.10097463 0.0761383 0.021655958 -0.03749337
0000d0 7a 77 64 3b 69 f9 66 bc 70 c6 aa bd db 85 94 bd
       0.0034861253 -0.01409755 -0.0833863 -0.072520934
0000e0 b5 38 c4 3d ac 13 4d bd 1c 73 bf 3d 32 42 bd 3d
       0.095811285 -0.05006759 0.09348127 0.092411414
0000f0 0c 8b af 3d 27 cb cc bc 3b a6 73 bd 28 be 86 bd
       0.08571443 -0.024999214 -0.0594847 -0.06579238
000100 93 fd 88 bd 56 63 99 3a 58 50 a1 bd 9f 6f a1 3d
       -0.066889904 0.0011702578 -0.078766525 0.07882618
000110 2d f0 c7 3d 2a fd 24 bb 27 66 45 3b 78 61 b7 bc
       0.09762607 -0.0025175312 0.0030120702 -0.022385344
000120 f6 d3 63 3d 36 12 d7 bc cf 21 ad bc b5 65 bc 3c
       0.055622064 -0.0262538 -0.021134285 0.022997716
000130 5d 1a 4b 3d 97 85 f1 3c 38 a4 bb bd a0 f8 b8 bd
       0.04958569 0.029482646 -0.091621816 -0.090317965
000140 d7 54 a0 3d 02 3e c0 3b 7d 66 ac 3d 55 cf 70 bd
       0.07828682 0.005866767 0.084179856 -0.058791477
000150 85 2a b1 bd ea 0d 41 3d 4c 41 43 3d 77 7f 51 3d
       -0.08650688 0.04713241 0.047669694 0.05114695
000160 21 18 03 3d 4a 81 75 bc 91 db cb 3d d7 23 8e bd
       0.032005433 -0.014984438 0.09953988 -0.0694043
000170 f1 aa a0 bc d3 92 39 bd 65 23 6c bd 89 68 ca bd
       -0.019612761 -0.045306038 -0.057650942 -0.0988322
000180 97 4a 2b 3d 1c fd ab bd 74 46 d0 bd 2e 61 c9 3d
       0.04181918 -0.08397886 -0.10169688 0.09832989
000190 b0 30 a0 3d e8 f8 9c bd 2f 08 ad bd 5f 27 f6 bb
       0.078217864 -0.076646626 -0.084488265 -0.0075120176
0001a0 44 e5 cf bc fb d0 7d bd 03 5e 8d bc cf 10 bb bd
       -0.025377877 -0.061966877 -0.017256742 -0.09134065
0001b0 46 5c 88 bd 02 f8 19 3c 0f 36 ba 3d cb 02 84 3c
       -0.06658225 0.009397509 0.09092342 0.016114613
0001c0 50 0f 0f 3d 25 78 64 bd 09 33 81 3d 74 30 ed 3c
       0.034926713 -0.05577864 0.06308562 0.028953768
0001d0 93 b2 8f bc 30 ce af bc 01 fc df bc 98 94 f9 bc
       -0.017541206 -0.021460623 -0.027341845 -0.030466363
0001e0 5f d1 2c 3d 5d 7c 48 3d f8 7d 05 bd 3b 4a 82 3d
       0.04219186 0.048946727 -0.032590836 0.063618146
0001f0 a7 0b 7b bd 57 79 31 bb 95 67 9b bd 82 e6 b4 3d
       -0.06129041 -0.002708038 -0.07588116 0.088330284
000200 05 25 06 bd fb 48 c7 bd b8 7e c4 3c f4 28 ab 3d
       -0.03275015 -0.09730717 0.023986205 0.083574206
000210 50 0d b9 3c 9c d7 91 3d ed 6a 11 3d 1a 9e 90 3b
       0.022589356 0.07121202 0.035502363 0.0044133784
000220 33 55 a3 3c c4 d2 e1 3c d0 2e c1 3d 41 6d b9 bc
       0.019938087 0.027566321 0.09432757 -0.022635104
000230 21 59 36 bd 00 e3 a4 bd 50 c0 1e 3d 86 2f c6 bd
       -0.044518594 -0.08051109 0.038757622 -0.09677033
000240 3a 3a f6 bc b6 68 18 3d 99 ee c6 bc 4b 56 f0 39
       -0.030057061 0.037209235 -0.024283694 0.0004584066
000250 82 66 c7 3d 56 b7 38 3d 33 6a 85 3d 99 de 6a 3d
       0.09736349 0.045096718 0.065143965 0.057341192
000260 58 c3 7c bd 2f a4 7a bd 37 04 3e 3b b4 e4 a6 3d
       -0.06170973 -0.061191734 0.0028994211 0.081490904
000270 03 3f 4d 3d 98 1c 11 3d 41 53 91 3d a8 40 a4 bd
       0.05010892 0.03542766 0.070959575 -0.08020145
000280 d8 e1 e2 bc c3 b4 33 3d e2 48 40 bd bf 83 05 3d
       -0.027695581 0.04387356 -0.046944506 0.032596346
000290 33 96 4d bd bd d7 62 3c 52 ea 3c 3c 03 e3 36 bd
       -0.05019207 0.013845381 0.011530476 -0.04465009
0002a0 1e 01 59 3d 31 78 12 3d 94 b5 05 bc cd 57 81 bd
       0.05297958 0.035759155 -0.008160967 -0.06315575
0002b0 f8 96 6b 3d 4c 4f af bc 0d 17 88 3d e2 13 02 bd
       0.057517022 -0.021400116 0.066450216 -0.031757243
0002c0 5e 0b cd 3d 72 ce 6d 3c f5 b9 37 bd cd 42 49 3b
       0.10011934 0.014514552 -0.044855077 0.0030709982
0002d0 73 82 94 3d dd bf 8b bd 3c 0c ae 3d d0 a4 86 3d
       0.07251444 -0.068237044 0.08498427 0.06574404
0002e0 7c 6a 33 3c 83 35 84 bb b9 68 8b 3d 26 ba 8d bd
       0.010950681 -0.0040346994 0.06807084 -0.069202706
0002f0 a5 51 34 bd 65 08 a4 3c 8d b8 e6 3c 7d f4 ab bd
       -0.044023175 0.020023534 0.028164173 -0.08396242
000300 56 84 64 bd c5 99 e8 3b 5a ef 96 bc f4 cc 9e bd
       -0.055790268 0.007098409 -0.018424679 -0.077539355
000310 5c 8a ba bd ed d7 94 3d f8 ad a3 3c df b1 a3 3b
       -0.09108421 0.07267747 0.019980416 0.004995569
000320 b7 4e 92 3d 6b 7a 0b bb fd 71 21 bd 50 3a f3 bc
       0.0714392 -0.0021282684 -0.03941535 -0.029690892
000330 be 20 74 3c 8e f2 91 3d 71 ad 7d 3c 9b 84 92 bc
       0.0149003845 0.07126342 0.015483246 -0.017885497
000340 9e e2 16 bc 8e 77 e9 3a 87 d6 84 bd fb c0 8e bd
       -0.009209303 0.0017812119 -0.0648623 -0.06970402
000350 d7 35 1b 3d 3f 31 da 3c bb ff 8f 3c b8 20 b3 3c
       0.037893143 0.02663481 0.017577996 0.021866187
000360 5d a2 06 3c 3c d9 26 bd a5 d8 8e 3d a1 9b 45 bd
       0.008217421 -0.040734515 0.069749154 -0.048244122
000370 f9 66 bc 3d 57 1e bd bd e7 6d 10 bd 82 06 8f 3d
       0.09199328 -0.092343025 -0.03526106 0.06983663
000380 35 be bf 3d 84 db 87 bc 51 f0 9a 3d 1f 9c a7 3d
       0.09362451 -0.016584165 0.07565368 0.081840746
000390 51 72 02 3d 94 6b a3 bc 37 6e b1 bb 4c 32 50 3d
       0.031847302 -0.019948758 -0.00541475 0.050829217
0003a0 66 e3 cc 3d 5b ff b5 bd 26 3f 9d 3c 0b 32 0b bd
       0.1000431 -0.08886596 0.01919515 -0.03398327
0003b0 50 1e 24 bd 08 83 86 bd 6a d4 a5 3c 4d 2e cc bd
       -0.04006797 -0.06567961 0.020242888 -0.09969769
0003c0 8d c0 9c bd 1e 87 9e bd eb 9a 98 bd 93 02 af bd
       -0.07653914 -0.07740615 -0.07451423 -0.08545413
0003d0 d4 8c eb 3b 82 42 53 3b 37 fc 2f 3d f4 4a 7b bb
       0.007188419 0.0032235687 0.04296514 -0.0038344236
0003e0 56 99 49 3d 32 96 c2 3d a6 88 9f bc 6a fa 7e bc
       0.0492185 0.09501304 -0.019474339 -0.015562633
0003f0 c4 00 96 3d 84 31 03 3d 3c d5 8a 3d 7f b3 46 3d
       0.07324365 0.032029644 0.067789525 0.048511025

policy_net.0.attention.in_proj_bias f4 [432]
000000 2e e5 2b b1 ab 87 5d 30 b0 ec 05 31 c3 9b 03 af
       -2.5014049e-09 8.059213e-10 1.9488589e-09 -1.1969718e-10
000010 c4 e0 77 b1 ee 49 1e 30 99 0b 15 b1 b1 11 33 b1
       -3.6070995e-09 5.7585126e-10 -2.1688946e-09 -2.6057985e-09
000020 db 34 90 31 31 5a 26 b0 bf c6 ff 2f 60 8f 3e b1
       4.1969606e-09 -6.051862e-10 4.6525447e-10 -2.7730138e-09
000030 ba 0e 10 b1 a3 99 44 b1 f6 c6 d3 b0 02 27 2c 30
       -2.096313e-09 -2.8609086e-09 -1.5408819e-09 6.262867e-10
000040 11 e9 69 b1 35 95 29 2f 32 8c e7 2e 04 82 b9 af
       -3.4038445e-09 1.542347e-10 1.05295675e-10 -3.3743686e-10
000050 50 ac 4a b1 3a 6d df b0 b5 11 1b 31 8c de 0d b1
       -2.9492817e-09 -1.625643e-09 2.2565534e-09 -2.0644704e-09
000060 ed 53 6f b1 a0 ad 38 b0 bc 05 51 af 7f 4a a9 b0
       -3.4826784e-09 -6.7185546e-10 -1.9010477e-10 -1.2317541e-09
000070 d0 7d a9 30 17 f9 c1 2e 63 f3 93 ad b9 cc e8 b0
       1.2332126e-09 8.820871e-11 -1.682005e-11 -1.6938407e-09
000080 6d 5d bb b0 ac e1 47 b1 7b 6b ab b0 d0 c0 1b b1
       -1.3632594e-09 -2.908659e-09 -1.2472435e-09 -2.266507e-09
000090 23 17 3f 30 c2 90 a4 2f 6e b9 aa af fa 0f 48 31
       6.9518274e-10 2.9934283e-10 -3.1054576e-10 2.9112912e-09
0000a0 47 48 a7 ae 46 fa 3d 31 d4 52 6e b0 b6 21 25 31
       -7.60712e-11 2.7645384e-09 -8.67016e-10 2.4029823e-09
0000b0 3d 61 39 b1 95 c2 fd b0 c4 ed 6e b1 ed a6 47 31
       -2.6976317e-09 -1.8463476e-09 -3.4768712e-09 2.9053198e-09
0000c0 8a 86 21 31 1c 3b 70 2f df ad d4 30 f5 ec 97 30
       2.350506e-09 2.1848873e-10 1.5474447e-09 1.1054043e-09
0000d0 3d 13 f4 30 4d 15 ab 2f 81 6d 31 30 f5 cc c1 b0
       1.7758804e-09 3.1119854e-10 6.454784e-10 -1.410085e-09
0000e0 d6 a6 a6 b0 93 b1 0a b1 81 74 2b 31 c6 de bc b0
       -1.2125507e-09 -2.0182582e-09 2.495e-09 -1.3742116e-09
0000f0 fb 8f 16 2f b4 99 84 30 c4 68 bd af de fb 31 2f
       1.3693573e-10 9.647949e-10 -3.445334e-10 1.6187537e-10
000100 19 e9 83 30 70 8a a0 b1 13 a0 5c 31 13 f9 49 30
       9.597755e-10 -4.6723514e-09 3.2105205e-09 7.347733e-10
000110 68 62 6b af 20 f3 53 b1 8c f3 fb 30 06 67 49 b1
       -2.1408086e-10 -3.0842742e-09 1.8331874e-09 -2.9307912e-09
000120 91 1c 75 b0 c1 f7 c8 b0 3c d7 90 b0 6c e1 8d b1
       -8.9171076e-10 -1.4622331e-09 -1.0538552e-09 -4.1292676e-09
000130 e9 d8 e3 b0 1d b0 db 30 27 ce cd b1 5b 0b 80 2f
       -1.6578073e-09 1.5984402e-09 -5.989722e-09 2.3291133e-10
000140 5e 0e 54 b1 4e 3f 80 b0 cd 38 36 31 11 b0 18 b0
       -3.0858227e-09 -9.331218e-10 2.6516773e-09 -5.5547483e-10
000150 d1 26 76 b0 38 3a 28 31 f3 79 b5 b0 e6 9c c7 30
       -8.954944e-10 2.4480311e-09 -1.3204143e-09 1.4523749e-09
000160 1b 16 46 31 fb d0 3c 31 34 20 e1 ac 5d 9f 24 b0
       2.8825358e-09 2.7476392e-09 -6.39846e-12 -5.988932e-10
000170 19 e2 51 b1 58 83 c4 30 b4 b1 d9 b0 28 4d e3 2f
       -3.0542024e-09 1.4298207e-09 -1.5839334e-09 4.1345882e-10
000180 a4 ea b6 b0 bd 74 11 2e 9c bf 33 b0 77 86 9d b0
       -1.3308932e-09 3.3072867e-11 -6.5392114e-10 -1.1461471e-09
000190 0c 33 72 2f 92 02 5d b0 e0 5c ac ae 54 11 de b0
       2.2027907e-10 -8.0402984e-10 -7.8381523e-11 -1.6157551e-09
0001a0 76 11 59 30 ec ac 49 b0 85 89 8e 30 3b 11 9d 30
       7.8968954e-10 -7.336911e-10 1.0370945e-09 1.1428151e-09
0001b0 a4 92 49 30 39 d1 93 30 e9 d3 60 ae dd 11 56 30
       7.3331763e-10 1.0755122e-09 -5.1119917e-11 7.787813e-10
0001c0 8c d4 b0 2f b4 bb c1 b0 98 01 29 30 31 4b 0d b0
       3.2165237e-10 -1.4095947e-09 6.1484107e-10 -5.1402355e-10
0001d0 2f 32 ec 2f f7 bf 89 b0 96 36 30 b1 72 d5 0c 2f
       4.2963808e-10 -1.0022622e-09 -2.56424e-09 1.2808757e-10
0001e0 f2 12 9c b0 6d b3 df ad 4b fd d3 30 13 12 04 31
       -1.1355878e-09 -2.5431846e-11 1.5424261e-09 1.9218802e-09
0001f0 d2 33 16 30 7c 47 e1 30 6e 11 fb af b0 60 bd 2e
       5.4643323e-10 1.6391222e-09 -4.5669019e-10 8.6119e-11
000200 b1 76 96 2d 62 54 bf 2f 33 0b a5 30 4b 19 da b0
       1.7105735e-11 3.4802655e-10 1.2008513e-09 -1.5868776e-09
000210 51 4b a2 2f 7a 6f e2 af 0a 39 3a 31 8b ab 92 ac
       2.9521144e-10 -4.118837e-10 2.7098985e-09 -4.1686147e-12
000220 1d 6d 12 af b2 f7 9a 30 b4 3c 98 b0 e6 8f 5e b0
       -1.3317387e-10 1.1275374e-09 -1.1076708e-09 -8.096762e-10
000230 e4 38 19 b0 ab f1 9c b0 76 c0 e6 30 d6 a1 5f b0
       -5.574192e-10 -1.141918e-09 1.6789403e-09 -8.135691e-10
000240 7a 4f 73 25 33 36 a3 a4 b1 bd 11 a6 44 70 31 a5
       2.1103818e-16 -7.07818e-17 -5.056406e-16 -1.539034e-16
000250 1f 77 f4 a3 69 53 db a4 3a 78 11 a3 62 87 7e a5
       -2.6504983e-17 -9.511741e-17 -7.885925e-18 -2.2076858e-16
000260 5d 25 a0 26 c2 b0 e9 a5 73 3f 79 a5 40 e9 47 a5
       1.1112358e-15 -4.0538833e-16 -2.1618805e-16 -1.7339527e-16
000270 88 ff 06 a4 cf 0a 0d a6 5b fa 1c a6 d8 76 99 25
       -2.927306e-17 -4.893385e-16 -5.446267e-16 2.66218e-16
000280 b0 f7 87 25 0c 9d 14 a6 1d cb 86 25 76 14 28 a6
       2.3586607e-16 -5.1560653e-16 2.338293e-16 -5.831444e-16
000290 13 a9 ad 25 6d 18 7c a4 e6 6b 9d a4 5f d4 52 25
       3.0125285e-16 -5.466448e-17 -6.8270683e-17 1.828655e-16
0002a0 4f f7 cd 24 e8 00 bb a4 08 66 bc a5 6b 51 8c a5
       8.9323535e-17 -8.109986e-17 -3.268194e-16 -2.43413e-16
0002b0 07 9d 0d 26 2e 8e 0e 26 03 65 4a a4 62 d3 47 a5
       4.9132014e-16 4.9458836e-16 -4.3887328e-17 -1.7332118e-16
0002c0 c3 d0 0f 25 50 27 f8 24 47 42 99 a6 db 97 3d 25
       1.2474004e-16 1.07619453e-16 -1.0634472e-15 1.6444587e-16
0002d0 9c 60 0e a5 7f 06 99 25 ad 7f 83 25 d4 4d 9c a5
       -1.2349269e-16 2.654567e-16 2.2811394e-16 -2.7114425e-16
0002e0 26 35 65 a4 1e eb c0 24 34 9a 9e a4 cc 12 19 26
       -4.9701478e-17 8.366503e-17 -6.878281e-17 5.3108013e-16
0002f0 55 c8 ca a5 2b 5d 10 a6 10 b7 5c a4 ea 89 6a a5
       -3.5177164e-16 -5.00863e-16 -4.7859956e-17 -2.0342992e-16
000300 a9 54 dd a3 83 bb c3 22 bf a2 69 24 b9 20 0b a4
       -2.3996723e-17 5.305339e-18 5.0661673e-17 -3.0168538e-17
000310 c7 01 09 a6 e3 83 be 25 48 df c5 a4 cc ab ab a5
       -4.753383e-16 3.3049116e-16 -8.5813384e-17 -2.9780186e-16
000320 d4 64 90 a5 33 55 45 a5 e8 33 72 24 05 60 1e a5
       -2.5048342e-16 -1.7115893e-16 5.251935e-17 -1.3736848e-16
000330 bd a4 6b a5 95 15 9d 24 f4 9f a2 25 41 ca c4 a5
       -2.0438816e-16 6.812446e-17 2.821091e-16 -3.4137633e-16
000340 ab 10 18 24 ac 21 c3 24 17 54 65 a4 6f 26 10 a5
       3.2973864e-17 8.462481e-17 -4.9727686e-17 -1.2503031e-16
000350 a5 1d b7 25 36 52 74 24 92 a3 d7 24 d6 17 d8 24
       3.1765528e-16 5.29787e-17 9.3518486e-17 9.371545e-17
000360 76 f1 4a 25 55 34 c5 24 e6 68 79 25 64 87 fe a3
       1.7602517e-16 8.5523785e-17 2.1632848e-16 -2.7596075e-17
000370 c4 ed 5f 25 37 25 37 25 00 a3 e1 24 4a 3e 0b a5
       1.9422725e-16 1.5885329e-16 9.785433e-17 -1.2077433e-16
000380 13 76 1c a4 90 91 35 25 93 a2 e1 25 9e 0b 0d 26
       -3.392712e-17 1.5748566e-16 3.9141443e-16 4.8934946e-16
000390 3d 9b 2e 25 7b b4 11 a5 02 b4 d7 a3 6e 39 14 a6
       1.5144691e-16 -1.2637894e-16 -2.3386583e-17 -5.1425647e-16
0003a0 ad f7 5e a4 86 d9 26 a5 94 2c 06 26 be 65 70 24
       -4.8348366e-17 -1.4471905e-16 4.6551004e-16 5.2127883e-17
0003b0 b6 90 2b a4 60 b3 33 25 c3 9d 69 24 9c 11 da 24
       -3.720229e-17 1.558655e-16 5.065745e-17 9.457226e-17
0003c0 2a 4a b9 25 76 6e d3 a5 9d 36 1d a3 f9 4a 18 26
       3.214264e-16 -3.6677517e-16 -8.522552e-18 5.28372e-16
0003d0 89 6b 0a 26 99 b7 2e 26 22 75 55 25 15 05 42 23
       4.8024105e-16 6.06172e-16 1.8514491e-16 1.0517837e-17
0003e0 61 9d 71 a6 19 52 81 a4 19 d4 55 a5 7e e0 b9 25
       -8.382696e-16 -5.608391e-17 -1.8546667e-16 3.2244506e-16
0003f0 db 81 8f 24 b1 21 5b 26 bc 75 80 a5 a9 9f 0d 26
       6.223635e-17 7.602655e-16 -2.228424e-16 4.913558e-16

policy_net.0.attention.out_proj.weight f4 [144, 144]
000000 84 07 de bc dc ae 2d bd e1 d2 2c 3d 21 0b 98 3d
       -0.027103193 -0.042403087 0.042193297 0.07423998
000010 7b 8b 75 3d 11 ee 44 3d 08 11 8c 3d 7b d0 8f 3d
       0.059947472 0.0480786 0.06839186 0.07022186
000020 71 2f 30 3d 9f 23 50 bb 0c 28 9a 3d d2 f6 89 3d
       0.043013994 -0.0031759513 0.075271696 0.0673653
000030 ec d7 11 bd e1 d3 73 3c e0 cb 93 bd dd d2 11 bd
       -0.03560631 0.014882059 -0.072166204 -0.035601486
000040 9e 07 40 3d 59 ff 14 3d 55 4f 04 3c f6 47 e4 3c
       0.046882264 0.03637633 0.008075555 0.027866345
000050 6a 21 e4 3b 83 06 8d 3c f1 09 41 3d 8f 82 1c bd
       0.006961991 0.01721502 0.04712862 -0.038210448
000060 aa b2 8b 3c 2a f7 67 bc de 80 48 bd 87 aa 24 bd
       0.017052967 -0.01415805 -0.048951022 -0.04020169
000070 a0 d6 ec 3b 02 cb c5 bc 76 c8 3a bd 72 84 9f bd
       0.0072277337 -0.024144653 -0.04560133 -0.07788934
000080 4e 9f 8c bd 3d 2a a5 bd c3 c9 9b 3d 43 f1 a7 3c
       -0.068663225 -0.08064697 0.07606842 0.020500785
000090 04 d9 a1 bd 9b 4b 6d 3c 89 88 aa 3a 41 bf 0e 3d
       -0.079027206 0.014483358 0.0013010661 0.034850363
0000a0 af d2 aa 3c aa 58 26 bc 15 7c 8e bd c3 a5 9e bb
       0.020852415 -0.010152975 -0.069572605 -0.0048415377
0000b0 96 55 38 bd 66 a5 8c 3d 31 f7 de bc 42 16 d3 3c
       -0.045003496 0.06867485 -0.02721748 0.02576745
0000c0 9b 22 9b 3d 50 3c 5c bd e4 b6 8a 3d 62 27 be 3a
       0.0757496 -0.053768456 0.06773165 0.0014507587
0000d0 da 15 a2 3d 35 6f 6d bd d1 3f a4 3d fb 54 85 3d
       0.07914324 -0.057967383 0.080199845 0.06510349
0000e0 fe 7a bd 3c 81 80 1e bd 39 47 f7 3c 69 f3 b3 3c
       0.023129936 -0.03869677 0.030185329 0.021966653
0000f0 88 32 8f 3d c6 d1 18 bb a2 18 49 3d 3b 3d 34 bd
       0.0699206 -0.0023318394 0.049095757 -0.044003706
000100 ee f3 60 bd a5 5e 34 bd 63 ea 0b bd 58 12 a7 bd
       -0.05492013 -0.044035573 -0.034159075 -0.08157796
000110 f5 08 f4 3c 9c 17 24 bd 42 55 3d 3d 3f ba 71 bc
       0.029789427 -0.04006158 0.046223886 -0.014753877
000120 10 bc c8 3c c4 64 21 bb 35 fa b9 bc c0 51 8d 3d
       0.024503738 -0.0024626711 -0.022702316 0.06900358
000130 57 3b 83 bd e9 56 8f 3c eb d6 a2 3d 67 f6 67 3c
       -0.064078026 0.017497497 0.079511486 0.014157868
000140 75 7f 91 3c b2 4f 33 3d aa 5b cd bc c9 4b f2 bc
       0.017760972 0.043777175 -0.025068123 -0.029577153
000150 c7 37 84 3d 28 80 9e 3d 63 d1 e6 3c b2 f3 39 bd
       0.06455951 0.077392876 0.028176015 -0.04539842
000160 9e 9e b8 3c d2 d9 85 3d 00 d4 40 bd 0c cf 80 bd
       0.022536572 0.065356866 -0.04707718 -0.06289491
000170 5b ce 08 3c 00 15 a6 3b ee 12 08 3d 48 56 78 bd
       0.00834998 0.0050684214 0.033221178 -0.06062916
000180 3a 4d 02 bd 82 63 fb 3c 59 93 86 3d 1f b4 a5 bc
       -0.03181193 0.030687097 0.06571073 -0.02022749
000190 7b bf 94 bd c8 49 a9 bd 7d 0f 89 bd c2 d9 61 bd
       -0.072630845 -0.08266026 -0.06692407 -0.05513931
0001a0 09 f6 82 3d 42 88 aa 3d 0b fb 24 3d c5 30 9c bd
       0.06394584 0.0832677 0.040278476 -0.076264895
0001b0 65 7d 1f 3c c3 4d 83 3d 18 08 76 3d 8b 9b 5b 3d
       0.009734486 0.06411316 0.060066313 0.053615134
0001c0 a6 81 32 bd 16 16 fb 3c 26 60 43 bd fa a8 e0 bc
       -0.043580674 0.03065018 -0.047699116 -0.027424324
0001d0 6a ca e1 3c ae fd 73 bc df 97 fe 3c f6 2f ae 39
       0.027562339 -0.014892025 0.031078277 0.000332236
0001e0 a4 19 05 3d d8 e7 3a bb 81 61 a2 3d e7 6b 8e 3d
       0.032495156 -0.0028519537 0.07928754 0.069541745
0001f0 80 2f a8 bd f0 13 ea 3c af 46 68 bd ed a0 a1 bd
       -0.08212185 0.02857396 -0.056708034 -0.07892022
000200 01 c1 99 3d 1d f8 87 bd 51 2e 2b bd bb b6 a0 3d
       0.07507516 -0.06639121 -0.041792218 0.07847353
000210 4b f7 ef 3c 44 86 a5 bd 98 15 25 bd 6b 84 a9 bd
       0.029292723 -0.0808225 -0.040303797 -0.0827721
000220 85 d2 78 bd 21 70 84 bd b1 b1 83 bd 71 c0 90 3d
       -0.060747642 -0.064666994 -0.06430376 0.07067955
000230 9f 39 00 3d db 59 83 3c 29 34 c4 3c b1 5b 5e 3d
       0.03130495 0.016034057 0.023950653 0.054286662
000240 d2 27 1d 3d 82 81 bf bc b6 9e 18 3d 21 6a b2 bc
       0.038368054 -0.023377184 0.037260734 -0.021779122
000250 fa f5 04 bd 41 42 9d bd ea 99 df 3c 90 a7 5d 3d
       -0.032461144 -0.076786526 0.027295072 0.05411488
000260 61 42 93 3d 12 32 9b bd ab bd 64 bd 2b 0f 38 3d
       0.07190395 -0.075779095 -0.055844944 0.04493634
000270 44 70 26 bd 44 3f a5 bd 2a 78 28 bd 1b a2 e2 bc
       -0.04063441 -0.080687076 -0.041130222 -0.027665189
000280 4d 7d 2e bd 86 c7 40 bd 36 5c c0 bc d3 fe 5a bd
       -0.042599965 -0.04706528 -0.02348147 -0.053465676
000290 21 7c a3 3c 2b 78 1a 3c 59 b3 4c 3d f5 1c 17 3d
       0.01995665 0.009428064 0.049975727 0.03689285
0002a0 01 5f 9e 3c a9 bd a3 3d 06 21 a8 bd 7e 85 9c bd
       0.01933241 0.07995159 -0.08209424 -0.07642649
0002b0 52 71 41 3d 14 17 7c 3d ba 0c 93 3a f3 62 77 bd
       0.04722721 0.061545447 0.0011219003 -0.0603971
0002c0 ba 2a a7 bc 3d 50 90 bd 6d 7f f4 bc 7c 46 de bc
       -0.020406116 -0.07046554 -0.029845918 -0.027133219
0002d0 09 72 14 3d 93 8b 98 bd b4 56 81 bd 5c 56 88 bd
       0.036241565 -0.07448497 -0.063153654 -0.06657097
0002e0 65 24 86 3d 9b 18 eb 3c 60 40 9f 3d bd 25 9a 3d
       0.065499105 0.028698256 0.077759504 0.07526729
0002f0 2b 3d 2a bc 07 0e 8d 3c 13 60 32 bd 24 16 e4 3c
       -0.01039056 0.017218603 -0.043548655 0.027842589
000300 72 6d 26 bd 28 99 1d 3d e8 75 77 3d ad d2 2a 3d
       -0.04063172 0.03847614 0.06041518 0.041704822
000310 42 85 a6 bd b5 0b b0 3c fc f0 30 3b ca 78 d1 3c
       -0.08130886 0.021489957 0.0026999107 0.025570292
000320 19 29 31 3d 0c d7 1f bd e2 79 91 bd 5f b8 2d 3d
       0.043252084 -0.039023444 -0.071033254 0.042412158
000330 92 0f 2a bd f9 e4 97 bd 16 53 1a 3b 19 07 86 3c
       -0.041518755 -0.0741672 0.0023548058 0.016360806
000340 12 db 22 3c 8d 8a 22 bd 67 c0 9e 3d 9e fe 1f bd
       0.009939926 -0.039682914 0.077515416 -0.03906118
000350 01 44 3e bd d1 b5 1b bd d5 00 0d 3d 52 49 82 bc
       -0.046451572 -0.03801519 0.03442462 -0.015904102
000360 be aa 09 3d 64 b7 5f bc c3 3b 93 3d 57 b7 f8 3c
       0.033610098 -0.013654564 0.07189133 0.03036086
000370 e8 77 38 bd bc be 99 bd 4d a6 a5 bd f0 6c d6 3c
       -0.045036227 -0.07507083 -0.0808836 0.026174992
000380 ae cc 16 3d d5 50 1b bc 60 27 33 bd 09 d5 7e bd
       0.03681629 -0.009479721 -0.043738723 -0.062214885
000390 9a 92 97 bc 1f ec 74 3c 21 d5 21 3d 62 a7 c8 3c
       -0.018502522 0.014948874 0.039509896 0.024493877
0003a0 49 c0 14 3d 38 c4 67 bd 90 22 58 3d 42 4f 48 3b
       0.03631619 -0.056583613 0.052767336 0.003056482
0003b0 3f e0 ef bc 19 19 98 3c 28 af 4f 3c 97 d5 72 bd
       -0.029281734 0.018566655 0.012676038 -0.059285726
0003c0 a3 18 7f bd a9 ef 26 bb fd e9 93 bd 09 97 5d 3d
       -0.062279355 -0.0025472438 -0.07222364 0.054099116
0003d0 f6 c6 ef 3c 92 76 9f bd 0d b0 91 bd 8b 19 6a bd
       0.029269677 -0.07786287 -0.07113657 -0.057153266
0003e0 f1 31 73 bb bf 26 85 bd 09 5f fe bc 53 9c aa bd
       -0.0037108625 -0.06501531 -0.031051176 -0.08330598
0003f0 f5 03 72 3d dc 85 52 3d c2 2c 19 3c 67 31 bd bc
       0.059085805 0.05139719 0.00934905 -0.023094846

policy_net.0.attention.out_proj.bias f4 [144]
000000 13 49 ac b3 5c 2b 9a 33 cd fe 3e b4 81 40 53 33
       -8.022666e-08 7.179071e-08 -1.7787825e-07 4.918593e-08
000010 da ef e5 31 43 e8 5c 32 0e 50 9b b2 93 15 e5 b2
       6.692045e-09 1.2858496e-08 -1.808078e-08 -2.666892e-08
000020 42 8f 40 34 d1 44 a6 33 93 66 01 31 17 b8 02 b4
       1.793351e-07 7.742495e-08 1.8830277e-09 -1.2174165e-07
000030 96 5a a5 33 08 d4 1c 34 d9 1b 35 32 0e aa 7a 33
       7.699889e-08 1.4605769e-07 1.05419184e-08 5.8362325e-08
000040 0e 22 c5 32 43 e5 8c b3 c7 b4 b6 33 5b 66 77 33
       2.2949305e-08 -6.5609605e-08 8.5079186e-08 5.760226e-08
000050 4c ed 89 33 6a 4d 8f b3 64 d6 b3 32 73 13 d0 32
       6.422724e-08 -6.673038e-08 2.0935836e-08 2.4223231e-08
000060 56 b4 a5 33 67 55 6a b2 c7 23 0d b4 9e 2c b6 33
       7.716214e-08 -1.3640011e-08 -1.3144664e-07 8.483151e-08
000070 d4 ec e6 b2 50 bd c7 b2 f9 26 56 32 a0 23 9c b2
       -2.6883221e-08 -2.3252738e-08 1.2465301e-08 -1.817699e-08
000080 67 05 55 33 5b b4 bb 33 db 3b dc b3 1a b7 2c b4
       4.959784e-08 8.7406725e-08 -1.0255436e-07 -1.608536e-07
000090 9a 6f 93 b1 f3 4a 88 b3 1c f1 37 33 17 b0 11 32
       -4.2909507e-09 -6.346627e-08 4.2827295e-08 8.480149e-09
0000a0 a5 d6 5a 33 b3 7d 97 33 b4 1b f4 32 9f e9 a8 33
       5.09523e-08 7.05435e-08 2.8417936e-08 7.865605e-08
0000b0 01 86 43 32 fc dd 0a b4 27 69 69 b4 15 39 9d 32
       1.1380963e-08 -1.2933009e-07 -2.173807e-07 1.8303163e-08
0000c0 2a 55 8e 33 66 7f 68 b3 01 a5 eb 33 f3 2a 84 33
       6.6278815e-08 -5.4132578e-08 1.0973054e-07 6.1545414e-08
0000d0 c1 3a 26 b3 ca 59 00 32 18 d2 dd b1 02 29 b3 33
       -3.8703323e-08 7.470996e-09 -6.4558314e-09 8.342796e-08
0000e0 c4 d6 86 33 b4 8f 5d b2 87 8f e0 af 5b 00 09 b4
       6.278927e-08 -1.2896567e-08 -4.0847345e-10 -1.2759249e-07
0000f0 2b ee 1e b4 df 49 af 33 73 f4 34 33 bf 17 ab 33
       -1.4801542e-07 8.1625096e-08 4.213184e-08 7.9671274e-08
000100 63 31 7d 33 72 85 8c b3 c7 d8 c7 b2 b0 a9 25 32
       5.895107e-08 -6.5435316e-08 -2.3265228e-08 9.6428465e-09
000110 6d 7f 80 32 b0 69 fd b3 1a 6d de 33 24 7b d7 32
       1.4959108e-08 -1.1800455e-07 1.0357526e-07 2.5085292e-08
000120 a5 d3 40 b4 dc 7a 0a b0 2c 1f da 30 da 9c 31 b3
       -1.7958389e-07 -5.03787e-10 1.5870447e-09 -4.135368e-08
000130 83 34 9a 33 fa 22 44 b3 19 61 2a 34 c1 00 c3 32
       7.180736e-08 -4.5666617e-08 1.5867808e-07 2.270133e-08
000140 50 4e 60 b3 98 e2 d2 b3 5d 50 c0 32 ab 6f 39 34
       -5.222529e-08 -9.820104e-08 2.2388287e-08 1.7270092e-07
000150 60 60 d5 b3 92 14 51 b4 f6 f3 a1 b3 11 a9 2c b4
       -9.936116e-08 -1.9472125e-07 -7.541523e-08 -1.6080254e-07
000160 fe bb d5 32 23 39 7b b3 ca 22 a8 b3 e2 a2 a5 33
       2.4881952e-08 -5.8492457e-08 -7.829438e-08 7.7130395e-08
000170 9e d9 25 b4 7c 91 41 b3 66 7c 50 b3 bd 3d 4a b2
       -1.5445991e-07 -4.506863e-08 -4.8541914e-08 -1.1771985e-08
000180 bd 75 ef b2 84 51 6a 33 5b 8a 91 32 06 60 d0 32
       -2.7876803e-08 5.455651e-08 1.6943138e-08 2.4258053e-08
000190 aa e5 bd 32 05 ad 3d 33 8c 30 ec 32 7a d1 e8 32
       2.2106935e-08 4.4162352e-08 2.7496093e-08 2.7103614e-08
0001a0 61 df 18 b2 26 fa 8d 31 b1 19 4f b3 90 a0 e9 b3
       -8.898355e-09 4.1320787e-09 -4.821931e-08 -1.0879114e-07
0001b0 1f 69 a5 33 3d 81 13 b4 d4 95 1a b4 80 a5 3e b3
       7.702533e-08 -1.3737458e-07 -1.4396875e-07 -4.4388344e-08
0001c0 bd 3d 21 30 fa 6b 44 b3 42 c2 25 b2 d4 04 ba 31
       5.8659194e-10 -4.573301e-08 -9.648433e-09 5.4138614e-09
0001d0 5b 97 a5 b2 f0 d4 dd 33 64 60 8f 32 87 3d 0d 32
       -1.9277357e-08 1.03298476e-07 1.6691224e-08 8.22127e-09
0001e0 df a8 b1 33 7f 78 b3 b3 99 aa cd b3 e9 55 04 b4
       8.272922e-08 -8.357255e-08 -9.577088e-08 -1.2324712e-07
0001f0 74 22 32 b3 57 be ed b2 af 3c 6e 33 e5 ad 82 33
       -4.147519e-08 -2.7676988e-08 5.5468885e-08 6.085228e-08
000200 a4 e7 d1 33 04 41 37 33 dc d6 0e b3 8e 2d 34 34
       9.774456e-08 4.266714e-08 -3.3257365e-08 1.6780379e-07
000210 0b 6c 49 34 29 66 ca b2 c3 f6 00 b2 32 b6 5c b2
       1.875889e-07 -2.3562352e-08 -7.506688e-09 -1.2847112e-08
000220 ab a7 1a b3 a5 e2 9c 33 bc 15 8b 33 f1 af d3 b3
       -3.6008412e-08 7.3055425e-08 6.476645e-08 -9.857457e-08
000230 44 31 ba b3 bc a2 20 b1 25 ff 42 b4 69 77 b9 b2
       -8.670261e-08 -2.3375568e-09 -1.8160479e-07 -2.1591136e-08
