scripts/models/602/34/138/vModel.pth (torch, 264307 bytes, 11 tensors)

value_net.0.input_layer.weight f4 [96, 128]
000000 25 11 0d bd 20 2c 97 bd 9e 75 d7 bc 70 a6 0e bd
       -0.03444018 -0.07381463 -0.026301201 -0.034826696
000010 87 c8 93 bb 05 87 08 be 9e 1d ee bd 96 f8 83 3c
       -0.0045099887 -0.13332756 -0.11626743 0.016109746
000020 07 a0 dd bc 27 33 d5 bc b4 b6 7b bb 91 17 60 bc
       -0.027053846 -0.026025368 -0.003840846 -0.013677494
000030 05 9a ed bd c3 72 46 bd 26 23 47 3d e3 ae 00 bd
       -0.116016425 -0.04844929 0.048617505 -0.031416785
000040 67 0d 09 bd 7c 51 e0 3c c1 de 8c bc ec 94 6d 3c
       -0.033460047 0.027382605 -0.017196061 0.014500838
000050 f8 c9 5b 3c 72 82 a4 bc d1 93 98 bc d2 f6 c9 bc
       0.013414852 -0.020081732 -0.018625172 -0.024653826
000060 32 f0 94 bd f6 40 e9 3c d3 dd c7 bd 1d e9 5a bd
       -0.07272376 0.028473359 -0.097591065 -0.05344497
000070 9b a6 83 bd 42 c9 1b 3b bc 8d f4 3c ca 60 39 3d
       -0.06428262 0.0023771082 0.02985274 0.04525832
000080 ee 7a a2 3c 3a 46 61 bd 58 5a da ba 5f 8d e9 bc
       0.019834008 -0.054998614 -0.0016659005 -0.028509794
000090 0b f5 d6 3a 2c 1f 0f 3a 07 a9 d0 bd fb c1 32 be
       0.0016399933 0.0005459662 -0.101884894 -0.1745681
0000a0 34 9e 76 bd b3 27 f6 3c 85 60 a4 bc 64 b6 99 3d
       -0.060209468 0.030048227 -0.020065555 0.075054914
0000b0 70 82 c1 3c 52 aa db bb 58 d0 5f 3b 0f 0f c2 bc
       0.023621768 -0.0067036534 0.0034151282 -0.023688821
0000c0 b2 db ed bd 97 47 91 3c 0a c4 ca bc 6d d9 25 bd
       -0.11614169 0.017734332 -0.024751682 -0.040490557
0000d0 f5 e5 f3 bb f6 dd 10 bd 51 6f db bd 27 cc c0 bd
       -0.0074431845 -0.03536793 -0.10714591 -0.09413939
0000e0 3d ce f6 bc 84 f2 af 3d 84 5d e3 bc a8 01 bc bc
       -0.030127639 0.08591178 -0.027754553 -0.022950009
0000f0 e8 06 d2 bd 22 1d 32 3d 8b 24 1f bd 3d 25 29 3c
       -0.102552235 0.043484814 -0.03885321 0.01032382
000100 8a b6 56 3d 8b 0a 3c bd da a0 96 ba d6 f9 53 3c
       0.052420177 -0.045908492 -0.0011492029 0.0129379835
000110 15 0e 8d bc 20 59 33 bd 5f 46 0d 3b 87 f6 a3 bd
       -0.017218629 -0.043786168 0.0021556837 -0.08006006
000120 7c 66 f1 bd 00 c1 0a bd 1a 95 a5 3d 3b dd 48 bc
       -0.117871255 -0.033875465 0.080850795 -0.012259777
000130 46 2c eb bc 5e f2 f9 bb c7 d2 95 bc 36 3e 42 bd
       -0.028707635 -0.0076277694 -0.018288983 -0.04742261
000140 2a 64 13 3c 64 48 84 bc 39 4b 6e 3d 65 b6 a0 3c
       0.008996049 -0.0161478 0.058177207 0.019618222
000150 de 30 b7 bd 37 ac 2d bd cc 8f 8c bd 9f 87 bd bc
       -0.089448676 -0.042400565 -0.068633646 -0.023135958
000160 81 73 4b bc 2f a7 14 3d c7 ec 4f bd 81 c8 57 3c
       -0.012417675 0.03629225 -0.050762918 0.013170362
000170 87 58 bf 3c 7a f8 c0 3c 22 19 50 bd c6 a3 8f 3c
       0.023357643 0.023555983 -0.05080522 0.017534148
000180 59 c1 96 bd 74 54 35 bd 18 cf 40 3d 24 71 2e bc
       -0.07361097 -0.044269994 0.0470725 -0.010647092
000190 27 1a 25 3d ce 3d fe 3c a8 af d1 bc 24 94 11 be
       0.040308144 0.03103533 -0.025596455 -0.14216667
0001a0 ba 1f bb bd 0b bb e0 bc 3f 8e f4 3b 1c 02 6a bd
       -0.09136911 -0.027432939 0.007463246 -0.057130918
0001b0 00 1f 3c 3c 03 3c f6 bc a9 b5 9e bd 18 69 05 bc
       0.011482 -0.030057913 -0.07749493 -0.008142732
0001c0 c0 51 2b b9 0d 70 4b bd 03 3a 9e bc 7a 95 9c 3d
       -0.00016338285 -0.049667407 -0.019314772 0.07645698
0001d0 74 88 16 3d 84 81 e5 bb 02 89 08 3d 1e 41 fb bd
       0.036751226 -0.007003965 0.033333786 -0.122682795
0001e0 5c 4c 59 bd 73 e6 3f bc c5 da 31 be 6d 5c a6 bc
       -0.053051338 -0.011712658 -0.1736861 -0.020307744
0001f0 0f 92 e2 bd cb 7a 7d bc 3d 9b b9 bb 20 45 5c 3d
       -0.11063015 -0.015471171 -0.005664258 0.05377686
000200 31 23 2a 3c fe a6 02 bd 2f 41 81 bd ee 1b 8b bd
       0.010384367 -0.031897537 -0.06311261 -0.067924365
000210 0c 16 92 bc 80 45 12 bd 66 bb d5 3c 8a ff 92 bd
       -0.017832778 -0.03571081 0.026090335 -0.071776465
000220 a9 28 66 3c 46 af 3e bc 4e 0b 30 3d d9 37 f2 3b
       0.01404778 -0.011638468 0.04297953 0.0073919115
000230 04 4f 9e bc e2 73 de bd cc fe 2f 3d 1a b1 2f 3c
       -0.019324787 -0.10861947 0.042967603 0.010723377
000240 df fd b4 3b b7 99 42 3b 06 3f e9 bd 32 21 40 bc
       0.005523428 0.0029693672 -0.11388974 -0.011726664
000250 80 88 22 bd d7 b9 ca 3d 6c 7e f8 bc 0a 94 94 3d
       -0.039680958 0.098987274 -0.03033372 0.07254799
000260 d8 c3 0a bd d4 4b bb bd 1c e3 b0 bd 36 9a ab bb
       -0.033878177 -0.091453224 -0.08637068 -0.0052368892
000270 ae a8 20 3c 2b 63 f7 bc 28 47 ad bc e4 32 c5 bd
       0.009805841 -0.030198654 -0.021152094 -0.09628847
000280 03 55 04 3d 45 10 92 3d 50 4f 84 3c 40 4f a8 bd
       0.032307636 0.071320094 0.0161511 -0.08218241
000290 5f cd 86 3d f0 1c c5 bd f8 e8 9c bd df 7a 7d bb
       0.0658214 -0.0962466 -0.07661623 -0.0038677973
0002a0 40 18 0a 3d d0 53 8f bd a0 6c 95 3c cf 90 ec bd
       0.033714533 -0.06998408 0.018240273 -0.115510575
0002b0 20 5f b6 bd 12 4e dc bc 63 c0 42 bd 9f d2 eb 3c
       -0.089048624 -0.026892696 -0.047546756 0.028786955
0002c0 ad 0e a5 bc 9f 5c 8b bd 91 96 bc bd 20 a1 15 3d
       -0.0201486 -0.068047754 -0.09208406 0.036530614
0002d0 f4 99 0f 3d 6b d9 d8 3b 93 c1 b5 bb 1c 78 07 bc
       0.03505893 0.006617715 -0.0055467575 -0.008268382
0002e0 1d a9 b9 3d 47 98 8a 3d 99 8c a5 bd 04 12 0f bd
       0.09065459 0.06767326 -0.080834575 -0.03492929
0002f0 c7 a0 58 bd 60 8b 41 3d d0 29 94 bd 49 8d 96 3c
       -0.052887704 0.04725206 -0.072345376 0.018377917
000300 01 05 08 be f6 fb 86 bd 61 cc 86 bd 1d b3 8d 3d
       -0.13283159 -0.065910265 -0.06581951 0.06918929
000310 1f 12 b5 3c 5d d4 98 bc 53 69 b6 bc 1b 41 a4 bd
       0.022103367 -0.01865595 -0.02226702 -0.080202304
000320 81 58 c4 bd 8b aa 4f 3d 1a 09 62 bd 63 69 28 3c
       -0.09587193 0.05069975 -0.05518446 0.010279032
000330 af 6d 79 3d 06 00 37 bd e2 10 f1 bc e0 9a d3 bb
       0.060895618 -0.044677757 -0.029426996 -0.0064576715
000340 28 cf bb bd d5 e2 80 bd fa c0 03 bd ec 3e 2d bd
       -0.09170371 -0.06293265 -0.03216646 -0.042296335
000350 e8 23 30 bc 9a 76 43 bd 3c d1 60 3d bc 2f f1 bd
       -0.010750748 -0.04772053 0.05488704 -0.11776683
000360 91 cc 9c ba 42 73 08 bd b7 e6 4b ba b1 3d 63 bd
       -0.0011962821 -0.033313043 -0.00077782146 -0.055478755
000370 a1 a4 b4 bc 10 c7 7c bd fb b2 51 bd 0f 21 c5 3c
       -0.022051157 -0.06171328 -0.05119608 0.024063615
000380 ad a6 bd bc 20 9f ed ba ba 00 7a bd 0f 76 9d 3d
       -0.023150766 -0.0018129088 -0.06103585 0.076885335
000390 b3 38 50 3a d4 e9 c0 bd dd f9 1e bd 75 dd 8b 3d
       0.0007943019 -0.09419599 -0.038812507 0.06829349
0003a0 d5 2f e4 3c 00 0c b9 bd f2 1d 01 3d 3b b6 37 bd
       0.02785484 -0.09035492 0.0315227 -0.044851523
0003b0 ae b7 02 bd 07 f3 36 bd d3 74 37 bd 38 e8 53 bd
       -0.03191345 -0.044665363 -0.044789147 -0.051735133
0003c0 20 4a f6 bc cc eb b3 bd 6f e1 a8 bc 83 7e 0a 3d
       -0.030064642 -0.08785209 -0.020615308 0.033812057
0003d0 80 90 97 bd 82 40 8c 3d 98 b5 c5 bc d3 1c d8 bc
       -0.07400608 0.068482414 -0.024134442 -0.026380932
0003e0 c5 30 84 3c 82 04 a2 3b 57 a1 89 bd e9 f3 96 bc
       0.016136536 0.004944385 -0.06720226 -0.018426852
0003f0 c4 d4 d0 bd 39 b7 86 3d 03 29 bc bd 6b ef 71 bd
       -0.10196832 0.06577916 -0.0918751 -0.059066217

value_net.0.input_layer.bias f4 [96]
000000 f9 69 79 bd c5 3b e6 bb 45 f0 42 bd 5c bb 65 bd
       -0.06089208 -0.007026168 -0.04759242 -0.056086883
000010 03 a2 fa 3c c6 ea f6 bd 2f 11 d5 bb c6 44 9d bc
       0.030594831 -0.12056498 -0.0065022926 -0.019197833
000020 f9 81 33 bd e4 1d d5 bd 13 41 22 3d df 0d f2 bc
       -0.043825123 -0.10406092 0.03961284 -0.02954763
000030 48 6e c6 bd d0 2f 03 bd 35 76 18 bd 24 5c 97 bd
       -0.09689003 -0.03202802 -0.037222106 -0.07390621
000040 c9 c9 47 bc f9 02 1e 3c 48 0d 35 bd 5d ca 92 bd
       -0.012194105 0.009644263 -0.04420212 -0.07167504
000050 8d 98 ac bc 4e 42 0c 3d 7e 9a 7f bd e3 84 18 bc
       -0.021068836 0.03424292 -0.062403195 -0.009309026
000060 ef e4 bd bd c6 60 ef 3c 5f ea 3c bd 14 ed f7 bd
       -0.09272181 0.02922095 -0.04612195 -0.12105766
000070 41 b3 d8 bc 83 e4 6f bc e0 46 8b bd 38 27 59 3d
       -0.026452662 -0.014641884 -0.06800628 0.053015918
000080 65 bf 42 3d 8c 3a af bc 52 ca 10 3d 1f 95 b6 bd
       0.04754581 -0.021390222 0.035349198 -0.08915161
000090 51 45 ba bd ed 70 84 bd 25 e2 eb bb 4f b5 89 3c
       -0.09095252 -0.064668514 -0.0071985894 0.016810087
0000a0 38 25 14 bd 44 9a 40 ba f4 4d b8 3b 51 59 c7 bd
       -0.036168307 -0.0007347206 0.005624527 -0.09733833
0000b0 31 a0 d7 bd ac f0 66 3c df 8b 30 bd 00 d4 26 3c
       -0.10528601 0.014095467 -0.04310214 0.010182381
0000c0 70 6b cd bc 4c f0 7c bd 03 77 f2 bd ec 67 00 3d
       -0.025075644 -0.061752602 -0.11839106 0.031349108
0000d0 44 7d a5 bd 09 30 16 3d 33 e0 0d bc e4 84 70 bd
       -0.08080533 0.036666904 -0.00865941 -0.058720484
0000e0 ae ab f9 bd 41 4b a9 bd bd bd 58 3c 00 66 06 be
       -0.121909484 -0.08266307 0.013228831 -0.13124847
0000f0 99 18 25 bd 54 d7 9e bd b8 c4 91 bd fb cb ac bd
       -0.04030666 -0.07755914 -0.07117599 -0.08437344
000100 a7 2b dd bc 0e 7b 05 3d 0b d2 0e bc 9c e3 c9 bd
       -0.026998354 0.032588057 -0.00871707 -0.09857866
000110 e0 63 97 bc 48 79 8e bb e5 20 ac bd 0e 29 8d bd
       -0.018480241 -0.004347954 -0.08404712 -0.06892596
000120 bb 92 15 3d 14 05 1c 3d fe 49 0f 3d b4 73 c9 bd
       0.036516886 0.03809078 0.034982674 -0.09836522
000130 ea f8 a0 bd e3 ae f5 bd 21 5e cf 3c d4 7c 05 bd
       -0.078599766 -0.119962476 0.025313439 -0.03258975
000140 89 30 58 3c 51 bf 47 3d a9 a9 bb 3c a1 f3 10 be
       0.013195165 0.048766438 0.022908049 -0.14155437
000150 01 2c 74 3d 21 85 c9 bd da ca 62 bd 7d 03 12 bd
       0.059612278 -0.098398454 -0.055369236 -0.035647858
000160 41 37 c2 bd 71 3b 4a 3c 12 c2 85 bc 07 49 50 bd
       -0.09483195 0.0123432735 -0.016327891 -0.050850894
000170 a6 9f d3 bd ff 1f 6b bc 87 7f 65 bd 6b ae c6 bc
       -0.10333185 -0.01435089 -0.056029823 -0.02425309

value_net.0.output_layer.weight f4 [96, 96]
000000 31 f5 22 3d 0a 59 3c 3c 24 e0 16 bd 33 77 21 3c
       0.039784614 0.011495838 -0.03683485 0.009855079
000010 2c c2 bf bd e2 3f 50 3d c4 a7 fa bd d0 3a f8 3d
       -0.09363207 0.050842173 -0.1223903 0.121205926
000020 ae 66 8d bd 3e a9 1c 3d ca 27 0d 3d b6 ea 85 3d
       -0.0690435 0.03824734 0.034461774 0.06538908
000030 b5 e2 1d 3d da 90 f9 bd 32 08 a7 3c c4 5b 01 bd
       0.038546283 -0.12185831 0.02038965 -0.031581655
000040 96 65 2b bd bf 93 7c bb c9 99 e4 bc 9e 84 34 bd
       -0.041844927 -0.0038540212 -0.027905362 -0.044071786
000050 56 4f 45 bc 8f 22 52 bd 3f bc 8a 3d 67 0e 39 3d
       -0.012042841 -0.05130249 0.06774186 0.04517975
000060 bf 02 74 3c bd 36 dc bd 00 dc 24 3c 24 db ae bc
       0.014893233 -0.10752628 0.010062218 -0.021344729
000070 e0 0d 1c 3d ee be b3 bd f3 84 da bd 34 60 30 bd
       0.03809917 -0.08776651 -0.10669889 -0.043060496
000080 24 52 a0 bc 5a 48 aa 3d 12 ee 4a 3d 9a 98 21 3d
       -0.019570418 0.08314581 0.049543448 0.039452173
000090 af da 88 bd 7e 1b d4 bd c8 fb 1f bd 19 78 bc 3d
       -0.066823356 -0.10356806 -0.039058477 0.09202594
0000a0 43 28 6c bd fc e8 bf bc 63 3a 11 3c d6 bb 1a 3e
       -0.057655584 -0.023426525 0.008864018 0.15110716
0000b0 4d 4c 91 3d 6e d7 0a 3e 1d 56 bb bd cf 5b 78 3c
       0.07094631 0.13558742 -0.09147284 0.015158608
0000c0 30 f2 9c 3d ce da a1 3d 01 5f 80 bd ac cf f4 3c
       0.07663381 0.07903062 -0.062681206 0.029884182
0000d0 ad e8 2b 3d af 60 5a bd b6 ef 19 3d e0 7a c4 3c
       0.041969944 -0.05331486 0.03758212 0.023984373
0000e0 48 bf 65 3d 56 06 db 3d ff 51 8c 3d 07 15 dd bb
       0.056090623 0.10694568 0.06851577 -0.0067468914
0000f0 b4 91 40 3d 20 b5 82 bc d8 c6 0b bd 00 02 98 3d
       0.047013953 -0.015955508 -0.03412518 0.074222565
000100 db 3a 90 bd 7d df d1 bc 92 35 4a 3d 0c 58 a9 bd
       -0.07042476 -0.025619263 0.049367495 -0.08268747
000110 94 c3 9f 3b e3 7d 93 3c f3 06 a8 3d 43 3e 86 3c
       0.0048756097 0.018004363 0.082044505 0.01638711
000120 28 3a 4e bb 5c a4 1b 3d 02 8b 4e 3d fc 94 7a bd
       -0.003146777 0.037998542 0.050425537 -0.06117724
000130 81 f3 1b bd 6d 6e 7a bc bd 65 a3 bc 63 a0 d8 bc
       -0.03807402 -0.015285117 -0.019945974 -0.026443666
000140 a3 af 9a 3c 77 d8 31 3d bf 62 93 bd 35 57 9c bc
       0.018882578 0.043419328 -0.07196569 -0.019084552
000150 cb c1 45 3d a0 a9 df 3c 46 2b 9c bd fd a0 e0 3d
       0.04828052 0.027302563 -0.07625441 0.10968206
000160 3a 07 a8 bd e6 38 cc ba b4 91 0e bd 3a 0a 8d 3d
       -0.08204503 -0.0015580922 -0.034806922 0.06886716
000170 98 10 cd ba f7 c3 9b bb 4a 0e 30 3d d4 8e 15 3a
       -0.0015645204 -0.0047535854 0.042982377 0.0005705182
000180 12 80 f2 bd b9 a6 c5 3b f4 68 23 3d de be 2d 3c
       -0.11840834 0.006031838 0.039895013 0.010604588
000190 42 a0 22 bd 3b 90 35 bc 0c a9 ac bd 8b 3c c6 bd
       -0.039703615 -0.0110817505 -0.08430681 -0.096795164
0001a0 b7 14 7e bd 32 e9 c8 bd c9 68 61 3b 34 22 b6 3d
       -0.062031474 -0.098101035 0.0034394732 0.088932425
0001b0 75 f8 22 3c aa 04 df 3c bc 76 1d 3d 99 1d 28 3c
       0.009946932 0.027223904 0.038443312 0.010260963
0001c0 3e 7d f9 ba 1f 23 b7 bc d8 46 75 bc 25 dc ea 3c
       -0.0019034517 -0.022355614 -0.014970504 0.028669426
0001d0 14 8a c8 bc a0 f6 7c bc ce 0c 99 bc 88 fe ab bc
       -0.024479903 -0.015439659 -0.018682864 -0.020995393
0001e0 f3 b1 3e 3d 40 9b 4a 3d 42 f6 91 bd b4 8e 3f 3c
       0.046556424 0.049464464 -0.07127048 0.011691738
0001f0 aa f5 3d 38 54 44 f4 bc 38 c7 8c bd e1 04 2e bd
       4.5289904e-05 -0.029817738 -0.068739355 -0.04248512
000200 56 1e c7 bd 46 26 82 3c 33 dd 1e 3d 12 a2 6f bc
       -0.09722583 0.01588739 0.03878517 -0.014626043
000210 3e 1d ab 3d b5 e9 f8 bc 52 80 0f 3d 0f c9 c1 bc
       0.08355187 -0.030384878 0.035034485 -0.023655443
000220 b9 9b 70 bd 30 51 7d bc c4 9c 0d 3e 8d 1e 09 3e
       -0.05874226 -0.015461251 0.13829333 0.1339056
000230 02 c0 bd bc 35 28 b9 3d b2 85 8e bd 25 fd a9 3d
       -0.023162846 0.09040872 -0.06959094 0.083002366
000240 23 1c 36 bd 03 f9 b6 bb 18 98 df 3c 08 ae 20 3c
       -0.044460427 -0.0055838837 0.027294204 0.009807117
000250 b6 43 85 bd 27 1e dd bd e4 5a 24 3a e8 d8 f9 bd
       -0.065070555 -0.10796767 0.0006269647 -0.12199575
000260 6f 0c 7b 3b 1b b5 c0 3d aa 00 db bc 39 ce 92 3d
       0.0038306972 0.09409543 -0.026733715 0.0716824
000270 b4 2b c3 ba ef 3f 84 3c f7 0c db 3c 64 67 f3 3c
       -0.0014890344 0.016143767 0.02673958 0.029712386
000280 6d b6 a9 3d 01 b1 1f 3d 7a 14 81 3d f6 1f 3e bb
       0.08286748 0.038987163 0.06302734 -0.002901075
000290 d0 cb b1 3d 1e bf b6 bb 48 91 a5 bd 4c ff 8b bc
       0.08681452 -0.005576982 -0.08084351 -0.017089508
0002a0 88 83 de bd 00 a0 3f 3d 73 39 c7 39 ff 85 8d bd
       -0.10864931 0.046783447 0.0003799904 -0.06910323
0002b0 af 7c d5 bd 88 16 dc bc b5 65 30 bd 8f 9f 45 3d
       -0.10424172 -0.026866212 -0.043065745 0.04824787
0002c0 4d 87 3e bd 53 be d1 3c 4e 70 f5 bd d6 58 91 3b
       -0.04651575 0.025603449 -0.11984311 0.004435639
0002d0 2a 7f 0b bc 0a 87 a7 bd 07 94 bd 3d 5b 2e 59 3d
       -0.008514205 -0.081800535 0.092567496 0.053022724
0002e0 27 f9 dc bc b7 95 59 bb 93 41 10 bd 12 7d 09 bd
       -0.026974274 -0.003320081 -0.035218786 -0.033566542
0002f0 f4 48 62 bc c4 a5 b6 3c 84 7f 16 bd 10 08 7f bc
       -0.013811339 0.02229584 -0.036742702 -0.015565887
000300 07 3a 6e 3d 27 a8 b7 3c 81 1e be 3d c1 c4 64 bc
       0.058160808 0.022419048 0.09283162 -0.013962925
000310 f9 58 96 bd 06 f5 22 bd 2a 8d 23 3d 68 72 8a bd
       -0.07341189 -0.039784454 0.039929546 -0.067601025
000320 47 3d bb bc b3 5b 09 3d cf ac ae 3d 2f 6f 0f 3d
       -0.022856368 0.033534717 0.085290544 0.035018142
000330 f6 a4 11 bd 2b 4e bc bc d8 3c 9b 3b c5 32 de 3c
       -0.03555771 -0.022986492 0.0047374777 0.027123818
000340 d8 a6 9a bb 59 08 5c 3c 98 69 5a bd 4e b2 e7 bd
       -0.0047195964 0.013429725 -0.05332336 -0.11313306
000350 b3 dd 45 3d 9f 67 ce 3b 06 e5 3e 3d 80 5a 86 bc
       0.048307132 0.0062989737 0.046605133 -0.016400576
000360 df b7 7e 3d 10 f9 81 bd 0d 94 b3 bc b6 14 c7 bc
       0.062187072 -0.06346333 -0.021921182 -0.024301868
000370 a5 21 5a bd b2 d6 8a bd c5 f8 cd bc 32 f9 62 bd
       -0.053254742 -0.06779231 -0.025143037 -0.055413432
000380 65 3e 61 3c 84 96 0a 3d 49 bb 6c 3d 68 ae 3c 3c
       0.013747786 0.03383495 0.057795797 0.011516191
000390 24 91 6c 3d 9f 99 f9 bc 05 19 1c 3d 19 fc be 3d
       0.057755604 -0.03046876 0.038109798 0.093254276
0003a0 f7 19 04 3d 28 94 6d 3c 7b e7 11 3e c5 ff 80 3c
       0.032251325 0.014500655 0.14248459 0.01574696
0003b0 72 6a 29 3d 85 9a 24 3c 3f 4a 92 bd 50 3f 08 3e
       0.04136128 0.010046606 -0.071430676 0.13305402
0003c0 8d 4c e4 3b 85 ac cd 3d 1f 13 81 bd fe 0d 5f 3d
       0.0069671334 0.10042671 -0.06302475 0.054456703
0003d0 ba 54 93 3b ea f6 97 3c a6 54 90 3c 9d 03 14 bd
       0.004496184 0.018550355 0.017618489 -0.03613626
0003e0 8a 6d 2e bb db 78 5e 3d fc 6c ac 3c 10 f2 c1 3b
       -0.0026615583 0.054314476 0.021048062 0.0059187487
0003f0 60 ed f1 bd 9b 4c 72 bd 27 ac f5 3d 1f bb 25 bd
       -0.11812854 -0.059155088 0.11995726 -0.040461656

value_net.0.output_layer.bias f4 [96]
000000 1b 2a ff bc 05 21 d9 3b c5 9d 6d 3c b6 64 ff 3c
       -0.031148007 0.0066262507 0.014502947 0.031175952
000010 47 89 e6 bd 90 cc 29 bd 70 0f 91 bd e1 f9 f9 bd
       -0.11256652 -0.04145485 -0.070830226 -0.12205864
000020 f2 f2 42 bd bc 30 12 3c 9d d1 f1 bd 09 6b 77 bd
       -0.047594972 0.008922752 -0.11807559 -0.06040481
000030 95 a2 c3 3c da cb ff bb 34 35 06 be 02 0e e8 bc
       0.023881236 -0.0078062834 -0.13106233 -0.028326992
000040 89 83 da bc 60 8f 6d bd e2 15 90 3b d1 6f 4f bc
       -0.026674049 -0.05799806 0.00439714 -0.012660936
000050 05 65 2c bd b2 41 98 bd bc 75 15 3d 0b 75 08 be
       -0.042088527 -0.074344054 0.036489233 -0.13325898
000060 9c f9 15 bd bb 6f 23 3c 31 ce 36 bd b2 fb a3 bd
       -0.036615 0.009975369 -0.044630233 -0.080069914
000070 1f 2f 05 bd 42 9a c5 bd 3b 38 c0 bd b8 61 9c bd
       -0.03251564 -0.09648563 -0.09385725 -0.07635826
000080 98 89 70 bc 1b f6 41 bd 18 76 45 3b ab 60 c2 3c
       -0.014681242 -0.047353845 0.0030130204 0.023727736
000090 1f 37 47 bd 97 cf d7 bd 1b 5d aa bc a6 c2 fa bd
       -0.048636552 -0.105376415 -0.02079635 -0.122441575
0000a0 09 fd 3f 3b ce 4a 0d 3d ea 99 0e 3d 9b 82 41 3d
       0.0029295108 0.034495167 0.034814753 0.047243696
0000b0 d9 7c 7b bc 04 08 9b 3c 2a a5 a0 bc 8d 45 5e 3c
       -0.01534959 0.01892472 -0.019610006 0.013566387
0000c0 f4 c3 a4 3c a0 ed a8 bd 71 cc 15 bd 01 01 62 bb
       0.020112969 -0.08248448 -0.036571924 -0.0034485462
0000d0 46 68 aa bd ff 32 47 bc fc e1 85 bd 97 a1 99 bd
       -0.0832067 -0.0121581545 -0.06537244 -0.07501524
0000e0 0e 92 e3 bc 2d be 09 bd f4 de 64 bd 0f df b4 bd
       -0.027779605 -0.03362863 -0.055876687 -0.088316076
0000f0 34 d4 24 bc 0b ee 14 bd 15 65 fe bd 70 7d d2 bd
       -0.010060359 -0.036359828 -0.124216236 -0.102778316
000100 c7 91 e8 bc 83 21 10 be 44 78 55 bc 23 bf dc bc
       -0.028389825 -0.14075284 -0.013029162 -0.02694661
000110 a9 43 02 bd f9 56 b3 bc 08 f5 0f 3c 3d e4 10 be
       -0.031802807 -0.021892058 0.008786447 -0.14149566
000120 bf ca 9a bc 5c b7 d0 bd 87 29 a0 3b b8 3d 28 bd
       -0.018895505 -0.10191223 0.004887763 -0.041074485
000130 4c 70 5c 3d b0 4e b5 3c 48 93 6d bb eb 09 53 bd
       0.053818032 0.022132248 -0.0036251117 -0.05152313
000140 c2 a0 a5 bb 4b dd 01 bd 20 25 d5 3c 23 67 87 bc
       -0.005054564 -0.031705182 0.02601868 -0.016528672
000150 da 93 25 bd 3c 17 d8 3d 12 0e e8 bd d3 23 68 bd
       -0.040424205 0.105513066 -0.11330809 -0.05667479
000160 60 c9 5c bc 93 d8 56 3b b3 51 82 bd d9 f2 06 3d
       -0.013475746 0.0032782897 -0.06363239 0.03294644
000170 b5 26 85 bd ef d4 0e 3c f4 78 14 bd 9f 56 18 bd
       -0.065015234 0.0087177595 -0.036248162 -0.037191983

value_net.0.attention.in_proj_weight f4 [288, 96]
000000 f8 b0 d8 3d d8 32 b7 3c d8 ac a7 bd e4 b3 50 3d
       0.10580629 0.022363111 -0.08187264 0.050952807
000010 fe 94 99 3d 88 1e d6 bd 08 45 f3 bc f0 12 d6 bc
       0.07499121 -0.10455042 -0.029696003 -0.026132077
000020 c0 86 37 bb 08 43 72 3d d0 d4 58 bc cc 18 bb bd
       -0.0028003901 0.059145957 -0.013234332 -0.09135589
000030 0c a9 d8 3d d4 f3 0e bd 46 b2 d3 bd 94 16 a4 3d
       0.10579118 -0.0349005 -0.10336737 0.08012119
000040 5c 3a d5 bd 00 0e 90 39 30 93 9d bd d8 49 96 3c
       -0.10411522 0.0002747625 -0.076940894 0.018345758
000050 d6 3d ce bd a0 d3 b6 bd b4 1d 22 bd a8 ba e1 bd
       -0.10070388 -0.08927083 -0.03957911 -0.1102193
000060 38 5d dd 3c dc e0 8d 3d 86 7e 8b 3d 44 92 a8 bd
       0.02702199 0.06927654 0.06811242 -0.08231023
000070 6c e6 45 bd 08 49 e3 3c 14 f5 1f 3d 62 cf e2 3d
       -0.04831545 0.027744785 0.039052084 0.110747114
000080 8e 08 95 bd 90 7c d1 bc 24 83 8a 3d ba e8 95 bd
       -0.07277022 -0.025572091 0.06763294 -0.0731978
000090 2e bb 90 3d cc 0c 50 3d 56 b9 ae bd a0 be 7a bc
       0.07066952 0.050793454 -0.08531444 -0.015304238
0000a0 de bd f1 bd 10 7c 36 bd e0 81 c2 bc 5e f6 c3 3d
       -0.118037924 -0.04455191 -0.02374357 0.09568475
0000b0 86 c5 a5 bd 0e c5 c5 3d 6e 8d d6 bd 04 96 89 3d
       -0.08094315 0.09656726 -0.10476194 0.06718066
0000c0 c8 e9 b1 3d 2c 02 74 3d d4 93 db 3d 50 e0 81 bd
       0.08687168 0.059572384 0.10721555 -0.06341612
0000d0 4c c7 04 3d 40 56 52 3b f8 a8 dc 3d fa aa 9c 3d
       0.032416627 0.0032094866 0.10774416 0.07649799
0000e0 e8 9f a1 bd 20 41 66 bc ee f8 a6 3d e0 43 cf 3d
       -0.07891828 -0.014053613 0.08152948 0.10120368
0000f0 ac ee 67 3d 00 c0 23 b7 e0 be 92 bc b8 b1 55 bd
       0.0566241 -9.760261e-06 -0.017913282 -0.05217144
000100 02 18 9a bd 8c e1 10 3d 56 08 e9 bd 20 a8 66 bc
       -0.075241104 0.03537135 -0.11378543 -0.01407817
000110 80 f5 79 bd ae 89 f4 bd 98 10 77 3d 04 fc 68 bd
       -0.061025143 -0.11940323 0.06031856 -0.056880966
000120 5e 52 fc 3d a0 ae 4e 3c b4 96 49 3d f4 96 20 3d
       0.12320398 0.012614876 0.049215987 0.03920646
000130 b6 e4 b0 bd 18 ec ce 3d 14 19 bb 3d 28 a9 bb 3c
       -0.08637373 0.10103625 0.09135643 0.022907808
000140 c4 67 8a bd f0 a6 78 bc 22 0a af 3d 70 22 81 bc
       -0.06758073 -0.01517652 0.085468546 -0.015763491
000150 ac bc 5e bd 7c d8 10 bd 00 0a 85 3a 80 5e 7c 3c
       -0.05437915 -0.035362706 0.0010150075 0.01540339
000160 cc 69 24 3d 00 9c ce bb 40 cd f0 bc 36 60 f7 3d
       0.04013996 -0.0063052177 -0.029394746 0.12078898
000170 a8 78 c3 3c 80 55 ac 3c d0 02 3f bd 0c 84 ee 3d
       0.023861244 0.021036863 -0.04663354 0.1164628
000180 24 9c 4d bd b4 39 38 bd 90 7f fe 3d 20 d6 08 3d
       -0.050197735 -0.044976905 0.12426674 0.03340733
000190 58 ec b8 bd e0 81 a4 3c 48 79 91 bc 40 ab 66 3b
       -0.09029454 0.02008146 -0.017758027 0.0035197288
0001a0 c6 ac fc 3d dc 9d b7 bd f4 62 ae bd a4 c6 90 3d
       0.123376414 -0.08965656 -0.085149676 0.07069138
0001b0 68 9d 8a bd 80 00 00 3d 14 7c 34 bd c0 07 30 3d
       -0.06768304 0.031250477 -0.044063643 0.04297614
0001c0 d0 ca e4 bd f4 6b de 3d 60 01 a6 3d 28 7f e2 3d
       -0.11171496 0.10860434 0.08105731 0.110594094
0001d0 06 31 80 bd c0 23 01 3d 24 e3 0d 3d 40 8c c6 3b
       -0.062593505 0.031528234 0.034640446 0.0060591996
0001e0 ac fd fe bd ae 20 ab bd 74 d1 fc 3d 74 b9 08 bd
       -0.12450728 -0.083558425 0.123446375 -0.033379987
0001f0 e0 a9 e0 3d 90 27 cb 3c ce 1c d7 bd 70 dc 7e 3c
       0.10969901 0.024799138 -0.10503541 0.015555486
000200 78 d5 a5 bd ec e1 c9 bd 90 2d 30 3c 30 3c d0 3c
       -0.080973566 -0.09857544 0.01075305 0.025419325
000210 f8 89 ff 3c 8c d0 3f 3d c0 91 08 3d 2e 1c cf 3d
       0.031193718 0.046829745 0.033342123 0.10112797
000220 30 9a e9 bc 30 93 f5 bc bc ea 02 bd 9c cd 85 3d
       -0.028515905 -0.029977411 -0.03196214 0.065333575
000230 14 31 6a bd 88 07 c2 3d ec cf 8d 3d 60 20 cb bd
       -0.05717571 0.09474093 0.069244236 -0.099182844
000240 e8 f1 fe bd 76 09 f0 3d fc bf 4c 3d a0 dc ac bd
       -0.12448484 0.117205545 0.049987778 -0.084405184
000250 7c 16 bd 3d c0 d2 e3 3d 40 60 d8 bc 80 8c 7b bb
       0.09232804 0.11124182 -0.026413083 -0.0038383305
000260 4c b2 1f 3d 2a b6 c0 3d 84 4e 33 3d 24 65 79 3d
       0.038988397 0.09409745 0.04377605 0.06088747
000270 74 9f a4 3d a8 bf d0 bc 04 6c 6e bd 64 f1 be bd
       0.08038226 -0.025482014 -0.05820848 -0.09323385
000280 46 1f cd bd d6 b6 fe bd ae 44 bf bd b2 bc c0 3d
       -0.100157306 -0.12437217 -0.093392715 0.09410991
000290 a4 37 84 3d 88 2d 14 bd 48 97 84 3c 78 b6 a0 3c
       0.06455925 -0.036176234 0.016185418 0.019618258
0002a0 60 08 db 3b 64 2f 82 bd b4 d7 de bd 3c a6 8a bd
       0.006684348 -0.06356695 -0.10880986 -0.06769988
0002b0 2e 94 c2 bd 46 6b 8d bd 98 b4 20 3d 8c 91 1c bd
       -0.09500919 -0.069052264 0.039234728 -0.03822474
0002c0 80 25 21 3c 14 ea 09 3d 58 28 d3 bc 48 90 5b bd
       0.009835601 0.0336705 -0.025776073 -0.053604394
0002d0 5c e9 03 bd 10 8b 81 3c 28 8c f2 3d 80 17 4e 3b
       -0.03220497 0.01581338 0.11843139 0.0031447113
0002e0 00 a6 91 3a 80 73 d4 bd c0 b3 2a bc 1a 91 a9 bd
       0.0011112094 -0.103735924 -0.010418832 -0.08279629
0002f0 60 38 90 bd a4 0a e3 bd 10 76 a2 bc 1e 4e a4 bd
       -0.07042003 -0.11086014 -0.019831687 -0.08022712
000300 34 c3 bb bd c6 9d 93 3d 80 21 fc ba d4 8d 09 3d
       -0.091680914 0.07207827 -0.0019236058 0.033582523
000310 b4 6e ee bd c0 cf 39 3d f8 16 11 bd 74 fe 5b bd
       -0.11642209 0.04536414 -0.035422295 -0.053709462
000320 c0 f2 b4 3b 62 34 a5 bd 56 0d b1 bd c4 60 9d 3d
       0.005522102 -0.08066632 -0.08645122 0.07684472
000330 ac d5 3f 3d a8 21 e2 bc e6 f8 8a 3d 30 95 f3 bd
       0.046834633 -0.02760394 0.06785755 -0.1189369
000340 00 14 d2 bc a0 dd 5b 3c 56 ce e7 3d a8 b0 2b bd
       -0.025644302 0.013419539 0.11318652 -0.04191652
000350 f8 2e 67 bd d0 2b f5 bc 54 56 7c bd 34 20 a3 3d
       -0.056441277 -0.029928118 -0.061605766 0.07965127
000360 60 d4 f1 3c f6 ab da bd 78 cb 59 3d e0 7b 5d bd
       0.029520214 -0.1067733 0.05317256 -0.054073215
000370 7e f2 83 bd ee 27 b6 3d 74 01 3f 3d 44 b9 2d bd
       -0.06442736 0.08894335 0.046632245 -0.04241301
000380 ea 13 ba 3d 30 53 6c bd 0c bf d7 bd 80 70 88 bd
       0.090858296 -0.05769652 -0.10534486 -0.06662083
000390 16 0c ae 3d 00 c3 a3 bb 96 8c ef bd 0e a2 94 bd
       0.08498399 -0.004997611 -0.116967365 -0.07257472
0003a0 5e c5 ca bd ee 05 8d bd 7e 31 a5 3d a0 b9 df 3d
       -0.09900926 -0.068858966 0.080660805 0.10924077
0003b0 00 2e c5 3a 88 6f 54 bd 10 60 ae 3d b4 4a 5e bd
       0.0015043616 -0.051864177 0.08514416 -0.05427046
0003c0 7c 53 70 bd 98 9d 9c bc 38 aa 6b 3d 30 7c 90 bd
       -0.058673367 -0.019118115 0.05753538 -0.07054937
0003d0 de d3 9c 3d a8 0f 78 3d 90 31 76 bd 50 01 2e bd
       0.07657598 0.060561806 -0.06010586 -0.04248172
0003e0 f2 06 8c bd 24 15 34 3d f4 b4 ce bd d0 f5 6c bc
       -0.06837262 0.043965474 -0.10093108 -0.014462903
0003f0 5c 46 29 3d c2 75 b5 3d b2 ae b4 bd 84 5f 8c 3d
       0.041326866 0.08860351 -0.08822383 0.06854156

value_net.0.attention.in_proj_bias f4 [288]
000000 00 00 00 00 00 00 00 00 00 00 00 00 00 00 00 00
       0.0 0.0 0.0 0.0
000010 00 00 00 00 00 00 00 00 00 00 00 00 00 00 00 00
       0.0 0.0 0.0 0.0
000020 00 00 00 00 00 00 00 00 00 00 00 00 00 00 00 00
       0.0 0.0 0.0 0.0
000030 00 00 00 00 00 00 00 00 00 00 00 00 00 00 00 00
       0.0 0.0 0.0 0.0
000040 00 00 00 00 00 00 00 00 00 00 00 00 00 00 00 00
       0.0 0.0 0.0 0.0
000050 00 00 00 00 00 00 00 00 00 00 00 00 00 00 00 00
       0.0 0.0 0.0 0.0
000060 00 00 00 00 00 00 00 00 00 00 00 00 00 00 00 00
       0.0 0.0 0.0 0.0
000070 00 00 00 00 00 00 00 00 00 00 00 00 00 00 00 00
       0.0 0.0 0.0 0.0
000080 00 00 00 00 00 00 00 00 00 00 00 00 00 00 00 00
       0.0 0.0 0.0 0.0
000090 00 00 00 00 00 00 00 00 00 00 00 00 00 00 00 00
       0.0 0.0 0.0 0.0
0000a0 00 00 00 00 00 00 00 00 00 00 00 00 00 00 00 00
       0.0 0.0 0.0 0.0
0000b0 00 00 00 00 00 00 00 00 00 00 00 00 00 00 00 00
       0.0 0.0 0.0 0.0
0000c0 00 00 00 00 00 00 00 00 00 00 00 00 00 00 00 00
       0.0 0.0 0.0 0.0
0000d0 00 00 00 00 00 00 00 00 00 00 00 00 00 00 00 00
       0.0 0.0 0.0 0.0
0000e0 00 00 00 00 00 00 00 00 00 00 00 00 00 00 00 00
       0.0 0.0 0.0 0.0
0000f0 00 00 00 00 00 00 00 00 00 00 00 00 00 00 00 00
       0.0 0.0 0.0 0.0
000100 00 00 00 00 00 00 00 00 00 00 00 00 00 00 00 00
       0.0 0.0 0.0 0.0
000110 00 00 00 00 00 00 00 00 00 00 00 00 00 00 00 00
       0.0 0.0 0.0 0.0
000120 00 00 00 00 00 00 00 00 00 00 00 00 00 00 00 00
       0.0 0.0 0.0 0.0
000130 00 00 00 00 00 00 00 00 00 00 00 00 00 00 00 00
       0.0 0.0 0.0 0.0
000140 00 00 00 00 00 00 00 00 00 00 00 00 00 00 00 00
       0.0 0.0 0.0 0.0
000150 00 00 00 00 00 00 00 00 00 00 00 00 00 00 00 00
       0.0 0.0 0.0 0.0
000160 00 00 00 00 00 00 00 00 00 00 00 00 00 00 00 00
       0.0 0.0 0.0 0.0
000170 00 00 00 00 00 00 00 00 00 00 00 00 00 00 00 00
       0.0 0.0 0.0 0.0
000180 00 00 00 00 00 00 00 00 00 00 00 00 00 00 00 00
       0.0 0.0 0.0 0.0
000190 00 00 00 00 00 00 00 00 00 00 00 00 00 00 00 00
       0.0 0.0 0.0 0.0
0001a0 00 00 00 00 00 00 00 00 00 00 00 00 00 00 00 00
       0.0 0.0 0.0 0.0
0001b0 00 00 00 00 00 00 00 00 00 00 00 00 00 00 00 00
       0.0 0.0 0.0 0.0
0001c0 00 00 00 00 00 00 00 00 00 00 00 00 00 00 00 00
       0.0 0.0 0.0 0.0
0001d0 00 00 00 00 00 00 00 00 00 00 00 00 00 00 00 00
       0.0 0.0 0.0 0.0
0001e0 00 00 00 00 00 00 00 00 00 00 00 00 00 00 00 00
       0.0 0.0 0.0 0.0
0001f0 00 00 00 00 00 00 00 00 00 00 00 00 00 00 00 00
       0.0 0.0 0.0 0.0
000200 00 00 00 00 00 00 00 00 00 00 00 00 00 00 00 00
       0.0 0.0 0.0 0.0
000210 00 00 00 00 00 00 00 00 00 00 00 00 00 00 00 00
       0.0 0.0 0.0 0.0
000220 00 00 00 00 00 00 00 00 00 00 00 00 00 00 00 00
       0.0 0.0 0.0 0.0
000230 00 00 00 00 00 00 00 00 00 00 00 00 00 00 00 00
       0.0 0.0 0.0 0.0
000240 00 00 00 00 00 00 00 00 00 00 00 00 00 00 00 00
       0.0 0.0 0.0 0.0
000250 00 00 00 00 00 00 00 00 00 00 00 00 00 00 00 00
       0.0 0.0 0.0 0.0
000260 00 00 00 00 00 00 00 00 00 00 00 00 00 00 00 00
       0.0 0.0 0.0 0.0
000270 00 00 00 00 00 00 00 00 00 00 00 00 00 00 00 00
       0.0 0.0 0.0 0.0
000280 00 00 00 00 00 00 00 00 00 00 00 00 00 00 00 00
       0.0 0.0 0.0 0.0
000290 00 00 00 00 00 00 00 00 00 00 00 00 00 00 00 00
       0.0 0.0 0.0 0.0
0002a0 00 00 00 00 00 00 00 00 00 00 00 00 00 00 00 00
       0.0 0.0 0.0 0.0
0002b0 00 00 00 00 00 00 00 00 00 00 00 00 00 00 00 00
       0.0 0.0 0.0 0.0
0002c0 00 00 00 00 00 00 00 00 00 00 00 00 00 00 00 00
       0.0 0.0 0.0 0.0
0002d0 00 00 00 00 00 00 00 00 00 00 00 00 00 00 00 00
       0.0 0.0 0.0 0.0
0002e0 00 00 00 00 00 00 00 00 00 00 00 00 00 00 00 00
       0.0 0.0 0.0 0.0
0002f0 00 00 00 00 00 00 00 00 00 00 00 00 00 00 00 00
       0.0 0.0 0.0 0.0
000300 e4 cd ab bc 34 5e d1 bb 2d d4 8d 3b fe 7e 89 bb
       -0.0209722 -0.0063894037 0.004328272 -0.004196047
000310 45 2f 9b bb 5c 15 95 bb a1 b7 b7 bc 67 51 95 bb
       -0.0047358596 -0.0045496654 -0.022426428 -0.004556823
000320 7e 12 39 3b b0 ab a8 bc c5 e5 58 3c 68 f4 0a bc
       0.0028239782 -0.02058968 0.013238375 -0.008481123
000330 e4 4e 69 bb 39 0d 86 bb b6 7c 2d 3c b9 17 ee bb
       -0.00356 -0.0040909317 0.010588815 -0.0072660116
000340 d9 57 2f bc 11 4c ec 3b 34 ab c5 3b a9 fc a8 bb
       -0.010702097 0.0072112163 0.006032372 -0.0051570726
000350 37 8f 8d 3c 89 30 c0 3a 12 bf 98 bc e5 cc 0b bc
       0.017280204 0.0014662902 -0.018645797 -0.008532737
000360 94 a2 98 bb 1c 9a e3 3c 81 44 50 bb 09 2b 20 bb
       -0.0046580527 0.027783446 -0.0031779113 -0.0024439713
000370 9d c7 57 3c 79 77 56 3c 05 0d 78 3c 69 66 7e bb
       0.01317015 0.013090008 0.015139823 -0.0038818365
000380 99 7f e7 3b 36 94 8b bc b0 b7 01 bd 52 1a 8a 3a
       0.0070647714 -0.017038446 -0.03166932 0.0010536409
000390 3a cd a6 3c 63 a1 d1 bb ab 67 6a 3c 6f 02 ad 3c
       0.020361532 -0.0063974126 0.014306943 0.021119324
0003a0 f8 f7 60 bc 23 27 44 3c 33 69 8e 3c b0 f2 27 ba
       -0.013730995 0.011972222 0.017384147 -0.00064067077
0003b0 44 ca c5 bc db 03 6c bb 17 09 dd 3a 88 42 64 3c
       -0.0241443 -0.003601304 0.0016863671 0.013931878
0003c0 26 65 f0 bb 4d ad 41 3a 81 c6 46 bc a7 cb 9d 3c
       -0.0073362766 0.00073881896 -0.012132288 0.019262148
0003d0 96 5f 24 3c 41 63 3c 3b ae 83 29 3c ba d9 8e 3c
       0.010032555 0.0028745683 0.010346336 0.017437804
0003e0 07 0a e9 bc f5 f7 aa 3c 98 7b d9 3c 8b d5 81 3c
       -0.028447164 0.020870188 0.026548192 0.015848896
0003f0 4b e5 c5 3c 20 42 31 3c 0f 5d a9 3c c0 b4 4f bc
       0.024157187 0.010818988 0.020674257 -0.0126773715

value_net.0.attention.out_proj.weight f4 [96, 96]
000000 19 28 19 bd 0f 30 0d be b5 90 90 3d d7 1a 10 3d
       -0.037391756 -0.13787864 0.07058851 0.035181846
000010 d4 cd da 3c 29 23 91 bd d9 8a 59 3c 61 66 f3 3c
       0.026709475 -0.070867844 0.013277733 0.029711904
000020 7f b6 0a 3b 5f 19 6d 3d 62 ce 62 3c 99 84 63 3d
       0.0021165905 0.057885524 0.013843151 0.055546377
000030 df 24 52 3d 8a d5 9e bd 02 97 a1 3b c3 e8 54 3d
       0.051304694 -0.07755573 0.0049313316 0.05197979
000040 22 2b 98 bb 99 b6 97 bc b3 6b a6 3d ac 6d eb 3c
       -0.0046438137 -0.018519687 0.08126011 0.028738819
000050 6b 27 06 bd 51 8b 94 3d 9b d6 ed bd 50 44 93 3d
       -0.032752436 0.07253135 -0.11613198 0.07190764
000060 9d dc 8b bd ed ab d1 bb 98 52 99 bc c1 c1 f2 bd
       -0.06829188 -0.006398669 -0.018716142 -0.11853362
000070 e4 a0 2a 3d 88 df 9c 3c fb 8a 68 3d 26 51 8b bc
       0.041657344 0.019149557 0.056773167 -0.017006468
000080 c2 98 96 3d ad 9f cb 3c cd 66 cd bd 1a 03 5a bc
       0.07353355 0.024856413 -0.10029373 -0.0133064035
000090 b3 3a 58 3b 74 34 1a 3d 0f 5b 95 bd c3 af 9a bd
       0.0032993972 0.03764768 -0.07292759 -0.07553055
0000a0 b0 45 5b bd 43 64 0f bd b1 8d 66 bd 64 59 e5 bd
       -0.053533256 -0.035007726 -0.05628747 -0.111986905
0000b0 e3 d9 82 bd 73 07 25 3e a2 da b7 3c 76 e3 0b bd
       -0.06389215 0.16116123 0.02244312 -0.03415247
0000c0 ef a7 e1 bc bd 72 6e 3d 19 b7 4e 3d 7c 82 ba 3c
       -0.027545897 0.05821489 0.050467584 0.022767298
0000d0 a0 6d 58 3d 43 a4 0d be 78 ab 22 bc c2 4b 89 3c
       0.05283892 -0.13832192 -0.009928577 0.016759757
0000e0 ce 23 8e 3d 89 a4 2b 3b e7 99 65 bd b9 bd 8c bd
       0.06940423 0.00261906 -0.056054976 -0.06872124
0000f0 81 3d c1 3d 67 fa a6 bc 3d a7 27 bd 70 30 08 3d
       0.09435559 -0.020383073 -0.040930975 0.03324932
000100 a9 fe e7 bd 1c 0c 1f 3d 7c bc a1 bc e3 4f 72 bd
       -0.113278694 0.038829908 -0.019743197 -0.059158217
000110 a9 62 0c 3e 41 21 26 3d 8e 6f 53 bd 7d b3 87 bd
       0.13709511 0.040559057 -0.05162006 -0.066260315
000120 44 f6 99 ba ed 7b 9a 3c 7d eb 51 3d 38 93 53 bb
       -0.0011746367 0.01885792 0.05124997 -0.0032283794
000130 8f 92 85 bd 8e 8f 80 bc 57 f2 54 bc 21 73 ff bc
       -0.065220945 -0.015693452 -0.012997231 -0.031182827
000140 f8 1c ac bc 14 46 87 39 79 6f 01 be bd f0 a0 3d
       -0.021009907 0.0002580142 -0.1264018 0.07858417
000150 69 ba 4f 3a c8 18 1e 3d 59 81 b6 3c 8b e4 90 3d
       0.00079242006 0.038597852 0.022278475 0.07074841
000160 00 11 5b 3c 6d 5b db bc a0 1d 40 bd 35 2c e6 bd
       0.013370752 -0.026776994 -0.046903253 -0.112389006
000170 fe d7 48 bc 09 e8 ee bc 5d 37 6c 3d f4 91 27 3c
       -0.012258528 -0.029163377 0.057669986 0.010227669
000180 c3 60 9a bd ab a1 32 3d 23 0b 33 bd 9e eb 3a bd
       -0.07537987 0.04361121 -0.043711793 -0.04563486
000190 c8 a0 86 bd fa a3 8a bc a3 38 d1 bd 79 1a 00 3d
       -0.06573635 -0.016923893 -0.10215881 0.031275246
0001a0 e8 0a e0 3b 3f e2 52 bd 18 bc a9 3d 86 de 4c bb
       0.0068372376 -0.051485296 0.08287829 -0.0031260564
0001b0 9b e2 a2 bc b1 3e 77 bd cc ec 2f 3d a8 bf d5 bd
       -0.019883445 -0.06036252 0.042950436 -0.10436946
0001c0 73 3a 9c 3d 9b ce c1 bb 9d f1 25 3d fc 7e 6c 3d
       0.07628336 -0.005914522 0.040513624 0.05773829
0001d0 1b ba c2 3b e9 7a f7 3c 44 66 14 bd 49 80 d4 bc
       0.0059425957 0.030209975 -0.03623034 -0.025940077
0001e0 c1 3a 4f bd d1 f5 81 bd f3 3c cf 3d 70 21 a8 bd
       -0.05059314 -0.06345714 0.10119047 -0.08209503
0001f0 cc 7b 99 bd 2c 9b 1b bd 4a 1a b5 ba 4b 88 bb 3d
       -0.074943155 -0.03798978 -0.0013817039 0.09156855
000200 cd 2b eb 3b e3 14 a0 ba 3e 5c 49 3d c9 cb bf bd
       0.0071768523 -0.0012213256 0.049160235 -0.09365041
000210 66 4a dc 3c 79 90 c9 3c 61 32 33 3d b2 85 7b 3d
       0.026890945 0.024605023 0.043749217 0.0614068
000220 dc 8f 53 3d 26 43 5f 3c 97 ee 70 bd 73 fe ad bc
       0.051650867 0.013626849 -0.058821287 -0.021239495
000230 94 e3 ba 3d 4a 72 44 bd 03 3e 33 bd 83 6b d0 bc
       0.09125438 -0.047960557 -0.04376031 -0.02544189
000240 b7 41 46 3d 15 df 8f bc 62 40 72 3d 67 1b 97 bd
       0.048402514 -0.017562428 0.05914343 -0.073782735
000250 0f 83 e7 bc 70 ef 00 3d 07 62 de 3b 64 70 c4 bc
       -0.028260736 0.031478345 0.006786588 -0.023979373
000260 8c 2c 96 bd 4e 22 dc 3c 58 22 83 bd b5 d6 a8 3d
       -0.073327154 0.026871826 -0.06403035 0.08244077
000270 51 55 2d 3d 87 84 62 bd de 45 c9 bd 4e 20 75 3d
       0.042317692 -0.05530217 -0.09827779 0.05984526
000280 07 ec 86 3d e3 2a 87 3d 6e 8c ad bd 10 26 8f 3d
       0.065879874 0.06599977 -0.084740505 0.06989682
000290 cd 1a 76 3d 65 83 cc bd 86 74 06 bd 0a 28 02 bc
       0.060084153 -0.09985999 -0.03282597 -0.007944116
0002a0 92 4e 76 3d ec bd 48 3d f2 f9 94 3d ce 44 8b bd
       0.060133524 0.04900925 0.07274236 -0.06800233
0002b0 ea c8 eb 3d 95 88 24 3c 50 05 f8 3d 7a dd 5c 3d
       0.11512931 0.010042329 0.12110388 0.053922154
0002c0 39 bc 1e 3d 7a 6b 08 3d 26 23 81 3d 35 d4 99 3d
       0.038753722 0.033305623 0.06305532 0.075111784
0002d0 53 ca 6d 3b 8f bd fb 3c 1a 30 26 bc 3a 3e 0b 3e
       0.0036283925 0.030730037 -0.010143304 0.13597956
0002e0 9a 1f 68 bd 53 2a 2b 3d 3b 30 9d 3d 1f d3 45 bd
       -0.056670763 0.04178841 0.07675215 -0.048297044
0002f0 15 57 68 bd c3 1b dc 3c 9e d5 44 3d 79 85 80 bd
       -0.056723673 0.026868707 0.048055284 -0.06275458
000300 14 ca 2e 3d f1 54 9a bd a3 c3 e6 3c 5c 32 b5 3d
       0.042673185 -0.075357325 0.028169459 0.08847496
000310 b8 dc c5 bc 43 64 8c 3d cf 6f 27 3d 56 4e 2b bd
       -0.024153098 0.06855061 0.040878113 -0.041822754
000320 f9 cc 2d bc ab 1c 6f bd 4f ad bf bd bf c7 ea 3c
       -0.010607951 -0.05837695 -0.09359228 0.0286597
000330 2a 55 80 3d f0 1f db 3c cc 35 b7 bb d7 d8 b8 bb
       0.06266244 0.026748627 -0.00559113 -0.0056410837
000340 b5 ce 5f 3d 45 8e 6e 3b eb 46 05 3d b0 05 9d 3d
       0.05464049 0.0036400717 0.032538336 0.076671004
000350 f7 36 87 3c d4 03 67 bd 53 cb dd 3c 41 b9 9c 3d
       0.016505701 -0.056400135 0.027074492 0.07652522
000360 1d 90 19 bd 9d 55 3d 3c a7 a0 99 3d 1b db 81 3c
       -0.037490953 0.011556056 0.07501345 0.015851548
000370 f4 3a ec bd 21 1a 5f 3b 39 ce a8 3d 1a 12 88 bd
       -0.11534682 0.0034042674 0.08242459 -0.066440776
000380 99 b2 ab bc 96 42 68 3d 0e b2 05 be df db 7f 3d
       -0.020959185 0.056704126 -0.13056204 0.062465545
000390 bd 89 4d bd ec 5d df bc 35 fe 68 bd 07 df 56 bd
       -0.050180186 -0.027266465 -0.056883056 -0.05245879
0003a0 37 2b 54 3d 3c 1b 58 3d ea 16 9d bb d5 1a 64 bd
       0.051799025 0.052760348 -0.0047939913 -0.05568965
0003b0 f4 c4 9c 3d 9f f8 a8 3d b4 2a b1 bd 0c e7 69 bc
       0.07654753 0.08250546 -0.08650723 -0.014276277
0003c0 e3 a1 ae 3c 42 9b 4e bd 0f 85 81 3d c2 29 3a 3d
       0.021317428 -0.050441034 0.06324207 0.04544998
0003d0 2e 64 99 3d f0 64 23 bd 8f 5e 1b bd 54 ea ab 3d
       0.07489811 -0.039891183 -0.037931975 0.08394304
0003e0 ca 81 d0 3d da ec c6 3c 11 09 8b bd b3 04 60 bd
       0.10181005 0.024282862 -0.06788839 -0.05469198
0003f0 a3 83 11 bc 71 84 a1 3c ac 4e 1f 3c 8c dc d5 3c
       -0.008881482 0.019716473 0.009723347 0.026106142

value_net.0.attention.out_proj.bias f4 [96]
000000 e3 bc 80 3c ff bb 07 bc a7 a1 e4 bd 08 a4 3e bb
       0.015715068 -0.008284568 -0.11163645 -0.002908947
000010 76 03 92 3d d7 70 25 3c ee e5 27 3d 7a 05 dc b9
       0.07129566 0.010097704 0.040990762 -0.0004196575
000020 48 67 fd 3c 03 20 2b 3c bb da 28 bd 62 9e ba bc
       0.030933037 0.010444644 -0.041224223 -0.022780601
000030 4e ba 02 3d 72 52 9f 3c 79 84 1c bb f8 13 6c 3c
       0.031915955 0.019448493 -0.002388267 0.014409058
000040 48 4a c1 bd 8a bf c2 bc e3 69 ff 3b ce 72 a4 3d
       -0.09437996 -0.023772974 0.007794605 0.0802971
000050 93 f0 39 3c 41 58 18 bc 82 7b 4e bd 0e bf 21 3a
       0.011348861 -0.009298385 -0.050410755 0.0006170132
000060 e0 9c 5a bd f9 d9 bb 3c 05 01 58 3c 48 0e 04 3c
       -0.053372264 0.022931086 0.013183837 0.008060046
000070 0c db ee bb a6 e1 71 3c 6b a9 9c 3c f3 1b 9e 3d
       -0.007289296 0.014763271 0.019123754 0.07720175
000080 3b fe 32 3c d5 d2 a0 bc 6f a7 bf bb de bb 52 bd
       0.010924871 -0.019631783 -0.005848817 -0.051448695
000090 4d 2b b1 bc 05 1c 2c 3d 4b ca 9d 3b 3f 93 44 bd
       -0.021627093 0.04201891 0.004815375 -0.047991987
0000a0 2c 9e 2c 3c 5a 44 82 bc 27 ab 41 bd 19 18 65 bd
       0.010535758 -0.015901733 -0.047282364 -0.055931184
0000b0 22 c2 5f bc f3 01 c5 bd 60 5d 2c 3c 93 d0 26 3c
       -0.013657125 -0.096195124 0.010520309 0.010181564
0000c0 0d 26 3d bc 55 7a e3 bd 9b 1b 0e 3c 95 8e 57 bd
       -0.011544717 -0.11107317 0.008673574 -0.05262621
0000d0 69 1c 57 3b fd 27 d2 39 3d a4 eb bb 3c 23 3f 3d
       0.003282333 0.00040084115 -0.0071912096 0.04666446
0000e0 e5 87 20 3b 6d 72 10 bd e8 27 fc bb cf 3d 2d bc
       0.0024495062 -0.035265375 -0.007695187 -0.010573818
0000f0 7d 7e fc 3c c5 a8 f7 bb ee 68 2d bd 3c 86 d3 3b
       0.030822033 -0.0075579607 -0.042336397 0.006455211
000100 f7 11 04 bd 71 81 55 bd 5b 97 15 3d c4 0b d3 bb
       -0.032243695 -0.052125398 0.036521297 -0.0064406116
000110 f3 ea b0 3b 3e 52 a0 3b 5b 32 21 3c ff 80 8f bd
       0.005399102 0.0048926165 0.009838666 -0.07007026
000120 1e 0e c0 3c dc 14 4f bc ab 42 98 bc c7 f6 09 3d
       0.023444232 -0.012639251 -0.018586477 0.03368261
000130 d4 05 01 3c cd 09 c6 bc fb 45 f0 3c 18 12 98 bb
       0.007874925 -0.024174595 0.029330244 -0.004640829
000140 b4 95 76 3d 33 cd 27 ba 6f 06 c4 3c 9f 29 a3 3c
       0.06020136 -0.00064011215 0.023928849 0.019917307
000150 dd e6 e6 3c 2d 73 03 3d da db 22 bd 49 f8 6a bc
       0.028186256 0.032092262 -0.039760448 -0.014341422
000160 6f be da bb 95 1f e1 3c 6d 36 32 3d c9 60 e0 3c
       -0.0066755335 0.02748088 0.043508936 0.0273899
000170 22 dc d8 bc d5 ab bb bc 56 3d bc bc 06 e8 77 bc
       -0.026472155 -0.022909084 -0.022978466 -0.015131002

value_net.1.weight f4 [64, 96]
000000 69 ff 21 3d ce 8f 54 3d 0a c2 70 3c c8 0f 49 bc
       0.03955022 0.051894955 0.0146947 -0.012271829
000010 64 c7 58 bc 98 a0 85 3d 92 6d 96 bb f9 e8 93 3c
       -0.013231132 0.065247715 -0.0045906985 0.018055426
000020 56 4e 90 bd b6 a7 6e bd 8c 56 66 ba b1 5f 2e bc
       -0.070461914 -0.05826541 -0.00087867 -0.010642932
000030 23 d1 f8 bc 87 3c 80 bd 80 92 6f 3b ec 8c 36 3c
       -0.030373162 -0.06261545 0.0036555827 0.011141997
000040 44 d2 31 3d d5 cb e2 3c 98 2f b6 3b 11 c0 8e bd
       0.043413416 0.027685085 0.005559873 -0.069702275
000050 53 24 89 3c 9e 5b bb 3d c0 aa e9 bb 45 cc 93 bd
       0.016740954 0.09148334 -0.0071309507 -0.07216696
000060 97 19 48 bd 45 03 c6 3d 1b 7b 49 3d 67 dd 96 bd
       -0.04885253 0.09668592 0.04918967 -0.07366448
000070 09 bc ac 3d 42 1b 7f bb c0 a1 49 3d 3c a9 a1 3c
       0.08434302 -0.003892616 0.049226522 0.019734018
000080 dc 85 a4 3c 2d 2d d2 3c 47 54 03 3d 04 93 a9 bd
       0.02008336 0.025656307 0.032062795 -0.08279994
000090 55 00 97 3d e3 d8 8f 3d da a3 2f 3c 43 bc 2b bd
       0.0737311 0.0702379 0.010720218 -0.041927587
0000a0 06 63 3d bd b2 d0 85 3d 57 86 08 3d e9 fc 35 bd
       -0.046237014 0.06533946 0.03333124 -0.044430647
0000b0 96 80 09 3d 43 57 38 3d bf 78 4a bd e8 d8 55 3d
       0.033569895 0.045005094 -0.04943156 0.05220881
0000c0 64 48 c8 bd d8 f6 d0 3d 64 7c 6e 3d de 58 bd 3d
       -0.097794324 0.10203332 0.058224097 0.09245466
0000d0 39 6d 48 3d 27 b9 21 3d 3c 1b 38 bd 8e 7a 5b 3c
       0.048932288 0.039483216 -0.044947848 0.0133959185
0000e0 fc d5 65 3d 0a 00 a2 bd 0c 5e 7c 3c f3 18 83 bd
       0.056112275 -0.07910164 0.015403282 -0.06401243
0000f0 d6 3b 98 3d fa 99 e5 3c ba 4e 68 3c 44 8e bc 3a
       0.07433288 0.028027523 0.014178926 0.001438566
000100 92 67 a3 3d 07 0a fe bc 86 0e 0c 3d 6f 52 e6 3d
       0.07978739 -0.03101064 0.034193538 0.11246192
000110 fd 95 dd 3c 3c bd 15 3d cc e4 7a 3c 47 0a 85 3d
       0.027049059 0.03655742 0.0153133385 0.06496101
000120 84 80 6f bc 02 b2 a0 3d 68 d9 17 bd 19 f6 ec bd
       -0.014618043 0.07846452 -0.03707257 -0.11570377
000130 b5 2d 06 bd da 6e c2 3d 5d 91 a8 bd ca d3 e3 3c
       -0.032758433 0.094937995 -0.08230851 0.02781095
000140 b3 30 7b 3d af ea 34 3d a8 67 8d bd 91 33 62 3d
       0.06132574 0.044169124 -0.069045365 0.05522496
000150 c7 df 5d bd 8f fa b1 3d 56 3a 2e bd 30 7e 36 3b
       -0.05416849 0.086903684 -0.042536102 0.002784621
000160 08 4a 94 3d b1 a3 b1 bd d3 85 45 3d 4d d7 52 bc
       0.07240683 -0.086738 0.048223328 -0.0128687145
000170 cb 6c d0 bb 26 6c 3c 3d 2e bc da 3b 1f 5f 2b bd
       -0.0063606254 0.046001576 0.006675265 -0.04183876
000180 ff 45 a8 bc 56 3c be bb 63 59 05 be c1 cb af 3b
       -0.02054119 -0.0058055324 -0.1302238 0.0053648655
000190 4c d9 e5 bd 5b 02 9e bc cd 40 82 3d 16 25 75 3c
       -0.11223087 -0.019288233 0.06360016 0.014962455
0001a0 e1 9f 2f bd ba 4e 6c bd a8 f7 91 bd cb 3d 91 bd
       -0.04287708 -0.057692267 -0.07127315 -0.07091864
0001b0 ff 24 8f bd 23 99 17 3d 50 94 6b 3d 02 04 7d bc
       -0.06989478 0.037011277 0.05751449 -0.01544285
0001c0 36 78 51 3d e5 75 f4 3c 28 f6 32 3d 0e 2f b2 3d
       0.051140033 0.029841373 0.043691784 0.08700381
0001d0 b6 92 18 bc 46 01 5c bd 31 b6 37 bd 6b 26 2b bc
       -0.009312322 -0.053712152 -0.044851486 -0.010446171
0001e0 61 a0 d4 bd 65 69 bb 3d 74 31 c0 3d 43 46 6f 3d
       -0.10382152 0.09150962 0.093844324 0.058416616
0001f0 d7 4b 56 3d fd 3e eb bd e6 18 c6 bd 81 cb ef 3c
       0.05231842 -0.114866234 -0.09672718 0.029271843
000200 04 df af bd 8f be 0f 3d 62 8b 30 bd 48 ec 0a 3d
       -0.08587459 0.03509384 -0.043101676 0.03391674
000210 23 e6 e3 bc ca 7c d2 bd 78 05 d9 3c df 39 bf 3c
       -0.027819699 -0.10277708 0.026491866 0.023343025
000220 46 a8 a1 bd 70 ec 18 3c 2f c2 84 3d 15 9e 43 3d
       -0.07893424 0.009333715 0.0648235 0.04775818
000230 55 93 92 bd 08 ee 18 be 71 00 8f bd fc e4 bf 3d
       -0.071570076 -0.14934552 -0.06982506 0.09369847
000240 be 8f 31 bd 1f 5a ee 3c 20 84 8b ba 5a 61 f9 bc
       -0.043349974 0.029095707 -0.0010644235 -0.030441929
000250 7c 56 22 3d a2 4b 46 3d bb d5 a1 bd 8f d2 b4 bd
       0.03963326 0.048411973 -0.07902094 -0.08829223
000260 2a 09 ba 3d c9 9e e7 bd 97 7f 9c bd 28 fa a0 bd
       0.09083779 -0.11309583 -0.07641523 -0.078602135
000270 b2 c2 f6 bd b9 46 d3 3b 13 82 9c 3d 05 4b 93 3d
       -0.12048854 0.00644764 0.07641997 0.07192043
000280 f4 15 d7 3a 94 3a 99 bc dd bf 8d 3d c4 18 03 bd
       0.0016409741 -0.01870469 0.06921361 -0.03200604
000290 8a 44 c1 bc 05 cf 03 bc da 68 92 bd ee 5f a9 bd
       -0.023592252 -0.008044963 -0.07148905 -0.0827025
0002a0 89 91 52 bc b0 62 2a bd 8a a0 d6 3d 6f eb 37 3c
       -0.012852081 -0.041598022 0.10479839 0.011225565
0002b0 1c 70 76 bd e5 86 13 bd d3 27 8f bd f8 e7 4e bb
       -0.06016551 -0.036017317 -0.06990018 -0.003157137
0002c0 e1 5c 98 3d 84 a1 09 3d 58 f4 f1 bd 6a 37 59 3c
       0.0743959 0.0336013 -0.11814183 0.013257841
0002d0 6d 2b a6 bd 98 de 2d be ad 79 9a bd 6c ee 44 3c
       -0.081137516 -0.16979444 -0.07542739 0.012019735
0002e0 95 df 79 bc 4d ab 73 bc 2e 8d 41 bd e7 98 f0 bd
       -0.01525106 -0.014872384 -0.04725378 -0.11747914
0002f0 81 6d aa bd 81 06 45 bd da ef 88 bc 1f 03 ed 3c
       -0.083216675 -0.048101906 -0.016715933 0.028932152
000300 7a 52 a5 bd b5 ae 11 3d cc d9 26 3d 5b 7d 01 3d
       -0.08072372 0.035567004 0.04073505 0.03161369
000310 b2 35 9e bc 62 19 40 bd 2d da 2b 3d 34 f0 10 bd
       -0.019312713 -0.046899207 0.041956116 -0.035385326
000320 c9 da 4f 3c 22 62 2c bd 7e 60 6b 3d 80 5d be 3c
       0.01268644 -0.042085774 0.05746507 0.023237944
000330 a3 df 48 3c 6e a0 3c bc d8 28 8a 3d ad 65 91 3d
       0.01226035 -0.011512859 0.067460716 0.07099471
000340 4b 9e 85 3d 2f 62 0e 3d 11 ac 58 bd 07 02 ca 3c
       0.065243326 0.034761604 -0.05289847 0.02465917
000350 ba ae 9c bd d3 74 87 bd 22 73 4c bd 0c 3b 8b bd
       -0.07650514 -0.06614079 -0.049914487 -0.06798372
000360 0b 03 98 3d da 43 3a bd a5 49 e7 3d db 2b b6 3d
       0.074224554 -0.045474865 0.112933435 0.088950835
000370 92 a2 88 3d f4 3f 53 3d 60 51 11 3c 75 2b ee 3a
       0.06671633 0.051574662 0.008869499 0.001817091
000380 fc 73 d4 bd 8d 86 17 3d 7c 04 3a bd ae a1 4c bd
       -0.10373685 0.036993552 -0.045414433 -0.049958877
000390 d9 7c b3 3c b1 22 1a 3d a3 86 b5 3d 4e 8e 25 3d
       0.021910118 0.03763074 0.088635705 0.040418915
0003a0 4e a2 7f bd 89 59 c6 3c bd d4 0b 3c 0c c0 93 3d
       -0.062410645 0.024212616 0.0085346075 0.072143644
0003b0 1a f3 9f 3d 8b 23 88 3d f7 9b 71 bd c0 ca 9a bd
       0.0781004 0.06647404 -0.05898663 -0.07558203
0003c0 56 1d 84 bd 1a 87 7e 3c 75 41 47 bd bf 46 e0 3c
       -0.06450908 0.01553514 -0.04864641 0.027377484
0003d0 36 2e 45 bd e6 02 a3 bc c0 dd 30 bc e8 0e 98 3d
       -0.048139773 -0.019898843 -0.010795057 0.07424718
0003e0 3d 41 73 3c 9e a5 1e 3c 26 ac de 3b af 2e 7f bc
       0.014847097 0.009683041 0.006795424 -0.015575095
0003f0 1b 3f 66 3d 85 5f 45 3c d7 98 23 3c 55 b7 68 bd
       0.056212526 0.012046699 0.00998517 -0.056815464
