scripts/models/602/34/136/actorModel.pth (torch, 216555 bytes, 12 tensors)

policy_net.0.input_layer.weight f4 [81, 128]
0	0xbcb0e766	-0.021594714
1	0xbd7d2e15	-0.061811525
2	0xbcf32be3	-0.029684013
3	0xbd89b2cb	-0.06723555
4	0x3dab6d91	0.083705075
5	0x3cf0797a	0.0293548
6	0x3d9afd09	0.07567794
7	0xbd9d75c2	-0.07688476
8	0x3daaef4f	0.08346426
9	0xbd1e3768	-0.03862706
10	0x3d6c440f	0.057682093
11	0x3d10eda9	0.0353829
12	0xbc0d1214	-0.008610267
13	0xbd92f6e3	-0.07175996
14	0xbd5e5d6c	-0.054288313
15	0x3bd17849	0.006392513
16	0x3da820d1	0.08209384
17	0xbbac169d	-0.005251719
18	0xbd0c94c0	-0.034321547
19	0x3d3432ed	0.04399388
20	0xbd6f4068	-0.058411032
21	0xbdb387e5	-0.08766154
22	0xbd86e5cf	-0.06586801
23	0xbda80770	-0.082045436
24	0x3c1d0b9f	0.00958529
25	0xbc3ebce1	-0.011641712
26	0x3d9aabcd	0.075523
27	0xbd57eb60	-0.052714705
28	0x3d690ba9	0.056895886
29	0xbcb0f8f2	-0.021603081
30	0x3d984ed1	0.07436908
31	0x3c2a585e	0.010397045
32	0xbcaaf1bc	-0.020867221
33	0x3d5412f6	0.051775895
34	0xbdae0ef4	-0.08498946
35	0xbda929ea	-0.082599476
36	0xbd1769f8	-0.036966294
37	0x3ce55025	0.027992317
38	0xbbbe2f7d	-0.005804001
39	0x3d31d5ad	0.043416668
40	0x3dad2175	0.08453647
41	0x3d925975	0.07145969
42	0x3dae8ee3	0.08523347
43	0x3dac1b9a	0.08403702
44	0x3da48d8b	0.0803481
45	0xbd7d9475	-0.061909158
46	0xbd4fb15c	-0.050706252
47	0x3ca36e35	0.019950012
48	0xbd59ff5a	-0.053222038
49	0xbcaa96cc	-0.020823859
50	0x3d6ea35a	0.058261253
51	0x3d80c8be	0.062882885
52	0x3d4294ca	0.047505178
53	0xbd6af5fb	-0.05736349
54	0xbcedc551	-0.029024752
55	0x3c5c8d10	0.013461366
56	0x3d232639	0.039831374
57	0x3d9a2ac4	0.07527688
58	0x3b5c5236	0.0033618337
59	0xbc6905ac	-0.014222544
60	0x3d8b087c	0.06788728
61	0xbd5fe82f	-0.054664787
62	0xbd857939	-0.06517262
63	0xbd7ee373	-0.06222863
64	0xbccc95d2	-0.024973784
65	0x3c015703	0.00789428
66	0x3d6cbf81	0.05779982
67	0xbc6a831b	-0.014313485
68	0x3cb56c09	0.022146242
69	0x3dade5b8	0.08491081
70	0xbd89b7ea	-0.06724532
71	0x3b048aae	0.002022426
72	0x3db2e09b	0.08734246
73	0xbd6f703f	-0.058456656
74	0x3d79c2ac	0.06097667
75	0xbca5b8a2	-0.020229641
76	0x3bd5ef85	0.006528797
77	0xbdb1aeda	-0.086759284
78	0x3dacfb7a	0.08446403
79	0xbcbc8afe	-0.023015495
80	0xba64e5ba	-0.00087317417
81	0x3c885f9c	0.016647153
82	0x3cacb081	0.021080257
83	0xbd9b124e	-0.07571851
84	0x3d74191d	0.059594262
85	0x3c32a34b	0.01090319
86	0x3d983d6f	0.074335925
87	0x3c40bda2	0.011763962
88	0x3d8f8d80	0.07009411
89	0xbd3e651a	-0.046483137
90	0x3d95e230	0.073185325
91	0x3cb1018e	0.021607187
92	0x3da1bbe3	0.07897165
93	0xbd6d8877	-0.05799147
94	0xbd41d8c9	-0.047325883
95	0xbda88924	-0.082292825
96	0x3c8f00cd	0.017456437
97	0xbda02d19	-0.07821102
98	0x3da1a55e	0.078928694
99	0xbcba2a6b	-0.022725305
100	0x3d001f9a	0.031280138
101	0xbd750725	-0.059821267
102	0xbb99c901	-0.004693151
103	0x3d9dc1f7	0.077030115
104	0x3cf601fd	0.030030245
105	0x3d8e5783	0.06950285
106	0xbdb35c30	-0.08757818
107	0x3d4ee129	0.0505077
108	0x3cc5331b	0.02407222
109	0xbc80d594	-0.015726842
110	0xbd9847ff	-0.07435607
111	0x3d249659	0.040182445
112	0x3d82a8e0	0.063798666
113	0x3ba3c23a	0.004997519
114	0x3d4d87ce	0.05017834
115	0xbc4c920e	-0.012485994
116	0x3d863e46	0.065548465
117	0xbad65bf8	-0.0016354313
118	0x3cd0a253	0.025468027
119	0xbd6564b8	-0.056004256
120	0xbac0e5df	-0.0014716944
121	0xbd823980	-0.063586235
122	0x3d8730e0	0.06601119
123	0x3d97e000	0.074157715
124	0xbcf90aa9	-0.030400591
125	0xbc749e09	-0.014930257
126	0x3b0f711c	0.0021887487
127	0xbd0b43f3	-0.03400035
128	0xbd6e2147	-0.058137204
129	0xbdab1bef	-0.08354937
130	0xbc027103	-0.007961514
131	0x3d6fbe56	0.058531128
132	0x3d3468b3	0.04404516
133	0x3da538df	0.08067488
134	0x3d69a509	0.057042155
135	0xbc5dcb97	-0.013537309
136	0x3ce12d4a	0.027487416
137	0xbaa63fcb	-0.0012683807
138	0xbc18dae1	-0.009329529
139	0x3b5a5c07	0.0033319013
140	0xbd8560b0	-0.06512582
141	0xbdac6d32	-0.08419265
142	0x3d897b8f	0.0671302
143	0xbd519ab8	-0.051172942
144	0x3d59caf9	0.053172085
145	0x3cd6e97b	0.026234379
146	0xbcb1a61f	-0.021685658
147	0x3d878b23	0.06618335
148	0xbd35511b	-0.0442668
149	0x3d951867	0.07280045
150	0xbd8aeec8	-0.06783825
151	0x3cd290ce	0.025703814
152	0xbd6e7eb7	-0.058226313
153	0x3c46dc4c	0.012137484
154	0x3da7e890	0.08198655
155	0x3cbbdf32	0.022933576
156	0x3c723e8e	0.014785422
157	0x3d9b2a46	0.075764224
158	0xbdb28116	-0.087160274
159	0x3d9b0f50	0.0757128
160	0x3ba0c466	0.004906225
161	0x3d8920aa	0.06695683
162	0x3cf2fa2d	0.029660309
163	0x3bbdf69d	0.005797221
164	0x3d1a6dcc	0.037702367
165	0x3d9ee6ae	0.077588424
166	0x3ba1536f	0.004923276
167	0x3d27b786	0.040946506
168	0x3d12d826	0.035850666
169	0xbd2b6d61	-0.04185236
170	0xbb130de7	-0.0022438706
171	0x3c8e7ea6	0.017394375
172	0x3d424a30	0.047434032
173	0x3bc1eddb	0.005918247
174	0xbd8c7467	-0.068581395
175	0xbd6fcbf9	-0.058544133
176	0xbc9922ec	-0.01869341
177	0x3d41f17e	0.047349446
178	0x3d578ed8	0.05262646
179	0x3b9d232a	0.0047954516
180	0xbd90c56c	-0.07068905
181	0xbb287710	-0.0025705732
182	0xbd81faf4	-0.06346694
183	0x3d30ac0a	0.04313282
184	0xbd9b9a6e	-0.075978145
185	0xbcd9d82e	-0.02659234
186	0xbd95523b	-0.07291075
187	0xbd5e8cf9	-0.05433366
188	0xbd49986b	-0.049217623
189	0x3d8718f6	0.06596558
190	0x3c79f6cb	0.015256594
191	0x3da2f6f5	0.079572596
192	0xbc959e2e	-0.018263903
193	0x3d767b01	0.0601759
194	0xbcb3f25f	-0.021966157
195	0xbd0d3796	-0.03447684
196	0xbd1ac255	-0.037782986
197	0x3ce28be7	0.027654601
198	0xbd3f1abd	-0.04665636
199	0x3d00f53c	0.031483874
200	0xbc0950e9	-0.008381107
201	0x3cadc16a	0.021210391
202	0x3d834fd1	0.06411708
203	0x3d2957f4	0.041343644
204	0x3d26bacf	0.0407055
205	0x3db0e798	0.08637923
206	0xbd956d37	-0.07296222
207	0xbd742d30	-0.059613407
208	0xbdaf8aab	-0.08571371
209	0x3da837f2	0.08213796
210	0x3d78da14	0.06075485
211	0xbd3a92f7	-0.045550313
212	0x3d6423d3	0.055698227
213	0x3d06ba10	0.032892287
214	0xbaf10a17	-0.0018389848
215	0xbd90c292	-0.07068361
216	0xbd8cb16e	-0.068697795
217	0xbd1ccbfd	-0.038280476
218	0x3d43da96	0.04781588
219	0xbdb19ce9	-0.08672506
220	0x3c8916c5	0.01673449
221	0xbca2a415	-0.019853631
222	0xbd3517c4	-0.044212118
223	0xbd3d610a	-0.04623512
224	0xbd2ded60	-0.042462707
225	0x3c66665c	0.01406249
226	0xbd71ce50	-0.059034646
227	0x3d120407	0.035648372
228	0x3d22f61b	0.039785486
229	0xbd108927	-0.03528705
230	0xbd315b23	-0.043299805
231	0x3c26aa00	0.010172367
232	0xbc1e4335	-0.009659578
233	0xbda97cc3	-0.082757495
234	0xbd50bbac	-0.050960228
235	0x3d3e3ab8	0.046442717
236	0xbda32c3c	-0.079674214
237	0x3d78ad5a	0.060712196
238	0x3d54b667	0.051931765
239	0x3d641b24	0.055689946
240	0x3d92c962	0.07167317
241	0x3ce7c527	0.028292252
242	0xbd984dc2	-0.07436706
243	0x3cf26724	0.029590197
244	0x3cda24b0	0.026628822
245	0x3db3a5d6	0.08771865
246	0xbd87e885	-0.066361465
247	0xbd86e72d	-0.06587062
248	0x3d6c063e	0.05762314
249	0x3d50de38	0.050993174
250	0xbda7efcf	-0.08200037
251	0x3d00be7d	0.031431664
252	0xbd774afb	-0.06037424
253	0x3d99e060	0.07513499
254	0xbd9c26e2	-0.07624604
255	0xbc966f00	-0.018363476

policy_net.0.input_layer.bias f4 [81]
0	0xbb96682f	-0.0045900564
1	0xbd44d15e	-0.04805123
2	0x3cd495db	0.025950363
3	0x3cb37e3b	0.021910777
4	0xbd7c5a3c	-0.06160949
5	0x3c35bef7	0.011092893
6	0x3d559365	0.05214252
7	0xbd9d8bbc	-0.07692668
8	0x3d33cf34	0.043898776
9	0x3d559018	0.05213937
10	0xbdb2396c	-0.087023586
11	0x3daa856a	0.08326228
12	0x3da45c25	0.08025388
13	0x3c6a79cd	0.014311266
14	0x3d4fc172	0.050721593
15	0x3c2edd66	0.010672903
16	0x3c095241	0.008381427
17	0x3db3eec5	0.08785776
18	0x3bb789e8	0.0056011565
19	0xbd46cb26	-0.04853358
20	0xbd69fca3	-0.0571257
21	0x3d865f56	0.06561153
22	0xbd43db46	-0.047816537
23	0xbcfdd311	-0.030984433
24	0x3cfa03cb	0.030519387
25	0x3d3fec1c	0.04685603
26	0x3d5a87c5	0.053352136
27	0x3da806b7	0.08204406
28	0x3d085d25	0.033291955
29	0xbd803295	-0.06259648
30	0x3d49e094	0.04928644
31	0x3b3012ae	0.0026866603
32	0xbcdbe350	-0.02684179
33	0xbcf4659a	-0.029833604
34	0xbd80c398	-0.062873065
35	0xbcfec34f	-0.03109899
36	0x3d53c4b4	0.051701263
37	0x3c6fef70	0.014644489
38	0xbd4a2f8d	-0.049361754
39	0x3db264d1	0.087106355
40	0xbda063f9	-0.07831568
41	0x3d8fadd2	0.070155755
42	0xbd3f85a8	-0.046758324
43	0x3bdbf580	0.0067126155
44	0xbc948608	-0.018130317
45	0x3da58ed6	0.080838844
46	0xbc45eb4b	-0.012080024
47	0xbb9d1916	-0.0047942502
48	0x3d3061e5	0.04306211
49	0x3d1c8470	0.03821224
50	0xbd81522a	-0.063145
51	0x38ebf1f4	0.000112507405
52	0xbc4b6714	-0.012414712
53	0x3c17de96	0.009269377
54	0x3d8adb02	0.06780054
55	0xbadb43ed	-0.0016728617
56	0xbd466e79	-0.0484452
57	0x3d82a22f	0.0637859
58	0x3d35f900	0.044426918
59	0x3d85062b	0.06495317
60	0xbac2adf2	-0.0014852865
61	0xbda02cd4	-0.0782105
62	0xbd00a377	-0.031405892
63	0x3d0f2f71	0.034957353
64	0x3cc850c1	0.024452569
65	0xbc36465f	-0.011125176
66	0xbdb16fa9	-0.086638756
67	0x3cdecce5	0.02719731
68	0x3d8a8482	0.06763555
69	0x3d71de9c	0.059050187
70	0x3d868223	0.0656779
71	0xbd15600f	-0.03646856
72	0x3cf27ebd	0.02960145
73	0xbc9120d3	-0.017715847
74	0xbb87e7ec	-0.0041475203
75	0xbd1ce0fb	-0.038300496
76	0x3d043517	0.032277193
77	0xbc281b72	-0.01026045
78	0x3b60f900	0.0034328103
79	0x3d2233c3	0.039600145
80	0x3ce748dc	0.028232984

policy_net.0.output_layer.weight f4 [81, 81]
0	0xbdcf755d	-0.10129807
1	0x3ba2d81e	0.004969611
2	0xbd8bb0d4	-0.06820837
3	0x3d0bfca0	0.03417647
4	0xbd4fde84	-0.050749317
5	0xbc3118ad	-0.010809106
6	0xbc91fdce	-0.017821219
7	0xbd37b972	-0.04485459
8	0xba69d0aa	-0.0008919338
9	0x3dd1748d	0.102273084
10	0xbca4af4e	-0.020103123
11	0xbdd8a1a7	-0.10577708
12	0xbc773448	-0.015088148
13	0xbda43390	-0.08017647
14	0x3c92b524	0.01790864
15	0x3d8cc564	0.06873587
16	0xbdbd0949	-0.09230287
17	0xbd18c63e	-0.037298433
18	0x3cc6f7dc	0.02428811
19	0x3d399a3d	0.04531311
20	0x3c5691dc	0.013096299
21	0x3d487994	0.04894407
22	0xbd56a287	-0.052401092
23	0xbcc520e4	-0.024063535
24	0xbc01f0e4	-0.007930968
25	0xbd6b49e7	-0.057443526
26	0x3da4036d	0.08008466
27	0x3d3e9d2b	0.046536606
28	0xbcf70837	-0.030155284
29	0x3ca2de07	0.019881262
30	0xbd9f2e1d	-0.07772467
31	0x3d65ef67	0.056136515
32	0xbd7853d9	-0.06062684
33	0x3d0aa159	0.03384528
34	0xbdd6351e	-0.1045935
35	0xbd5028ee	-0.050820284
36	0x3d9ac7e7	0.075576596
37	0x3dc2ec69	0.09517748
38	0xbd12e324	-0.03586115
39	0xbd1e4075	-0.03863569
40	0x3da7932d	0.081823684
41	0xbc738e55	-0.014865478
42	0x3c77fe0d	0.015136254
43	0x3d9393f2	0.07205953
44	0x3da38a0d	0.079853155
45	0xbc9a5c6b	-0.018842896
46	0x3dd30bdb	0.103049956
47	0xbb0d9827	-0.0021605582
48	0x3d95eef2	0.07320966
49	0x3d6835b2	0.056691833
50	0xbda9d585	-0.08292679
51	0x3d6601c0	0.056154013
52	0xbc4ef580	-0.012631774
53	0xbdc686fd	-0.09693716
54	0xbd3e60b2	-0.046478935
55	0x3d50aa6e	0.050943784
56	0xbdcb2a04	-0.09920123
57	0x3d84c57d	0.064829804
58	0x3ddf1ef0	0.10894573
59	0x3c0fcead	0.008777303
60	0xbd94e075	-0.07269374
61	0x3db84bbb	0.089988194
62	0x3cb7f4ea	0.022455651
63	0xbd29e7a0	-0.04148066
64	0x3c066228	0.008202113
65	0xbde29ede	-0.11065458
66	0x3db3edc9	0.08785588
67	0x3db7a8c9	0.0896774
68	0x3ccc1f66	0.024917316
69	0x3d8d9d8e	0.06914817
70	0xbcf2491d	-0.029575879
71	0xbdc8d01b	-0.09805318
72	0xbd16b3cb	-0.036792558
73	0x3d8f0dfe	0.06985091
74	0x3da4b0a7	0.08041506
75	0x3d66c23d	0.056337584
76	0x3da9a2bb	0.082829915
77	0x3d8dccd2	0.06923832
78	0xbc1d66d0	-0.009607032
79	0xbd44eb60	-0.048076034
80	0x3d10abee	0.035320215
81	0xbdd330b9	-0.103120275
82	0x3d53494e	0.05158358
83	0x3d114259	0.035463665
84	0x3d791e75	0.06082006
85	0x3cb6ec6c	0.022329532
86	0xbc67e98c	-0.014154803
87	0x3c5bc687	0.013414032
88	0xbd9154b5	-0.07096235
89	0x3ce41e78	0.02784656
90	0x3dc61b22	0.09673144
91	0x3dda4e00	0.106594086
92	0xbdde7ace	-0.10863267
93	0xbce05180	-0.027382612
94	0xbafecad2	-0.0019439107
95	0xbdc8466d	-0.09779058
96	0xbd341e12	-0.04397399
97	0xbd1a3206	-0.037645362
98	0xbcf85b22	-0.030316893
99	0x3d11d56b	0.03560392
100	0x3a9b6f8c	0.0011858805
101	0x3dd59ace	0.10429917
102	0xbce0b941	-0.027432086
103	0xbdc68f49	-0.09695298
104	0xbca0face	-0.019650843
105	0xbda9001d	-0.08251975
106	0x3d317cd5	0.04333194
107	0x3d86361e	0.06553291
108	0x3de107ae	0.10987793
109	0xbd666200	-0.056245804
110	0xbcc12095	-0.023575107
111	0x3c2354f8	0.009968989
112	0xbd10519d	-0.035234082
113	0xbd31b6fd	-0.0433874
114	0xbd6084bf	-0.054814097
115	0xbdc30c6e	-0.09523855
116	0x3d81109e	0.063019976
117	0xbd86e43e	-0.065865025
118	0xbd2dcb40	-0.042430162
119	0x3c6c625b	0.014427747
120	0x3dcedaee	0.10100351
121	0x3b7216aa	0.0036939778
122	0xbd7d1ea4	-0.0617968
123	0xbadb88c8	-0.0016749138
124	0xbddecb32	-0.108786
125	0x3c0d379f	0.008619218
126	0xbd9f9eae	-0.077939376
127	0xbd08f372	-0.033435293
128	0x3d58e85b	0.052955966
129	0x3dcc43f9	0.09973902
130	0xbda49307	-0.08035856
131	0x3d599d20	0.05312836
132	0xbd0acf8e	-0.033889346
133	0x3d9fdd1e	0.07805847
134	0x3c2b5281	0.010456682
135	0xbd86e315	-0.06586281
136	0xbc95f8a9	-0.018307047
137	0x3c3eb1ed	0.0116391005
138	0x3c3c13d6	0.011479339
139	0x3d9c05de	0.076183066
140	0x3cec90cc	0.028877638
141	0x3d9eb09d	0.0774853
142	0xbc5da5c9	-0.013528296
143	0xbdaae39e	-0.08344196
144	0xbd8d45eb	-0.068981014
145	0x3daadf3e	0.08343361
146	0xbd594767	-0.05304661
147	0xbd5056f1	-0.050864164
148	0x3dda6ab4	0.10664883
149	0x3ddba205	0.10724262
150	0x3dcf17ad	0.10111938
151	0xbd4d4cb5	-0.05012198
152	0x3cc6095e	0.024174388
153	0x3c9db686	0.019252073
154	0xbd75cfe4	-0.060012713
155	0x3d921a65	0.071339406
156	0x3dd762b0	0.1051687
157	0xbcd3d42a	-0.025858004
158	0xbd8f2bfd	-0.06990812
159	0x3dc0f6a5	0.09422044
160	0xbd7731f9	-0.060350392
161	0xbdceebc2	-0.10103561
162	0xbd97294d	-0.073809244
163	0xbd42f4f2	-0.04759688
164	0xbdb67314	-0.08908668
165	0x3cb2d5e4	0.021830507
166	0xbcab03c7	-0.020875825
167	0x3cd82be4	0.026388116
168	0x3d46a23d	0.048494566
169	0xbda50914	-0.08058372
170	0xbd212795	-0.03934439
171	0xbd482ef2	-0.048872896
172	0x3dc4594e	0.09587346
173	0xbdacd5cb	-0.08439215
174	0x3da5f425	0.081032075
175	0xbc62e4d5	-0.013848503
176	0x3d90a20e	0.070621595
177	0xbddd41fb	-0.108036004
178	0x3cc839dd	0.024441654
179	0x3dc5cd0e	0.09658252
180	0x3dc3f0a7	0.09567385
181	0xbd908e94	-0.070584446
182	0x3d36047c	0.04443787
183	0xbdb400e9	-0.08789236
184	0x3d8f3d7b	0.06994148
185	0x3c2a0164	0.010376308
186	0xbdd58845	-0.10426382
187	0x3d3c5d7d	0.045987595
188	0x3d739015	0.05946358
189	0xbd86d4d9	-0.06583566
190	0x3db5e619	0.08881778
191	0xbd80a87b	-0.06282135
192	0x3cf9d6fe	0.030498024
193	0xbc5a028e	-0.013306273
194	0xbddacf95	-0.106841244
195	0x3d4a8a19	0.049448106
196	0x3d851940	0.06498957
197	0x3c700fc6	0.014652198
198	0xbc967172	-0.018364642
199	0x3dcb5fe9	0.09930403
200	0xbcae6787	-0.0212896
201	0xbd8578fb	-0.06517216
202	0x3d20743d	0.039173353
203	0x3d88a3b5	0.0667185
204	0xbda93727	-0.082624726
205	0xbdc7c097	-0.097535305
206	0x3c0b7470	0.008511648
207	0x3dd2646b	0.102730595
208	0xbaaa7318	-0.0013004271
209	0x3c518352	0.012787657
210	0xbda617e7	-0.08110028
211	0xbd8b95c5	-0.06815676
212	0x3daa303e	0.08309983
213	0xba85ff94	-0.0010223263
214	0xbd20f2d5	-0.039294083
215	0xbd1f2675	-0.038855035
216	0x3ddcc95b	0.10780593
217	0x3ab6246f	0.0013896356
218	0x3c1e122b	0.009647886
219	0x3bbec873	0.0058222353
220	0x3d5efd15	0.054440577
221	0xbddd0ad7	-0.10793083
222	0xbd37320b	-0.04472546
223	0x3d9e7d30	0.07738721
224	0xbd860ba2	-0.065451875
225	0x3d7f1627	0.062276985
226	0x3b1f2ff9	0.0024290069
227	0xbd94f605	-0.07273487
228	0x3d150751	0.03638393
229	0xbd8bdf9b	-0.06829759
230	0xbd11aadd	-0.03556334
231	0x3d6403eb	0.0556678
232	0x3c89a495	0.016802112
233	0x3dc6225d	0.09674523
234	0xbdda29d5	-0.1065251
235	0x3dbdc355	0.09265772
236	0xbd2b166e	-0.041769437
237	0xbdc9ad7e	-0.09847544
238	0x3d05bc72	0.03265042
239	0xbd9a5762	-0.07536198
240	0xbc92db0e	-0.017926719
241	0xbdac379e	-0.08409046
242	0xbdd783d2	-0.105231896
243	0x3dcccac7	0.09999614
244	0x3dbf1a14	0.09331146
245	0xbd996219	-0.07489414
246	0xbdbc0e44	-0.091824085
247	0xbc84c8f9	-0.016209112
248	0xbdb968fe	-0.09053229
249	0x3cd367fe	0.025806423
250	0x3d9d9b3b	0.076956235
251	0xbdb64007	-0.08898931
252	0xbd52fc4e	-0.051510148
253	0x3d89c694	0.06727329
254	0x3d9646f2	0.073377505
255	0xbda13854	-0.07872072

policy_net.0.output_layer.bias f4 [81]
0	0xbd67e984	-0.056619182
1	0xbd8cdc00	-0.06877899
2	0xbdddd857	-0.10832279
3	0x3d2fbfc4	0.04290749
4	0x3cc62e2e	0.024191942
5	0x3d9b512e	0.07583843
6	0xbdd2e364	-0.102972776
7	0xbd960e59	-0.07326955
8	0x3d6163f2	0.055026956
9	0x3c570a56	0.013125023
10	0xbd77616a	-0.060395636
11	0x3d936f00	0.07198906
12	0x3db9e5b0	0.090770125
13	0x3d21dd55	0.03951772
14	0xbc0405ef	-0.008058055
15	0x3d52ef74	0.05149789
16	0x3dd8f00d	0.10592661
17	0xbd560a4b	-0.05225591
18	0x3da1db6e	0.07903181
19	0xbb9f3ec2	-0.0048597762
20	0x3c2641b9	0.010147505
21	0x3d6b8520	0.057500005
22	0xbd012af9	-0.031535123
23	0xbd8c5fa5	-0.0685418
24	0x3d6dcb75	0.05805536
25	0xbd696c92	-0.056988306
26	0x3cf27ba4	0.029599972
27	0x3cd388c4	0.02582205
28	0x3db52c92	0.08846392
29	0x3da54ce7	0.080713086
30	0xbd9f5a22	-0.07780863
31	0xbc7a8cea	-0.015292386
32	0xbd7681ee	-0.060182504
33	0xbdd4c6b7	-0.10389464
34	0xbdc5eee5	-0.09664706
35	0x3d3693f9	0.04457471
36	0xbd3e3815	-0.046440203
37	0x3d2e614e	0.042573266
38	0xbd4d94d2	-0.050190754
39	0xbd6bbbfd	-0.057552326
40	0xbc44f03f	-0.01202017
41	0xbd969eed	-0.073545314
42	0xbd9d635e	-0.076849684
43	0xbd3648b5	-0.044502933
44	0x3ceca495	0.028887073
45	0x3d0f5e79	0.035002206
46	0xbd405f75	-0.046966035
47	0x3db78fe9	0.089629956
48	0x3dc4eab5	0.09615079
49	0x3d156080	0.036468983
50	0x3d4a52d9	0.049395416
51	0x3c49af27	0.012309826
52	0x3d1b6f79	0.037948105
53	0x3d03438e	0.032046847
54	0xbd9cc792	-0.076552525
55	0xbceaca7a	-0.028661001
56	0x3c87ad2b	0.016562065
57	0x3d37c715	0.044867594
58	0x397d8633	0.00024177953
59	0x3d57f543	0.052724134
60	0x3da501e4	0.08057001
61	0xbcb0a942	-0.021565083
62	0x3ce99907	0.028515352
63	0x3cb09834	0.021556951
64	0xbd91f225	-0.071262635
65	0xbd454593	-0.048162054
66	0x3d40f304	0.047106758
67	0xbdbbb695	-0.09165684
68	0xbcac24af	-0.021013586
69	0x3daadc64	0.083428174
70	0xbcd1e579	-0.025622116
71	0x3dded347	0.10880142
72	0xbd3d3fb9	-0.04620335
73	0x3d5c1c43	0.05373789
74	0x3d6ef6c4	0.058340803
75	0x3dcbeff9	0.099578805
76	0xbda6ed99	-0.08150787
77	0xbdd69b20	-0.104788065
78	0xbcb78b40	-0.022405267
79	0x3d8d9b85	0.069144286
80	0x3d3f757f	0.046742912

policy_net.0.attention.in_proj_weight f4 [243, 81]
0	0xbd66b93f	-0.05632901
1	0x3d36be66	0.04461517
2	0x3db1bf9c	0.08679125
3	0xbbe8d4cc	-0.0071054455
4	0x3caba031	0.020950409
5	0x3dfd26e4	0.123609334
6	0xbdd13c6c	-0.10216603
7	0xbe04278f	-0.12905715
8	0xbdcee3ec	-0.101020664
9	0x3d290aa0	0.0412699
10	0xbd5d3905	-0.054009456
11	0xbcc27cbd	-0.02374112
12	0x3c9d6218	0.019211814
13	0x3d947622	0.072490945
14	0xbd34cdf8	-0.04414174
15	0xbd8ffb58	-0.07030362
16	0xbd7c7a5d	-0.061640132
17	0xbde1b02b	-0.110199295
18	0xbc9ebde3	-0.019377654
19	0xbd32011e	-0.043458097
20	0xbd7c68cf	-0.06162339
21	0xbc20a6bb	-0.009805377
22	0x3cb31996	0.021862786
23	0x3e06a4e5	0.1314884
24	0x3c0cee78	0.008601777
25	0x3a17e5ec	0.0005794454
26	0x3e025d8d	0.12731
27	0x3de44c9b	0.11147424
28	0x3c3aa275	0.011391272
29	0x3dccf3aa	0.10007413
30	0xbe04281a	-0.12905923
31	0xbd87f462	-0.06638409
32	0x3c34d9e0	0.011038274
33	0xbda5029a	-0.08057137
34	0x3dbd260d	0.09235773
35	0xbdc79116	-0.0974447
36	0xbdc34459	-0.09534521
37	0xbd9da097	-0.07696646
38	0x3d640d28	0.05567661
39	0x3d2c17ee	0.04201501
40	0x3d72f129	0.05931202
41	0x3cd170fc	0.02556657
42	0x3dc4ab89	0.0960303
43	0xbb1f1cd7	-0.0024278664
44	0xbdc3ca70	-0.09560096
45	0x3c6df09f	0.014522701
46	0xbda7bfaf	-0.081908576
47	0x3d69dc3c	0.057094797
48	0x3def0501	0.11670876
49	0x3e091f53	0.13390855
50	0x3c5bf1ad	0.013424319
51	0x3da1f934	0.0790886
52	0x3db5cb8f	0.08876716
53	0xbd99172d	-0.074751236
54	0x3da7c0b6	0.081910536
55	0xbc44d153	-0.012012797
56	0x3d3639a2	0.044488557
57	0xbe05368f	-0.13009094
58	0xbdcf5803	-0.10124209
59	0x3ca00eff	0.0195384
60	0x3c2a98e8	0.010412432
61	0xbda3d004	-0.0799866
62	0x3d5f5f11	0.05453402
63	0xbbd091b5	-0.006365026
64	0x3c8c5ede	0.01713508
65	0xbda36aa4	-0.079793245
66	0xbdad5723	-0.08463886
67	0x3dfc6aee	0.12325083
68	0xbd01f8bb	-0.03173135
69	0xbdcf787a	-0.10130401
70	0xbdda3a6b	-0.106556736
71	0xbd4a168d	-0.049337912
72	0xbd30bcbf	-0.043148752
73	0x3b72dac6	0.0037056669
74	0x3d1d20b9	0.038361285
75	0x3df137cb	0.1177822
76	0x3d9416ab	0.07230886
77	0x3db56858	0.088577926
78	0x3df46352	0.11933006
79	0x3d4faee9	0.050703917
80	0x3b85bbfa	0.0040812464
81	0x3d8c43be	0.06848858
82	0xbd5d11b6	-0.05397197
83	0xbd2d493f	-0.04230618
84	0xbdea5c46	-0.11443381
85	0xbde5d7e0	-0.112228155
86	0xbdd1ebc6	-0.10250048
87	0x3e07c336	0.13258061
88	0x3cab8ad4	0.020940222
89	0x3d26305f	0.040573474
90	0x3debfef7	0.1152324
91	0x3d290903	0.04126836
92	0xbd0d04a6	-0.03442826
93	0x3dff91f5	0.12479011
94	0x3d6fc403	0.05853654
95	0x3db86f43	0.090055965
96	0x3e0245c5	0.12721927
97	0xbd4669d0	-0.048440754
98	0xbaa79003	-0.0012784008
99	0xbdd71842	-0.10502674
100	0xbe04558d	-0.1292326
101	0x3db910b2	0.090363875
102	0xbd499d22	-0.04922212
103	0x3d967994	0.07347408
104	0x3caa3113	0.020775354
105	0x39d351cd	0.00040306002
106	0x3d37254b	0.0447133
107	0xbdef004f	-0.11669981
108	0xbdd64484	-0.10462287
109	0xbe00357e	-0.12520406
110	0x3ae8eb1d	0.0017770265
111	0x3d2b656c	0.04184477
112	0xbcddbc1a	-0.027067233
113	0x3b3acf06	0.0028504743
114	0x3d209ea6	0.0392138
115	0x3db1e151	0.08685554
116	0x3ceabd56	0.028654736
117	0x3c093f47	0.008376903
118	0xbdc77bfa	-0.097404435
119	0xbd76f211	-0.060289446
120	0x3acddeae	0.0015706623
121	0x3d5efbb2	0.054439254
122	0xbdef386d	-0.11680684
123	0xb7f1aed6	-2.8810853e-05
124	0x3d9e236d	0.07721601
125	0xbe0204c9	-0.12697138
126	0xbdd5dc21	-0.10442377
127	0xbe09af5e	-0.13445804
128	0x3d20b9b2	0.039239593
129	0xbd9e8c65	-0.07741622
130	0x3d77c3ab	0.060489338
131	0x3dda55fd	0.10660932
132	0xbd69e19d	-0.057099927
133	0x3be98fc6	0.007127735
134	0x3dc52b03	0.096273445
135	0xbdf96bdd	-0.121787764
136	0xbdc1de8f	-0.09466278
137	0xba3f9f1e	-0.0007309782
138	0x3d84d023	0.064850114
139	0x3c1ac1ea	0.009445647
140	0x3d9f7269	0.07785494
141	0xbd907bbb	-0.0705485
142	0xbdcf5296	-0.10123174
143	0x3d2f6ee3	0.04283036
144	0x3d009103	0.031388294
145	0xbd1456e6	-0.036215685
146	0xbdda721c	-0.10666296
147	0x3d131a45	0.035913724
148	0x3b1a29a3	0.0023523353
149	0x3daa4460	0.08313823
150	0xbc96fc2b	-0.01843079
151	0x3d865f35	0.06561128
152	0xbd4c87d1	-0.049934212
153	0x3d75ed3b	0.060040694
154	0x3dd37d82	0.10326673
155	0x3b2cc0ff	0.0026360152
156	0xbdfc9e23	-0.1233485
157	0x3d752b5d	0.059855808
158	0xbda41a32	-0.08012809
159	0x3dc8d511	0.09806264
160	0x3d48a94e	0.048989587
161	0x3e01a9c7	0.12662421
162	0xbd8e610a	-0.069521025
163	0xbdfd03a8	-0.12354213
164	0x3cda37fc	0.026638024
165	0x3d376421	0.044773225
166	0xbdc7c1fe	-0.09753798
167	0xbd895548	-0.06705719
168	0x3de89eb4	0.11358395
169	0x3d395569	0.04524747
170	0x3d969d86	0.07354264
171	0x3cf10814	0.029422797
172	0xbc9bf6d2	-0.019038592
173	0x39844e75	0.00025235457
174	0x3db4f1cf	0.08835184
175	0xbdc92396	-0.098212406
176	0x3d7f4d5b	0.06232963
177	0xbdd17a2e	-0.10228382
178	0xbd2249cc	-0.03962116
179	0x3cd5787e	0.026058432
180	0x3d577355	0.052600224
181	0xbdd8f715	-0.10594002
182	0x3ca0a72c	0.019610964
183	0x3d170db0	0.036878288
184	0xbd31db45	-0.043422002
185	0x3d1e3815	0.038627703
186	0xbddca5ab	-0.10773786
187	0x3c02ca8e	0.007982863
188	0xbc73513c	-0.014850911
189	0xbe071523	-0.13191657
190	0x3d83e727	0.06440573
191	0xbd027428	-0.031849056
192	0x3d1b1fff	0.03787231
193	0xbdde111f	-0.10843109
194	0x3d99f04d	0.07516537
195	0xbadd89db	-0.0016902046
196	0xbd247e9c	-0.040159807
197	0x3af62b63	0.0018781241
198	0xbdcf23b6	-0.10114233
199	0xbd24e74a	-0.040259637
200	0x3cd5036d	0.02600261
201	0xbd9706c2	-0.07374336
202	0x3c62db17	0.01384618
203	0x3ded8cf9	0.11599154
204	0xbdaa66fb	-0.08320423
205	0x3df58fcd	0.119903184
206	0x3dc712a4	0.09720352
207	0x3dea9f65	0.11456183
208	0x3bab7b59	0.00523321
209	0xbdffc495	-0.12488667
210	0x3dcc1a6b	0.09965976
211	0x3d0a3537	0.033742156
212	0xbdeeb067	-0.1165474
213	0x3d8949b7	0.06703513
214	0xbd9d2fd0	-0.07675135
215	0xbd02bd93	-0.031919073
216	0x3d28b063	0.04118384
217	0x3dc742a9	0.09729511
218	0xbd99fe19	-0.075191684
219	0xbd8b28a8	-0.06794864
220	0x3da7abfa	0.08187099
221	0x3da4eb0b	0.080526434
222	0x3d8483fb	0.06470486
223	0x3dcb27de	0.099197134
224	0x3dc5e6b9	0.096631475
225	0x3db2cfda	0.08731051
226	0xbdba2e5a	-0.09090872
227	0xbd295b90	-0.041347086
228	0x3da4f000	0.08053589
229	0xbc918f00	-0.017768383
230	0x3df6b09a	0.12045403
231	0xbc906cd6	-0.017630022
232	0xbd92b24d	-0.071629144
233	0x3c85e2dc	0.016343527
234	0xbe0a24e0	-0.13490629
235	0xbde2a368	-0.110663235
236	0xbc351ebc	-0.011054691
237	0x3d14b41e	0.036304586
238	0x3d056814	0.03256996
239	0xbd1259e2	-0.03573025
240	0x3b3f60ca	0.0029201978
241	0xbc5ba4b8	-0.013405971
242	0x3d8e4205	0.06946186
243	0x3db9c534	0.09070817
244	0xbc844130	-0.016144365
245	0xbdf279a7	-0.118396096
246	0x3daa0ac5	0.083028354
247	0x3dec840c	0.115486234
248	0x3cf07e5d	0.02935713
249	0xbdb54809	-0.0885163
250	0x3d3f7bdb	0.046748977
251	0xbc3f58b2	-0.011678861
252	0xbd54e2bc	-0.051974043
253	0x3ca4a23a	0.020096887
254	0xbd6553d3	-0.055988144
255	0xbd22fe58	-0.039793342

policy_net.0.attention.in_proj_bias f4 [243]
0	0xae99355c	-6.967113e-11
1	0x2eb1f6e0	8.092882e-11
2	0xad820101	-1.4779735e-11
3	0xadae8049	-1.983848e-11
4	0xad019a40	-7.367051e-12
5	0x2df7908a	2.8144837e-11
6	0x2c72e4cc	3.4517276e-12
7	0x2e6d78c1	5.3994812e-11
8	0x2e4b6742	4.6248567e-11
9	0xad5ab060	-1.2431028e-11
10	0x2e1d4aef	3.576422e-11
11	0x2e05f45e	3.045774e-11
12	0xaea577de	-7.524624e-11
13	0x2dd83a88	2.458235e-11
14	0xae15477d	-3.3942172e-11
15	0xade4d85b	-2.601668e-11
16	0xacd7874f	-6.12569e-12
17	0x2d626a25	1.28701815e-11
18	0xae4bf528	-4.63746e-11
19	0xae0d0c30	-3.2070513e-11
20	0xad42e505	-1.1078476e-11
21	0x2e2849cb	3.826432e-11
22	0xab56b5d8	-7.628043e-13
23	0x2e6dd1b0	5.40738e-11
24	0xaed9e685	-9.908966e-11
25	0xaebdf38f	-8.6379896e-11
26	0xae413c6f	-4.3936795e-11
27	0xaecd94da	-9.348762e-11
28	0x2e9aa43e	7.0322845e-11
29	0xae8976a4	-6.2511135e-11
30	0xae4e211f	-4.6868395e-11
31	0xade698d0	-2.6215835e-11
32	0xae16b62a	-3.4267846e-11
33	0x2e05e7d0	3.044659e-11
34	0x2e129aa8	3.333392e-11
35	0x2edaeb92	9.955338e-11
36	0x2e9d8a6e	7.1641235e-11
37	0x2dd95ac6	2.4710355e-11
38	0x2e3f9a9d	4.3565696e-11
39	0x2e3ea7b0	4.3349935e-11
40	0xaeb3f168	-8.18286e-11
41	0x2d26a3cb	9.472377e-12
42	0x2d703982	1.365519e-11
43	0x2f049d05	1.2061115e-10
44	0xaef901e6	-1.1323546e-10
45	0x2dade214	1.9768222e-11
46	0xae1cbda8	-3.5638742e-11
47	0xadde47fb	-2.5270444e-11
48	0xae5f1c5d	-5.072952e-11
49	0x2e9258a9	6.6550605e-11
50	0xae5c6db5	-5.0119648e-11
51	0xad3def9d	-1.0796611e-11
52	0x2f0c26e7	1.2746747e-10
53	0x2ebf91b5	8.711557e-11
54	0x2e62d678	5.1576937e-11
55	0xae697679	-5.308329e-11
56	0x2e8904d3	6.230896e-11
57	0xae905e69	-6.5651325e-11
58	0x2e09ebb7	3.135955e-11
59	0xaefaffc5	-1.14141176e-10
60	0xad500eaf	-1.18266915e-11
61	0x2dfe8b27	2.8938253e-11
62	0xae0fa451	-3.2660378e-11
63	0xad9175fa	-1.6536984e-11
64	0x2d840091	1.5006914e-11
65	0x2e87daed	6.177978e-11
66	0xae664166	-5.235403e-11
67	0x2d246b2f	9.34612e-12
68	0x2e8fa69f	6.532485e-11
69	0xae62a81a	-5.1535755e-11
70	0xae4f91a5	-4.719571e-11
71	0x2ed304d2	9.5960254e-11
72	0x2cb2806b	5.0733215e-12
73	0xaded1e17	-2.6957143e-11
74	0xad959db8	-1.700938e-11
75	0x2e38e9f6	4.2044555e-11
76	0x2e0e4044	3.234414e-11
77	0xae703383	-5.4615434e-11
78	0x2a7a7200	2.2244012e-13
79	0x2ecba83b	9.261255e-11
80	0x2e1227b4	3.323182e-11
81	0xa29c6729	-4.239311e-18
82	0xa28b1d4c	-3.7707045e-18
83	0xa2f4f90a	-6.6400013e-18
84	0x222c4983	2.3349263e-18
85	0x22e5fa02	6.233528e-18
86	0xa01f4b9c	-1.3492841e-19
87	0x21872914	9.158829e-19
88	0x2351347b	1.1341026e-17
89	0x238c89dc	1.5237216e-17
90	0x22f7846d	6.7089695e-18
91	0x22c57422	5.3519917e-18
92	0x23383879	9.9866185e-18
93	0xa2ce3551	-5.5892863e-18
94	0x238bce0d	1.5157676e-17
95	0xa341376b	-1.0474286e-17
96	0xa2da6ab2	-5.9201986e-18
97	0xa2f13ce1	-6.538764e-18
98	0x22a2baf5	4.4108136e-18
99	0x2303cebc	7.145302e-18
100	0x23058456	7.237968e-18
101	0xa2e27234	-6.137834e-18
102	0x2207abe7	1.8386916e-18
103	0x229e5de0	4.292538e-18
104	0xa3a06671	-1.739062e-17
105	0xa2605328	-3.0401683e-18
106	0xa30a7761	-7.5062745e-18
107	0xa3154287	-8.091394e-18
108	0xa1d74897	-1.4588181e-18
109	0x229d18c2	4.258115e-18
110	0x1d89d5ae	3.6484538e-21
111	0xa2752034	-3.322074e-18
112	0xa3867978	-1.4579753e-17
113	0x21528170	7.1322077e-19
114	0xa209b5c1	-1.8663182e-18
115	0x2235efd0	2.465703e-18
116	0xa30584ae	-7.2380405e-18
117	0x2189181c	9.289863e-19
118	0xa0e78f0a	-3.9227577e-19
119	0x227c9a7a	3.4234148e-18
120	0x22749144	3.314507e-18
121	0x2350c812	1.1318069e-17
122	0x1fdf9fe4	9.470869e-20
123	0x22b53ceb	4.9124648e-18
124	0xa2ef9b21	-6.494533e-18
125	0xa2c07fe3	-5.217711e-18
126	0xa0b7ff0e	-3.1170187e-19
127	0x2245c83b	2.680448e-18
128	0xa2c95374	-5.456952e-18
129	0x22a63a6f	4.505626e-18
130	0xa03a716f	-1.5792345e-19
131	0x234f7252	1.1245701e-17
132	0xa1697e9f	-7.911105e-19
133	0x22293c40	2.2935667e-18
134	0xa2c41c75	-5.3156037e-18
135	0x23304055	9.554602e-18
136	0xa1498490	-6.8276894e-19
137	0x22220d61	2.1962177e-18
138	0xa322fc39	-8.835448e-18
139	0xa26ebb38	-3.2354127e-18
140	0x22e29464	6.1414537e-18
141	0x22fc7812	6.8431866e-18
142	0xa32b06cc	-9.271368e-18
143	0xa2ac8595	-4.676213e-18
144	0xa34a821e	-1.0977995e-17
145	0xa2710a3e	-3.2667013e-18
146	0xa228dc12	-2.288475e-18
147	0x2372cf42	1.3162735e-17
148	0x2166752d	7.808211e-19
149	0x23bca996	2.0454823e-17
150	0xa2f872e5	-6.7342184e-18
151	0x1f18a4e8	3.232366e-20
152	0xa29edaba	-4.305757e-18
153	0x2298fb37	4.1465667e-18
154	0xa1be3b8f	-1.2890666e-18
155	0xa1afb8b4	-1.1907352e-18
156	0x231f7b4e	8.645518e-18
157	0x22882ace	3.6908195e-18
158	0x22a1dc61	4.3872473e-18
159	0xa25b2204	-2.9698042e-18
160	0x2372556c	1.3136935e-17
161	0x22c0536a	5.2130022e-18
162	0x32269776	9.69691e-09
163	0xb1b3b4a6	-5.230123e-09
164	0xb1326f5d	-2.5965712e-09
165	0x31f744d0	7.196469e-09
166	0x32063149	7.811033e-09
167	0x3181734c	3.767502e-09
168	0x31e0e98e	6.54581e-09
169	0xb19f7c0c	-4.6416115e-09
170	0xb222e4a1	-9.481625e-09
171	0x31c3dd55	5.7004095e-09
172	0x32880ede	1.5839245e-08
173	0x32a15dfe	1.878561e-08
174	0xb218e5cf	-8.899817e-09
175	0x31908605	4.206188e-09
176	0xb1dfbeb8	-6.5118364e-09
177	0xae9dfaf7	-7.184114e-11
178	0x30faed7f	1.8257394e-09
179	0x318124ae	3.758564e-09
180	0xafa7f858	-3.0553582e-10
181	0x312a27b7	2.4760831e-09
182	0xb0f398c0	-1.7723991e-09
183	0x32866f5a	1.565029e-08
184	0x2f4e2050	1.874707e-10
185	0x3183898c	3.828239e-09
186	0xb13091eb	-2.5694316e-09
187	0xb2320ad5	-1.0363427e-08
188	0x31b22ad3	5.1853504e-09
189	0x31972558	4.398924e-09
190	0x306c33cf	8.5929924e-10
191	0xb254a4ee	-1.2377525e-08
192	0xb1de8cda	-6.4770633e-09
193	0x316bd701	3.4319216e-09
194	0xb1c18b32	-5.632864e-09
195	0x31f216d6	7.045723e-09
196	0x31ff4d84	7.4302893e-09
197	0x2ee0d772	1.02246114e-10
198	0x31f51c09	7.1336257e-09
199	0xb243a345	-1.1387617e-08
200	0x3237b5b1	1.0693314e-08
201	0xb18dbb1b	-4.1249115e-09
202	0xb14ee013	-3.0104317e-09
203	0x325676b7	1.2483432e-08
204	0xaf6967e2	-2.1228133e-10
205	0xb1cf53a6	-6.0340026e-09
206	0x321b35c9	9.034417e-09
207	0xb184aace	-3.861124e-09
208	0x31545daa	3.0903302e-09
209	0x3094ebc8	1.083543e-09
210	0x30a72862	1.2162327e-09
211	0xb248c9b2	-1.1687392e-08
212	0x32294ac1	9.854092e-09
213	0x30961f4b	1.092283e-09
214	0x309a5d19	1.1231435e-09
215	0x312bbc1a	2.4990698e-09
216	0xaf04d41a	-1.2080684e-10
217	0x31ae874c	5.079448e-09
218	0xb1c42332	-5.708352e-09
219	0xb1e3da27	-6.6313706e-09
220	0x32867385	1.5652185e-08
221	0x315dba0f	3.2265495e-09
222	0xb1da4088	-6.3519714e-09
223	0x30a1c8c7	1.1771356e-09
224	0x3199615f	4.463956e-09
225	0x31a0b32c	4.6769824e-09
226	0x30f9df06	1.8180522e-09
227	0x31fc2984	7.338885e-09
228	0xb0cabfde	-1.4751966e-09
229	0x31166c91	2.1889586e-09
230	0xb0efd6d0	-1.7450592e-09
231	0xb1c9f3f5	-5.8776046e-09
232	0xb09a9aa4	-1.1248926e-09
233	0x304e1dbd	7.4984624e-10
234	0xb1a32f75	-4.7493196e-09
235	0x31936f21	4.290897e-09
236	0x3212a13d	8.53498e-09
237	0x32004121	7.465389e-09
238	0x306aaf93	8.537821e-10
239	0x323fb195	1.1158041e-08
240	0xb0b5e4a2	-1.3234465e-09
241	0x31be564f	5.53954e-09
242	0x3112c42f	2.1357314e-09

policy_net.0.attention.out_proj.weight f4 [81, 81]
0	0xbda05d90	-0.07830346
1	0xbd22f515	-0.03978451
2	0x3d0a2ff9	0.033737157
3	0x3db4f735	0.088362135
4	0xbc169a72	-0.009192096
5	0x3d85df30	0.0653671
6	0x3d30d875	0.04317518
7	0x3d80f7c7	0.0629726
8	0xbce1e7ce	-0.027576353
9	0xbd93735b	-0.07199737
10	0xbdcb1137	-0.09915393
11	0xbd0ff780	-0.035148144
12	0x3d44f875	0.04808851
13	0xbd125c39	-0.03573248
14	0x3d0e28dd	0.03470694
15	0xbd2c324b	-0.04204015
16	0xbdd8d82b	-0.10588106
17	0xbd5f7875	-0.054558236
18	0xbdd1687d	-0.10225008
19	0x3d335444	0.043781534
20	0x3d40606e	0.046966963
21	0x3d573ba7	0.052547123
22	0x3ce92a24	0.028462477
23	0x3db9ff49	0.09081895
24	0x3d937419	0.07199878
25	0xbdd33d05	-0.10314373
26	0x3de16987	0.11006456
27	0x3dab1f6e	0.08355604
28	0xba440acb	-0.0007478415
29	0xbdb1eae0	-0.08687377
30	0xbcbaa1f2	-0.0227823
31	0xbc528e39	-0.012851291
32	0x3ccea0c7	0.025223149
33	0x3da2643b	0.07929274
34	0x3d6cdca4	0.057827607
35	0x3d289792	0.041160174
36	0xbc507272	-0.012722598
37	0xbd53c5f5	-0.05170246
38	0x3d90a750	0.07063162
39	0xbdd1d59e	-0.10245822
40	0xbd97897e	-0.073992714
41	0x3d6190c4	0.0550697
42	0xbdd9489e	-0.10609554
43	0xbd4a060b	-0.04932217
44	0x3d13ce07	0.036085155
45	0xb9b0bc50	-0.0003370964
46	0x3b3881ff	0.0028153656
47	0xbdd6766e	-0.104718074
48	0x3cd6c8ab	0.026218733
49	0xbd36df24	-0.044646397
50	0x3d8bdf7d	0.068297364
51	0x3dcb8b37	0.099386625
52	0x3ddbf002	0.10739137
53	0xbda73b24	-0.08165577
54	0xbdc4e885	-0.09614662
55	0x3c2476b9	0.010038071
56	0xbab5a618	-0.0013858704
57	0xbc7dff72	-0.015502797
58	0xbd82d55b	-0.063883506
59	0xbdc4deee	-0.09612833
60	0x3d3bf019	0.04588327
61	0x3c60aef2	0.013713585
62	0xbdd7f37d	-0.105444886
63	0x3dc363ab	0.095404945
64	0x3dbf5f30	0.093443274
65	0xbb6263cc	-0.0034544347
66	0x3bc28455	0.0059361854
67	0xbc7fa655	-0.0156036215
68	0xbd13d612	-0.036092825
69	0xbd047a4e	-0.0323432
70	0x3c8b0915	0.016972104
71	0x3d307ffd	0.04309081
72	0xbc6646c7	-0.014054961
73	0x3c0ce772	0.008600103
74	0xbda5d97b	-0.08098122
75	0x3c0d57e4	0.008626912
76	0x3d705a75	0.058680017
77	0xbaa3bd55	-0.0012492338
78	0x3d94b502	0.07261087
79	0x3d05cf52	0.03266842
80	0xbdd7de60	-0.105404615
81	0x3d463df2	0.04839892
82	0xbdcffee2	-0.10156037
83	0xbde303f4	-0.110847384
84	0xbdba8dd7	-0.09109085
85	0x3c59fdc7	0.013305134
86	0xbda6b667	-0.08140259
87	0xbddddaa0	-0.10832715
88	0xbddbf16d	-0.10739408
89	0xbd734e19	-0.05940065
90	0xbdcafcf9	-0.09911532
91	0x3abe5158	0.0014520092
92	0x3d9a51f0	0.075351596
93	0xbc1ac79d	-0.009447006
94	0x3d9ba445	0.07599691
95	0xbd8e9792	-0.069625035
96	0x3daa533b	0.08316656
97	0xbcfc8464	-0.030824848
98	0xbce26fce	-0.027641203
99	0xbc03940e	-0.008030904
100	0x3d7bd0f5	0.061478574
101	0xbdc69379	-0.09696097
102	0xbde30655	-0.11085192
103	0xbc3ba6b9	-0.011453324
104	0xbcff200e	-0.031143215
105	0xbc2c067f	-0.010499596
106	0xbdac08c9	-0.08400113
107	0xbd7c7892	-0.061638422
108	0x3d256412	0.040378638
109	0xbd6f8680	-0.05847788
110	0x3daa5064	0.083161145
111	0x3ac28d57	0.0014843148
112	0x3d014ac7	0.031565454
113	0xbd11898b	-0.03553156
114	0xbde0819b	-0.1096222
115	0x3dabdc52	0.08391632
116	0xbd8562b0	-0.06512964
117	0xbbc9bc37	-0.00615647
118	0xbdc1f084	-0.09469703
119	0xbda91659	-0.082562156
120	0x3dbade39	0.09124417
121	0x3cded347	0.027200354
122	0xbc075339	-0.008259588
123	0x3d9885b9	0.074473806
124	0x3d6b2a35	0.0574133
125	0xbd6aeed9	-0.05735669
126	0xbdb90572	-0.09034242
127	0xbd903e1e	-0.07043098
128	0xbcaa7955	-0.020809809
129	0xbd63bb24	-0.055598393
130	0x3dac90a0	0.084260225
131	0xbdafbbd7	-0.085807495
132	0x3d8268d4	0.06367651
133	0xbdb267ee	-0.08711229
134	0xbc7a450e	-0.015275253
135	0xbdc29955	-0.09501902
136	0xbdd903dd	-0.1059644
137	0xbdbbb8a2	-0.09166075
138	0x3dc0bc32	0.094108954
139	0xbce21495	-0.027597705
140	0x3d0ee3ce	0.03488522
141	0x3d4a1715	0.04933842
142	0xbdc76374	-0.09735766
143	0xbdb84f44	-0.08999494
144	0x3d3525b9	0.04422543
145	0x3ceed0ab	0.029152235
146	0xbcfe5f87	-0.03105141
147	0xbc641872	-0.013921844
148	0x3da3011d	0.07959197
149	0xbd1038b9	-0.035210345
150	0x3dc12f57	0.094328575
151	0x3cba911d	0.022774274
152	0xbda624ee	-0.081125125
153	0xbbb470e5	-0.005506622
154	0xbd3ffe00	-0.046873093
155	0x3c88bcc7	0.016691579
156	0x3d87be67	0.06628113
157	0xbd277a32	-0.04088802
158	0x3ddde250	0.10834181
159	0xbce85e87	-0.028365387
160	0xba608b02	-0.00085656357
161	0x3d97d694	0.074139744
162	0x3d56c41d	0.052433122
163	0xbcf9c907	-0.030491365
164	0xbbe771a4	-0.0070631076
165	0x3db50665	0.0883911
166	0xbd3ba880	-0.04581499
167	0x3db74684	0.08948997
168	0xbd93c184	-0.072146446
169	0xbdc87ece	-0.09789811
170	0xbd231707	-0.039816882
171	0x3d1b8759	0.037970874
172	0x3c883847	0.016628398
173	0x3dc58aa9	0.09645588
174	0x3b7ab77c	0.0038256338
175	0xbd016c80	-0.031597614
176	0x3d1ce9b9	0.038308833
177	0xbda56fee	-0.080779895
178	0xbd71eea4	-0.059065476
179	0x3dd12e5e	0.10213922
180	0xbd148d59	-0.036267612
181	0xbdae8585	-0.085215606
182	0xbd01c11d	-0.031678308
183	0x3de38124	0.11108616
184	0xbd48a60e	-0.048986487
185	0xbc9957ce	-0.018718626
186	0x3d027195	0.0318466
187	0xbd54606e	-0.051849775
188	0xbd60be12	-0.054868765
189	0xbd9394b7	-0.072060995
190	0x3da8ae94	0.08236423
191	0x3d32e1a0	0.043672204
192	0x3d0803d2	0.03320677
193	0xbc8fd272	-0.017556403
194	0xbdb5b1e5	-0.08871821
195	0x3d80c459	0.0628745
196	0x3d92fca9	0.07177097
197	0x3cd0bb6b	0.025479993
198	0xbc922e15	-0.01784424
199	0xbcfcfac0	-0.030881286
200	0x3dd06042	0.1017461
201	0x3dd11867	0.102097325
202	0xbd55b0c4	-0.05217053
203	0x3d9a6537	0.075388364
204	0x3d6d192b	0.05788533
205	0xbc09181e	-0.008367566
206	0x3c664848	0.014055319
207	0x3db5522d	0.088535644
208	0xbcdc6d00	-0.026907444
209	0xbca071eb	-0.01958557
210	0x3d3bd5b5	0.045858104
211	0xbdda1917	-0.10649317
212	0x3d811a25	0.06303815
213	0xbdd306f2	-0.10304059
214	0x3d8d0cb0	0.068871856
215	0x3dae94bd	0.08524463
216	0xbbac4720	-0.005257502
217	0xbd0c4ce0	-0.034253
218	0x3d755eae	0.059904747
219	0xbcb28fce	-0.021797087
220	0x3dab7164	0.08371237
221	0x3d514dab	0.05109946
222	0xbdd8d5d5	-0.1058766
223	0x3d5d9cf9	0.05410478
224	0xba2dc249	-0.0006628377
225	0x3da489b9	0.08034081
226	0x3db8afdb	0.09017917
227	0xbde2eeb9	-0.11080689
228	0xbcae3764	-0.021266647
229	0x3cf7efc0	0.030265689
230	0xbda5b347	-0.08090835
231	0xbdb86854	-0.09004274
232	0xbc00141d	-0.007817295
233	0xbdbf0e1d	-0.09328864
234	0xbdcad1bb	-0.09903284
235	0x3d981430	0.074257255
236	0x3d833190	0.06405938
237	0x3dd47915	0.10374657
238	0x3c1df6e6	0.009641385
239	0xbc8ec739	-0.017428981
240	0xbcce65b2	-0.025194976
241	0x3c61841e	0.013764409
242	0x3d0571ab	0.032579105
243	0x3d8f7a80	0.07005787
244	0x3c7c93f2	0.015416132
245	0xbdb3f612	-0.087871686
246	0x3c4ac381	0.012375713
247	0xbd316287	-0.043306854
248	0x3d0195ee	0.031637125
249	0x3d172640	0.036901712
250	0xbd28239d	-0.04104959
251	0x3cf04c9d	0.029333407
252	0xbc7be9f2	-0.015375601
253	0xbd6c2b7d	-0.05765866
254	0x3c4fdcd8	0.012686931
255	0x3d93aa19	0.07210178

policy_net.0.attention.out_proj.bias f4 [81]
0	0x32762dc0	1.4329487e-08
1	0x328ad005	1.615991e-08
2	0x32c08729	2.2413206e-08
3	0x3281e5b4	1.5122033e-08
4	0x329ef9bb	1.8507185e-08
5	0x3251b258	1.2205952e-08
6	0x32379785	1.06864535e-08
7	0x32931c95	1.712605e-08
8	0x31fea8d1	7.411565e-09
9	0x32046571	7.706476e-09
10	0x31cc8f23	5.953454e-09
11	0xb1da3af2	-6.3513363e-09
12	0xb26a1cbd	-1.3627127e-08
13	0xb2c9513d	-2.3436423e-08
14	0xb1f749c9	-7.1970345e-09
15	0x3215c1df	8.717023e-09
16	0x318e70a3	4.1455492e-09
17	0x3295fd56	1.7461087e-08
18	0xb1940c0d	-4.308737e-09
19	0xb16d1abc	-3.4503236e-09
20	0x32c629cd	2.3069243e-08
21	0xb29492ed	-1.7296282e-08
22	0xb2c67f27	-2.3108056e-08
23	0x31fb6952	7.317035e-09
24	0x32eab5f9	2.7323937e-08
25	0xb2e8632d	-2.7053455e-08
26	0x318a4ac2	4.0248276e-09
27	0xb283028d	-1.5251567e-08
28	0xb0da521b	-1.5884923e-09
29	0xb19e75d5	-4.611801e-09
30	0x31266eeb	2.4219229e-09
31	0xb03c1068	-6.8417316e-10
32	0x32ad791c	2.0194925e-08
33	0x3237abe9	1.069109e-08
34	0xb0cdaeff	-1.496545e-09
35	0x32b549b8	2.1104697e-08
36	0x32906233	1.6808462e-08
37	0xb2a6b537	-1.940735e-08
38	0x329aaa74	1.8005473e-08
39	0x31f7b64f	7.209372e-09
40	0x3261cd86	1.3143454e-08
41	0x322fe959	1.0239398e-08
42	0xb0ac5afc	-1.2540506e-09
43	0xb1351005	-2.6348073e-09
44	0xb0e14a1e	-1.639197e-09
45	0x31c35699	5.685092e-09
46	0x31b52058	5.2714704e-09
47	0x30833110	9.545449e-10
48	0x32bdcf15	2.2096666e-08
49	0x300b567a	5.0690796e-10
50	0x31a0dd74	4.681789e-09
51	0x31800c30	3.726676e-09
52	0x320ce0d8	8.200196e-09
53	0xb26f1a80	-1.3917656e-08
54	0x3235cd25	1.0582231e-08
55	0x3265485f	1.334601e-08
56	0x3227ad43	9.7600745e-09
57	0xb0b1d103	-1.293785e-09
58	0x326a7100	1.3646286e-08
59	0xb214ee31	-8.668892e-09
60	0x32a9847f	1.9734442e-08
61	0xb204138d	-7.687857e-09
62	0x31f54bf3	7.139073e-09
63	0x31c4601c	5.715277e-09
64	0xb2346b31	-1.05017515e-08
65	0x32360b4c	1.0596363e-08
66	0x32c1a651	2.2543789e-08
67	0x323c6b63	1.0967457e-08
68	0x3259068d	1.2632552e-08
69	0xb00d9be6	-5.1517046e-10
70	0x31ebeb1e	6.86613e-09
71	0xb201ce4d	-7.555696e-09
72	0x328f4c59	1.668211e-08
73	0xb1e349af	-6.6149464e-09
74	0x3244e9d9	1.1461872e-08
75	0x32246a54	9.570233e-09
76	0x31d74b37	6.2658745e-09
77	0x30a778f3	1.2185225e-09
78	0xb0ad755c	-1.2620762e-09
79	0xb226dfe8	-9.713382e-09
80	0x31b2fa49	5.208936e-09

policy_net.1.weight f4 [81, 81]
0	0x3dbd4792	0.092421666
1	0x3cd7db67	0.026349736
2	0xbd3acc12	-0.045604773
3	0xbd1dd559	-0.038533542
4	0x3ca805d5	0.020510593
5	0xbd8df47e	-0.06931399
6	0x3d43dac0	0.047816038
7	0x3cf8e433	0.030382251
8	0xbd3bd3f2	-0.045856424
9	0xbb6447ac	-0.0034832759
10	0x3d8b280b	0.06794747
11	0x3dd24ed5	0.10268942
12	0x3d24c5a7	0.04022756
13	0x3cfa6049	0.03056349
14	0x3a887485	0.0010410702
15	0xbc34a02e	-0.011024518
16	0x3d74660e	0.05966764
17	0xbdce475e	-0.10072206
18	0xbdbb2600	-0.09138107
19	0x3c22f62b	0.009946386
20	0xbc9064f9	-0.017626273
21	0xbd066119	-0.032807443
22	0xbd032a87	-0.03202298
23	0x3d8db04e	0.06918393
24	0x3d46162b	0.048360985
25	0xbdc5402e	-0.09631382
26	0xbd450deb	-0.048108976
27	0x3db306c7	0.08741527
28	0xbddd6f47	-0.1081224
29	0xbd5775a7	-0.052602436
30	0x3d1a49e7	0.037668135
31	0x3d6375cb	0.055532258
32	0x3d40191d	0.04689895
33	0x3d3c8375	0.046023805
34	0xbd8a562d	-0.06754718
35	0xbc8f0e4e	-0.017462876
36	0x3dbba2ad	0.09161887
37	0xbdd6d29b	-0.104893886
38	0x3d3b370e	0.0457068
39	0x3af554ef	0.0018717329
40	0x3d1f918b	0.03895716
41	0x3dd69ba7	0.10478907
42	0xbdb82ee9	-0.089933224
43	0x3c9424f9	0.018084036
44	0x3cd34e9d	0.025794322
45	0x3dcf51ce	0.10123025
46	0x3d26fce7	0.04076853
47	0xbd4ffc79	-0.050777886
48	0xbda52052	-0.08062805
49	0x3ddc84ce	0.10767518
50	0xbb2a89f8	-0.0026022177
51	0xbb00cb89	-0.0019652566
52	0x3dc026ee	0.09382425
53	0xbd5c5b20	-0.05379784
54	0xbc94cf53	-0.018165266
55	0x3d2f2092	0.04275567
56	0xbd26d884	-0.04073383
57	0xbd9e2e3d	-0.07723663
58	0x3d90f4b5	0.07077924
59	0xbda13fc9	-0.07873494
60	0x3d111907	0.03542426
61	0x3a4beb16	0.0007778866
62	0xbdc1f049	-0.09469659
63	0xbd5b5192	-0.05354459
64	0x3c40dc59	0.011771285
65	0xbddb9fd2	-0.10723843
66	0x3db4dd87	0.088313155
67	0xbd067fdd	-0.032836784
68	0xbd9816de	-0.074262366
69	0x3d5d8fe4	0.054092303
70	0x3db79bed	0.08965287
71	0x3da7b755	0.08189265
72	0xbcaea92b	-0.0213209
73	0x3d16f320	0.036852956
74	0x3d9649c7	0.07338291
75	0xbd86b029	-0.06576569
76	0x3d5b2e5d	0.053511012
77	0x3b394f1d	0.0028275915
78	0x3da7fdd7	0.08202713
79	0xbdd0d5ce	-0.1019703
80	0xbd8aaf89	-0.06771762
81	0x3d594967	0.053048518
82	0xbdb4422d	-0.088016845
83	0x3dc4d825	0.09611539
84	0xbd93a524	-0.072092324
85	0xbc0115ac	-0.007878702
86	0x3da778e2	0.081773534
87	0x3d11aac0	0.03556323
88	0x3dd0a417	0.10187548
89	0x3da94c50	0.082665086
90	0x3dc58bc0	0.09645796
91	0x3ddd5924	0.10808018
92	0x3d4fd424	0.050739422
93	0x3d3a4884	0.045479313
94	0x3d24804b	0.040161412
95	0xbd8dd627	-0.06925612
96	0xbde22207	-0.110416465
97	0x3ba9c555	0.0051809945
98	0xbdbd5360	-0.09244418
99	0xbbc3321d	-0.0059569017
100	0xbda34a50	-0.07973158
101	0x3d8724f5	0.06598846
102	0x3d15ed55	0.03660329
103	0xbddbc750	-0.10731375
104	0x3c55d2e4	0.0130507685
105	0xbd625a32	-0.0552618
106	0xbd0e66e7	-0.034766104
107	0xbd401392	-0.046893664
108	0x3d55560e	0.05208402
109	0xbdc02224	-0.09381512
110	0xbce831c0	-0.028344035
111	0xbaa2e952	-0.0012429154
112	0x3b9237c9	0.0044622165
113	0xbb4de800	-0.00314188
114	0xbd248e12	-0.04017455
115	0x3cbf8039	0.023376571
116	0xbdd29a02	-0.10283281
117	0xbbc41c8d	-0.005984849
118	0x3dd51cfe	0.104059204
119	0x3cd949f2	0.026524518
120	0x3d0e0f64	0.034682646
121	0xbdc53760	-0.096297026
122	0xbda6e2ee	-0.08148752
123	0x3d826650	0.06367171
124	0xbdbd9c49	-0.09258325
125	0x3cb17deb	0.021666488
126	0xbc168855	-0.0091877775
127	0x3c8a0639	0.01684867
128	0x3d966c90	0.073449254
129	0x3cf6e62b	0.03013905
130	0xbd972894	-0.073807865
131	0x3d803150	0.062594056
132	0xbbb9a571	-0.005665474
133	0xbbba1571	-0.0056788255
134	0xbd1ab3d9	-0.037769172
135	0x3893404d	7.021483e-05
136	0x3d9ec372	0.07752122
137	0x3d88f267	0.066868596
138	0xbdd73282	-0.105076805
139	0xbb02cc72	-0.0019958285
140	0xbd9ce22b	-0.076603256
141	0x3d871327	0.0659545
142	0x3dadba09	0.08482749
143	0xbd39fc80	-0.04540682
144	0xbd6c2b52	-0.0576585
145	0xbd0a1ac4	-0.033716932
146	0x3cd0c19d	0.025482947
147	0x3db41652	0.0879332
148	0xbda8b9b9	-0.08238549
149	0xbd123e5d	-0.035704006
150	0xbdb70785	-0.08936981
151	0xbbc4951d	-0.005999221
152	0x3d4aa38b	0.049472373
153	0xbd08d39d	-0.033404935
154	0xbd75b1e4	-0.059984103
155	0xbd0a5584	-0.03377296
156	0xbd5adceb	-0.05343334
157	0xbc8c4e55	-0.017127195
158	0x3c145e64	0.009055708
159	0xbdca4f97	-0.09878462
160	0xbddb5dbe	-0.10711239
161	0x3cb30dc7	0.021857155
162	0xbd1aa2eb	-0.037753027
163	0xbdd51c2b	-0.10405763
164	0xbd065ab5	-0.03280135
165	0xbdbef592	-0.093241826
166	0xbdac7af9	-0.08421893
167	0x3cfce3a4	0.030870266
168	0x3d8ed090	0.06973374
169	0x3de2e45d	0.11078713
170	0xbbc72b8e	-0.00607819
171	0xbdbe98a9	-0.09306461
172	0x3dc2db7d	0.0951452
173	0xbda7e735	-0.08198396
174	0xbd95cb69	-0.07314188
175	0x3da78180	0.08178997
176	0xbd941ea0	-0.07232404
177	0x3d95f144	0.073214084
178	0xbbb2a472	-0.0054517323
179	0xbd4ba864	-0.049721137
180	0xbd477944	-0.048699632
181	0xbdbb195e	-0.09135698
182	0xbc2d188e	-0.010564936
183	0xbb74ddc7	-0.0037363635
184	0x3d5a4807	0.053291347
185	0xbd9a7817	-0.075424366
186	0xbd95ae72	-0.073086634
187	0x3ccb2c0e	0.02480128
188	0x3dc28119	0.0949728
189	0x3cbf30eb	0.023338756
190	0x3d24fc79	0.04027984
191	0x3dcd5f0d	0.10027895
192	0xbdd6e862	-0.10493542
193	0x3bcad0e4	0.0061894525
194	0x3dc7b4e7	0.09751301
195	0xbd6e9559	-0.058247898
196	0x3de1e277	0.11029523
197	0xbd2dc360	-0.042422652
198	0x3cb440ce	0.022003558
199	0x3d8122d0	0.06305468
200	0xbdc53e15	-0.09630982
201	0x3de0e6bd	0.1098151
202	0xbda61ec5	-0.081113376
203	0x3d855e34	0.065121084
204	0x3d1536fd	0.036429394
205	0x3dcbfd60	0.09960437
206	0x3d7a9504	0.06117727
207	0x3dab5724	0.0836623
208	0xbd63ee4b	-0.055647176
209	0xbdb39e7b	-0.08770462
210	0x3d3dc86e	0.046333723
211	0x3c6fc00e	0.014633192
212	0x3dce7b35	0.100820936
213	0xbcf93747	-0.030421866
214	0x3d86d9cb	0.065845095
215	0x3d7b4112	0.061341353
216	0xbd8223fd	-0.063545205
217	0x3d461e2b	0.048368614
218	0x3cb07387	0.021539463
219	0xbd9f2fae	-0.07772766
220	0xbdd25342	-0.102697864
221	0xbd05a107	-0.03262427
222	0xbdbebe24	-0.0931361
223	0x3d17e547	0.03708389
224	0xbdcb5b0e	-0.09929477
225	0x3ca1a139	0.019730197
226	0x3c77702b	0.0151024265
227	0xbc9b3ba4	-0.018949337
228	0xbd70ee35	-0.058820922
229	0xbd6f83a7	-0.058475163
230	0x3dbef9d4	0.09324995
231	0x3da7084e	0.08155881
232	0x3ccd1c39	0.025037872
233	0xbdb69030	-0.0891422
234	0x3da58049	0.08081109
235	0x3d825ea0	0.063657045
236	0xbd9373f9	-0.071998544
237	0x3dcdac2b	0.10042604
238	0x3dc43ead	0.09582267
239	0x3dc12e44	0.094326526
240	0xbcdf4479	-0.02725433
241	0x3be89f8e	0.0070990985
242	0xbd284695	-0.041082937
243	0x3ca6b269	0.020348744
244	0x3d504636	0.05084821
245	0xbdbf9dae	-0.09356247
246	0x3ccf652b	0.025316795
247	0x3b45abbd	0.0030162178
248	0x3badfbb4	0.0053095464
249	0xbb118347	-0.0022203492
250	0xbd69b84b	-0.05706052
251	0xbc3a10a3	-0.011356506
252	0x3dc1dc9b	0.09465905
253	0xbd836a45	-0.06416754
254	0xbc840d9c	-0.01611977
255	0x3dc9ebeb	0.09859451

policy_net.1.bias f4 [81]
0	0xbd482542	-0.048863657
1	0xbd1198e0	-0.035546184
2	0xbd9c8130	-0.07641828
3	0xbd4c736c	-0.049914762
4	0xbccd01ae	-0.025025215
5	0xbd3560ce	-0.044281773
6	0xbda10134	-0.078615576
7	0xbd45763b	-0.048208456
8	0x3cc6c39b	0.024263194
9	0x3d934152	0.07190193
10	0xbd3cf984	-0.046136394
11	0xbdad734b	-0.08469256
12	0xbbfc3df6	-0.007697816
13	0x3d44f694	0.048086718
14	0xbba718a5	-0.0050993734
15	0x3d8f7a7a	0.070057824
16	0x3dcd59f7	0.10026925
17	0x3d5e26c4	0.05423619
18	0x3dc4260d	0.0957757
19	0x3d878cea	0.06618674
20	0x3da846a5	0.082165994
21	0xbdc0e54b	-0.09418734
22	0xbd3c38a8	-0.04595247
23	0xbdd90617	-0.10596865
24	0x3d864acb	0.065572344
25	0x3a66b2bd	0.0008800438
26	0xbd63611d	-0.055512536
27	0x3c7ae4f9	0.01531338
28	0x3db095ef	0.086223476
29	0xbdc2a659	-0.095043845
30	0x3d5adadd	0.05343138
31	0x3c41bf81	0.011825443
32	0xbddbe0a2	-0.10736205
33	0xbd139be3	-0.036037337
34	0x3d6064de	0.054783694
35	0xbda7a104	-0.08185008
36	0x3d5fc1c3	0.054628145
37	0x3db7f634	0.089825064
38	0xbcb8a243	-0.02253831
39	0x3d41bfc9	0.04730204
40	0xbbf2c882	-0.0074091563
41	0xbcc734a7	-0.024317099
42	0xbd2dc306	-0.042422317
43	0xbdbedc75	-0.093193926
44	0xbcc4ca1d	-0.024022156
45	0x3cd60ae9	0.02612825
46	0xbd0febce	-0.03513699
47	0x3b846254	0.004040042
48	0xbd49ccd9	-0.049267624
49	0xbd427032	-0.04747028
50	0x3db53b4e	0.08849202
51	0xbcd75a4b	-0.026288172
52	0x3dca4ed1	0.09878314
53	0xbcd3187a	-0.025768507
54	0x3b940600	0.004517317
55	0xbdb0931e	-0.086218104
56	0x3d228543	0.03967787
57	0x3dbf8f7e	0.09353541
58	0xbca3c445	-0.01999105
59	0x3d226a7f	0.039652344
60	0x3d8b4a32	0.06801261
61	0xbb0da661	-0.0021614062
62	0xbd5e7ea0	-0.054319978
63	0x3ddd2387	0.10797792
64	0x3ccbd332	0.02488098
65	0x3d53f93d	0.051751364
66	0x3cdb202d	0.026748741
67	0x3ddb0875	0.106949724
68	0xbcc40047	-0.023925913
69	0xbd748f92	-0.05970723
70	0xbc4267f6	-0.0118656065
71	0x3d41d2ad	0.047320057
72	0xbde1add0	-0.1101948
73	0xbda18a5d	-0.07887719
74	0xbdba2380	-0.09088802
75	0xbd148c50	-0.036266625
76	0xbdc4b9f7	-0.096057825
77	0x3da1e3f6	0.07904808
78	0xbc41ebbd	-0.01183599
79	0x3d1d5d6f	0.038419183
80	0x3dd3cdba	0.103419736
