scripts/models/602/34/136/qModel.pth (torch, 264307 bytes, 11 tensors)

value_net.0.input_layer.weight f4 [96, 128]
0	0x3d538c78	0.051647633
1	0xbd44c7aa	-0.048041977
2	0xbdad0b1d	-0.08449385
3	0xbcf6b81c	-0.030117087
4	0xbdb23c14	-0.08702865
5	0xbdbfd96c	-0.09367642
6	0x3d513a1d	0.05108081
7	0xbd80474c	-0.06263599
8	0xbd9ac31c	-0.075567454
9	0xbdf9018b	-0.121584974
10	0x3d4a2924	0.04935564
11	0x3cbe8b36	0.02325974
12	0x3d9e14c8	0.077188075
13	0x3d46747a	0.048450924
14	0xbdc1e99f	-0.09468388
15	0xbb4947c6	-0.0030712946
16	0xbd591cc8	-0.053005964
17	0x3d96c753	0.07362237
18	0xbdab31b3	-0.08359089
19	0xbdc7c04b	-0.09753474
20	0x3d63d15e	0.05561959
21	0x3d4da974	0.05021043
22	0xbcf3a1da	-0.029740263
23	0xbd185f2a	-0.03720013
24	0x3c5d7a12	0.013517873
25	0xbda93ea1	-0.08263899
26	0xbdc159fc	-0.09440991
27	0xbca5506b	-0.020179948
28	0x3cd3d7e0	0.025859773
29	0xbd6c7587	-0.05772927
30	0x3d732b86	0.05936768
31	0x3daae3f8	0.08344263
32	0xbcf9d9e8	-0.030499414
33	0xbd8a4c70	-0.067528605
34	0x3cc5256d	0.024065698
35	0x3bb373e3	0.0054764613
36	0xbd0e4705	-0.0347357
37	0x3d79771a	0.0609046
38	0xbd855ad1	-0.065114625
39	0x3cdf5134	0.0272604
40	0x3d232993	0.03983457
41	0xbd6daae5	-0.058024306
42	0x3d214fad	0.039382625
43	0x3d489082	0.04896594
44	0x3d4575ed	0.048208166
45	0xbd953871	-0.07286156
46	0x3d442bb7	0.047893252
47	0x3c46cfad	0.012134475
48	0x3cdc1e6b	0.026869973
49	0xbd26b666	-0.040701292
50	0x3da46dc1	0.080287464
51	0x3d6403bc	0.055667624
52	0x3c854b22	0.016271178
53	0xbc610fb5	-0.013736655
54	0xbd026304	-0.03183271
55	0xbb8e0af5	-0.0043348023
56	0x3d445ae9	0.04793826
57	0x3c6b5938	0.014364533
58	0x3d5378ec	0.051628992
59	0xbdc5b841	-0.09654284
60	0xbd990091	-0.07470811
61	0xba7616bc	-0.0009387543
62	0xbd68de9b	-0.056852918
63	0xbdd36d12	-0.10323538
64	0x3d48fd26	0.049069546
65	0xbd0f953a	-0.035054423
66	0xbdbb565b	-0.091473304
67	0xbd7f8ed0	-0.062392056
68	0x3d727fce	0.059203915
69	0xbd3a3c02	-0.045467384
70	0xbd76c57c	-0.06024693
71	0x3d1e22bf	0.038607355
72	0x3c47f33c	0.012203988
73	0xbd142f27	-0.03617778
74	0xbc850713	-0.016238725
75	0x3d78aa14	0.060709074
76	0xbdd41868	-0.103562176
77	0xbd18240e	-0.03714376
78	0xbd27aa4e	-0.0409339
79	0xbdaf4119	-0.08557338
80	0xbdba5534	-0.090982825
81	0xbc80cb5a	-0.015721966
82	0xbd3cc809	-0.046089206
83	0xbcdcd183	-0.026955372
84	0xbd4cd4b6	-0.050007544
85	0xbcde11e3	-0.027108138
86	0x3d07e09e	0.033173196
87	0xbccc97a5	-0.024974653
88	0x3c61e0c7	0.013786501
89	0x3c8957d5	0.016765514
90	0xbd8d33ca	-0.068946436
91	0x3d98efbf	0.07467603
92	0xbd6e2805	-0.058143634
93	0x3d614302	0.054995544
94	0xbcad2d4f	-0.021139769
95	0x3d3adf49	0.045623098
96	0x3d683940	0.056695223
97	0xbd8347e0	-0.064101934
98	0x3d20602c	0.039154217
99	0xbdd79b31	-0.10527647
100	0xbd1d2da1	-0.038373593
101	0xbd94d973	-0.07268038
102	0x3d20a5b0	0.039220512
103	0x3d7cc543	0.06171156
104	0x3b4e3019	0.0031461774
105	0x3c9f28e0	0.01942867
106	0xbc1e7c87	-0.009673244
107	0xbcf4991d	-0.029858166
108	0xbd93d46d	-0.072182514
109	0xbd9d7d19	-0.07689876
110	0xbd85aa89	-0.065266676
111	0x3d66f430	0.05638522
112	0xbda99718	-0.08280772
113	0x3b63eee0	0.0034779832
114	0x3d76cf66	0.060256384
115	0x3d52c681	0.05145884
116	0xbd8a54bd	-0.06754444
117	0xbd45ada8	-0.048261315
118	0x3ba3afa6	0.004995304
119	0x3cfb1002	0.030647282
120	0x3d9d9c26	0.076957986
121	0xbdc50259	-0.096195884
122	0xbcddd786	-0.027080309
123	0x3c3cb0c9	0.011516758
124	0xbb3717c9	-0.002793776
125	0xbd426a9d	-0.047464956
126	0x3d73037a	0.059329487
127	0xbcca7389	-0.024713295
128	0xbdcab27f	-0.09897327
129	0x3cfc8bb6	0.030828338
130	0xbc947840	-0.018123746
131	0x3d19afb6	0.037521087
132	0x3d941690	0.07230866
133	0x3d8b45e1	0.06800438
134	0xbe05ddc2	-0.13072875
135	0xbd892ed1	-0.06698383
136	0xbd5cf2ce	-0.053942494
137	0x3d83689b	0.06416436
138	0xbca8d9a5	-0.020611593
139	0x3da3be56	0.07995288
140	0x3d08bd6e	0.03338378
141	0x3dbeda5c	0.093189925
142	0xbd943c63	-0.0723808
143	0xbd4a511a	-0.04939375
144	0xbd404909	-0.04694465
145	0xbd465c28	-0.04842773
146	0xbca18a0d	-0.019719148
147	0xbdb7d2d8	-0.08975762
148	0xbd8d9895	-0.06913868
149	0x3c11bbc1	0.008894862
150	0x3cc516f1	0.02405879
151	0xbbf07a2b	-0.0073387823
152	0xbc9b55a9	-0.018961744
153	0xbc426a60	-0.011866182
154	0xbcf720cd	-0.030167008
155	0xbd33e106	-0.04391577
156	0xba4edaa8	-0.00078908587
157	0xbd921755	-0.071333565
158	0xbe1b9ffe	-0.15197751
159	0xbdc56429	-0.09638245
160	0x3dbdc226	0.092655465
161	0x3d08d414	0.03340538
162	0x3d775a0f	0.06038862
163	0x3cc42260	0.023942173
164	0xbdebd7a9	-0.11515743
165	0xbba4ab87	-0.0050253305
166	0x3d3d32b6	0.04619094
167	0x3d6ca2c0	0.057772398
168	0xbd45aeb0	-0.048262298
169	0x3d9c1346	0.076208636
170	0x3cfd05ae	0.030886497
171	0x3d5c7b69	0.05382863
172	0xbc9bc36e	-0.019014087
173	0x3ce732d5	0.02822248
174	0x3dcf779c	0.101302356
175	0xbd9b5768	-0.07585031
176	0xbdca86f1	-0.09889019
177	0xbd7e5dea	-0.062101282
178	0x3a7dd6b7	0.0009683179
179	0xbd9eae0d	-0.07748041
180	0xbe0340c2	-0.12817672
181	0xbe0993d5	-0.134353
182	0xbdd98453	-0.10620942
183	0x3d38d768	0.045127302
184	0xbc81b2d9	-0.015832352
185	0xbcf723b8	-0.0301684
186	0x3ba7bf26	0.005119222
187	0x3dbd6fcd	0.0924984
188	0xbdb91be8	-0.09038526
189	0xbd303656	-0.04302057
190	0x3d71326f	0.058885988
191	0xbd5c9e27	-0.053861763
192	0xbda9f067	-0.08297806
193	0xbd99a602	-0.075023666
194	0xbddc85fb	-0.10767742
195	0x3c6c5a6b	0.014425854
196	0xba8b3958	-0.0010621948
197	0x3c40464a	0.011735508
198	0x3c95f4b9	0.01830517
199	0xbd57761f	-0.052602883
200	0x3d86d0f2	0.06582822
201	0xbd6dd7a2	-0.05806697
202	0xbc6dce11	-0.014514462
203	0xbd30f90b	-0.043206256
204	0xbd89b81e	-0.06724571
205	0xbd47d126	-0.048783444
206	0x3d13c122	0.036072858
207	0xbd504dae	-0.05085533
208	0x3cc7f676	0.024409514
209	0xbad35e28	-0.0016126083
210	0xbdfd2d74	-0.12362185
211	0xbd06e27a	-0.03293083
212	0x3ce8dac9	0.028424637
213	0xbd6ee6ea	-0.058325686
214	0xbc942f7f	-0.018089054
215	0xbcb79523	-0.022409981
216	0x3d2ea05d	0.042633403
217	0xbdaceea1	-0.08443952
218	0xbe1b2154	-0.15149432
219	0xbcfdfb36	-0.031003576
220	0x3d4fbe1e	0.05071842
221	0x3cb4f8c7	0.022091283
222	0x3da6dc66	0.081475064
223	0xbdf43f0e	-0.11926089
224	0x3d9901f4	0.07471076
225	0x3d07f8ab	0.033196133
226	0xbd2becc8	-0.04197386
227	0xbda27ddf	-0.07934164
228	0xbd3d148c	-0.046162173
229	0x3caf46af	0.02139601
230	0x3d8c79f4	0.06859198
231	0xbc4b1269	-0.012394526
232	0x3d9960fd	0.07489202
233	0x3d55d296	0.052202784
234	0x3db4db2f	0.088308685
235	0xbd3d6e57	-0.046247806
236	0xbcc7cd3a	-0.024389852
237	0x3d6b3151	0.05742008
238	0xbc097253	-0.008389073
239	0xbd685250	-0.056719124
240	0xbdb75f41	-0.08953715
241	0xbd12f218	-0.03587541
242	0xbc030270	-0.007996187
243	0xbcce5a68	-0.025189593
244	0x3da1b9f1	0.07896794
245	0x3da4f652	0.08054794
246	0xbcab4943	-0.020908957
247	0x3d84861b	0.06470891
248	0xbd8afc3d	-0.06786392
249	0xbdf67e82	-0.12035848
250	0xbd78f99d	-0.060784925
251	0xbd5f8386	-0.05456879
252	0xbd45b277	-0.0482659
253	0x3d2991e6	0.041398905
254	0xbd6d3c28	-0.057918698
255	0xbdc7d90d	-0.09758196

value_net.0.input_layer.bias f4 [96]
0	0x3d35a72b	0.044348877
1	0xbd84dbb4	-0.064872175
2	0x3c948d31	0.018133732
3	0xbd66c301	-0.056338314
4	0x3d3bff24	0.045897618
5	0x3cddbbe1	0.027067127
6	0xbdd08c80	-0.10183048
7	0xbd2b92b9	-0.041887973
8	0xbd33cd5e	-0.043897025
9	0x3d1aceb5	0.037794787
10	0xbde24b1d	-0.11049483
11	0xbd7d7ced	-0.061886717
12	0xbd8747a1	-0.06605459
13	0xbda3a288	-0.07989985
14	0xbde4bc95	-0.11168782
15	0xbdc513b4	-0.09622899
16	0xbd3a3b4e	-0.045466714
17	0x3d45ff7b	0.04833935
18	0xbd9cba78	-0.076527536
19	0xbdc927b5	-0.09822027
20	0x3d0256e7	0.031821158
21	0x3c9296e7	0.017894221
22	0x3c7004a9	0.014649549
23	0xbd448486	-0.047977947
24	0xbd0f2306	-0.03494551
25	0x3dbd5714	0.092451245
26	0xbdba1d18	-0.090875804
27	0xbd8b7b88	-0.06810671
28	0xbd960c3f	-0.073265545
29	0xbcff7fa9	-0.031188803
30	0x3bef9196	0.0073110564
31	0xbba9df5d	-0.0051840977
32	0xbde34928	-0.11097938
33	0xbdbb7e1b	-0.09154912
34	0x3d1d2fff	0.03837585
35	0x3d4df8cf	0.05028611
36	0x3cbfb1d4	0.023400225
37	0x3b34ded2	0.0027598632
38	0x3cbfec73	0.023428177
39	0x3d10ff88	0.035399944
40	0x3d07148b	0.032978576
41	0xbc9219a2	-0.017834488
42	0xbd852807	-0.06501775
43	0x3d048072	0.032349057
44	0x3ae8f171	0.001777215
45	0xbd842503	-0.06452372
46	0x3d837603	0.06418993
47	0xbca9d745	-0.020732531
48	0xbdc5b1d2	-0.09653057
49	0xbcd6ab73	-0.0262048
50	0xbd832d0b	-0.06405076
51	0xbdb7a586	-0.08967118
52	0xbdc580dd	-0.09643719
53	0xbd8bf906	-0.06834607
54	0x3a5b9e6d	0.00083777943
55	0xb836f3fc	-4.361941e-05
56	0x3d738038	0.05944845
57	0xbdb499e4	-0.08818415
58	0xbb9bbf32	-0.004753017
59	0x3d8c79d8	0.06859177
60	0xbdbcb531	-0.09214247
61	0x3db764b1	0.08954752
62	0xbd1517b5	-0.036399562
63	0x3ca5ea8c	0.020253442
64	0x3d34700c	0.04405217
65	0xbdde8597	-0.10865324
66	0x3c3099ab	0.010778825
67	0x3d5ad3ea	0.053424753
68	0xbc88ea30	-0.016713232
69	0x3d13b458	0.03606066
70	0x3d219b74	0.039454892
71	0x3d3d8c29	0.046276245
72	0xbd0f8754	-0.03504117
73	0xbd6a3714	-0.057181433
74	0xbda7a661	-0.08186031
75	0x3a298ff6	0.000646829
76	0x3b25148e	0.0025189254
77	0xbd35ae72	-0.044355817
78	0xbda5407f	-0.08068942
79	0x3c24bce4	0.010054801
80	0xbd66faf9	-0.05639169
81	0xbcb2310e	-0.021751907
82	0xbd3c68e2	-0.04599846
83	0x3cd58db2	0.026068542
84	0xbd8a9e4c	-0.06768474
85	0xbd12256b	-0.035680216
86	0x3d5136bf	0.0510776
87	0xbda1290f	-0.078691594
88	0xbdbce3a6	-0.09223108
89	0xbc500a21	-0.012697727
90	0x3d740b09	0.059580836
91	0xbc6f24da	-0.014596188
92	0xbc42f63c	-0.011899527
93	0x3c0c2a41	0.008554996
94	0xbd2087bb	-0.039191943
95	0xbd820323	-0.063482545

value_net.0.output_layer.weight f4 [96, 96]
0	0x3dc8322f	0.09775197
1	0xbcfada10	-0.030621558
2	0xbd0f056c	-0.03491728
3	0xbc7a6223	-0.015282187
4	0x3d7d97df	0.061912414
5	0xbd86d2d2	-0.065831795
6	0xbbf2fc02	-0.0074152956
7	0xbd14994a	-0.036279
8	0xbd641111	-0.05568034
9	0x3c608301	0.013703109
10	0x3d52a38c	0.0514255
11	0xbd8fed4b	-0.07027682
12	0x3d585f13	0.052825045
13	0xbdac7a55	-0.084217705
14	0x3d9562f2	0.07294263
15	0x3b92a26d	0.004474929
16	0x3d1ca97e	0.038247578
17	0xbd954bff	-0.07289886
18	0x3d1b6311	0.037936274
19	0x3d7f6c90	0.062359393
20	0xbd3c45e6	-0.045965098
21	0xbdcf3294	-0.10117069
22	0xbde4eae2	-0.11177613
23	0x3c85a3d6	0.016313475
24	0x3dd48ba4	0.10378197
25	0x3c1039fb	0.008802886
26	0x3ca39a83	0.019971138
27	0x3d0059d4	0.031335667
28	0xbc447890	-0.011991635
29	0xbd544398	-0.051822275
30	0x3d96d013	0.07363906
31	0xbc959757	-0.018260641
32	0x3dd2c381	0.10291196
33	0x3ddf24a8	0.108956635
34	0x3c4481e0	0.011993855
35	0x3c45a774	0.01206385
36	0xbb7f5c62	-0.0038964977
37	0xbdc416e2	-0.09574677
38	0xbd2d36ed	-0.04228871
39	0xbd9892cb	-0.074498735
40	0xbc539405	-0.012913709
41	0x3cc8623a	0.0244609
42	0xbddd1189	-0.1079436
43	0x3beb1fd1	0.0071754237
44	0xbdca706f	-0.09884726
45	0x3d9e0ca8	0.07717258
46	0x3d79f847	0.06102779
47	0x3d665780	0.05623579
48	0x3afd888a	0.001934306
49	0x3c8665cb	0.01640596
50	0x3c92e31c	0.01793056
51	0xbd5a2fa1	-0.05326808
52	0xbe011048	-0.12603867
53	0x3dbcaade	0.09212278
54	0xbdb4a613	-0.08820739
55	0xbdc851f6	-0.09781258
56	0x3b63dcf0	0.003476914
57	0x3d90c200	0.070682526
58	0x3d88ea6b	0.06685337
59	0xbdb182e6	-0.08667545
60	0x3ddbf0a6	0.107392594
61	0xbdee49f3	-0.116351984
62	0x3d6c0350	0.057620347
63	0x3d5801df	0.05273616
64	0x3da177d1	0.07884181
65	0x3cd1a0c9	0.025589364
66	0x3cc04c37	0.023473842
67	0x3de049df	0.1095159
68	0xbdcdbff3	-0.10046377
69	0xbde8302b	-0.11337312
70	0xbd51fcca	-0.05126647
71	0xbdb506fe	-0.08839224
72	0x3d534b87	0.0515857
73	0xbbfdb8f7	-0.007742997
74	0xbda1ddf7	-0.079036646
75	0x3c92c0e5	0.017914245
76	0xbd936e28	-0.07198745
77	0x3d314e6c	0.04328768
78	0xbc2ab9d3	-0.0104202805
79	0x3ccb5f86	0.024825823
80	0x3d70e230	0.05880946
81	0xbbeec9ed	-0.007287255
82	0x3b2e6188	0.0026608426
83	0xbc8aa345	-0.016923556
84	0x3aea1156	0.001785795
85	0xbc01f596	-0.007932087
86	0xb8326b72	-4.2538573e-05
87	0xbbdb1236	-0.0066855205
88	0x3dd408ed	0.10353265
89	0x3d811f08	0.06304747
90	0x3d084752	0.03327114
91	0xbc8797dd	-0.016551906
92	0x3cd7be30	0.026335806
93	0xbd759e55	-0.05996545
94	0xbdb466aa	-0.08808644
95	0xbdc00ef9	-0.09377856
96	0x3c782702	0.015146019
97	0xbdbb9822	-0.091598764
98	0x3c52cd5c	0.012866344
99	0xbb91f406	-0.0044541387
100	0x3c1e1234	0.009647895
101	0xbda125a7	-0.0786851
102	0xbd7f0193	-0.06225736
103	0xbd50ce4e	-0.050977997
104	0x3d71d0b7	0.059036937
105	0xbd93ac08	-0.07210547
106	0x3d74e138	0.059785098
107	0x3d382313	0.044955324
108	0x3ddb08d1	0.10695041
109	0xbcb38ea3	-0.0219186
110	0xbd3235f6	-0.043508492
111	0x3cc19600	0.023631096
112	0xbdf31586	-0.1186934
113	0xbcdc09d7	-0.02686016
114	0x3d612c47	0.054973867
115	0xbc0bfedb	-0.008544649
116	0xbd447a1d	-0.04796802
117	0xbdd28f10	-0.10281193
118	0x3dab005a	0.083496764
119	0x3d1009dc	0.035165653
120	0xbd360a9d	-0.044443715
121	0xbd24eb2b	-0.040263336
122	0xbd8be143	-0.06830075
123	0xbbc2b460	-0.0059419125
124	0xbd881e35	-0.066463865
125	0x3d3ea9ef	0.04654878
126	0x3d51eb44	0.051249757
127	0xbd958533	-0.07300796
128	0x3d865c06	0.06560521
129	0xbd941f3d	-0.07232521
130	0x3d46ad1a	0.048504926
131	0xbdb1e36b	-0.08685955
132	0x3db59734	0.0886673
133	0x3d52c5e1	0.051458243
134	0xbdac3ff6	-0.08410637
135	0x3e051fcc	0.13000411
136	0x3d694c51	0.056957547
137	0x3da11f33	0.07867279
138	0x3ce86d54	0.028372444
139	0xbdbab892	-0.09117235
140	0xbd8725a4	-0.06598976
141	0xbd74f53b	-0.059804182
142	0x3d4df257	0.05027994
143	0xbc602630	-0.01368098
144	0x3b2b3886	0.002612622
145	0xbc988e82	-0.01862264
146	0x3ccf77b2	0.02532563
147	0xbd62bc0e	-0.055355124
148	0xbd6c0099	-0.057617757
149	0xbce383f7	-0.027772887
150	0xbd4bd513	-0.04976375
151	0xbd8dfcb7	-0.06932967
152	0xbd652c4d	-0.05595045
153	0xbcfc928c	-0.030831598
154	0xbdf10308	-0.11768156
155	0x3d2f89a2	0.042855866
156	0x3d5314c0	0.05153346
157	0xbc91e73e	-0.01781046
158	0x3cdad865	0.026714513
159	0x3dc35ebc	0.095395535
160	0xbd9fe95c	-0.07808182
161	0x3d96932f	0.07352292
162	0xbdac65ee	-0.08417879
163	0xbd94c795	-0.0726463
164	0x3cb0da10	0.021588355
165	0x3d0a281f	0.03372967
166	0xbd860e08	-0.06545645
167	0xbd839245	-0.06424383
168	0xbd22e79a	-0.039771654
169	0x3d8dc6e1	0.06922699
170	0x3d667f03	0.05627347
171	0xbdaba5fa	-0.08381267
172	0x3d3f37ea	0.046684183
173	0x3dbcc6c5	0.092176
174	0xbd4487ea	-0.04798118
175	0x3d99695e	0.074908
176	0x3dba6dc8	0.0910297
177	0x3c08bf09	0.008346328
178	0x3ce77b2a	0.028256971
179	0x3d3f29f6	0.046670876
180	0x3d9ba79f	0.076003306
181	0xbdbfe80e	-0.09370433
182	0xbd92353f	-0.07139062
183	0xbd932e23	-0.07186534
184	0xbd246af0	-0.040141046
185	0x3bc0e0be	0.0058861664
186	0xbda918ec	-0.082567066
187	0xbd348985	-0.04407646
188	0xbd2bc36f	-0.041934427
189	0xbd6bdf28	-0.057585865
190	0xbd09da01	-0.03365517
191	0xbd3d1c1b	-0.04616938
192	0x3daf79bc	0.08568141
193	0x3d0936d3	0.03349955
194	0x3d996022	0.07489039
195	0xbd38dbd9	-0.045131538
196	0x3d29e6d1	0.04147989
197	0x3d69ad8a	0.057050265
198	0xbd139e78	-0.0360398
199	0x3d45fff9	0.048339818
200	0x3aa31a20	0.0012443699
201	0xbda5e6ed	-0.08100686
202	0xbd6ed98e	-0.058312945
203	0x3b79bcf4	0.003810701
204	0x3dc9c1b0	0.09851396
205	0xbdb6dbad	-0.089286186
206	0xbb91de46	-0.004451546
207	0xbde2922a	-0.11063035
208	0x3c076fc8	0.008266397
209	0xbdce202e	-0.100647315
210	0x3dcae85c	0.099076
211	0xbca246bf	-0.019809125
212	0xbdc848af	-0.09779488
213	0x3ccc9699	0.024974154
214	0xbd9e9b88	-0.07744509
215	0xbd3b5ed3	-0.04574473
216	0xbd2ceba1	-0.0422169
217	0x3d194bee	0.037425928
218	0x3bf2c448	0.0074086525
219	0x3d923977	0.07139867
220	0xbd5a6bb1	-0.05332536
221	0x3d180136	0.03711053
222	0xbd441275	-0.047869164
223	0xbdc52955	-0.09627024
224	0xbd149e38	-0.0362837
225	0xbd88b1a8	-0.0667451
226	0x3d25d2a8	0.0404841
227	0xbdd37be0	-0.10326362
228	0x3c81e798	0.015857503
229	0xbdddb901	-0.10826302
230	0xbceb7be8	-0.028745607
231	0xbd65cec2	-0.056105383
232	0x3d53f99b	0.051751714
233	0x3c71e719	0.014764571
234	0xbc7462e1	-0.014916153
235	0x3dbe1c6a	0.09282763
236	0x3cb6b6f9	0.022304045
237	0xbd722168	-0.05911389
238	0x3d79373e	0.0608437
239	0xbbaff14e	-0.005369342
240	0xbdcd94d3	-0.100381516
241	0xbdd26ab1	-0.10274256
242	0x3d42b955	0.047540028
243	0x3c822ae7	0.015889598
244	0xbde2e68b	-0.11079129
245	0x3c497c56	0.01229771
246	0x3dc89313	0.09793677
247	0xbd881020	-0.066437006
248	0xbd2ddd03	-0.0424471
249	0xbcdf5edf	-0.027266918
250	0xbd5df025	-0.054184098
251	0xbd7ebd7a	-0.062192418
252	0x3deaa2df	0.114568464
253	0xbd948927	-0.07252722
254	0x3cb596dd	0.022166664
255	0xbcdd47e5	-0.027011821

value_net.0.output_layer.bias f4 [96]
0	0xbdee5f61	-0.11639286
1	0xbccc058d	-0.02490499
2	0xbd8486e0	-0.06471038
3	0xbdd8cb6b	-0.10585674
4	0x3ce23efb	0.027617922
5	0xbc46264f	-0.012094094
6	0xbbf79db5	-0.007556642
7	0xbdde6fea	-0.1086119
8	0xbd8865d0	-0.06660044
9	0xbdac1bd7	-0.084037475
10	0xbd8631b9	-0.065524526
11	0xbd4b83d6	-0.049686275
12	0x3d6734fd	0.056447018
13	0xbc7b42e4	-0.015335772
14	0xbda946fd	-0.08265493
15	0x3c2f7f18	0.010711454
16	0xbdbaa365	-0.09113196
17	0x3da29bb3	0.079398535
18	0xbb2fcc9c	-0.0026824838
19	0xbcdb0368	-0.026735023
20	0xbdca6d09	-0.09884078
21	0x3cb9d9eb	0.02268692
22	0xbd128e67	-0.035780337
23	0xbde067b2	-0.10957278
24	0xbdb6d8ce	-0.08928071
25	0x3bb5d600	0.0055491924
26	0xbda7f9c8	-0.08201939
27	0xbce61671	-0.028086873
28	0x3c84878a	0.016177911
29	0xbdd0b5b4	-0.10190907
30	0xbd6b7f3e	-0.057494394
31	0xbddc45e7	-0.1075552
32	0xbc1d9fd2	-0.009620624
33	0x3c0ebff8	0.008712761
34	0x3ca10f5e	0.019660648
35	0xbd239c9e	-0.039944284
36	0xbd5a0be7	-0.053234007
37	0xbda804c3	-0.08204033
38	0xbd8d5568	-0.069010556
39	0xbdcd32c4	-0.100194484
40	0xbdab0264	-0.08350065
41	0xbc2294ad	-0.009923142
42	0x3c66afd3	0.014080006
43	0xbcc02784	-0.023456343
44	0x3c3a5888	0.011373647
45	0x3d2c37a9	0.04204527
46	0x3c09ac1c	0.0084028505
47	0xbbfba63a	-0.007679728
48	0x3c666152	0.014061289
49	0x3d4a1272	0.049333997
50	0xbd3802fc	-0.04492472
51	0xbd9bf01b	-0.07614156
52	0xbde19a9d	-0.11015818
53	0xbd919fae	-0.071105346
54	0xbd1cd1d8	-0.03828606
55	0x3d6f5e9d	0.05843984
56	0xbcfb34c2	-0.030664805
57	0xbcde2130	-0.027115434
58	0xbdd44488	-0.10364634
59	0xbcc213c9	-0.023691075
60	0xbcaec7eb	-0.021335563
61	0x3d709a7c	0.058741078
62	0xbd7b85ce	-0.061406903
63	0x3c40f642	0.011777462
64	0xbde41f37	-0.11138766
65	0xbdc3e003	-0.09564211
66	0x3d1b1b31	0.03786773
67	0x3c6f5806	0.014608389
68	0x3d98c40d	0.07459269
69	0x3d0d65ff	0.0345211
70	0xbd804609	-0.06263358
71	0xbd8e8081	-0.06958104
72	0x3cfc0941	0.030766131
73	0x3a14f88b	0.0005682788
74	0xbdf05ff5	-0.11737052
75	0x3ca5818f	0.02020338
76	0x3d57d251	0.052690808
77	0x3d92380a	0.07139595
78	0xbd6390a3	-0.05555786
79	0xbdac0ffe	-0.08401488
80	0x3d539b41	0.051661734
81	0xbdfad468	-0.122475445
82	0xbc75140a	-0.014958391
83	0xbdb89238	-0.09012264
84	0x3d130442	0.035892732
85	0x3d634cda	0.055493213
86	0xbd91ba4f	-0.07115614
87	0xbc559b1a	-0.013037467
88	0x3c05303e	0.008129178
89	0x3cf0aa9f	0.029378233
90	0x3cbc3d5b	0.022978475
91	0xbdb5d9a9	-0.08879406
92	0xbd2287fc	-0.039680466
93	0xbd499106	-0.04921057
94	0x3d4c3a94	0.049860552
95	0xbc6aae65	-0.014323805

value_net.0.attention.in_proj_weight f4 [288, 96]
0	0xbd64e1c0	-0.055879354
1	0xbd43f517	-0.047841158
2	0x3c3b6ac5	0.01143903
3	0xbdf154c2	-0.117837444
4	0x3d961405	0.07328037
5	0xbdb2f4af	-0.08738076
6	0xbcbbc8b0	-0.022922844
7	0x3d956858	0.072952926
8	0xbb40b8d7	-0.0029407048
9	0xbde3cc35	-0.11122934
10	0x3d9cf8a9	0.07664616
11	0x3dd2c85e	0.10292123
12	0xbd782a02	-0.060586937
13	0xbd7504fd	-0.05981921
14	0xbced325c	-0.028954677
15	0x3d6edb65	0.0583147
16	0xbd6302cf	-0.0554226
17	0xbdb6dacd	-0.08928452
18	0x3d45a117	0.04824933
19	0x3e0c2850	0.13687253
20	0xbdc58f20	-0.096464396
21	0x3d3d0091	0.04614312
22	0xbc9b1717	-0.018931909
23	0xbc4d3eb5	-0.012527158
24	0xbc3052e9	-0.010761955
25	0xbcab9f78	-0.020950064
26	0xbda1c3a2	-0.07898642
27	0x3de4edae	0.11178146
28	0x3db2308f	0.08700668
29	0xbd007f0d	-0.031371165
30	0x3d94da34	0.072681814
31	0x3c9c8c66	0.019109916
32	0x3c1b3e0c	0.009475242
33	0xbdf78fac	-0.1208795
34	0x3de98001	0.11401368
35	0xbde8ed61	-0.113734014
36	0x3d071e9f	0.032988187
37	0x3dc57f06	0.096433684
38	0x3cf82855	0.03029267
39	0xbdcaa15c	-0.09894058
40	0x3da46383	0.08026793
41	0xbcc2ceef	-0.023780314
42	0x3da23001	0.07919312
43	0x3d89cceb	0.06728538
44	0xbd8e7cf3	-0.06957426
45	0xbd072603	-0.032995235
46	0x3d6cc92d	0.057809044
47	0xbdab1519	-0.083536334
48	0xbd2223be	-0.039584868
49	0x3de961c0	0.113955975
50	0x3cbb5d4d	0.022871638
51	0x3d403d7e	0.046933644
52	0x3be8eec0	0.0071085393
53	0x3dc27bb3	0.0949625
54	0xbdb71a45	-0.089405574
55	0x3d25d0db	0.040482383
56	0x3b75558b	0.003743502
57	0xbe026c52	-0.12736633
58	0xbdd0dd1f	-0.101984255
59	0x3da1d6f7	0.079023294
60	0xbe1b359c	-0.15157169
61	0x3d2b62fd	0.04184245
62	0xbc9b4cc8	-0.01895751
63	0xbe013189	-0.12616552
64	0xbe09ce68	-0.13457644
65	0x3d1e3bdb	0.0386313
66	0x3d20f00b	0.039291423
67	0xbbe67ef6	-0.007034178
68	0x3d94b2fc	0.07260701
69	0xbdf209bc	-0.11818263
70	0xbcb50f92	-0.022102151
71	0x3dc2f8f6	0.09520142
72	0x3c85b779	0.016322838
73	0x3d84fb13	0.06493201
74	0x3da0c178	0.07849401
75	0xbde1c2a0	-0.1102345
76	0xbd22d82f	-0.03975695
77	0x3d216586	0.03940346
78	0xbc61a37f	-0.013771891
79	0x3c06f462	0.008236976
80	0xbd93382e	-0.0718845
81	0x3d2d8bac	0.04236953
82	0xbe0606ed	-0.1308858
83	0xbe1fc072	-0.15600756
84	0x3d52248a	0.051304378
85	0xbbab212e	-0.005222461
86	0x3dcb745d	0.09934304
87	0xbdaa913d	-0.08328483
88	0xbd4c1364	-0.04982318
89	0xbd28dc66	-0.041225813
90	0xbdaf0534	-0.08545914
91	0x3deccb79	0.11562247
92	0x3d9e7206	0.07736592
93	0xbdd2b06d	-0.10287557
94	0x3d27810a	0.040894546
95	0xbce06d99	-0.02739601
96	0x3d7f9d14	0.06240566
97	0xbb006e95	-0.0019597162
98	0x3d87b345	0.0662599
99	0x3d1dc7ea	0.03852073
100	0x3d72c541	0.059270147
101	0x3db41ddb	0.08794757
102	0xbd630382	-0.055423267
103	0xbd8652ff	-0.06558799
104	0xbd606f5d	-0.054793704
105	0x3d33385e	0.043754928
106	0xbd93ff72	-0.07226457
107	0xbdfb5391	-0.122717984
108	0xbd824c8c	-0.063622564
109	0x3d897df4	0.06713477
110	0xbdf02619	-0.117260166
111	0xbd6e2703	-0.058142673
112	0xbdd992c8	-0.106236994
113	0xbd52dade	-0.05147826
114	0xbde92e7d	-0.1138582
115	0xbd59f21e	-0.053209417
116	0x3d4a8853	0.049446415
117	0xbdcfdf12	-0.10149969
118	0x3d8894d9	0.066690154
119	0xbdd14f1e	-0.102201685
120	0x3e0b5742	0.13607505
121	0x3d58468d	0.052801657
122	0x3d41826a	0.047243513
123	0xbda937ed	-0.0826262
124	0x3bfa8858	0.007645648
125	0x39fe88ff	0.00048548725
126	0xbdeffea2	-0.11718489
127	0x3cb2f1ea	0.02184387
128	0x3ddb4ec2	0.10708381
129	0xbd663598	-0.056203455
130	0x3d493dac	0.04913108
131	0xbd2fbd62	-0.04290522
132	0x3dbad5ac	0.09122786
133	0x3c6dc381	0.014511944
134	0x3db67672	0.089093104
135	0x3d899975	0.06718723
136	0xbc63b1e0	-0.013897389
137	0xbd1d8ac8	-0.03846243
138	0xbd55b62d	-0.05217569
139	0xbd92ef37	-0.07174533
140	0xbdc3d862	-0.09562756
141	0xbdf78b9c	-0.12087175
142	0x3ca8ab5f	0.020589529
143	0x3d04a373	0.03238244
144	0xbd39b605	-0.045339603
145	0x3dea0dc8	0.1142841
146	0x3da3b318	0.07993144
147	0xbd8adf0a	-0.067808226
148	0x3ded6f82	0.11593534
149	0x3dbbdd45	0.09173063
150	0xbda4e111	-0.080507405
151	0xbdea3808	-0.11436468
152	0xbd8837b3	-0.06651249
153	0xbddd2ee8	-0.10799962
154	0xbdfd23f3	-0.123603724
155	0xbd9e7ba0	-0.07738423
156	0x3db090bc	0.08621356
157	0x3c76e931	0.015070246
158	0xbd0a97f4	-0.03383632
159	0xbc8833b1	-0.01662621
160	0x3de1143b	0.10990187
161	0xbd96d6f5	-0.073652185
162	0xbd3ad919	-0.045617197
163	0x3daeeff8	0.08541864
164	0xbe00d108	-0.12579739
165	0x3dacb357	0.08432644
166	0xbdb855e9	-0.09000761
167	0x3d973dda	0.07384844
168	0xbda90629	-0.08253128
169	0xbbb9c352	-0.005669036
170	0xbca92c17	-0.020650906
171	0x3d8a4ad7	0.06752556
172	0xbdf58f1e	-0.11990188
173	0x3d747832	0.05968494
174	0x3ce85bc7	0.028364075
175	0x3d5ab166	0.053391837
176	0x3d918413	0.07105269
177	0x3da51511	0.08060659
178	0x3a8f1659	0.0010916694
179	0xbca9491a	-0.02066474
180	0xbc26f96e	-0.010191305
181	0x3d00968a	0.031393565
182	0xbd8edf77	-0.06976216
183	0x3d8a6c52	0.06758942
184	0xbde5554a	-0.11197908
185	0xbd2471a0	-0.040147424
186	0x3d8bf576	0.06833927
187	0x3d433c45	0.0476649
188	0x3d54063e	0.051763766
189	0xbd442873	-0.047890138
190	0x3d2cd147	0.04219177
191	0xbd0e7afa	-0.03478525
192	0x3d9d3f71	0.07678116
193	0xbdf69526	-0.120401666
194	0x3dc3487a	0.09535308
195	0xbd812722	-0.06306292
196	0xbd018efc	-0.0316305
197	0xbdbc3af3	-0.09190931
198	0x3dacbf0c	0.08434877
199	0xbbef1acc	-0.0072968956
200	0x3d8cca0e	0.068744764
201	0xbd63073a	-0.055426814
202	0x3d978d82	0.07400037
203	0x3d70ca6e	0.058786802
204	0x3dbc1600	0.09183884
205	0xbdeac5f2	-0.11463536
206	0xbe02edaa	-0.12785974
207	0x3ba89798	0.0051450245
208	0xbdcc9a1d	-0.09990332
209	0x3d512105	0.05105688
210	0x3cfbda8a	0.030743856
211	0x3d8ac639	0.06776089
212	0x3da7509c	0.08169672
213	0xbd8c54c2	-0.06852104
214	0x3c260a1a	0.010134244
215	0x3d07357f	0.033010002
216	0xbda56b20	-0.08077073
217	0xbde8a2d6	-0.113591835
218	0x3da042c2	0.07825233
219	0xbdb07ac9	-0.086171694
220	0x3d4ef554	0.050526932
221	0xbd61d921	-0.05513871
222	0x3da6245d	0.081124045
223	0x3db468ec	0.08809075
224	0x3d77cfce	0.060500912
225	0x3c93db61	0.018048944
226	0x3ccd3ee1	0.025054397
227	0x3c6e134e	0.01453097
228	0xbde0cf47	-0.10977035
229	0xbdf26110	-0.118349195
230	0x3d80c359	0.062872596
231	0xbdcbe1ac	-0.09955153
232	0xbdc33f83	-0.09533598
233	0x3ce3ca23	0.027806347
234	0x3d8f10f3	0.06985655
235	0xbd255b61	-0.04037035
236	0x3d878a4d	0.06618176
237	0x3cb18f9b	0.021674922
238	0x3b02eee6	0.001997882
239	0xbdd82fe1	-0.10556007
240	0xbcac592f	-0.02103862
241	0x3dccd327	0.100012116
242	0x3bae6335	0.005321885
243	0x3d877b8d	0.06615362
244	0xbc21daa0	-0.009878784
245	0xbdd16881	-0.10225011
246	0xbb18d973	-0.002332297
247	0x3d94eeac	0.072720855
248	0x3dec1a98	0.1152851
249	0xbd89d32a	-0.067297295
250	0xbdb83dce	-0.08996163
251	0x3d8b7e90	0.06811249
252	0xbd1fb023	-0.038986336
253	0x3d7e2504	0.06204702
254	0xbc439a5c	-0.011938658
255	0x3dce1222	0.10062052

value_net.0.attention.in_proj_bias f4 [288]
0	0xbcd7962d	-0.026316727
1	0x3c6d87a1	0.0144976685
2	0x3c778cd8	0.015109263
3	0x3c53fd25	0.012938772
4	0xbbfa8ef5	-0.0076464363
5	0xbbc0d60f	-0.005884893
6	0xbc0685cb	-0.00821061
7	0x3c00d803	0.007864001
8	0x3cc4e1ec	0.02403351
9	0xbbf60010	-0.0075073317
10	0xbc071a4e	-0.008246018
11	0xbc1a19ea	-0.009405592
12	0xbc119e33	-0.008887815
13	0xbc40f1c2	-0.01177639
14	0x3c2303ed	0.009949666
15	0x3c0b2a14	0.008493919
16	0x3d381546	0.044942163
17	0xbb8ffd4a	-0.004394208
18	0xbc1cf518	-0.009579919
19	0xbaf75a3e	-0.0018871499
20	0x3c2ad137	0.010425857
21	0xbc7e6a3c	-0.015528258
22	0x3c9ec125	0.019379208
23	0xbcd32361	-0.025773706
24	0x3ab8df90	0.0014104713
25	0x3cbb2600	0.022845268
26	0xbc0e841b	-0.008698489
27	0x3b5019e5	0.0031753716
28	0xbbb5d994	-0.005549619
29	0x3c05bf84	0.008163337
30	0xbbbe6867	-0.0058107856
31	0x3c523ffb	0.012832637
32	0x3c055fe6	0.00814054
33	0xbc3fe571	-0.011712418
34	0xbbe5d7ef	-0.0070142667
35	0xbb1f24b9	-0.0024283363
36	0x3c6e6907	0.014551408
37	0x3c072173	0.008247721
38	0xbc899e41	-0.016799094
39	0xbb6d441f	-0.0036203933
40	0xbc9562bc	-0.018235557
41	0x3c9a3fc9	0.018829243
42	0x3ca22f00	0.019797802
43	0xbcb10394	-0.021608151
44	0x3c5125b9	0.012765341
45	0xbc81ea69	-0.015858846
46	0xbb0a8d47	-0.0021141337
47	0x3bc52d76	0.0060173823
48	0xbc858687	-0.0162995
49	0x3c8bd7fc	0.017070763
50	0x3c911cd6	0.017713945
51	0xbb24c91d	-0.0025144287
52	0x3c733fb2	0.014846729
53	0x3cb8f99d	0.022579962
54	0x3bbff9ae	0.0058586216
55	0x3c825a1d	0.01591211
56	0xbcf65f05	-0.030074606
57	0xbc28f75b	-0.01031288
58	0x3b8b245f	0.004246279
59	0xbc03fab3	-0.008055377
60	0xbc102c25	-0.008799587
61	0xbc8438a3	-0.016140288
62	0x3c24a52e	0.0100491475
63	0xbb2f31ac	-0.0026732488
64	0xbca3333e	-0.019921895
65	0x3bd8616b	0.00660341
66	0x3ca19cbd	0.019728059
67	0xbb817543	-0.0039507463
68	0xbc64a359	-0.013954961
69	0xbc9a20bc	-0.018814437
70	0xbc58c088	-0.013229497
71	0xb8697b43	-5.5666325e-05
72	0xbcf71d46	-0.030165326
73	0x3c317469	0.010830977
74	0x3c3c3ed6	0.011489591
75	0x3cad4919	0.02115302
76	0xbba3a723	-0.0049942895
77	0xbc1f5621	-0.009725125
78	0xbcb7af6f	-0.02242252
79	0xbcf3f1b6	-0.029778343
80	0x3c5dc2b7	0.013535193
81	0xbb801a29	-0.0039093685
82	0xbb66d129	-0.0035219884
83	0x3be3445e	0.0069356402
84	0x3cdef880	0.027218103
85	0x3c306509	0.010766276
86	0x3c434cd2	0.011920171
87	0xbcb7d3ab	-0.022439798
88	0x3d041b39	0.032252524
89	0x3c054d5d	0.008136121
90	0x3c886bef	0.01665303
91	0x3b91ef00	0.00445354
92	0xbbf3bb9b	-0.007438136
93	0x3bb2120b	0.00543428
94	0xbcf86559	-0.030321764
95	0x3ca8968b	0.020579597
96	0xb51f377a	-5.9312845e-07
97	0xb6c4e919	-5.8683913e-06
98	0xb60e9cc6	-2.1250903e-06
99	0x35cf79a7	1.5458107e-06
100	0xb6bb10c7	-5.5749874e-06
101	0xb4e9230e	-4.3425138e-07
102	0xb685fd3d	-3.9931897e-06
103	0xb60ccdf9	-2.0981518e-06
104	0x343b0551	1.7417666e-07
105	0x361a0931	2.2953138e-06
106	0x3583831a	9.798416e-07
107	0xb605a0dd	-1.991218e-06
108	0x367b1323	3.7413054e-06
109	0xb6145bb0	-2.2107088e-06
110	0x369c0ca6	4.6506348e-06
111	0xb5fbe5ef	-1.8767877e-06
112	0xb3e65c07	-1.0726949e-07
113	0x36a9a5f7	5.0559133e-06
114	0xb5d97a16	-1.6203292e-06
115	0x36902ddd	4.2968736e-06
116	0x360d524a	2.1058536e-06
117	0x36aaf81a	5.0952776e-06
118	0xb7431467	-1.1627656e-05
119	0x36006e31	1.9137626e-06
120	0xb5bfa430	-1.4278394e-06
121	0xb5fdb138	-1.8901546e-06
122	0x35eb2c31	1.7521726e-06
123	0xb5cc105b	-1.5203944e-06
124	0x3659a34d	3.2430573e-06
125	0xb651c21f	-3.125642e-06
126	0x359fe4f9	1.1913063e-06
127	0x358ae258	1.0347676e-06
128	0xb59e760e	-1.1806276e-06
129	0x3611f332	2.1748242e-06
130	0xb64aff88	-3.0249084e-06
131	0xb5897e6f	-1.0244092e-06
132	0xb44b313c	-1.892376e-07
133	0xb6879298	-4.0403793e-06
134	0x36035193	1.9568004e-06
135	0x359fb671	1.1899521e-06
136	0x34898cd6	2.562071e-07
137	0xb59b8667	-1.1587516e-06
138	0xb5e0bc13	-1.6744037e-06
139	0x348d31ca	2.6299523e-07
140	0xb632988e	-2.6612865e-06
141	0x35ceebc3	1.5416812e-06
142	0xb5cdd32b	-1.5335148e-06
143	0x3572a9f9	9.039937e-07
144	0x35a2198d	1.2077377e-06
145	0x359dc127	1.1753626e-06
146	0xb5dbb754	-1.6370127e-06
147	0xb5169c5b	-5.610688e-07
148	0xb4e12ddf	-4.1942891e-07
149	0x3591eefa	1.0872893e-06
150	0x35e88747	1.7324718e-06
151	0xb5c53dd0	-1.4695634e-06
152	0xb5e34b52	-1.6934739e-06
153	0x352530a2	6.153806e-07
154	0x361d98b0	2.34837e-06
155	0xb2afcea0	-2.0466643e-08
156	0x3643898c	2.9137327e-06
157	0xb5b83f98	-1.3727577e-06
158	0xb637151b	-2.728141e-06
159	0xb6ef49cc	-7.131346e-06
160	0x33cea173	9.62199e-08
161	0x35cea87d	1.5397233e-06
162	0xb50bff16	-5.2152734e-07
163	0xb52db8de	-6.471654e-07
164	0xb5601f7d	-8.3492324e-07
165	0xb66df2e8	-3.5457142e-06
166	0x35ea3302	1.7449204e-06
167	0x360ec0d9	2.12719e-06
168	0xb64fae31	-3.0946796e-06
169	0x359d43e6	1.1717173e-06
170	0x3636166b	2.7133162e-06
171	0xb6225b62	-2.4193073e-06
172	0xb68d4bfd	-4.2109737e-06
173	0x347e8443	2.370371e-07
174	0xb70cb6f2	-8.3872455e-06
175	0x36931d8b	4.3843806e-06
176	0xb3ceb0f1	-9.624808e-08
177	0xb6645128	-3.4021887e-06
178	0xb4a2abd7	-3.029988e-07
179	0xb5fbaecf	-1.8751833e-06
180	0xb63247d1	-2.656587e-06
181	0xb449f437	-1.8808429e-07
182	0x359cad8b	1.1673413e-06
183	0x36e6cabf	6.878137e-06
184	0xb60cefc2	-2.1001183e-06
185	0xb6a60667	-4.947931e-06
186	0xb5c1f592	-1.4451091e-06
187	0xb7384715	-1.0983805e-05
188	0xb680a589	-3.833968e-06
189	0xb694f4b8	-4.4392327e-06
190	0xb6f7c173	-7.383694e-06
191	0xb619909a	-2.2882946e-06
192	0x3bd2c221	0.0064318334
193	0xbc5814cb	-0.013188551
194	0x3d66f153	0.05638249
195	0xbcb73114	-0.02236227
196	0x3bb56a85	0.0055363798
197	0x3d5fb350	0.054614365
198	0x3d42e21d	0.04757892
199	0xbc41bef1	-0.011825309
200	0xbd23250a	-0.039830245
201	0xbb7308d4	-0.003708412
202	0x3c4f952c	0.012669843
203	0x3c011a19	0.007879757
204	0x3d8b82d6	0.06812064
205	0x3b542279	0.003236918
206	0x3bd71d59	0.006564778
207	0x3cf64ad4	0.030064978
208	0x3d0d93aa	0.03456465
209	0x3b19c876	0.0023465431
210	0x3c168af3	0.0091884015
211	0xbbc97da1	-0.0061490093
212	0xbcf286ba	-0.029605258
213	0xbb845acf	-0.0040391455
214	0xbc9ecfa9	-0.01938613
215	0x3ccf3aa7	0.025296522
216	0x3d13163b	0.035909873
217	0xbc8840cd	-0.016632462
218	0x3cd2da78	0.02573894
219	0x39dfeb90	0.00042709382
220	0xbb2030f3	-0.0024443239
221	0x3c159210	0.009129062
222	0x3cbe6e54	0.023245968
223	0x3b4eb58d	0.0031541318
224	0x3c0e39ca	0.00868077
225	0x3c931498	0.017954156
226	0xbd012b96	-0.031535707
227	0x3b38468e	0.0028118226
228	0xbbecea77	-0.007230099
229	0xbb9176f3	-0.0044392287
230	0xbd2ae796	-0.041724764
231	0x3ced27f8	0.028949723
232	0xbb4f7052	-0.0031652641
233	0xbc227aa5	-0.009916936
234	0x3c452a1f	0.012033968
235	0x3ce09e1d	0.027419144
236	0xbca6ad0d	-0.020346189
237	0xbd273be0	-0.040828586
238	0xbce3317c	-0.027733557
239	0xbcafc04b	-0.021453997
240	0x3ab28a4f	0.0013621541
241	0x3cd38255	0.025818983
242	0xbce7f906	-0.028316986
243	0x3b7df464	0.0038750404
244	0x3c5ab794	0.0133494325
245	0xbca8ec1e	-0.020620402
246	0x3d0b3ca7	0.03399339
247	0x3c3db047	0.011577672
248	0x3cf74e83	0.030188804
249	0x3b953770	0.004553728
250	0x3d0896b4	0.033346847
251	0x3ce120be	0.027481433
252	0x3c60bb55	0.013716538
253	0xbc17ed57	-0.009272895
254	0x3cbd773f	0.02312815
255	0xbc601643	-0.013677183

value_net.0.attention.out_proj.weight f4 [96, 96]
0	0x3d8b632f	0.06806027
1	0x3cc034c3	0.023462659
2	0x3cbb1db5	0.022841314
3	0x3d9b2d02	0.07576944
4	0x3d32efc0	0.043685675
5	0x3d9575c7	0.07297855
6	0x3d22e9f7	0.039773908
7	0x3d756e2f	0.059919532
8	0x3ce30d47	0.027716292
9	0xbcead605	-0.028666506
10	0xbdb854c9	-0.090005465
11	0xbda90200	-0.082523346
12	0xbd7befb1	-0.061507884
13	0x3d833727	0.06407004
14	0x3cb106c5	0.021609673
15	0xbba5fb46	-0.0050653545
16	0xbde427e1	-0.11140419
17	0x3cf531a1	0.029930891
18	0xbcb92737	-0.022601707
19	0x3dd83da8	0.10558635
20	0xbaf7ee75	-0.001891567
21	0x3d701a1c	0.05861865
22	0x3d71890e	0.058968596
23	0x3cbd315b	0.023094824
24	0x3d87d8b2	0.06633128
25	0x3d5dfafe	0.054194443
26	0x3d9541a8	0.072879136
27	0xbd77a99c	-0.060464486
28	0x3d8df8b0	0.06932199
29	0x3cd2563f	0.025675891
30	0x3cc20c3d	0.023687476
31	0xbdc38bce	-0.0954815
32	0xbc458a57	-0.012056909
33	0xbd846dfe	-0.06466292
34	0x3dd27175	0.102755465
35	0x3bdaf3d9	0.006681901
36	0xbd88b3c8	-0.066749156
37	0x3d2beb2a	0.041972317
38	0xbbb5330d	-0.0055297674
39	0xbd61ab7a	-0.055095173
40	0x3dffec38	0.12496227
41	0xbc547343	-0.012966934
42	0xbcf31b86	-0.02967621
43	0xbdcb3cb5	-0.09923688
44	0xbb174abd	-0.002308532
45	0x3da5b2bb	0.08090731
46	0xbaa7ba44	-0.00127966
47	0x3d04283d	0.032264937
48	0xbdc23967	-0.09483605
49	0xbdbeb8ad	-0.09312568
50	0x3d71d518	0.059041113
51	0xbd942748	-0.07234055
52	0x3a5ed7d1	0.0008500787
53	0xbdb0a2da	-0.086248115
54	0x3d5bc81e	0.053657643
55	0xbc0b753e	-0.008511839
56	0xbdd1d671	-0.102459796
57	0xbd8cebc2	-0.06880905
58	0x3d54668c	0.05185561
59	0x3cfaa7a6	0.03059752
60	0xbd4ef90a	-0.05053047
61	0xbcb061d5	-0.021531025
62	0x3d86e4c3	0.065866016
63	0x3c5cefd4	0.013484914
64	0x3da5e49d	0.08100245
65	0x3dd0d1fc	0.10196301
66	0xbd3c4572	-0.045964666
67	0x3d3184f0	0.04333967
68	0xbc6d07ba	-0.014467174
69	0xbbba3414	-0.0056824777
70	0xbd625da2	-0.055265076
71	0x3d0d7ab9	0.034540866
72	0x3ccf0e91	0.0252755
73	0xbc4d69f0	-0.0125374645
74	0x3da4261a	0.0801508
75	0x3c90ab36	0.017659765
76	0xbda51eb2	-0.08062495
77	0x3dacaa5a	0.084309295
78	0x3d910ca8	0.07082492
79	0xbcc5fc13	-0.02416805
80	0x3cc085d2	0.02350131
81	0xbdcfa066	-0.101380154
82	0x3d830353	0.063971184
83	0xbdb77624	-0.089580804
84	0xbd93d18f	-0.072177045
85	0xbd11cc31	-0.035595123
86	0xbdaf70fb	-0.08566471
87	0x3baa5f9b	0.0051993853
88	0x3b7b4cc3	0.0038345314
89	0xbd48c5b7	-0.04901668
90	0xb9b8cf66	-0.0003524974
91	0xbd9a9a59	-0.07548971
92	0xbd523bd3	-0.051326584
93	0xbcf51716	-0.029918235
94	0x3c59718d	0.0132717015
95	0x3db234c7	0.08701473
96	0x3c3ed444	0.011647288
97	0x3c8b6516	0.017015975
98	0xbd03adff	-0.032148357
99	0x3d17059b	0.03687058
100	0xbbf37db5	-0.007430757
101	0x3da49ab3	0.08037319
102	0x3c5ed650	0.013600901
103	0xbd5f6411	-0.05453879
104	0x3dc537f5	0.096298136
105	0x3cb7710e	0.022392776
106	0xbca44877	-0.020054085
107	0x3d8a44dc	0.06751415
108	0xbd61fe39	-0.055174086
109	0x3bd339ae	0.006446085
110	0x3c88022d	0.0166026
111	0x3b0d9536	0.002160383
112	0x3d8f6cf3	0.07003202
113	0xbd9526fe	-0.07282828
114	0xbdcb7876	-0.099350855
115	0xbc650fed	-0.013980848
116	0x3dc8e619	0.09809513
117	0xbcf77476	-0.0302069
118	0x3deb1e74	0.11480418
119	0xbcaf5c12	-0.021406207
120	0x3ce34b94	0.027746
121	0xbc979c49	-0.01850714
122	0xbdb618a0	-0.088914156
123	0xbd4bab2d	-0.049723793
124	0x3d283016	0.041061483
125	0x3cdbe57a	0.026842821
126	0x3d819424	0.06327084
127	0xbd8d55bd	-0.06901119
128	0xbd9208f6	-0.071306154
129	0x3c382745	0.011239831
130	0xbd18d8e7	-0.03731623
131	0x3cdaece5	0.026724288
132	0x3bb3292d	0.005467555
133	0x3c47c479	0.012192839
134	0xbccc1e83	-0.024916893
135	0x3c9020df	0.0175938
136	0xbc8bcb1d	-0.017064625
137	0xbd179c59	-0.03701434
138	0xbdd13159	-0.102144904
139	0xbdb9a694	-0.090649754
140	0xbc9da914	-0.019245662
141	0xbc9e9583	-0.019358402
142	0x3d5847ac	0.052802727
143	0x3d1e778b	0.038688224
144	0x3c0acaca	0.0084712
145	0xbdd7d643	-0.10538914
146	0x3d9ff100	0.07809639
147	0xbd88d791	-0.06681741
148	0xbd1716fd	-0.036887158
149	0x3c504e1a	0.012713933
150	0xbdb3a185	-0.08771042
151	0x3d5d167c	0.05397652
152	0xbc20e329	-0.009819784
153	0x3d15da0c	0.0365849
154	0x3d908547	0.07056671
155	0x3c09e743	0.0084169535
156	0xba7a2609	-0.0009542411
157	0x3d07b94b	0.033135694
158	0xbc8dad7f	-0.017294643
159	0x3dd0458b	0.10169514
160	0xbd09fccc	-0.03368835
161	0xbd421d83	-0.047391426
162	0xbda156f6	-0.078779146
163	0xbc269c0f	-0.010169043
164	0x3d870af0	0.06593883
165	0x3934e36a	0.00017250856
166	0xbd7fc66c	-0.06244509
167	0x3b8adb6a	0.004237582
168	0xbda4ced0	-0.08047259
169	0xbdc95ce3	-0.0983217
170	0xbba39344	-0.0049919207
171	0xbc392b16	-0.011301776
172	0xbd7ae236	-0.061250888
173	0xbce47f14	-0.027892627
174	0x3dc61c78	0.09673399
175	0x3de7091a	0.11281033
176	0x3d4f0645	0.05054309
177	0x3bb68120	0.005569592
178	0x3d8b2aae	0.0679525
179	0xbdd1897a	-0.102313
180	0xbc691f0e	-0.014228595
181	0x3db77c4c	0.089592546
182	0xbdafc3af	-0.085822456
183	0x3e0ee8a3	0.13955931
184	0x3dd0b628	0.101909935
185	0xbcbbb232	-0.022912119
186	0x3d77ea55	0.06052621
187	0x3c97c204	0.018525131
188	0xbdb69db0	-0.08916795
189	0x3d0e100d	0.034683276
190	0x3d02e3cc	0.031955525
191	0x3cdf17fd	0.027233118
192	0x3d46d79e	0.048545472
193	0xbd93fdfc	-0.07226178
194	0x3d9737ab	0.07383665
195	0xbda89380	-0.082312584
196	0x3dc4e3c5	0.09613756
197	0x3dbab11f	0.091158144
198	0xbd8fc5ab	-0.07020124
199	0xbc1da7af	-0.009622498
200	0x3d6efaed	0.05834477
201	0xbc311ae4	-0.010809634
202	0xbcce0c2f	-0.025152294
203	0xbb9a2d3e	-0.0047051003
204	0x3d84145f	0.06449198
205	0x3c9e511d	0.019325787
206	0xbd5e561b	-0.054281335
207	0x3d013dd8	0.03155312
208	0x3cc57b20	0.024106562
209	0x3d16d172	0.036820836
210	0x3e103f23	0.14086585
211	0xbdcd59fc	-0.10026929
212	0xbd11fcb4	-0.035641387
213	0xbc1ac7d8	-0.0094470605
214	0xbd1c3537	-0.038136687
215	0xbd8b6792	-0.06806864
216	0x3df78ea4	0.120877534
217	0x3db6fc67	0.08934861
218	0xbd872aec	-0.065999836
219	0xbce8b169	-0.028404908
220	0xbd59c6d1	-0.05316812
221	0x3b81a3ed	0.003956309
222	0xbd8f032c	-0.06983027
223	0xbdab9a29	-0.08379013
224	0x3c3a3cad	0.011367005
225	0x3dec918a	0.11551197
226	0xbc67794e	-0.014128042
227	0x3d9197b3	0.071090125
228	0xbd110812	-0.035408087
229	0xbd741230	-0.059587657
230	0xbdf52a51	-0.11970962
231	0x3a59e07c	0.0008311344
232	0xbc74535e	-0.014912454
233	0xbd677ed3	-0.056517433
234	0xbd8e4395	-0.06946484
235	0xbd7b0799	-0.061286543
236	0x3dc4e8d7	0.09614723
237	0xbd0b3daa	-0.033994354
238	0x3d3a9fb6	0.04556247
239	0x3d6d969b	0.058004957
240	0x3e03fdc6	0.12889776
241	0x3cddc893	0.02707318
242	0xbd8e727f	-0.06955432
243	0x3df902a8	0.1215871
244	0x3d860803	0.06544497
245	0xbdc33cdf	-0.095330946
246	0x3d319e90	0.043364108
247	0xbd5c637e	-0.05380582
248	0x3aee18af	0.0018165315
249	0xbc4ba99f	-0.012430578
250	0x3a7dc996	0.0009681223
251	0x3cec6855	0.028858343
252	0x3e061575	0.13094123
253	0x3cca2854	0.024677433
254	0x3c06245b	0.008187379
255	0xbd7a6940	-0.06113553

value_net.0.attention.out_proj.bias f4 [96]
0	0xbc7c1673	-0.015386212
1	0xbcae2cf8	-0.021261677
2	0x3d3e7dc7	0.04650667
3	0x3ca0eeb5	0.019645074
4	0x3a6252dc	0.0008633563
5	0xbc7e2d9f	-0.015513807
6	0x3ce67822	0.028133456
7	0xbd00f5c4	-0.03148438
8	0x3c31e6c8	0.010858245
9	0x3c69d8a9	0.014272847
10	0x3c0f8a62	0.00876102
11	0x3ca9b4b2	0.020716045
12	0xbcfd5e01	-0.030928614
13	0xbc4333a5	-0.0119141685
14	0x3cd8b867	0.026455117
15	0x3c8274bb	0.015924802
16	0x3c0d2c9c	0.008616593
17	0xbc95c9fb	-0.018284788
18	0x3ca9061b	0.020632794
19	0x3cad1a0a	0.02113058
20	0x3cd3515d	0.025795633
21	0x3d33036b	0.04370443
22	0x3c8683fc	0.016420357
23	0x3c993742	0.018703107
24	0xbd226779	-0.03964946
25	0xbc28d93f	-0.010305702
26	0xbd296c53	-0.04136307
27	0xbce9f955	-0.028561274
28	0x3c4f6795	0.012658973
29	0x3cce0e08	0.025153175
30	0xbc8ca11f	-0.017166672
31	0x3c525eeb	0.012840013
32	0xbd57ef01	-0.052718166
33	0x3c6cab03	0.014445069
34	0xbccca88a	-0.02498271
35	0xbc4c45ef	-0.012467845
36	0xbc72dfff	-0.014823913
37	0x3ca68187	0.020325435
38	0xbb6e7d32	-0.003639054
39	0xbc2318e8	-0.009954669
40	0x3cab26ac	0.020892464
41	0xbb598ad6	-0.0033194325
42	0xbcab824d	-0.020936156
43	0xbcb0a2d5	-0.02156202
44	0x3c5e3ffd	0.013565061
45	0xbc695c24	-0.014243159
46	0xbcdf0a42	-0.027226571
47	0xbceb1915	-0.028698483
48	0xb9336e09	-0.00017111762
49	0x3bf067a7	0.007336575
50	0xbc91d977	-0.01780389
51	0x3c06b373	0.008221495
52	0x3ccd9c09	0.025098817
53	0xbce56f52	-0.028007183
54	0xbce5f05c	-0.028068714
55	0x3c71d73b	0.014760788
56	0x3adde752	0.0016929901
57	0x3d1a9a6b	0.03774492
58	0xba010695	-0.000492194
59	0x3d52e226	0.051485203
60	0xbd0457f2	-0.032310434
61	0x3cd9683f	0.026538966
62	0xbcf1528c	-0.029458307
63	0xbd4ccfe3	-0.050002944
64	0xbb7e2aae	-0.0038782763
65	0xbbf44b66	-0.0074552773
66	0x3b594a21	0.0033155757
67	0xbc637ffe	-0.013885496
68	0x3d5506f8	0.0520086
69	0xbcacdcf7	-0.021101458
70	0x3ca1bc1f	0.019743023
71	0x3d6c2e96	0.057661615
72	0xbc51b577	-0.012799612
73	0xbd67999c	-0.056542978
74	0x3c694043	0.014236513
75	0x3d31a0d6	0.043366276
76	0x3cc21791	0.023692878
77	0xbc30ee15	-0.010798951
78	0x3ab0b8d6	0.001348282
79	0xbcf41b97	-0.029798312
80	0x3c909cc1	0.017652871
81	0xbc88e956	-0.016712826
82	0x3bff4ce5	0.007791149
83	0xbc9ba69f	-0.01900035
84	0x3c7545cd	0.014970255
85	0x3a24b0b9	0.0006282437
86	0xbcade681	-0.021228077
87	0x3bea13af	0.0071434597
88	0xbd64d687	-0.05586865
89	0x3c4a7f06	0.012359386
90	0x3d0bb76c	0.03411047
91	0x3c622967	0.013803816
92	0xbb7dcdc3	-0.003872738
93	0x39c3f9e2	0.00037379476
94	0x3c4bc57a	0.012437219
95	0x3cf5cfd3	0.030006325

value_net.1.weight f4 [64, 96]
0	0x3ceefe95	0.029174129
1	0xbd839fdb	-0.064269744
2	0xbdbed105	-0.09317211
3	0xbc282fbf	-0.01026529
4	0x3d4b313d	0.049607504
5	0x3dabe25e	0.083927855
6	0x3da3a95d	0.07991288
7	0xbcd33777	-0.025783284
8	0xbb18763f	-0.002326384
9	0x3dd14ef2	0.10220136
10	0x3da1b9cf	0.07896768
11	0xbdadbe04	-0.08483508
12	0x3cdd36aa	0.027003605
13	0x3b72772d	0.0036997304
14	0xbd97f707	-0.074201636
15	0x3c971865	0.01844425
16	0x3d330a80	0.043711185
17	0x3d098e6d	0.033583093
18	0xbd7346b5	-0.059393603
19	0x3d324fb5	0.043533046
20	0xbce6aa92	-0.028157506
21	0xbca2ac59	-0.019857572
22	0xbcd38d67	-0.025824262
23	0x3d824894	0.063614994
24	0x3dc8401b	0.09777852
25	0x3b463e27	0.0030249448
26	0x3c01d69c	0.007924702
27	0xbdda0583	-0.106455825
28	0x3d27c9b0	0.04096383
29	0x3ce7c9c0	0.028294444
30	0x3da5f9a0	0.08104253
31	0xbdc00fda	-0.093780234
32	0xbda36a83	-0.079793
33	0xbd5c44f3	-0.053776693
34	0xbd921543	-0.071329616
35	0xbdccb80c	-0.09996042
36	0xbcb16146	-0.021652829
37	0xbdb620db	-0.088929854
38	0x3d8041f2	0.06262578
39	0xbd960999	-0.07326049
40	0xbdc6e9f7	-0.09712594
41	0x3cacfc52	0.02111641
42	0x3dc3a1e5	0.09552363
43	0x3d17ea69	0.037088785
44	0x3dde9bff	0.10869598
45	0x3c1f603d	0.009727535
46	0x3c92ab2d	0.017903889
47	0x3cef8442	0.02923787
48	0x3d5fb796	0.05461844
49	0xbccaf4c1	-0.02477491
50	0x3d8862f3	0.06659498
51	0x3db9199c	0.09038088
52	0xbd9aa76a	-0.07551463
53	0x3bba7f72	0.005691462
54	0x3c9d69a7	0.019215418
55	0x3dcc7ee4	0.0998514
56	0xbd0a3976	-0.033746205
57	0x3d717f57	0.05895933
58	0xbdbc5703	-0.09196284
59	0xbd94f23c	-0.07272765
60	0xbde05353	-0.10953393
61	0xbd5af687	-0.053457763
62	0xbd798390	-0.060916483
63	0x3d88980e	0.06669627
64	0xbd84d924	-0.06486729
65	0x3cfba36a	0.03071757
66	0x3cedfa47	0.029050006
67	0xbd0c7089	-0.03428701
68	0x3d967e45	0.07348303
69	0xbd8cb312	-0.068700925
70	0x3da7797e	0.0817747
71	0xbcdb753d	-0.026789302
72	0xbdc2d320	-0.09512925
73	0x3dceb7c3	0.100936435
74	0x3d21aed5	0.039473373
75	0x3da3c110	0.07995808
76	0xbd9c6caa	-0.076379135
77	0x3cce8717	0.0252109
78	0xbd69cf24	-0.05708231
79	0x3d0b660f	0.034032878
80	0x3d225fbf	0.03964209
81	0x3db0ec1b	0.086387835
82	0xbd9cc860	-0.07655406
83	0x3d86c38b	0.065802656
84	0x3cb295c9	0.021799939
85	0x3daded99	0.08492584
86	0x3d18ae35	0.03727551
87	0x3c9e4921	0.01932198
88	0xbda4751d	-0.0803015
89	0x3c9cfce5	0.019163558
90	0x3c0ddd2b	0.008658688
91	0x3ad1b3c3	0.0015999008
92	0x3d9e870b	0.07740601
93	0xbdd0ca3d	-0.10194824
94	0x3d9b935d	0.07596467
95	0xbca8c989	-0.020603912
96	0xbd2afdc1	-0.041745905
97	0x3d0c94ef	0.03432172
98	0xbc0f3c24	-0.008742366
99	0x3d79ecb7	0.061016764
100	0x3d4234d6	0.04741367
101	0x3c3293bc	0.01089948
102	0x3cc861b5	0.024460653
103	0xbd1efa8e	-0.038813166
104	0xbda86a5c	-0.082234114
105	0x3d7923fa	0.060825326
106	0xbd83f902	-0.06443979
107	0x3d2e9ab6	0.042628013
108	0x3cbc5693	0.0229905
109	0xbc292736	-0.01032429
110	0x3dd04e92	0.10171236
111	0x3b8a80ff	0.0042268033
112	0x3d654625	0.0559751
113	0xbd457cb9	-0.048214648
114	0x3d3fb34b	0.046801846
115	0x3d6fb3f7	0.058521237
116	0xbd5c3efb	-0.053771
117	0x3d4388b9	0.04773781
118	0x38d75349	0.00010267512
119	0x3d1f7aa8	0.038935333
120	0x3dca5c21	0.098808534
121	0xbd7c849e	-0.06164991
122	0xbd5df036	-0.05418416
123	0x3dac9856	0.08427493
124	0x3d1dfc2e	0.038570575
125	0x3db00731	0.08595122
126	0xbd54630f	-0.051852282
127	0xbb5dd288	-0.003384741
128	0x3b5fc3f0	0.0034143887
129	0xbd62122c	-0.05519311
130	0x3da04a4e	0.078266725
131	0x3d99eaa0	0.07515454
132	0x3dcdc1e7	0.100467496
133	0x3dbfaaa0	0.09358716
134	0x3d932873	0.071854495
135	0xbd868006	-0.06567387
136	0xbb58d326	-0.0033084839
137	0xbc0f5d0b	-0.0087502105
138	0xbc6acf6a	-0.014331678
139	0xbdd65d3f	-0.10467004
140	0x3deecea1	0.11660505
141	0xbd5e96c2	-0.054342993
142	0x3cf98583	0.030459171
143	0x3c5e7261	0.013577075
144	0x3c569e3e	0.013099251
145	0xbcb58cb0	-0.022161812
146	0x3c0425f0	0.008065686
147	0xbd2864d2	-0.041111775
148	0xbdaf3633	-0.085552596
149	0x3d830962	0.06398274
150	0xbd6a9752	-0.057273217
151	0xbd4d48fd	-0.050118435
152	0x3ced60cb	0.028976819
153	0xbc6aa3ec	-0.014321309
154	0x3d896441	0.06708575
155	0xbc9367f7	-0.01799391
156	0xbd905810	-0.070480466
157	0xbd717f80	-0.058959484
158	0xbdbb70e1	-0.09152389
159	0xbd3b593c	-0.045739397
160	0x3c79e801	0.015253068
161	0x3baf9e65	0.0053594583
162	0xbde3a9d1	-0.11116374
163	0x3c8001a9	0.015625792
164	0x3cde3d27	0.02712877
165	0xbd4232eb	-0.04741184
166	0x3d8f958a	0.07010944
167	0xbd5770db	-0.05259786
168	0x3d400dd7	0.0468882
169	0x3d9eea11	0.077594884
170	0xbb92a508	-0.0044752397
171	0xbd0f0626	-0.034917973
172	0x3d9ad81b	0.0756075
173	0x3d45fea3	0.048338544
174	0x3d3d7582	0.046254642
175	0xbca09558	-0.019602463
176	0x3db918e3	0.0903795
177	0xbd8cbf13	-0.06872382
178	0x3b023ad4	0.001987149
179	0x3d95fb58	0.07323331
180	0xbdccb0e8	-0.0999468
181	0xbd174443	-0.036930334
182	0xbc39f23b	-0.011349256
183	0xbdd3a980	-0.10335064
184	0xbdba8c5f	-0.09108805
185	0xbc5f795e	-0.013639776
186	0x3c19da55	0.009390433
187	0xbd8c118d	-0.06839285
188	0xbda38b3f	-0.079855435
189	0xbd2f97e4	-0.042869464
190	0xbdb16211	-0.08661283
191	0xbddd006a	-0.107910946
192	0x3d3c5309	0.045977626
193	0xbd257a24	-0.040399686
194	0x3cfdddcc	0.03098955
195	0xbc2d3370	-0.010571346
196	0xbda94f22	-0.082670465
197	0x3db605c5	0.08887819
198	0xbd519b51	-0.051173512
199	0xbd918550	-0.071055055
200	0xbd336ffc	-0.04380797
201	0xbdd52d1f	-0.10408997
202	0x3c5b9907	0.013403184
203	0xbc5640a3	-0.013076934
204	0x3d9cbc52	0.07653107
205	0x3b7c25a7	0.003847459
206	0xbda73b07	-0.081655554
207	0xbc08ed84	-0.008357409
208	0xbd94f2b9	-0.07272858
209	0xbdc221f7	-0.094791345
210	0xbd10f9cf	-0.035394486
211	0x3db70829	0.08937103
212	0x3d855843	0.06510975
213	0xbd8adc5a	-0.0678031
214	0xbde3746e	-0.111061916
215	0xbc551c7e	-0.013007281
216	0x3dc08353	0.09400048
217	0xbdd8b374	-0.10581103
218	0xbd44356e	-0.047902517
219	0xbd8ce25c	-0.06879112
220	0x3ceba399	0.028764533
221	0x3db626c0	0.0889411
222	0xbd13221a	-0.035921194
223	0x3c9cdd86	0.0191486
224	0xbcf2b866	-0.029628944
225	0x3d3ec92c	0.04657857
226	0xbc50b84f	-0.012739255
227	0xbdd14fac	-0.10220274
228	0xbdad6d34	-0.084680945
229	0xbd2de35a	-0.042453147
230	0x3da42bce	0.080161676
231	0x3beb38c7	0.0071783992
232	0xbca8b998	-0.02059631
233	0xbd4e5ef5	-0.050383527
234	0x3dc6d01c	0.097076625
235	0x3d20e15d	0.039277423
236	0x3cae7705	0.021296987
237	0x3dac3d68	0.0841015
238	0x3cea316a	0.028588016
239	0xbcd62c39	-0.026144134
240	0x3dba0c4c	0.09084377
241	0xbd9cdf30	-0.07659757
242	0xbaf64a43	-0.0018790442
243	0xbdc600fb	-0.09668156
244	0x3da1ec7c	0.07906434
245	0x3ce7ff6b	0.028320035
246	0xbdb54ed9	-0.088529296
247	0x3d4fb67b	0.050711136
248	0xbdce20ec	-0.10064873
249	0x3d90a7f6	0.07063286
250	0xbd32e7a4	-0.04367794
251	0x3c8c52f8	0.017129406
252	0x3d0c70f8	0.034287423
253	0x3d993e29	0.07482559
254	0x3c7c6a2a	0.015406171
255	0xbd5add05	-0.053433437
