scripts/models/602/34/1/actorModel.pth (torch, 216555 bytes, 12 tensors)

policy_net.0.input_layer.weight f4 [81, 128]
0.08816618 0.06380028 0.040650383 -0.06689905 0.04484669 -0.032248124 0.0060912813 -0.022824785
-0.07964254 -0.024646055 -0.006786492 0.03330957 0.04606724 0.008579137 -0.043920483 -0.017516172
0.06322613 -0.044019166 -0.08474925 0.056559816 0.010036521 0.06801951 0.03783826 -0.043326803
-0.05899878 -0.030070702 0.08602346 0.047767866 0.024327587 0.02021166 -0.05297488 0.04250874
0.027396329 0.013111575 -0.0032848758 0.07444078 0.07120738 -0.06265277 -0.013954405 -0.03745677
-0.009139928 -0.005467263 0.06515674 0.0499063 0.043700993 -0.016467297 0.048351526 0.07346318
0.07497981 -0.026722457 0.07360446 0.028748106 -0.06440142 -0.08194338 0.08578084 -0.08518908
-0.020370338 -0.0062657166 -0.08531067 -0.033897866 -0.03231442 -0.056582194 -0.026907256 0.0029884207
-0.08495852 0.02679992 -0.01255854 -0.06593876 0.07980358 0.050920464 -0.047306214 0.06987061
-0.045089044 -0.02469874 0.0321893 0.08461791 -0.011382891 -0.027312364 0.06932747 0.021830345
-0.086676076 0.041960698 0.030459352 -0.03300055 -0.002674601 0.074406035 0.0041840225 0.053743288
-0.044464134 0.08638524 0.0070129307 -0.0653456 -0.069439575 0.040327948 0.070098035 0.065283716
-0.016268983 -0.0666138 -0.0043030498 -0.036559228 -0.016668094 -0.011560349 -0.016525647 0.04064854
0.0423666 0.08363721 0.062365912 -0.0053352043 -0.042238392 0.019356532 0.01695845 -0.030207718
0.08533957 -0.05848347 -0.0425317 0.06385693 -0.0132685695 0.024610307 0.029825842 0.035832807
0.0683589 -0.06979714 -0.010489754 0.05875915 0.013348491 0.0070358855 -0.005488911 -0.043774296
-0.002791392 0.048520472 0.017892642 -0.027056813 -0.06466366 0.018540658 -0.036794934 -0.06690734
-0.01567042 0.08210825 -0.08298489 0.029681303 0.01617402 -0.07847562 0.03627104 -0.023992393
0.070007466 -0.08093665 -0.014855643 0.083010115 0.08062292 -0.077229895 -0.047687862 0.06364256
0.08445378 0.037982497 0.038040355 0.08072758 -0.041857794 -0.0415163 0.037784956 0.058871593
-0.023950929 -0.082115114 -0.012366324 -0.040019255 -0.035402395 0.04690137 -0.012380652 -0.084721774
0.022767175 0.06364503 -0.006871112 0.024639996 -0.045584407 0.044741735 -0.025547335 0.02271913
0.07472762 0.0041878726 -0.025158985 -0.08291127 -0.009933288 -0.0070287813 -0.065811574 0.019541677
0.08783418 -0.03626534 0.036374193 -0.05380674 -0.012206974 0.054123 -0.02435516 0.025287306
0.04705119 -0.012605206 -0.03662989 0.022830501 -0.0066922917 -0.0023910608 0.08566062 -0.03986547
-0.052082103 -0.08056416 0.04275801 -0.058517855 0.039830342 0.001139035 0.008288596 0.021902759
0.036772557 0.06713276 -0.009896014 -0.066975325 0.08654535 -0.029032424 0.07059656 0.012350415
0.075250246 0.0024997552 -0.021309678 -0.051912777 0.040004514 -0.050824463 -0.057342578 0.07385284
0.016049286 -0.05844147 0.06830558 0.013727403 -0.036602683 0.050161283 0.030323833 -0.03567049
0.07330633 -0.052376214 0.044192392 -0.009519115 0.0635664 0.03629856 0.085009046 -0.05907277
0.062030666 0.012050612 0.029813077 -0.0091282325 -0.059039325 0.0821409 0.043690868 -0.046896797
0.037296727 -0.021425119 -0.07615433 -0.021705186 -0.009610599 -0.013606169 0.06613532 -0.008070157
00000000: 7890 b43d b9a9 823d 0481 263d 5e02 89bd
00000010: 2ab1 373d 9c16 04bd 5f99 c73b 0bfb babc
00000020: a11b a3bd 86e6 c9bc 3961 debb 9e6f 083d
00000030: 01b1 3c3d 828f 0c3c f7e5 33bd 137e 8fbc
00000040: b47c 813d 714d 34bd 0491 adbd 44ab 673d
00000050: 3870 243c d04d 8b3d 4bfc 1a3d 7277 31bd
00000060: b4a8 71bd d556 f6bc 112d b03d 3da8 433d
00000070: a64a c73c ec92 a53c 30fc 58bd a51d 2e3d
00000080: 446e e03c eed1 563c 1247 57bb 6874 983d
00000090: 2dd5 913d 1850 80bd 04a1 64bc 456c 19bd
000000a0: a3bf 15bc ba26 b3bb e670 853d 8c6a 4c3d
000000b0: d0ff 323d 6de6 86bc 400c 463d dd73 963d
000000c0: 048f 993d 0ee9 dabc efbd 963d 2681 eb3c
000000d0: e4e4 83bd eed1 a7bd ddad af3d 9d77 aebd
000000e0: b2df a6bc a450 cdbb 5cb7 aebd 7dd8 0abd
000000f0: 205c 04bd bbc2 67bd 9b6c dcbc 61d9 433b
00000100: bcfe adbd 818b db3c 56c2 4dbc e70a 87bd
00000110: 0f70 a33d fa91 503d 29c4 41bd 5318 8f3d
00000120: 4aaf 38bd 0355 cabc edd8 033d 284c ad3d
00000130: 4e7f 3abc 2ebe dfbc 90fb 8d3d 8dd5 b23c
00000140: 3a83 b1bd fbde 2b3d e485 f93c 962b 07bd
00000150: 5c48 2fbb 3162 983d 201a 893b ec21 5c3d
00000160: 0620 36bd bfea b03d bacc e53b ead3 85bd
00000170: 5636 8ebd eb2e 253d 8f8f 8f3d 78b3 853d
00000180: 8846 85bc d16c 88bd 9900 8dbb 21bf 15bd
00000190: 878b 88bc 9e67 3dbc cb60 87bc 157f 263d
000001a0: 9a88 2d3d fc49 ab3d 6673 7f3d f0d2 aebb
000001b0: 2a02 2dbd 9791 9e3c 73ec 8a3c 2d76 f7bc
000001c0: 83c6 ae3d 5d8c 6fbd b835 2ebd 6cc7 823d
000001d0: 6a64 59bc 8e9b c93c 5355 f43c 6cc5 123d
000001e0: c0ff 8b3d cef1 8ebd 38dd 2bbc 6fad 703d
000001f0: a1b3 5a3c 498d e63b 53dc b3bb ad4c 33bd
00000200: c9ef 36bb 67bd 463d 9793 923c 40a6 ddbc
00000210: 626e 84bd 94e2 973c 49b6 16bd b706 89bd
00000220: 415f 80bc 5f28 a83d fbf3 a9bd 3426 f33c
00000230: 617f 843c d3b7 a0bd f190 143d b28b c4bc
00000240: 1360 8f3d 1dc2 a5bd 1565 73bc 3501 aa3d
00000250: a11d a53d b52a 9ebd 5954 43bd 0857 823d
00000260: 1af6 ac3d 8993 1b3d 34d0 1b3d 8054 a53d
00000270: 1473 2bbd ff0c 2abd 66c4 1a3d 5723 713d
00000280: bd34 c4bc f82b a8bd 1f9c 4abc 3beb 23bd
00000290: 1a02 11bd a71b 403d 38d8 4abc 9c82 adbd
000002a0: 3a82 ba3c 5358 823d 1127 e1bb d1d9 c93c
000002b0: b7b6 3abd 1c43 373d a548 d1bc 781d ba3c
000002c0: cb0a 993d 6c3a 893b 371a cebc 62cd a9bd
000002d0: 3bbf 22bc b151 e6bb 38c8 86bd de15 a03c
000002e0: 68e2 b33d f78a 14bd 1bfd 143d 7564 5cbd
000002f0: c3ff 47bc 14b0 5d3d 7984 c7bc 5327 cf3c
00000300: c0b8 403d 1186 4ebc 3909 16bd 0807 bb3c
00000310: 034b dbbb 58b3 1cbb d66e af3d fa49 23bd
00000320: 0b54 55bd d3fe a4bd 0623 2f3d 6bb0 6fbd
00000330: 2425 233d ac4b 953a e4cc 073c 6a6d b33c
00000340: d29e 163d e77c 893d e422 22bc 5c2a 89bd
00000350: b03e b13d 68d5 edbc ee94 903d 6559 4a3c
00000360: cd1c 9a3d efd2 233b a291 aebc 7ea2 54bd
00000370: c6db 233d 502d 50bd 0de0 6abd 2840 973d
00000380: cb79 833c 5360 6fbd cce3 8b3d e7e8 603c
00000390: b2ec 15bd eb75 4d3d b069 f83c 381b 12bd
000003a0: a121 963d 7188 56bd 1503 353d 10f6 1bbc
000003b0: 1a2f 823d cdad 143d 3919 ae3d 4af6 71bd
000003c0: de13 7e3d ee6f 453c 8e3a f43c 958e 15bc
000003d0: 38d3 71bd 7d39 a83d 32f5 323d db16 40bd
000003e0: 74c4 183d bb83 afbc cdf6 9bbd 13cf b1bc
000003f0: c675 1dbc 69ec 5ebc f471 873d b138 04bc

policy_net.0.input_layer.bias f4 [81]
-0.058376428 -0.02176615 0.067928314 0.073553585 0.057599187 -0.07441774 0.07981752 -0.011977752
0.046922706 -0.071354985 0.02477399 -0.0076163197 0.021642588 0.045080323 -0.04248181 -0.0416514
0.016848298 -0.0025856683 0.030082881 0.081199355 -0.057745542 -0.087791234 0.010155583 0.017996725
-0.0019449554 0.0126915425 -0.059307568 0.05779196 -0.07128325 0.055906013 -0.07612892 -0.08773682
-0.012233552 0.05247452 0.042700287 -0.012499065 0.062365238 -0.087814994 0.061328005 -0.0004050801
-0.03899325 0.031124456 0.07030889 -0.08811145 -0.042963244 -0.04759303 -0.053747967 -0.07691213
-0.020951135 0.085095406 -0.038342282 0.06969703 -0.08440575 0.048116315 -0.043474082 0.04746401
-0.015587579 -0.08135374 -0.074600354 -0.046060152 -0.031139102 0.07209673 -0.056831263 0.0064302464
0.023303011 -0.03715055 -0.028948331 0.032389894 -0.05736444 0.036565796 -0.017213404 -0.04330832
-0.03198346 0.042406116 -0.028426468 0.008296236 -0.068257354 -0.023870667 -0.077562034 -0.032468498
0.02296384
00000000: 1f1c 6fbd ed4e b2bc 001e 8b3d 43a3 963d
00000010: 20ed 6b3d 5468 98bd 5e77 a33d 553e 44bc
00000020: 0632 403d 9022 92bd d3f2 ca3c 5292 f9bb
00000030: cc4b b13c 25a6 383d 6801 2ebd a99a 2abd
00000040: 7105 8a3c 5174 29bb 6070 f63c d94b a63d
00000050: 9786 6cbd e4cb b3bd 9a63 263c de6d 933c
00000060: e0ed feba 30f0 4f3c 7eec 72bd 43b7 6c3d
00000070: f4fc 91bd b4fd 643d 7be9 9bbd 5daf b3bd
00000080: 3c6f 48bc 86ef 563d 7fe6 2e3d e1c8 4cbc
00000090: b172 7f3d 59d8 b3bd 1333 7b3d ee60 d4b9
000000a0: 63b7 1fbd b7f8 fe3c 1bfe 8f3d c773 b4bd
000000b0: 3afa 2fbd e9f0 42bd d426 5cbd 1b84 9dbd
000000c0: b7a1 abbc 8046 ae3d cc0c 1dbd 51bd 8e3d
000000d0: ecdc acbd 9d15 453d e111 32bd 9f69 423d
000000e0: 0c63 7fbc ca9c a6bd 12c8 98bd 92a9 3cbd
000000f0: 6e17 ffbc 73a7 933d e6c7 68bd d1b4 d23b
00000100: f5e5 be3c 2d2b 18bd 0d25 edbc 44ab 043d
00000110: faf6 6abd 04c6 153d 2003 8dbc 1164 31bd
00000120: 1701 03bd 09b2 2d3d a0de e8bc f0ec 073c
00000130: 83ca 8bbd 6b8c c3bc d8d8 9ebd b0fd 04bd
00000140: aa1e bc3c

policy_net.0.output_layer.weight f4 [81, 81]
0.03312593 0.046092656 -0.03912808 0.078957826 0.035963945 0.0068249437 -0.028628958 0.015150455
0.06878665 -0.06543402 -0.04016344 0.090154506 0.04068412 0.04997187 -0.06881228 -0.031408735
-0.01708853 -0.10781268 -0.046730544 0.0006498768 0.06610147 0.014781197 0.06831876 0.07808542
0.027235972 0.08099796 -0.061293192 -0.050872616 0.08679296 0.09867753 -0.00072023604 0.00069338834
0.0360877 0.019918641 0.106854 0.078212954 0.012626608 0.040458705 0.003931894 -0.040305138
-0.004521752 -0.10456407 -0.006503449 0.055434864 -0.046882562 0.08237357 0.025039766 -0.044662885
0.017552827 -0.035895705 0.032997888 -0.012880749 0.10499973 0.04637753 -0.06579658 -0.078162566
-0.010730435 -0.08629453 -0.05620714 -0.09612089 0.08280638 -0.09293094 0.09664048 -0.03633143
-0.04996717 0.04309409 0.09322039 -0.047912333 -0.027734518 -0.09164842 0.061785128 0.09573279
-0.043906014 -0.07312093 -0.05589925 0.06528766 0.058045454 -0.088368244 -0.04417308 0.03633796
-0.05200856 0.04434233 -0.10747279 0.023735303 0.045752764 0.088327035 -0.044533506 0.09044985
-0.06083605 0.08193007 -0.08414461 -0.045094278 0.030257719 0.01702388 0.039106302 0.06545643
0.075100936 -0.09518259 0.036588717 -0.07162164 -0.0028056984 0.050169747 0.023522828 -0.10557564
-0.098395325 -0.0117920255 0.099906035 -0.022471614 0.102644905 0.034921832 -0.064349 0.059315894
0.07468139 0.09612252 0.062018394 -0.046197932 -0.0009486743 0.08923255 0.09852091 0.072411805
0.036220804 0.070522204 -0.088111386 0.092565194 0.06673156 0.04348661 -0.0038033365 0.009448714
-0.05862297 -0.07053848 -0.0785322 0.03986453 -0.06847322 -0.0017997837 -0.06840249 0.03666785
0.08792064 -0.048456445 0.09848652 -0.057497423 0.06747834 0.09133114 -0.012201522 -0.07407616
0.09223657 -0.02664729 -0.051894974 0.09205132 0.0973955 0.07579992 0.05268921 -0.018477308
-0.024096662 0.057079155 0.077382445 -0.0083231935 0.02806678 -0.035662476 0.03654508 -0.030563664
-0.037957337 0.104458705 -0.09760359 0.09690414 0.10900267 -0.0304882 0.032103553 -0.090529904
0.08015014 0.09628039 -0.0019234953 -0.039371636 0.0026910175 -0.082412586 0.009676507 -0.056695953
0.021524811 -0.05037238 0.048859753 0.06537667 0.016582873 -0.024822513 0.042509902 0.045321107
-0.09295285 0.0078037046 0.066129886 0.06772242 -0.0115395915 0.0003161484 0.034156136 -0.015838005
0.09412196 -0.08254945 0.10117083 0.08144143 -0.044196684 -0.026044542 -0.018044982 -0.07794971
-0.04213157 0.060606115 -0.046243932 0.060264777 0.020676905 0.003388644 -0.095251895 -0.1003678
-0.082931265 -0.037730947 -0.06770668 -0.0032060985 0.036557477 0.043283395 0.053597677 -0.0085472055
0.09040157 0.054254044 -0.058599822 0.06531354 0.049019087 0.059551425 0.030630404 0.045270324
-0.009391404 0.013413401 0.038396545 0.00060994236 -0.10134448 0.0905929 -0.022726694 0.06385449
-0.08845339 -0.09591348 0.045985952 -0.110728964 0.08277816 0.101994924 -0.05503922 -0.09907438
-0.07600766 0.046045173 0.069455065 -0.029408177 -0.034267254 -0.056756087 0.040876813 0.035870764
0.096948944 -0.04604496 0.034896202 -0.09566026 -4.708646e-05 0.01125757 0.092297144 0.10536031
00000000: 0eaf 073d a7cb 3c3d c444 20bd a4b4 a13d
00000010: ee4e 133d c7a3 df3b 4787 eabc 9d39 783c
00000020: 04e0 8c3d 4502 86bd 6b82 24bd eda2 b83d
00000030: 64a4 263d 4eaf 4c3d 74ed 8cbd 72a6 00bd
00000040: 3ffd 8bbc e5cc dcbd 8768 3fbd 7e5c 2a3a
00000050: 3560 873d d52c 723c b5ea 8b3d 40eb 9f3d
00000060: f91d df3c 42e2 a53d 920e 7bbd ce5f 50bd
00000070: 82c0 b13d 7217 ca3d 39ce 3cba 81c4 353a
00000080: b2d0 133d 6b2c a33c 45d6 da3d 1d2e a03d
00000090: d5df 4e3c 07b8 253d 1ed7 803b 0017 25bd
000000a0: 342b 94bb b025 d6bd e21a d5bb ab0f 633d
000000b0: ee07 40bd 79b3 a83d 3220 cd3c 6ef0 36bd
000000c0: f2ca 8f3c 6007 13bd cb28 073d c709 53bc
000000d0: 190a d73d 5df6 3d3d 5bc0 86bd b213 a0bd
000000e0: b5ce 2fbc 30bb b0bd 7539 66bd 07db c4bd
000000f0: 6496 a93d 9452 bebd 72eb c53d 44d0 14bd
00000100: 60aa 4cbd 6e83 303d 55ea be3d b93f 44bd
00000110: 8033 e3bc 2bb2 bbbd 6712 7d3d 8e0f c43d
00000120: cbd6 33bd 6dc0 95bd 9df6 64bd 89b5 853d
00000130: 12c1 6d3d 69fa b4bd d5ee 34bd 1dd7 143d
00000140: ee06 55bd 4ea0 353d b21a dcbd 8a70 c23c
00000150: 4067 3b3d cee4 b43d c468 36bd c53d b93d
00000160: 392f 79bd f4ca a73d 0254 acbd c7b4 38bd
00000170: 09df f73c aa75 8b3c ee2d 203d 050e 863d
00000180: 85ce 993d 17ef c2bd 0dde 153d 5eae 92bd
00000190: cfdf 37bb cb7e 4d3d f2b2 c03c 0b38 d8bd
000001a0: 7d83 c9bd 5733 41bc 899b cc3d 6416 b8bc
000001b0: 7e37 d23d 320a 0f3d 69c9 83bd 39f5 723d
000001c0: 8ef2 983d e2db c43d 0007 7e3d 0b3a 3dbd
000001d0: 74b0 78ba 8ebf b63d 55c5 c93d a44c 943d
000001e0: 445c 143d f26d 903d be73 b4bd d292 bd3d
000001f0: 8eaa 883d 041f 323d 6641 79bb c7ce 1a3c
00000200: a41e 70bd 7b76 90bd 7dd5 a0bd fd48 233d
00000210: b03b 8cbd b8e6 ebba 9b16 8cbd 0731 163d
00000220: bd0f b43d 447a 46bd 4db3 c93d 6b82 6bbd
00000230: 1532 8a3d d20b bb3d e4e8 47bc 3eb5 97bd
00000240: 87e6 bc3d 6b4b dabc d38f 54bd 6785 bc3d
00000250: 4b77 c73d fd3c 9b3d a4d0 573d b95d 97bc
00000260: 5d66 c5bc d5cb 693d b07a 9e3d 015e 08bc
00000270: 4eec e53c d112 12bd 4bb0 153d a660 fabc
00000280: 2779 1bbd 72ee d53d 64e4 c7bd ae75 c63d
00000290: cb3c df3d 64c2 f9bc 047f 033d be67 b9bd
000002a0: c225 a43d a72e c53d cb1d fcba 2744 21bd
000002b0: c85b 303b eec7 a8bd 368a 1e3c 043a 68bd
000002c0: cd54 b03c 4553 4ebd 2a21 483d 34e4 853d
000002d0: ced8 873c 9558 cbbc dd1e 2e3d a0a2 393d
000002e0: 105e bebd 38b6 ff3b 1b6f 873d 0db2 8a3d
000002f0: 8e10 3dbc b8c0 a539 4ee7 0b3d b4be 81bc
00000300: 04c3 c03d b00f a9bd a732 cf3d c4ca a63d
00000310: 9507 35bd 5d5b d5bc 12d3 93bc 19a4 9fbd
00000320: 2792 2cbd 1e3e 783d 476a 3dbd 33d8 763d
00000330: 9d62 a93c 0314 5e3b 6d13 c3bd a28d cdbd
00000340: ded7 a9bd c48b 1abd cda9 8abd 681d 52bb
00000350: 4bbd 153d ee49 313d 3d89 5b3d 9409 0cbc
00000360: 7524 b93d 7d39 5e3d 5e06 70bd 1bc3 853d
00000370: 3dc8 483d 32ec 733d 9dec fa3c 606d 393d
00000380: 67de 19bc e2c3 5b3c b245 1d3d 8ae4 1f3a
00000390: b28d cfbd c588 b93d 552d babc 25c6 823d
000003a0: 0d27 b5bd 496e c4bd c45b 3c3d dec5 e2bd
000003b0: 9987 a93d b7e2 d03d ce70 61bd 82e7 cabd
000003c0: e7a9 9bbd dd99 3c3d 753e 8e3d 6be9 f0bc
000003d0: d25b 0cbd 1279 68bd 726e 273d 39ed 123d
000003e0: 2b8d c63d a499 3cbd 52ef 0e3d 87e9 c3bd
000003f0: b47e 45b8 ac71 383c 4906 bd3d 25c7 d73d

policy_net.0.output_layer.bias f4 [81]
-0.09715761 0.01453562 -0.015217634 0.0134686 0.09717198 0.08383245 0.05098028 -0.07188661
-0.11073531 0.04222066 -0.11036464 0.0029342729 -0.04981207 -0.08289349 -0.04515118 -0.075573154
-0.097621955 0.10425871 -0.05791594 0.09438312 -0.08964179 0.09995508 -0.0754247 -0.08008594
-0.092921644 -0.06242701 0.08533607 -0.018858185 0.09794021 0.055233624 0.028416531 0.007868542
-0.074396625 0.07701654 0.009614625 0.09195071 -0.07630842 -0.00074976543 0.0818344 -0.0412059
-0.04521344 0.10079384 -0.06609709 0.059462786 -0.07364342 0.06688799 -0.10827524 0.030517852
0.09555111 0.049482293 -0.066444226 0.08134263 -0.016496027 0.0503747 -0.029938314 -0.088759184
0.013110097 0.08222739 0.0104806945 -0.0150279375 -0.016363414 -0.052730322 0.04004648 0.03988053
0.093513 -0.041038174 0.038105145 -0.048396908 -0.039366987 0.013048913 0.05311222 -0.06224831
0.0010048299 -0.043691743 0.0025348982 -0.06848383 0.091285996 -0.034116823 0.0043755947 -0.030353004
-0.03793435
00000000: 92fa c6bd cf26 6e3c 6253 79bc 67ab 5c3c
00000010: 1a02 c73d 59b0 ab3d b3d0 503d 4939 93bd
00000020: 32c9 e2bd 92ef 2c3d db06 e2bd ee4c 403b
00000030: be07 4cbd 10c4 a9bd 72f0 38bd 19c6 9abd
00000040: 05ee c7bd 9785 d53d 4439 6dbd f04b c13d
00000050: 1d96 b7bd 40b5 cc3d 4478 9abd 1904 a4bd
00000060: b44d bebd 77b3 7fbd adc4 ae3d 7b7c 9abc
00000070: e094 c83d a73c 623d c9c9 e83c 0feb 003c
00000080: 425d 98bd d9ba 9d3d a986 1d3c a750 bc3d
00000090: 9747 9cbd e88b 44ba cb98 a73d 85c7 28bd
000000a0: ba31 39bd 006d ce3d e95d 87bd 408f 733d
000000b0: 5dd2 96bd 92fc 883d 69bf ddbd 9300 fa3c
000000c0: 4db0 c33d f2ad 4a3d e913 88bd f796 a63d
000000d0: ad22 87bc b455 4e3d 3241 f5bc 60c7 b5bd
000000e0: bbcb 563c d566 a83d 38b7 2b3c bd37 76bc
000000f0: 910c 86bc c0fb 57bd c707 243d c459 233d
00000100: be83 bf3d a517 28bd 2414 1c3d d63b 46bd
00000110: 473f 21bd 1ccb 553c 338c 593d 15f8 7ebd
00000120: 7fb4 833a 1df6 32bd 8920 263b 4041 8cbd
00000130: 27f4 ba3d 15be 0bbd 2661 8f3b dda6 f8bc
00000140: 0d61 1bbd

policy_net.0.attention.in_proj_weight f4 [243, 81]
-0.08917592 -0.12426525 0.031224854 -0.007000633 -0.03027562 0.06272562 -0.03579152 0.11976588
-0.06304854 0.03156116 -0.08001744 -0.12955828 0.07288887 0.022131605 0.0783905 0.10639532
-0.079048835 0.11484131 0.057963844 -0.058811218 -0.12898903 0.1208398 0.080550276 -0.07741069
-0.09936638 -0.074032 0.05015594 -0.078403935 0.13121523 0.031711053 -0.13484868 0.06355693
0.04466032 0.033610314 -0.11472628 -0.126496 -0.07459472 0.124479815 -0.04948474 -0.12966974
0.066171646 -0.083917074 0.025711128 -0.098464414 -0.025517369 0.13092935 -0.04496538 -0.021170221
0.08582818 0.031307798 -0.073737755 -0.11798497 -0.047203314 0.006196184 -0.03052968 0.11814773
-0.05724604 -0.03123762 -0.1217778 0.0811428 0.11710196 -0.043097783 0.04337288 -0.025830055
-0.0599668 -0.11283127 -0.016143069 -0.016255245 -0.04106115 0.0706184 -0.12307963 -0.08737397
-0.010778603 0.04617957 0.027700262 0.03412823 -0.043054275 -0.12879646 0.0822573 0.09232589
0.009236622 0.124547444 0.012051325 -0.08805567 0.12577264 -0.05862781 -0.050013054 0.113378465
0.038162008 -0.07246339 0.015303497 0.10567568 -0.006716061 0.1339105 -0.044111177 0.119335435
-0.024636967 -0.12184127 0.00024262122 -0.07987984 0.12478096 -0.0049996087 -0.11524141 0.13192746
-0.037499472 0.11815174 0.014210664 0.12577471 0.0074203373 -0.027976593 0.03035086 0.050559018
0.10946252 0.04985031 -0.025419628 -0.038835578 0.00958704 0.11374175 -0.07258099 -0.028108755
0.11231142 -0.11754855 -0.10528589 0.11009124 0.03730294 0.11603625 0.029540604 0.055647623
-0.029841788 -0.03482389 0.10787915 0.11138693 -0.038183115 0.1348553 -0.12867785 0.075446606
0.0104968045 -0.096076265 -0.046679545 -0.035808604 -0.050529703 -0.10330258 0.023010937 -0.025717212
0.113327816 0.0142238205 -0.13493167 -0.020025672 -0.042351298 0.0415864 0.10673621 0.06602141
0.097423784 0.07343729 -0.114984624 -0.13560142 -0.058722984 -0.009433723 -0.024210174 0.04171994
-0.06775405 -0.058971364 -0.11000536 -0.064403184 0.016664842 -0.061023314 0.102622285 -0.028576445
0.007855241 0.058101475 0.018035743 -0.073752485 0.044787258 -0.10171235 -0.00024356195 0.11156153
0.07900379 0.13430431 0.009986093 -0.05968596 0.12895837 -0.031505793 0.054394074 0.08891285
0.12921207 0.033404585 0.01617316 0.015943144 0.0011142307 0.025991287 -0.11389628 -0.10404646
0.05436726 -0.038301554 0.054218598 0.06561032 0.12960802 0.10432993 -0.08312973 0.019803686
0.0804102 -0.115640365 -0.020665659 0.06861249 -0.111364886 0.13084415 0.08891858 0.059034877
-0.047423355 -0.027384104 -0.12979066 0.10437175 -0.10742067 0.10215435 0.061750866 0.049446117
0.005153153 0.10957707 0.010247143 -0.03864688 0.049904592 -0.120331794 0.01198595 -0.09026672
-0.09559498 0.0038247225 -0.08874721 -0.11859998 0.056773257 -0.04796646 -0.062515736 0.112869054
0.13379318 -0.010021831 -0.13486405 0.03974862 -0.028820576 -0.048856758 -0.047859944 0.106268816
-0.048865683 -0.043786794 0.07487913 -0.11940706 -0.031087127 0.13126004 -0.030769251 -0.021511637
0.058694176 -0.062265296 0.09540176 0.11653841 0.13524128 -0.090696044 0.052329652 0.13510118
00000000: dda1 b6bd c87e febd 44cb ff3c 9165 e5bb
00000010: 9404 f8bc 4a76 803d 219a 12bd d047 f53d
00000020: 981f 81bd 4646 013d 2fe0 a3bd edaa 04be
00000030: c346 953d 574d b53c 338b a03d cae5 d93d
00000040: 5be4 a1bd ec31 eb3d 7f6b 6d3d 08e4 70bd
00000050: b315 04be db7a f73d 8bf7 a43d 7f89 9ebd
00000060: 9a80 cbbd 179e 97bd 5170 4d3d 3e92 a0bd
00000070: 495d 063e 73e3 013d c615 0abe 232a 823d
00000080: bded 363d f8aa 093d 9df5 eabd 2b88 01be
00000090: 1ec5 98bd 46ef fe3d 83b0 4abd 25c8 04be
000000a0: 0085 873d b7dc abbd 25a0 d23c b6a7 c9bd
000000b0: cd09 d1bc 5812 063e 9e2d 38bd 2c6d adbc
000000c0: afc6 af3d 9b3c 003d d203 97bd 1ba2 f1bd
000000d0: 4358 41bd 5c09 cb3b 6119 fabc 70f7 f13d
000000e0: d37a 6abd 0ae6 ffbc a466 f9bd 322e a63d
000000f0: 27d3 ef3d 4d87 30bd c3a7 313d 8d99 d3bc
00000100: bf9f 75bd 1514 e7bd 783e 84bc b829 85bc
00000110: bd2f 28bd 61a0 903d 2c11 fcbd 20f1 b2bd
00000120: bd98 30bc ca26 3d3d a9eb e23c 0bca 0b3d
00000130: ae59 30bd 38e3 03be 8476 a83d 5b15 bd3d
00000140: 3355 173c bb12 ff3d ec72 453c 8856 b4bd
00000150: 8bca 003e b723 70bd 7dda 4cbd f832 e83d
00000160: c44f 1c3d b067 94bd 85bb 7a3c 7e6c d83d
00000170: 6712 dcbb d61f 093e ecad 34bd 2366 f43d
00000180: 77d3 c9bc ea87 f9bd 2368 7e39 0b98 a3bd
00000190: 298d ff3d c2d3 a3bb b003 ecbd fe17 073e
000001a0: 0c99 19bd 8af9 f13d d8d3 683c 16cb 003e
000001b0: 4d26 f33b 2b2f e5bc 5ea2 f83c f916 4f3d
000001c0: e32d e03d d72f 4c3d d33c d0bc 0e12 1fbd
000001d0: f612 1d3c 6ff1 e83d 58a5 94bd 5544 e6bc
000001e0: 8803 e63d 4bbd f0bd 21a0 d7bd 8477 e13d
000001f0: f8ca 183d 6aa4 ed3d 23ff f13c c3ee 633d
00000200: c476 f4bc 7fa3 0ebd beef dc3d d51e e43d
00000210: e665 1cbd 8217 0a3e 20c4 03be c083 9a3d
00000220: cafa 2b3c a2c3 c4bd 0d33 3fbd 0bac 12bd
00000230: 3cf8 4ebd 4e90 d3bd 6f81 bc3c e7ac d2bc
00000240: 6a18 e83d 070b 693c 872b 0abe e10c a4bc
00000250: 8e78 2dbd 8056 2a3d 8498 da3d 3c36 873d
00000260: 1f86 c73d 4a66 963d 0f7d ebbd 19db 0abe
00000270: 8387 70bd e78f 1abc 6a54 c6bc 87e2 2a3d
00000280: a3c2 8abd f58b 71bd 7d4a e1bd d1e5 83bd
00000290: b584 883c 95f3 79bd a22b d23d 2619 eabc
000002a0: 45b3 003c d0fb 6d3d b2bf 933c 8b0b 97bd
000002b0: d872 373d 914e d0bd aa64 7fb9 5f7a e43d
000002c0: bdcc a13d 1287 093e b69c 233c 4479 74bd
000002d0: aa0d 043e 380c 01bd 52cc 5e3d f117 b63d
000002e0: 2b50 043e 3fd3 083d 937d 843c 329b 823c
000002f0: 610b 923a aeeb d43c 7442 e9bd 4f16 d5bd
00000300: 34b0 5e3d 17e2 1cbd 5214 5e3d b45e 863d
00000310: f7b7 043e eeaa d53d eb3f aabd 573b a23c
00000320: 1aae a43d dbd4 ecbd 074b a9bc b584 8c3d
00000330: 4613 e4bd 02fc 053e f21a b63d 8ece 713d
00000340: fe3e 42bd a154 e0bc d8e7 04be dbc0 d53d
00000350: 5eff dbbd 4d36 d13d 7aee 7c3d 0388 4a3d
00000360: c8db a83b f169 e03d a2e3 273c 314c 1ebd
00000370: c268 4c3d 8470 f6bd b860 443c c2dd b8bd
00000380: 4dc7 c3bd 32a8 7a3b 19c1 b5bd 8ce4 f2bd
00000390: 138b 683d 7b78 44bd 4008 80bd e427 e73d
000003a0: 1401 093e 9b32 24bc cd19 0abe 73cf 223d
000003b0: 2119 ecbc 061e 48bd ca08 44bd 77a3 d93d
000003c0: 6227 48bd c859 33bd 3b5a 993d b08b f4bd
000003d0: 6eaa febc 0869 063e cc0f fcbc 2c39 b0bc
000003e0: 4e69 703d e509 7fbd ff61 c33d b1ab ee3d
000003f0: b17c 0a3e d9be b9bd 9e57 563d f757 0a3e

policy_net.0.attention.in_proj_bias f4 [243]
-1.4051657e-10 -1.5782953e-11 1.2437527e-10 2.0798323e-11 -1.1066712e-11 -5.949942e-12 7.163958e-11 -1.5747627e-10
-1.2238129e-10 -6.0587556e-11 -7.955805e-11 1.3201487e-10 1.0576455e-11 -1.5955437e-11 5.3883942e-11 -1.0414277e-10
-1.2006279e-11 3.9392125e-11 5.9641014e-11 3.8767045e-11 7.790115e-11 -1.3429984e-10 7.850613e-11 -1.4752305e-10
4.7565656e-11 -2.1214458e-10 -1.4120764e-10 -2.7855515e-11 -4.320394e-11 -3.047459e-11 4.4791598e-11 1.15985846e-10
3.188645e-11 3.7622204e-11 1.2833e-10 -7.553614e-11 -8.345314e-11 -6.6496635e-11 1.5228282e-11 -1.7622333e-10
-1.8134834e-10 6.8979614e-11 -1.583498e-11 1.8170249e-10 6.757353e-11 1.02524995e-10 -1.5065804e-10 2.484301e-11
1.4587478e-10 -1.1645784e-10 -1.4660759e-11 -2.962803e-11 9.940894e-11 3.083194e-11 -8.065417e-11 6.3475995e-11
-2.637117e-11 4.659933e-11 -1.4426074e-11 -1.0851574e-10 3.690829e-12 -3.815199e-11 1.4977487e-10 5.2248943e-12
-7.4147494e-11 -4.632389e-11 -1.5935366e-10 7.694451e-12 9.129774e-12 -1.3622714e-12 1.113825e-10 -7.528137e-11
2.6066736e-11 2.4061671e-11 -9.2058104e-11 -5.3517836e-11 -2.681811e-11 -3.827267e-11 -1.9399312e-11 -1.4607618e-10
-2.8337601e-11 3.1220696e-18 -2.5407194e-18 2.5315027e-18 2.2017972e-18 6.295742e-18 -1.818207e-18 9.654276e-18
-3.0640108e-18 7.931585e-18 1.0060534e-17 -1.016277e-18 -1.735558e-17 -6.6846507e-19 -1.398729e-18 -9.898754e-19
7.21743e-18 -3.9978843e-18 2.7529524e-18 1.0002628e-17 -2.3071827e-18 1.154065e-17 2.3465402e-18 2.3201953e-19
-8.383056e-19 -3.4420166e-18 -9.679759e-19 6.1300804e-19 1.538104e-17 -1.7043803e-17 1.4097997e-17 -5.9548774e-18
1.4293466e-17 1.0809546e-17 8.308249e-18 3.0773567e-17 -2.0139098e-19 -2.5364056e-17 -4.0473487e-17 1.504525e-17
3.792974e-18 -1.9228015e-17 -1.5232822e-17 6.330356e-17 -1.1216455e-17 1.3226075e-17 -1.4756214e-17 1.5265939e-17
1.0029844e-17 3.5393136e-17 -1.7112612e-17 9.6605125e-18 1.9147668e-17 2.80225e-17 -7.644274e-18 -8.440522e-18
-9.599524e-18 8.314965e-18 -2.4197215e-18 8.603033e-18 -3.9365228e-18 -3.050511e-17 2.1795508e-17 2.3570499e-19
-1.4101136e-17 1.3748703e-17 4.134551e-18 9.9406165e-18 7.914357e-18 3.8594345e-18 2.636942e-18 -8.631924e-18
-3.2511995e-18 9.833059e-18 5.9474112e-18 1.6112321e-18 -5.7576597e-18 -5.366365e-18 -4.25875e-18 1.5156049e-18
-4.1817686e-18 -6.985736e-18 1.2340069e-09 5.1837246e-09 2.5092488e-09 1.8998048e-08 3.1623528e-09 -4.7256785e-09
-5.2084737e-09 1.276693e-08 7.696715e-09 1.2237412e-08 5.5463354e-09 -1.3846269e-08 5.230531e-09 1.5068709e-09
-1.7440664e-09 -1.4821719e-08 -5.999827e-11 2.9692862e-09 -5.6494343e-09 9.52842e-09 -1.6910388e-09 -4.6851043e-09
3.723338e-09 3.4530863e-09 -6.64523e-09 -3.5388197e-09 6.5221726e-09 -7.0238273e-09 5.1995612e-09 1.2412253e-09
8.437575e-09 -1.2383917e-08 1.1845513e-08 9.7809645e-09 4.183791e-09 5.51364e-09 -5.3822915e-09 -1.4551853e-09
7.794012e-09 -5.219698e-09 -4.908187e-09 -8.638815e-09 -1.1574444e-08 9.204078e-09 -3.6852619e-09 3.0266416e-09
6.9088677e-09 -9.171606e-09 -3.0186476e-09 -8.237678e-09 -6.2162067e-09 2.9528389e-09 7.250917e-09 5.370955e-09
-1.049406e-08 -9.602577e-09 -6.0950556e-09 -9.069875e-09 6.72054e-10 -1.2936216e-08 -5.9267258e-09 -1.4127809e-09
-2.4025855e-09 2.8706872e-09 -7.8936235e-09 5.136348e-09 9.53235e-10 1.7183399e-10 -3.2173462e-09 1.0032827e-09
-4.3117514e-09 3.1694218e-09 3.6536527e-09 -2.9652247e-09 -4.486155e-09 -2.110259e-09 1.34014115e-08 8.5090784e-10
-8.071268e-09 -7.4133863e-09 -2.4081235e-09
00000000: e67f 1aaf 0dd4 8aad 87c0 082f a9f1 b62d
00000010: 0ab0 42ad 5058 d1ac 8089 9d2e a125 2daf
00000020: 458f 06af c33b 85ae 33f3 aeae e226 112f
00000030: 1e10 3a2d 7358 8cad edfb 6c2e 2b03 e5ae
00000040: 7937 53ad 973f 2d2e e826 832e d07f 2a2e
00000050: 734e ab2e 0baa 13af 06a3 ac2e 0c34 22af
00000060: 2b32 512e 6441 69af 6b42 1baf 0b05 f5ad
00000070: 5003 3eae 5707 06ae dbfe 442e 3a0e ff2e
00000080: f33c 0c2e d676 252e af19 0d2f 111b a6ae
00000090: f183 b7ae 473a 92ae 0bf3 852d 75c2 41af
000000a0: 0565 47af 12b0 972e 3449 8bad b4c8 472f
000000b0: 8498 942e 7174 e12e 78a6 25af 7c85 da2d
000000c0: 1a64 202f f80b 00af 18f5 80ad 324e 02ae
000000d0: 429a da2e ae99 072e 435c b1ae cf95 8b2e
000000e0: 98f6 e7ad 2ef2 4c2e 43c9 7dad eea0 eeae
000000f0: 08dc 812c 52cb 27ae e1ad 242f aad5 b72c
00000100: 540d a3ae 10bc 4bae 1136 2faf ba5c 072d
00000110: d99c 202d 00b9 bfab c6ee f42e a58b a5ae
00000120: 1249 e52d 11a6 d32d 1b70 caae ba5f 6bae
00000130: 04e5 ebad 3253 28ae 5ea3 aaad ca9c 20af
00000140: 9b42 f9ad 3a5e 6622 d578 3ba2 bcca 3a22
00000150: c676 2222 9a45 e822 f628 06a2 0817 3223
00000160: 8715 62a2 da4f 1223 8795 3923 dcf9 95a1
00000170: b413 a0a3 cb4b 45a1 7d6a cea1 6f14 92a1
00000180: 5923 0523 f37e 93a2 cd21 4b22 1384 3823
00000190: 733d 2aa2 2ee3 5423 e424 2d22 cdf5 8820
000001a0: 956c 77a1 dbf9 7da2 18d9 8ea1 94ed 3421
000001b0: 74dd 8d23 8b33 9da3 f407 8223 3ab2 dba2
000001c0: 7ed5 8323 a366 4723 9942 1923 04eb 0d24
000001d0: b0c2 6da0 2ff1 e9a3 a9a6 3aa4 98c4 8a23
000001e0: a0ef 8b22 de58 b1a3 7c7f 8ca3 d4f7 9124
000001f0: 36e8 4ea3 60fa 7323 201a 88a3 aecd 8c23
00000200: 9904 3923 d738 2324 03d6 9da3 7b34 3223
00000210: 279b b023 213b 0124 1003 0da3 3db3 1ba3
00000220: 7814 31a3 5062 1923 3f8b 32a2 adb2 1e23
00000230: 683b 91a2 14ae 0ca4 3007 c923 bb22 8b20
00000240: 5e0f 82a3 6a9e 7d23 bb89 9822 3c5f 3723
00000250: 7ffe 1123 5463 8e22 6d92 4222 1c3b 1fa3
00000260: 6ce5 6fa2 4f63 3523 b66b db22 a1c6 ed21
00000270: 8f6b d4a2 e2fb c5a2 c21e 9da2 efa9 df21
00000280: b047 9aa2 35dd 00a3 c299 a930 861c b231
00000290: 2c6f 2c31 2631 a332 b350 5931 825f a2b1
000002a0: 38f6 b2b1 8d55 5b32 833a 0432 b53c 5232
000002b0: 1592 be31 89e0 6db2 3db8 b331 4e1a cf30
000002c0: e2b3 efb0 9ca2 7eb2 06f0 83ae 3c0c 4c31
000002d0: f31c c2b1 6fb2 2332 236a e8b0 9dfa a0b1
000002e0: a8dd 7f31 564b 6d31 1054 e4b1 932f 73b1
000002f0: a319 e031 3d56 f1b1 d3a7 b231 bc97 aa30
00000300: d9f4 1032 0bc1 54b2 1e81 4b32 2309 2832
00000310: 04c1 8f31 7e72 bd31 23ef b8b1 c8ff c7b0
00000320: 6de6 0532 f358 b3b1 dfa4 a8b1 e969 14b2
00000330: f1d8 46b2 f71f 1e32 d03f 7db1 3efd 4f31
00000340: 0b63 ed31 2691 1db2 9c70 4fb1 b185 0db2
00000350: 5596 d5b1 e4ea 4a31 be23 f931 6b8b b831
00000360: 5d49 34b2 95f8 24b2 ad6c d1b1 bbd1 1bb2
00000370: 99bb 3830 143e 5eb2 08a4 cbb1 cf2b c2b0
00000380: bb1a 25b1 aa45 4531 869c 07b2 cb7b b031
00000390: fa02 8330 f8ee 3c2f 2718 5db1 dfe3 8930
000003a0: 9126 94b1 0fcd 5931 bd13 7b31 c9c4 4bb1
000003b0: a324 9ab1 1204 11b1 083c 6632 51e5 6930
000003c0: d0a9 0ab2 d6b8 feb1 287c 25b1

policy_net.0.attention.out_proj.weight f4 [81, 81]
-0.009176917 0.0226204 -0.023601055 0.022345185 0.041913033 -0.09986929 0.04656761 0.091141544
0.10289369 -0.019429976 0.06469107 -0.08045188 -0.06392055 0.010273231 0.110534415 0.0641115
0.10416843 -0.053376902 0.00418071 0.06338791 0.052001435 0.07906106 0.03855802 -0.051907446
0.0777429 -0.0882855 0.10729244 0.07888097 0.075571686 0.023211373 0.0810967 -0.07165285
0.058568597 -0.0023890517 0.106022626 -0.04159069 -0.052015968 -0.028638098 -0.095062494 0.0644379
-0.069880344 -0.09031235 -0.048540074 0.023627387 -0.08261029 0.04156098 -0.0069645084 -0.07578168
-0.03628001 0.1094111 0.013495107 0.05204814 0.053902227 0.026540717 0.0053538503 -0.052930355
0.019315017 -0.10383958 -0.016625114 -0.0053520077 -0.0796575 -0.091172725 -0.107585646 0.07224798
-0.10443154 0.10109055 -0.05885964 0.052138556 0.109395705 0.0760264 0.02887612 0.105229415
-0.0068524103 -0.004118072 -0.0053499527 0.0893549 0.049385376 -0.012200278 0.07820565 -0.03475298
-0.09918972 0.028815124 -0.028646907 -0.08293092 0.04342401 0.016619364 0.0054807933 0.017545117
0.017634762 -0.05302016 -0.07885872 -0.08167933 -0.026182732 0.06543847 0.006585321 0.07024947
-0.016982874 -0.102547884 -0.023836639 -0.07531624 0.014886605 0.06484853 -0.07254902 -0.03722562
-0.009618508 0.11025307 -0.03299031 -0.0065324446 0.02762266 -0.063676186 -0.019336965 -0.082019925
-0.08764427 0.059900455 0.06233435 0.069701925 -0.008047819 0.063528165 0.06293048 0.09668312
0.010650224 0.06560908 -0.03250513 0.07529885 -0.095154606 0.05079978 0.10678754 -0.10751139
-0.011858953 -0.028250774 -0.088389054 0.096076675 -0.04138462 -0.029892035 0.04279921 -0.10486943
0.07764731 0.10318538 0.04116898 -0.106598124 0.02975477 0.028491935 0.10323127 0.060121365
-0.10359131 0.006007234 0.0853834 -0.04675551 0.098474436 -0.00050565717 -0.07266082 -0.017941462
-0.028507616 -0.082876936 -0.106861025 -0.027398534 -0.077220045 0.022781478 0.028880503 -0.10054583
-0.037763134 0.0071154702 0.07469062 -0.0781625 0.016221378 0.010575573 0.08088435 0.0013106277
-0.108485445 -0.0032798343 0.036113143 0.069112316 -0.062796645 0.049487922 0.04700177 0.03307312
-0.05202325 0.014044563 -0.02910471 -0.10276825 0.017963119 -0.056698192 0.10348838 -0.04440762
0.0015478547 0.05829549 0.08579881 -0.024092356 -0.07939797 -0.057257798 0.102112904 -0.0066015753
0.032476544 0.033592172 0.007675224 0.10767382 0.047021814 0.013488582 -0.07025936 0.0257713
-0.10660585 -0.0060182135 -0.10997939 0.08804904 -0.011060569 -0.031716067 -0.051308062 -0.06311611
-0.08819372 0.01344139 -0.09900263 0.049126465 0.054160144 0.08831734 0.09999025 0.06164314
-0.08659182 0.08609663 -0.0050467793 -0.05560312 0.07866449 -0.017353548 0.07331117 -0.018784007
-0.094355665 0.042809714 0.06685359 0.08259928 0.051017523 0.070512876 0.025359763 0.031081809
-0.031247815 0.0002688585 0.041539405 0.028022302 -0.03378655 -0.0767749 -0.049241304 -0.02789622
-0.110227294 -0.09048054 -0.09451617 0.025058296 0.007879695 -0.042930577 -0.11035456 -0.045892995
-0.1010647 0.09720593 -0.10467492 0.09508239 -0.043634694 -0.01622624 -0.0781976 0.10741646
00000000: c85a 16bc 6b4e b93c 0057 c1bc 400d b73c
00000010: 00ad 2b3d 4588 ccbd aebd 3e3d 6ba8 ba3d
00000020: edb9 d23d 9d2b 9fbc c07c 843d f5c3 a4bd
00000030: c7e8 82bd 0e51 283c de5f e23d e44c 833d
00000040: 4256 d53d bda1 5abd 56fe 883b 85d1 813d
00000050: 75ff 543d c4ea a13d 04ef 1d3d e79c 54bd
00000060: ab37 9f3d 07cf b4bd 24bc db3d 598c a13d
00000070: 54c5 9a3d c725 be3c 0716 a63d bbbe 92bd
00000080: a0e5 6f3d a391 1cbb 6422 d93d 005b 2abd
00000090: b20e 55bd 729a eabc 20b0 c2bd 05f8 833d
000000a0: 6d1d 8fbd aef5 b8bd f5d1 46bd 398e c13c
000000b0: 952f a9bd d93b 2a3d 8836 e4bb 6d33 9bbd
000000c0: 599a 14bd ed12 e03d 951a 5d3c 6e30 553d
000000d0: 95c8 5c3d eb6b d93c 5a6f af3b 80cd 58bd
000000e0: 873a 9e3c d9a9 d4bd 6431 88bc e55f afbb
000000f0: 7923 a3bd c4b8 babd dd55 dcbd c0f6 933d
00000100: 34e0 d5bd 9008 cf3d ce16 71bd 3d8f 553d
00000110: db0a e03d bbb3 9b3d 9d8d ec3c 8582 d73d
00000120: 2f8a e0bb e4f0 86bb a84e afbb b4ff b63d
00000130: 5248 4a3d ade3 47bc 492a a03d 2459 0ebd
00000140: fb23 cbbd b20d ec3c ebac eabc b0d7 a9bd
00000150: 60dd 313d 5525 883c 3a98 b33b c7ba 8f3c
00000160: c776 903c ab2b 59bd ae80 a1bd 7e47 a7bd
00000170: 2b7d d6bc 9b04 863d adc9 d73b f4de 8f3d
00000180: ab1f 8bbc a004 d2bd 0e45 c3bc 673f 9abd
00000190: f2e6 733c 4ecf 843d 9594 94bd e479 18bd
000001a0: f296 1dbc 5dcc e13d d920 07bd 1e0e d6bb
000001b0: eb48 e23c a968 82bd 8e68 9ebc 10fa a7bd
000001c0: d77e b3bd 2e5a 753d 4e52 7f3d e2bf 8e3d
000001d0: 00db 03bc 0e1b 823d b2e1 803d cd01 c63d
000001e0: 477e 2e3c 0e5e 863d 1924 05bd 4936 9a3d
000001f0: 6be0 c2bd 6e13 503d 6db3 da3d ee2e dcbd
00000200: 0e4c 42bc 2b6e e7bc 5205 b5bd d9c3 c43d
00000210: eb82 29bd 24e0 f4bc 394e 2f3d c9c5 d6bd
00000220: 8e05 9f3d db52 d33d cea0 283d 1e50 dabd
00000230: 47c0 f33c eb67 e93c eb6a d33d d241 763d
00000240: ae27 d4bd 55d8 c43b 7edd ae3d b582 3fbd
00000250: f7ac c93d 148e 04ba 32cf 94bd f9f9 92bc
00000260: ce88 e9bc 62bb a9bd f4d9 dabd e472 e0bc
00000270: 8b25 9ebd 39a0 ba3c ce96 ec3c f9ea cdbd
00000280: 84ad 1abd e428 e93b 65f7 983d a913 a0bd
00000290: b2e2 843c 2b45 2d3c b2a6 a53d 5ec9 ab3a
000002a0: 9e2d debd 7df2 56bb 60eb 133d c28a 8d3d
000002b0: 879b 80bd d9b3 4a3d ee84 403d ae77 073d
000002c0: 5516 55bd 2b1b 663c 006d eebc 2978 d2bd
000002d0: 6427 933c 5d3c 68bd b7f1 d33d c4e4 35bd
000002e0: 63e1 ca3a 40c7 6e3d 49b7 af3d 555d c5bc
000002f0: 679b a2bd 2787 6abd 9220 d13d 0752 d8bb
00000300: 2006 053d f297 093d 7280 fb3b 1784 dc3d
00000310: f299 403d 37ff 5c3c 24e4 8fbd 551e d33c
00000320: 2b54 dabd 6f34 c5bb e03c e1bd 0e53 b43d
00000330: 6437 35bc b5e8 01bd 6728 52bd 0543 81bd
00000340: e99e b4bd 4739 5c3c e4c1 cabd d538 493d
00000350: 07d7 5d3d b9df b43d b0c7 cc3d 847d 7c3d
00000360: 0d57 b1bd 6e53 b03d 745f a5bb 19c0 63bd
00000370: d91a a13d 0729 8ebc 2b24 963d ebe0 99bc
00000380: 8b3d c1bd 3d59 2f3d 89ea 883d d029 a93d
00000390: c0f7 503d 0e69 903d 47bf cf3c 479f fe3c
000003a0: 6bfb ffbc 94f5 8c39 3925 2a3d 078f e53c
000003b0: c463 0abd 293c 9dbd 40b1 49bd 9d86 e4bc
000003c0: d9be e1bd dd4d b9bd b291 c1bd 0e47 cd3c
000003d0: d619 013c f9d7 2fbd 9201 e2bd 4bfa 3bbd
000003e0: 02fb cebd e713 c73d ce5f d6bd 8eba c23d
000003f0: 4bba 32bd e4ec 84bc 1026 a0bd 29fd db3d

policy_net.0.attention.out_proj.bias f4 [81]
1.7853356e-08 -3.6226078e-09 -5.4449965e-09 -3.055049e-10 1.8223073e-08 -2.1635499e-08 -2.534649e-08 -2.5603347e-08
-1.7862424e-08 -1.892064e-08 -8.6994625e-09 1.16287735e-08 1.071992e-08 -1.8069654e-08 -1.7733129e-08 -1.8057946e-08
6.0762257e-09 9.21622e-09 -2.8359157e-09 -2.7580143e-08 1.797066e-08 1.328076e-08 -8.251959e-09 -2.6066804e-09
-2.6296126e-08 -3.7063377e-09 -8.360996e-09 -1.5530192e-09 -1.1397068e-08 -2.1342184e-09 2.2797442e-08 -6.3228276e-09
-2.6185711e-08 -5.4959925e-09 -5.9670566e-09 -2.0516726e-08 -2.220319e-08 -9.050819e-09 2.9305103e-09 -1.14042695e-08
-2.240723e-08 8.4879076e-10 -6.787753e-09 -2.877794e-08 -7.1031128e-09 -1.3861054e-08 -2.618782e-08 -1.0203871e-08
1.8175339e-08 9.804037e-09 -1.3025664e-08 2.451326e-09 -7.833308e-09 -4.99728e-09 -2.9137461e-09 -1.837346e-08
-7.753228e-09 1.4005061e-08 -2.9388179e-09 -2.0859277e-08 9.284267e-09 1.8104819e-09 -5.4700506e-09 -2.569138e-08
-2.5084338e-08 1.9636836e-08 -2.3685985e-08 1.3072829e-11 -1.398408e-09 -3.8110778e-10 7.512383e-09 9.6370814e-11
-9.582045e-10 1.3251974e-08 -3.373496e-08 -2.2455598e-08 -1.2620309e-08 -1.0843984e-08 6.3298256e-09 1.1115148e-08
3.538283e-08
00000000: f25b 9932 97f1 78b1 b216 bbb1 fef3 a7af
00000010: f688 9c32 f7d8 b9b2 85b9 d9b2 5bee dbb2
00000020: e36f 99b2 ed86 a2b2 a474 15b2 e3c7 4732
00000030: b52a 3832 9737 9bb2 9053 98b2 d81d 9bb2
00000040: 0cc7 d031 5d55 1e32 f5e1 42b1 60e9 ecb2
00000050: e65d 9a32 6629 6432 80c4 0db2 3521 33b1
00000060: cbe1 e1b2 95b2 7eb1 0da4 0fb2 0172 d5b0
00000070: d6cc 43b2 91a9 12b1 1bd4 c332 2e40 d9b1
00000080: fdee e0b2 43d7 bcb1 c906 cdb1 c23c b0b2
00000090: 55b9 beb2 ec7d 1bb2 1562 4931 82ec 43b2
000000a0: 057a c0b2 5750 6930 b539 e9b1 5c33 f7b2
000000b0: a40f f4b1 8f21 6eb2 a0f3 e0b2 194d 2fb2
000000c0: fe1f 9c32 9c6e 2832 7ac7 5fb2 2f74 2831
000000d0: 4193 06b2 8ab4 abb1 2a3b 48b1 aad3 9db2
000000e0: 0f33 05b2 e99a 7032 3bf4 49b1 092e b3b2
000000f0: a380 1f32 abd4 f830 13f3 bbb1 f1af dcb2
00000100: 0b79 d7b2 dcad a832 0876 cbb2 cafa 652d
00000110: 1b32 c0b0 2784 d1af cf0f 0132 f2eb d32e
00000120: d3b1 83b0 ccaa 6332 fbe3 10b3 62e4 c0b2
00000130: b5d0 58b2 594c 3ab2 bc7d d931 f0f4 3e32
00000140: d5f7 1733

policy_net.1.weight f4 [81, 81]
-0.09610028 0.09905498 0.022054333 -0.027843092 0.045810368 0.034148 -0.0977577 0.012357158
0.095593825 0.09297676 -0.03363346 -0.051282976 0.01934184 -0.07667294 -0.064696245 0.056670904
0.014441835 0.062307194 -0.09888509 -0.08232055 -0.06059252 -0.08438692 -0.05406858 0.043900065
0.026031759 -0.051533334 0.04251608 -0.011639604 0.04563868 0.097380415 -0.0063444856 -0.05743659
0.004402174 -0.08000692 -0.11057345 -0.009383885 -0.039389275 -0.011687766 -0.050575152 -0.046077278
-0.08285669 -0.084839135 0.050978396 -0.09791771 -0.0009128473 0.02287619 0.07641516 0.106947266
-0.10096349 -0.062765904 -0.051054332 0.040784027 -0.06334766 0.06804553 0.10258733 -0.040051963
0.02937987 0.057398677 0.03744368 0.004872958 0.008925291 0.006233692 -0.00389463 0.0826267
-0.04218213 0.05877063 -0.0374501 0.05200147 -0.027303947 -0.09502436 -0.059943218 -0.008081185
0.0452994 0.055726398 -0.01930192 -0.024111854 0.098091654 0.0044082347 -0.097454056 -0.10736802
0.041478842 0.089156866 0.014742036 0.008413796 -0.034015443 -0.063450724 0.062628046 -0.069650345
7.025277e-05 0.06466643 -0.026238944 0.11047195 0.018032128 -0.09480943 0.0048957495 -0.0002349219
0.0754581 -0.028582374 0.03062869 0.081241675 0.04553886 -0.06959607 0.077869035 0.024823094
-0.07331831 0.09573448 0.037990924 -0.10527108 0.09511133 -0.034425456 -0.09871409 0.043126673
0.0018695894 0.06951192 0.09952847 0.07745446 -0.09979978 0.018510919 -0.0847161 -0.030801734
0.08278929 0.10258428 -0.073771104 -0.08298869 -0.0071814987 -0.06889251 0.09895052 -0.010926116
-0.028631145 -0.08354456 0.10727186 -0.045227755 -0.04765508 -0.0977119 0.10479379 -0.06842564
0.046656925 0.022552371 -0.053194787 -0.019281892 -0.050144408 -0.02813185 -0.005561617 0.049796592
0.011663911 0.048418928 0.10841325 -0.103546835 -0.016715426 -0.0065561943 -0.087170325 0.094344296
-0.110511996 0.01651364 0.09867149 -0.035071295 0.07760089 0.10418054 0.022098633 0.0030840714
-0.03503075 0.06288085 0.019615676 -0.030812833 -0.0977587 -0.02444082 0.0691162 -0.06252621
-0.068883725 -0.005091018 0.004188935 0.058900066 0.097838975 -0.010853767 0.07485019 -0.021200273
0.10799859 0.07043591 0.06407017 -0.00576512 -0.009879191 0.095533825 0.032359865 -0.07041601
0.04428612 -0.018370774 0.102501966 -0.082611665 -0.07830514 0.01115738 0.021992007 -0.085035205
-0.102665715 0.08083386 0.047188085 0.09782185 0.067248635 -0.021093223 -0.0037018592 -0.008111543
0.06239026 -0.02105599 0.10626621 -0.039168436 -0.03814835 0.05865574 0.034036055 -0.038374662
-0.035287194 -0.061789434 0.03764579 -0.011275066 -0.03582846 -0.02120463 -0.08313599 -0.04633264
0.05487993 0.049558017 -0.009372566 0.088530116 -0.09479259 -0.09258466 0.07095757 -0.057231706
0.021129144 0.011454079 -0.010109703 0.10990107 0.09348117 0.054320205 -0.0024192068 -0.046883583
-0.05258286 -0.06419681 0.020765359 0.06895508 0.06286899 -0.019717032 -0.096564956 0.060249608
-0.03802783 -0.07113686 -0.091539346 -0.016354019 -0.101267315 0.045881588 0.06358979 0.020730073
-0.10090493 -0.0915916 -0.10003008 -0.00010048019 0.012793117 0.021205174 -0.10379561 0.08305265
00000000: 39d0 c4bd 56dd ca3d 4aab b43c 3217 e4bc
00000010: a7a3 3b3d c6de 0b3d 3035 c8bd ad75 4a3c
00000020: b2c6 c33d 996a be3d 3dc3 09bd 190e 52bd
00000030: c772 9e3c b406 9dbd 777f 84bd c01f 683d
00000040: 729d 6c3c d435 7f3d 4484 cabd ad97 a8bd
00000050: dd2f 78bd 0dd3 acbd 0477 5dbd 8ed0 333d
00000060: 8e40 d53c 9e14 53bd 5725 2e3d 0ab4 3ebc
00000070: a0ef 3a3d 626f c73d 67e5 cfbb a142 6bbd
00000080: 1d40 903b abda a3bd 5574 e2bd debe 19bc
00000090: a656 21bd 0b7e 3fbc e427 4fbd 87bb 3cbd
000000a0: c5b0 a9bd 24c0 adbd b9ce 503d 1589 c8bd
000000b0: 254c 6fba d966 bb3c 8d7f 9c3d 2b07 db3d
000000c0: f2c5 cebd 698b 80bd 591e 51bd 270d 273d
000000d0: 6bbc 81bd 745b 8b3d 4e19 d23d 870d 24bd
000000e0: 0eae f03c e01a 6b3d 8b5e 193d 56ad 9f3b
000000f0: 623b 123c 0044 cc3b 0c3d 7fbb 3038 a93d
00000100: 2bc7 2cbd 79b9 703d 4765 19bd 7eff 543d
00000110: 87ac dfbc 229c c2bd 0587 75bd f266 04bc
00000120: dd8b 393d 5d41 643d 0f1f 9ebc 3986 c5bc
00000130: 47e4 c83d f472 903b fe95 c7bd c4e3 dbbd
00000140: b8e5 293d e097 b63d 9588 713c 05da 093c
00000150: c753 0bbd 74f2 81bd 2243 803d d7a4 8ebd
00000160: ab54 9338 d56f 843d 0ef3 d6bc 1e3f e23d
00000170: 1db8 933c 722b c2bd 866c a03b 5e55 76b9
00000180: c789 9a3d 9525 eabc 05e9 fa3c 0962 a63d
00000190: f586 3a3d 6288 8ebd cd79 9f3d cd59 cb3c
000001a0: e927 96bd 7010 c43d 5f9c 1b3d 5d98 d7bd
000001b0: bbc9 c23d b501 0dbd 9d2a cabd 98a5 303d
000001c0: 030d f53a 445c 8e3d 95d5 cb3d 72a0 9e3d
000001d0: d463 ccbd 36a4 973c a27f adbd eb53 fcbc
000001e0: 6e8d a93d b517 d23d 4e15 97bd f9f5 a9bd
000001f0: c752 ebbb 8417 8dbd 92a6 ca3d 7403 33bc
00000200: dd8b eabc 6919 abbd 59b1 db3d bd40 39bd
00000210: f931 43bd 2d1d c8bd 209e d63d be22 8cbd
00000220: 551b 3f3d c0bf b83c c7e2 59bd 0ff5 9dbc
00000230: 3964 4dbd c474 e6bc 3a3e b6bb 83f7 4b3d
00000240: fd19 3f3c ed52 463d c407 de3d 5d10 d4bd
00000250: caee 88bc 58d5 d6bb 5b86 b2bd 9537 c13d
00000260: 1d54 e2bd 9d47 873c 4714 ca3d eba6 0fbd
00000270: 37ed 9e3d 9b5c d53d 3108 b53c 221e 4a3b
00000280: 677c 0fbd adc7 803d 0eb1 a03c 326b fcbc
00000290: b735 c8bd 1d38 c8bc cb8c 8d3d be0d 80bd
000002a0: e912 8dbd 8ed2 a6bb 5543 893b 3241 713d
000002b0: cd5f c83d 00d4 31bc 0e4b 993d 32ac adbc
000002c0: 5d2e dd3d b440 903d 3937 833d 55e9 bcbb
000002d0: 55dc 21bc 3da7 c33d c78b 043d 4536 90bd
000002e0: 5d65 353d 4e7e 96bc 8dec d13d 4e30 a9bd
000002f0: 725e a0bd 72cd 363c 9528 b43c f026 aebd
00000300: 6742 d2bd 398c a53d 4b48 413d d256 c83d
00000310: a7b9 893d b2cb acbc e49a 72bb 47e6 04bc
00000320: ee8c 7f3d 9d7d acbc 19a2 d93d 156f 20bd
00000330: 7241 1cbd 0041 703d 6469 0b3d c02e 1dbd
00000340: 4e89 10bd eb16 7dbd 7932 1a3d 0ebb 38bc
00000350: ddc0 12bd 55b5 adbc 3443 aabd 4bc7 3dbd
00000360: c7c9 603d 59fd 4a3d 648f 19bc 474f b53d
00000370: 9e22 c2bd 079d bdbd 3452 913d cb6b 6abd
00000380: 0717 ad3c e4a9 3b3c 2ba3 25bc d013 e13d
00000390: 0e73 bf3d dd7e 5e3d 8e8b 1ebb 0009 40bd
000003a0: 2061 57bd 9e79 83bd 1d1c aa3c 5238 8d3d
000003b0: 75c1 803d 9d85 a1bc d9c3 c5bd 4bc8 763d
000003c0: 12c3 1bbd 34b0 91bd fb78 bbbd ddf8 85bc
000003d0: 3d65 cfbd 55ee 3b3d 5d3b 823d 1dd2 a93c
000003e0: 3ea7 cebd 6094 bbbd 92dc ccbd e4b8 d2b8
000003f0: 399a 513c 79b6 ad3c cb92 d4bd 8217 aa3d

policy_net.1.bias f4 [81]
0.07551701 -0.0145522 -0.10561029 -0.10978685 0.107306965 0.07319895 0.0846329 0.008359565
0.06260665 -0.05522622 -0.0721495 -0.06395564 -0.040628713 -0.09288061 0.010203091 0.101684205
-0.09932469 -0.013357183 0.081205145 0.026963538 -0.053472187 -0.07303932 -0.06566469 0.10771264
-0.10851937 0.019605234 0.018166859 -0.08507628 0.10203526 -0.081512436 0.05117132 0.07450175
0.042798985 -0.045376606 0.05348757 -0.07983775 -0.028628452 0.04058857 -0.0017933515 0.050663676
0.031072766 0.0067951283 -0.06958805 0.019065592 0.07670099 0.09046508 -0.0993497 -0.07207329
-0.103617914 -0.042478893 -0.023540933 0.076789975 -0.099654175 0.055534694 0.07147434 0.091584004
0.022407303 0.0485993 0.02021797 0.026330927 -0.0747324 0.04950188 -0.0037197482 0.036745097
-0.07802284 0.00908572 -0.013882456 0.0068094437 -0.05661827 0.096966505 0.025833646 -0.047293223
0.040138293 -0.09821012 0.018932153 0.034747615 0.06428293 0.10144273 -0.04107494 0.0015616313
-0.08536871
00000000: aaa8 9a3d 5a6c 6ebc 354a d8bd eed7 e0bd
00000010: c1c3 db3d 55e9 953d 0454 ad3d 8ff6 083c
00000020: ea37 803d e434 62bd 1ec3 93bd 2dfb 82bd
00000030: 4b6a 26bd 3038 bebd de2a 273c cf3f d03d
00000040: be6a cbbd 16d8 5abc e24e a63d a3e2 dc3c
00000050: a705 5bbd a495 95bd 367b 86bd 7298 dc3d
00000060: 673f debd 289b a03c aad2 943c 793c aebd
00000070: ddf7 d03d feef a6bd 0599 513d 6094 983d
00000080: fd4d 2f3d d2dc 39bd c815 5b3d f981 a3bd
00000090: 3786 eabc 3340 263d e40e ebba b784 4f3d
000000a0: 508c fe3c aba9 de3b 2e84 8ebd 722f 9c3c
000000b0: 6915 9d3d c245 b93d db77 cbbd 299b 93bd
000000c0: a135 d4bd 59fe 2dbd ead8 c0bc 1044 9d3d
000000d0: 7d17 ccbd 5978 633d 2461 923d 6590 bb3d
000000e0: 858f b73c 0f10 473d 28a0 a53c f5b3 d73c
000000f0: 4d0d 99bd 7cc2 4a3d 05c7 73bb 0782 163d
00000100: 70ca 9fbd 46dc 143c 3e73 63bc c121 df3b
00000110: 8fe8 67bd 6096 c63d 15a1 d33c 8ab6 41bd
00000120: 0d68 243d 6322 c9bd 9a17 9b3c 8453 0e3d
00000130: c5a6 833d 35c1 cf3d 323e 28bd a7af cc3a
00000140: cad5 aebd
