scripts/models/602/34/1/actorModel.pth (torch, 44205 bytes, 8 tensors)

policy_net.input_layer.weight f4 [34, 128]
0.054006506 -0.05084038 -0.019759864 0.043754738 -0.049645085 0.029008992 0.052922934 -0.0691753
-0.042988952 -0.059716962 -0.020066123 0.086122796 0.063773915 0.026680483 0.02956729 -0.08352947
0.08233577 0.04694591 -0.07263818 -0.05860103 0.08253817 -0.054417163 -0.082831286 0.029893843
0.037311245 0.050278053 0.042525873 0.08581076 0.08348303 -0.083133034 -0.07448952 0.032614265
0.054765847 -0.060395904 -0.058968868 0.052092135 -0.02815285 -0.08783103 -0.042026002 -0.072303616
0.054984514 0.039098937 -0.018810906 0.04983242 0.038662314 -0.06688662 0.013222137 0.047594696
0.009372486 -0.0125015285 -0.0073296195 -0.017948424 0.043920398 0.00026431459 -0.0007923903 0.023664635
0.0712445 0.087958455 -0.07932603 0.050091654 -0.07455222 0.078578 -0.06532144 -0.06173292
-0.0052592712 -0.03576903 0.040585916 0.02084207 -0.053962443 -0.0391501 -0.036964778 -0.08832699
-0.079813875 0.06428024 0.06438165 0.039017297 0.040234234 0.0871548 -0.0637385 0.061279945
0.017841542 -0.030026646 -0.05240598 0.035613295 -0.066613145 0.06445357 0.07511346 -0.047784016
-0.007611603 -0.0613562 0.020219782 0.03972614 0.015397927 0.00097175007 -0.016551783 -0.06409537
-0.03118087 0.020049151 0.06876046 -0.060705032 -0.012170834 -0.0072668944 0.038937904 0.038429875
-0.017321447 0.061265744 0.07515888 -0.025021845 0.045615345 0.011586113 0.07211885 -0.04099233
0.026973657 -0.025644617 -0.05983024 0.0148946075 0.01134027 0.0065936763 0.085246846 0.015238358
0.06441125 -0.08670183 -0.087336764 0.008000574 0.013126421 0.035772152 -0.064473815 -0.048901923
-0.043718554 -0.017286226 0.061588116 0.03861167 0.014910876 0.07125726 0.05480022 -0.039352234
-0.056306742 -0.07219218 -0.06965983 0.05404328 0.005292109 -0.048006132 0.04270263 0.047152273
0.029476786 0.035084482 0.027441842 0.06324075 0.009486493 -0.04847478 0.0031928308 0.018496754
-0.06680479 0.026533967 0.07197868 -0.025328098 0.07108685 -0.08251609 -0.015198547 0.023254827
-0.06549019 -0.042352386 -0.084232 0.08542799 0.02560308 0.011920431 -0.07502896 -0.079649106
0.05485738 0.010060648 0.070570394 0.07858792 0.013614545 0.06222252 0.05277931 -0.008683825
-0.008923767 0.030256208 0.0009878651 -0.05128721 0.06410281 -0.044544905 0.08047641 0.07323917
-0.08557594 -0.020496994 -0.05042027 -0.08020829 0.041269828 0.012733865 0.055618595 0.068228394
-0.038555197 -0.08070325 -0.013453952 -0.041646205 0.042987343 0.067426234 -0.039082136 -0.06736409
0.067178525 0.0051218043 -0.039661046 -0.00017993058 0.05963694 -0.0119688455 0.060348306 0.007966087
-0.061355166 -0.03065882 0.08799663 0.03915628 -0.05082798 0.030583406 0.0872964 -0.009137304
-0.08200993 0.08498676 -0.041845083 0.05939649 -0.010335307 0.03242685 -0.05958932 0.054257788
0.0023255646 0.028758384 -0.072531596 0.0018183477 -0.038716946 0.05527235 0.03424479 0.01796899
0.05991868 0.06370068 0.026270855 -0.043182023 0.022131182 -0.07050125 -0.063822985 0.058144487
-0.0041528624 0.04515549 0.030570371 0.012008328 -0.039875425 -0.018321026 -0.019088024 0.04535336
0.058075916 -0.03477162 -0.022356324 -0.06698141 -0.055173527 -0.06646845 0.05945377 -0.029113622
00000000: ed35 5d3d 013e 50bd 70df a1bc 2b38 333d
00000010: a558 4bbd 44a4 ed3c b8c5 583d c8ab 8dbd
00000020: 2f15 30bd c699 74bd b661 a4bc 2661 b03d
00000030: e69b 823d 0791 da3c 1a37 f23c 8011 abbd
00000040: a89f a83d 5b4a 403d 53c3 94bd a207 70bd
00000050: c609 a93d 88e4 5ebd 73a3 a9bd efe3 f43c
00000060: add3 183d 5cf0 4d3d 9c2f 2e3d 8dbd af3d
00000070: 27f9 aa3d a741 aabd f68d 98bd 8996 053d
00000080: 2752 603d b261 77bd 5789 71bd 905e 553d
00000090: cea0 e6bc c1e0 b3bd 7523 2cbd eb13 94bd
000000a0: 7137 613d 3526 203d 5419 9abc 141d 4c3d
000000b0: 605c 1e3d dafb 88bd a9a1 583c a8f2 423d
000000c0: 0e8f 193c 36d3 4cbc 4e2d f0bb 9308 93bc
000000d0: e0e5 333d b493 8a39 6ab8 4fba 56dc c13c
000000e0: a3e8 913d 9023 b43d b075 a2bd e82c 4d3d
000000f0: d6ae 98bd 81ed a03d 3fc7 85bd a9db 7cbd
00000100: f755 acbb 8c82 12bd 6b3d 263d fdbc aa3c
00000110: b907 5dbd db5b 20bd 6168 17bd c8e4 b4bd
00000120: 7575 a3bd 5ca5 833d 87da 833d 9ad0 1f3d
00000130: a7cc 243d 377e b23d 5589 82bd ae00 7b3d
00000140: 6d28 923c 71fa f5bc a7a7 56bd 3fdf 113d
00000150: 796c 88bd 3c00 843d 16d5 993d 2cb9 43bd
00000160: c16a f9bb a450 7bbd f5a3 a53c e1b7 223d
00000170: 9647 7c3c 0bbd 7e3a 9b97 87bc 6f44 83bd
00000180: 066f ffbc 1e3e a43c 49d2 8c3d d7a5 78bd
00000190: 2d68 47bc 211f eebb 5a7d 1f3d a568 1d3d
000001a0: b5e5 8dbc caf1 7a3d e6ec 993d 9dfa ccbc
000001b0: 28d7 3a3d aed3 3d3c 0cb3 933d 93e7 27bd
000001c0: dcf7 dc3c a914 d2bc 8e10 75bd 8308 743c
000001d0: 8acc 393c c40f d83b e695 ae3d 4eaa 793c
000001e0: 0cea 833d bb90 b1bd 9edd b2bd d714 033c
000001f0: 3310 573c d285 123d d90a 84bd 624d 48bd
00000200: 3a12 33bd d89b 8dbc d243 7c3d 4527 1e3d
00000210: bf4c 743c 54ef 913d 3276 603d cf2f 21bd
00000220: e6a1 66bd 7ed9 93bd d0a9 8ebd 7d5c 5d3d
00000230: 6e69 ad3b 14a2 44bd f4e8 2e3d be22 413d
00000240: 4d79 f13c bfb4 0f3d b7cd e03c 5e84 813d
00000250: 3c6d 1b3c 7e8d 46bd d03e 513b 8186 973c
00000260: f3d0 88bd c35d d93c 8f69 933d df7c cfbc
00000270: fb95 913d 32fe a8bd 5403 79bc e880 be3c
00000280: b91f 86bd b279 2dbd d481 acbd dff4 ae3d
00000290: 8dbd d13c e94d 433c c9a8 99bd 121f a3bd
000002a0: 22b2 603d 6bd5 243c 3687 903d b4f2 a03d
000002b0: 8a0f 5f3c 0bdd 7e3d 1e2f 583d 9a46 0ebc
000002c0: fe34 12bc dedb f73c 417b 813a 8a12 52bd
000002d0: 5648 833d b874 36bd d1d0 a43d 6bfe 953d
000002e0: 7042 afbd 50e9 a7bc 7c85 4ebd 3e44 a4bd
000002f0: 8d0a 293d b3a1 503c 53d0 633d 54bb 8b3d
00000300: 0eec 1dbd bf47 a5bd f76d 5cbc 3695 2abd
00000310: 7f13 303d c416 8a3d 9714 20bd 2ff6 89bd
00000320: e594 893d cfd4 a73b 9f73 22bd bfab 3cb9
00000330: dd45 743d fa18 44bc c92f 773d 3184 023c
00000340: 8e4f 7bbd 3528 fbbc 9437 b43d 5662 203d
00000350: 0031 50bd 0d8a fa3c 74c8 b23d a1b4 15bc
00000360: d2f4 a7bd 8a0d ae3d c065 2bbd bc49 733d
00000370: 6b55 29bc 04d2 043d ee13 74bd 6a3d 5e3d
00000380: 8068 183b b496 eb3c 728b 94bd a055 ee3a
00000390: a995 1ebd 4265 623d 4444 0c3d b433 933c
000003a0: 4a6d 753d 8175 823d fa35 d73c a2df 30bd
000003b0: 744c b53c f662 90bd a0b5 82bd ea28 6e3d
000003c0: bc14 88bb f7f4 383d b76e fa3c 94be 443c
000003d0: 6a54 23bd fa15 96bc 7d5e 9cbc 72c4 393d
000003e0: 03e1 6d3d b06c 0ebd 9c24 b7bc 8d2d 89bd
000003f0: a3fd 61bd 9c20 88bd cc85 733d b17f eebc

policy_net.input_layer.bias f4 [34]
0.0838703 -0.019911816 0.012868697 0.057184972 0.05780336 0.08059795 0.08326514 -0.06333799
-0.05818367 -0.0033100764 0.06094453 0.068273015 0.05557971 0.0052245865 0.0804607 -0.043421328
0.0052695456 0.009206031 -0.019129703 0.07954984 0.03997247 0.01680489 0.053029794 0.04212946
0.06630479 -0.05874339 0.044049937 -0.062416375 -0.08821351 0.06253031 0.042491976 -0.039114993
-0.083363645 0.021892674
00000000: 31c4 ab3d 1b1e a3bc 3ad7 523c ca3a 6a3d
00000010: 37c3 6c3d 8a10 a53d ea86 aa3d 59b7 81bd
00000020: 0052 6ebd deed 58bb f9a0 793d b9d2 8b3d
00000030: 8da7 633d 0233 ab3b 94c8 a43d 90da 31bd
00000040: 27ac ac3b e5d4 163c e5b5 9cbc 07eb a23d
00000050: 2cba 233d 69aa 893c c535 593d f18f 2c3d
00000060: ceca 873d e99c 70bd b56d 343d 50a8 7fbd
00000070: 49a9 b4bd e40f 803d 110c 2e3d 0b37 20bd
00000080: 8fba aabd 4458 b33c

policy_net.output_layer.weight f4 [34, 34]
0.16679446 -0.010309891 0.00018042061 0.09656743 -0.076737784 -0.007203886 -0.122852 -0.12507838
0.11770384 -0.13341248 -0.05513972 0.06297818 0.16061969 0.07582172 -0.14564046 0.16724898
0.023948727 0.059244256 0.04649577 -0.12077709 -0.029135032 0.10235334 0.093632236 -0.06390766
0.10033708 -0.03940405 -0.14956188 -0.14591101 -0.06947545 0.015103911 0.090037934 0.115845665
0.107521206 0.13109607 -0.06224015 -0.06732922 -0.10638277 -0.010227563 -0.13948837 -0.15963563
0.022893773 0.0874931 0.12630424 0.12808423 0.1384845 0.16942903 0.1338583 0.0071365503
0.1257512 0.035243344 0.11042225 0.04103584 -0.065326415 -0.04532727 0.026655683 0.11665279
-0.09719605 -0.009584539 -0.08597336 -0.084068954 -0.16178177 -0.1479348 -0.17006317 -0.07258519
-0.016601123 0.15267979 0.13808581 -0.12011221 0.100955725 0.14617018 0.08603427 0.11511165
0.0972366 -0.05727068 0.095292576 -0.06968175 -0.015547505 -0.047105353 0.11398375 -0.124378264
0.13079391 0.083188735 0.01716729 0.060694583 0.12744685 -0.010351477 -0.0008793399 0.095623985
0.06390828 -0.10389252 -0.11249741 0.045312434 -0.010290222 0.008794542 0.13775335 -0.16499537
0.016380372 0.02529984 0.1424962 -0.09349925 0.03281427 0.1376612 0.10850426 0.009769464
0.13172896 0.11914803 0.1168774 -0.06110671 -0.15423939 -0.096334904 0.061603002 -0.15854113
0.14522353 -0.121576115 0.008457216 0.0059954207 -0.03557778 0.0962479 0.036165453 -0.00608407
0.12438716 0.110340536 -0.15724191 -0.13735875 0.060632356 0.10119703 -0.019579008 -0.053791486
-0.07931111 0.025266461 -0.15771599 -0.0802024 0.03923974 -0.031762764 -0.024279462 0.13278587
0.06837777 -0.13748318 0.0063667404 0.075364605 -0.014598321 0.09065374 0.10926837 -0.064136885
0.15250319 -0.090263784 -0.030893348 -0.10098482 -0.0674428 -0.06917745 -0.1345387 -0.011500653
-0.05727443 0.012626046 -0.04607022 0.15091282 0.14930378 -0.15406698 -0.046894226 0.04084895
-0.16923387 0.107542776 -0.113665245 0.15095782 -0.16259807 0.13596345 -0.16744655 -0.045410078
0.11435293 0.10861031 0.06898816 -0.010090974 -0.17011558 -0.17130095 0.06114473 -0.008064951
-0.012078059 0.02729306 0.14998907 -0.07374328 0.14651264 0.108131774 0.039888263 -0.039032068
-0.090151235 0.00036862714 0.1508396 0.058348224 -0.08797993 -0.095096484 0.14580227 0.13056868
0.061045613 -0.122858666 -0.16267027 -0.119072475 -0.07160426 0.04799228 -0.049071375 -0.08331015
-0.057433125 0.09030433 -0.03902148 -0.13130303 0.09868515 0.0007255716 -0.1148402 0.061687462
0.16315496 -0.15580188 -0.035178594 -0.15739214 0.07232828 0.041268446 0.11644878 -0.15272678
0.046851642 -0.119037345 0.091191 0.07504639 -0.05997427 0.03320226 -0.12275986 -0.04194349
-0.06432899 0.122160695 -0.014008936 -0.12005225 -0.023598189 0.030966029 -0.138995 -0.14441499
-0.017384198 -0.15900609 0.018130694 0.11411495 0.08577817 -0.026864223 0.046547737 0.07024817
0.1169364 -0.022137558 -0.100208186 0.06140625 0.0055556158 -0.1030367 -0.09104316 0.089973025
0.048582245 0.16527706 -0.16211428 -0.15919879 -0.14384703 -0.08240623 -0.01756218 -0.005730148
00000000: 2bcc 2a3e d1ea 28bc 4a2f 3d39 25c5 c53d
00000010: b328 9dbd 930e ecbb d499 fbbd 8c14 00be
00000020: b60e f13d 489d 08be 30da 61bd b4fa 803d
00000030: 7d79 243e 6b48 9b3d c622 15be 5143 2b3e
00000040: 1f30 c43c 1baa 723d 5972 3e3d fb59 f7bd
00000050: 97ac eebc a19e d13d 42c2 bf3d 05e2 82bd
00000060: 877d cd3d 2466 21bd c026 19be b269 15be
00000070: 2549 8ebd 6576 773c cf65 b83d 7e40 ed3d
00000080: 1434 dc3d 0c3e 063e 87ef 7ebd e7e3 89bd
00000090: 36df d9bd 8291 27bc 0ad6 0ebe 8677 23be
000000a0: b98b bb3c 952f b33d e655 013e 8328 033e
000000b0: e1ce 0d3e ce7e 2d3e 2612 093e b9d9 e93b
000000c0: ecc4 003e 535b 103d 1025 e23d 3215 283d
000000d0: dbc9 85bd 16a9 39bd 055d da3c a8e7 ee3d
000000e0: b90e c7bd 7808 1dbc cd12 b0bd 582c acbd
000000f0: 1faa 25be 387c 17be 0a25 2ebe 8ba7 94bd
00000100: 14ff 87bc 1758 1c3e 5e66 0d3e 64fd f5bd
00000110: e0c1 ce3d a3ad 153e bc32 b03d a8bf eb3d
00000120: fc23 c73d a994 6abd c128 c33d 4eb5 8ebd
00000130: f6ba 7ebc 8bf1 40bd 5070 e93d 08ba febd
00000140: d7ee 053e db5e aa3d 6ba2 8c3c e29a 783d
00000150: 6d81 023e 3e99 29bc 8083 66ba 82d6 c33d
00000160: 58e2 823d 9ac5 d4bd 0b65 e6bd 8899 393d
00000170: 5298 28bc fc16 103c 370f 0d3e 8cf4 28be
00000180: 2130 863c 9c41 cf3c 86ea 113e 897c bfbd
00000190: 4268 063d 0ff7 0c3e 7b37 de3d 1a10 203c
000001a0: f5e3 063e e203 f43d 6b5d ef3d 084b 7abd
000001b0: eef0 1dbe 3c4b c5bd 6e53 7c3d 9b58 22be
000001c0: 7ab5 143e e6fc f8bd 2390 0a3c 3c75 c43b
000001d0: 02ba 11bd 9e1d c53d 3a22 143d e15c c7bb
000001e0: b2be fe3d 38fa e13d 0604 21be c6a7 0cbe
000001f0: a259 783d 6340 cf3d 2864 a0bc 7654 5cbd
00000200: dd6d a2bd 9cfb ce3c 4d80 21be 2841 a4bd
00000210: dab9 203d ac19 02bd b9e5 c6bc 05f9 073e
00000220: a509 8c3d 64c8 0cbe 17a0 d03b c258 9a3d
00000230: cc2d 6fbc aba8 b93d 18c8 df3d 335a 83bd
00000240: cc29 1c3e 38dc b8bd 0c14 fdbc 21d1 cebd
00000250: 731f 8abd e8ac 8dbd 83c4 09be 3c6d 3cbc
00000260: 9898 6abd 7add 4e3c 21b4 3cbd e488 1a3e
00000270: 17e3 183e bcc3 1dbe 2914 40bd 3b51 273d
00000280: a54b 2dbe 633f dc3d 53c9 e8bd b094 1a3e
00000290: 1c80 26be 013a 0b3e 1c77 2bbe ebff 39bd
000002a0: de31 ea3d 156f de3d aa49 8d3d 9d54 25bc
000002b0: c732 2ebe 8469 2fbe e572 7a3d db22 04bc
000002c0: 0de3 45bc b295 df3c bc96 193e b706 97bd
000002d0: 6907 163e 3174 dd3d e061 233d 17e0 1fbd
000002e0: 36a1 b8bd 4c44 c139 b275 1a3e 8cfe 6e3d
000002f0: d22e b4bd f2c1 c2bd 314d 153e ccb3 053e
00000300: f70a 7a3d 539d fbbd 0993 26be 45dc f3bd
00000310: 41a5 92bd 8e93 443d 11ff 48bd 839e aabd
00000320: ff3e 6bbd 7af1 b83d fdd4 1fbd 4d74 06be
00000330: 711b ca3d 4934 3e3a 5731 ebbd feab 7c3d
00000340: 1812 273e 878a 1fbe 6e17 10bd 682b 21be
00000350: d920 943d 1a09 293d b37c ee3d 6964 1cbe
00000360: 82e7 3f3d dac9 f3bd 59c2 ba3d ecb1 993d
00000370: 95a7 75bd 18ff 073d 8569 fbbd f0cc 2bbd
00000380: ebbe 83bd 632f fa3d bc85 65bc f4dd f5bd
00000390: fd50 c1bc 78ac fd3c b554 0ebe 86e1 13be
000003a0: 4e69 8ebc 7ed2 22be d286 943c 19b5 e93d
000003b0: 77ac af3d 5c12 dcbc d7a8 3e3d 46de 8f3d
000003c0: 5a7c ef3d d359 b5bc f339 cdbd 1f85 7b3d
000003d0: e20b b63b e804 d3bd d674 babd c743 b83d
000003e0: 2dfe 463d 643e 293e 4901 26be 0205 23be
000003f0: a34c 13be 99c4 a8bd 90de 8fbc f7c3 bbbb

policy_net.output_layer.bias f4 [34]
0.108141355 0.07778557 0.053834233 -0.0127096465 -0.09095096 -0.041383628 -0.15775272 -0.15876567
0.15003125 -0.09371082 0.09908351 0.15218635 0.0060998416 0.039952967 -0.16480291 0.14740835
-0.011093711 -0.12560286 0.0535433 0.106703155 0.16431701 0.13723575 -0.03154182 0.019270215
0.05021228 0.15215042 -0.055619393 -0.11213966 0.14465082 0.13927287 0.0749322 0.04874409
0.050545394 0.16071682
00000000: 3779 dd3d 0a4e 9f3d 4981 5c3d 1f3c 50bc
00000010: 7f44 babd e181 29bd ee89 21be 7893 22be
00000020: cba1 193e 75eb bfbd 4cec ca3d bdd6 1b3e
00000030: 2ee1 c73b b9a5 233d 18c2 28be 37f2 163e
00000040: 65c2 35bc 099e 00be 3850 5b3d 2f87 da3d
00000050: b842 283e 8787 0c3e ff31 01bd 92dc 9d3c
00000060: 64ab 4d3d 52cd 1b3e 29d1 63bd 7aa9 e5bd
00000070: 581f 143e 8c9d 0e3e 0e76 993d e2a7 473d
00000080: b008 4f3d f392 243e

policy_net.attention.in_proj_weight f4 [102, 34]
0.10870952 -0.08118577 0.003127266 -0.031532712 -0.06835295 -0.07099944 0.089302704 -0.19111377
-0.11416073 -0.13905531 -0.09605744 -0.13598149 0.12442405 0.040122304 -0.14986719 0.19907327
-0.097248316 -0.20972122 0.13870281 -0.13074566 0.20190391 -0.011538578 -0.10005818 0.09801553
0.18968466 -0.20021795 -0.12648994 -0.15807128 -0.20724687 -0.14739284 0.1628973 0.076803975
0.107832156 0.080358684 0.18387027 0.09783565 0.14375393 -0.15859644 0.023958303 -0.072365575
0.18551485 0.14064173 -0.19201447 -0.1874566 -0.18904231 -0.008346061 0.01359275 -0.046685565
0.13471773 0.057687182 -0.08618309 -0.07981914 -0.18755202 -0.17755705 -0.016505232 -0.14771904
-0.15368067 -0.007821244 -0.033860236 0.02271259 0.0015129792 -0.20866755 0.16536418 -0.14004876
-0.09386758 -0.06232282 -0.057144515 0.00037863915 0.08617481 0.20835938 0.14395794 0.092535704
0.1646393 0.013186743 -0.045148473 -0.09226401 0.024451645 -0.1797932 -0.06252063 0.14688109
-0.05182173 0.13639124 0.052551243 -0.053083196 -0.03387914 -0.18726641 0.1151203 0.059537236
-0.14440621 0.19731706 -0.090394 -0.20731477 -0.0015290541 0.02790179 0.010004767 0.20581672
0.13149177 0.10800655 0.14127234 0.14352612 0.0065634125 -0.10878541 0.1514897 0.1960886
-0.03549558 -0.09053709 0.12473633 -0.13951285 -0.1526294 -0.13897806 0.07873486 -0.096492365
0.12102836 -0.09525073 -0.12326507 0.07211939 -0.0029939085 -0.10476606 0.11522138 -0.075654514
-0.0017491967 0.100459486 -0.0018305733 -0.118342586 -0.034818627 -0.03268994 0.11926277 0.16574581
-0.041163575 -0.15929855 0.15774888 -0.1650572 -0.030861644 -0.09993382 -0.058284838 -0.11231545
0.1955486 -0.15775433 -0.17048879 -0.11204859 -0.058546722 0.02133144 0.13174687 0.19388098
-0.11959328 0.13937752 0.15671787 0.042456284 -0.20204292 -0.12466603 0.1612614 0.08849497
-0.13898383 0.19057119 0.025548026 0.1421318 0.19189869 0.10776738 -0.13862342 -0.043368556
0.07974618 -0.042319898 -0.1417475 -0.14262943 -0.20718427 0.0924999 0.09182838 -0.12913333
-0.06218313 0.0738314 0.17565504 0.14648435 -0.1642791 -0.19639729 0.12572102 -0.11348655
0.106072165 0.11233734 -0.13826087 -0.19506371 -0.020222615 -0.1077976 0.19835842 -0.14853859
-0.12516077 -0.15555328 0.1553604 0.017845592 -0.13947149 0.12043862 -0.059974216 -0.16563387
-0.116491884 -0.07424863 0.07541547 0.20403236 -0.19253427 0.08559551 -0.09405965 -0.051472064
-0.073991776 0.03321731 0.049792774 0.12915954 -0.14655383 0.13944262 0.018584466 0.14326967
0.12013778 0.051432453 0.17436561 0.17611101 -0.12610711 0.08858581 0.18026416 0.12385559
0.061184324 0.1306647 0.19602624 0.10871661 0.0082129035 0.061438095 -0.09906146 -0.11737115
0.0064735473 -0.07406987 -0.104342856 -0.19277632 0.087039456 -0.19471712 0.19329768 -0.18389441
0.18902914 -0.022501336 -0.15490836 0.08276826 -0.14754419 -0.052161187 -0.20757718 -0.08392972
-0.13253585 -0.17700043 -0.046027668 -0.121132754 0.040526606 -0.19649991 0.058114897 -0.102341615
-0.049402367 0.002881909 -0.028317235 0.12194787 -0.15247324 -0.04456975 0.017599635 0.17685819
00000000: 19a3 de3d ba44 a6bd d1f2 4c3b 7228 01bd
00000010: a2fc 8bbd 2868 91bd 56e4 b63d 54b3 43be
00000020: 1acd e9bd 8464 0ebe c3b9 c4bd bb3e 0bbe
00000030: 09d2 fe3d 4957 243d c976 19be ddd9 4b3e
00000040: 202a c7bd 29c1 56be 1c08 0e3e 31e2 05be
00000050: e6bf 4e3e 4e0c 3dbc 4eeb ccbd 5ebc c83d
00000060: b23c 423e ef05 4dbe 9486 01be 70dd 21be
00000070: 8638 54be 26ee 16be 8dce 263e 674b 9d3d
00000080: 1bd7 dc3d 1893 a43d 7d48 3c3e 0f5e c83d
00000090: 3b34 133e 1b67 22be 3444 c43c 6734 94bd
000000a0: 9bf7 3d3e 6304 103e 719f 44be 9ff4 3fbe
000000b0: 4f94 41be ebbd 08bc 20b4 5e3c 5d39 3fbd
000000c0: 72f3 093e 6549 6c3d c380 b0bd 3878 a3bd
000000d0: a30d 40be 84d1 35be fb35 87bc a943 17be
000000e0: 775e 1dbe ad24 00bc 08b1 0abd c10f ba3c
000000f0: 284f c63a f2ac 55be 3a55 293e f168 0fbe
00000100: a53d c0bd 3746 7fbd 5e10 6abd 1684 c639
00000110: 6b7c b03d 295c 553e b669 133e 5c83 bd3d
00000120: 3497 283e 350d 583c 9bed 38bd eaf4 bcbd
00000130: d14e c83c b51b 38be d10a 80bd ff67 163e
00000140: 0643 54bd 25aa 0b3e f93f 573d c46d 59bd
00000150: dac4 0abd c4c2 3fbe 31c4 eb3d 51dd 733d
00000160: 39df 13be 7c0d 4a3e 7d20 b9bd 534a 54be
00000170: 8b6a c8ba 4b92 e43c 09eb 233c 9ec1 523e
00000180: c7a5 063e 8a32 dd3d b2a9 103e 83f8 123e
00000190: e511 d73b e3ca debd 1e20 1b3e 73cb 483e
000001a0: d063 11bd 836b b9bd c375 ff3d 75dc 0ebe
000001b0: e24a 1cbe 4450 0ebe be3f a13d ca9d c5bd
000001c0: b8dd f73d d112 c3bd 6672 fcbd 55b3 933d
000001d0: 7335 44bb 978f d6bd 30f9 eb3d c1f0 9abd
000001e0: 4d45 e5ba b4bd cd3d d9ef efba 995d f2bd
000001f0: fa9d 0ebd e3e5 05bd 0a40 f43d 45b9 293e
00000200: 239b 28bd 291f 23be ec88 213e c104 29be
00000210: 8fd1 fcbc 1aaa ccbd 15bc 6ebd a505 e6bd
00000220: e43d 483e 5a8a 21be 9d94 2ebe bb79 e5bd
00000230: b0ce 6fbd 46bf ae3c a7e8 063e bc88 463e
00000240: 52ed f4bd fbb8 0e3e a67a 203e a4e6 2d3d
00000250: 57e4 4ebe e750 ffbd b521 253e da3c b53d
00000260: c751 0ebe 1825 433e 184a d13c 008b 113e
00000270: 1781 443e 25b5 dc3d 4cf3 0dbe 3aa3 31bd
00000280: f751 a33d a157 2dbd 4226 11be 730d 12be
00000290: 1d28 54be 9670 bd3d 8510 bc3d 873b 04be
000002a0: bdb3 7ebd eb34 973d eade 333e feff 153e
000002b0: c838 28be 5f1c 49be 03bd 003e a36b e8bd
000002c0: 5d3c d93d 1f11 e63d 4294 0dbe c8be 47be
000002d0: e6a9 a5bc fdc4 dcbd 781e 4b3e 801a 18be
000002e0: 252a 00be 5c49 1fbe cc16 1f3e eb30 923c
000002f0: 9dd1 0ebe 86a8 f63d 86a7 75bd ed9b 29be
00000300: 4c93 eebd aa0f 98bd 6d73 9a3d dced 503e
00000310: b427 45be b34c af3d 59a2 c0bd 5fd4 52bd
00000320: 0089 97bd e00e 083d 82f3 4b3d 6642 043e
00000330: 3512 16be 0cca 0e3e 733e 983c 49b5 123e
00000340: cc0a f63d d6aa 523d e68c 323e 7256 343e
00000350: 3922 01be 7a6c b53d 2b97 383e 00a8 fd3d
00000360: 6a9c 7a3d f8cc 053e 1abb 483e d0a6 de3d
00000370: 6a8f 063c 83a6 7b3d bce0 cabd 4960 f0bd
00000380: 0d20 d43b f2b1 97bd b5b1 d5bd 2867 45be
00000390: be41 b23d ed63 47be d4ef 453e d14e 3cbe
000003a0: db90 413e b954 b8bc 4ca0 1ebe 6882 a93d
000003b0: d315 17be f8a6 55bd 1d8f 54be 58e3 abbd
000003c0: 7ab7 07be 9a3f 35be 8287 3cbd 7314 f8bd
000003d0: 3aff 253d 4637 49be e309 6e3d 7b98 d1bd
000003e0: 235a 4abd 69de 3c3b 8cf9 e7bc cebf f93d
000003f0: f221 1cbe c58e 36bd 1c2d 903c 501a 353e

policy_net.attention.in_proj_bias f4 [102]
-6.463565e-16 -7.1452793e-16 2.995042e-16 -5.3469643e-17 2.2822662e-16 -6.4014224e-16 -1.2424141e-15 2.6014335e-16
5.820428e-17 -3.808258e-16 8.4093574e-16 -3.7602852e-16 -2.1422466e-16 -6.381397e-16 -5.869737e-16 -2.5719764e-16
-3.8940646e-17 -1.4401974e-15 1.144118e-15 1.3994242e-15 -3.2538485e-16 5.1030485e-16 -2.5512189e-17 1.2713305e-15
-1.1690428e-15 1.3034003e-15 3.3488898e-16 -1.4728102e-16 -1.1612385e-15 1.6274801e-15 -4.385319e-16 -1.5890951e-16
-2.3347417e-15 -9.804003e-16 1.0696242e-16 9.0918326e-17 -1.2566582e-16 5.6949857e-17 -1.2238238e-17 -2.1137295e-17
-1.2318437e-16 6.522331e-17 2.5809173e-17 -7.811526e-17 -6.123078e-17 -1.1636298e-16 -1.449006e-16 -7.1103036e-17
-3.0687296e-17 -7.0725464e-17 -8.8635294e-17 -3.770651e-16 1.6437582e-16 -2.9779728e-16 5.406464e-16 -4.9544516e-18
4.685955e-17 2.3002377e-17 -1.5199359e-16 -5.013779e-16 -1.6056011e-16 2.3696027e-16 3.8932543e-16 2.7457203e-16
8.877522e-17 -5.741039e-17 5.60881e-17 5.560841e-17 -1.8647594e-08 -1.2085005e-06 -1.7771927e-06 -5.180201e-07
3.914436e-07 -4.2827622e-07 3.6042223e-07 4.7561906e-07 1.9023088e-06 -1.0249578e-06 1.3875513e-07 -2.2601262e-07
4.2698497e-07 -1.8618644e-07 -7.896113e-07 1.6321471e-06 -3.6505327e-07 -2.983842e-07 1.139978e-06 7.5448537e-07
5.63863e-07 -6.669242e-07 2.0287096e-07 -7.6180385e-07 -5.926492e-07 -9.977496e-07 7.775823e-07 8.603213e-07
7.149463e-07 3.283838e-08 -8.7532254e-07 2.0261606e-07 -1.5805238e-06 9.783761e-07
00000000: b14c 3aa6 dbf2 4da6 05a7 ac25 d095 76a4
00000010: 4e90 8325 2982 38a6 fd0c b3a6 62f6 9525
00000020: be35 8624 f887 dba5 1b62 7226 04c4 d8a5
00000030: f6fb 76a5 66ee 37a6 042f 29a6 ac43 94a5
00000040: 0095 33a4 e88d cfa6 81e2 a426 a4ad c926
00000050: 5492 bba5 da15 1326 f44e eba3 d137 b726
00000060: 117a a8a6 fcd6 bb26 e40c c125 afcd 29a5
00000070: 245a a7a6 6b8b ea26 e3cb fca5 cf35 37a5
00000080: 623c 28a7 634a 8da6 78a3 f624 b5a4 d124
00000090: 01e2 10a5 4351 8324 72c1 61a3 07f5 c2a3
000000a0: 9c05 0ea5 0c65 9624 300c ee23 1c1f b4a4
000000b0: 4630 8da4 4a28 06a5 1c0f 27a5 d3f3 a3a4
000000c0: 2a85 0da4 f214 a3a4 0b61 cca4 fd5c d9a5
000000d0: 2e83 3d25 1fab aba5 aad4 1b26 79c9 b6a2
000000e0: fe19 5824 d428 d423 973c 2fa5 2983 10a6
000000f0: fb1c 39a5 2a99 8825 4b6e e025 ae47 9e25
00000100: a4b3 cc24 1d61 84a4 9254 8124 6939 8024
00000110: 7e2e a0b2 c333 a2b5 e087 eeb5 120e 0bb5
00000120: 9927 d234 d6ed e5b4 0e80 c134 9658 ff34
00000130: d552 ff35 4891 89b5 b8fc 1434 e0ad 72b4
00000140: 5e3c e534 8aea 47b4 adf5 53b5 2610 db35
00000150: 8afc c3b4 9d31 a0b4 5901 9935 d787 4a35
00000160: 5f5c 1735 af06 33b5 bfd4 5934 c37e 4cb5
00000170: 8b16 1fb5 6aea 85b5 0cbb 5035 d4f0 6635
00000180: bcea 3f35 2e0a 0d33 b5f7 6ab5 ae8e 5934
00000190: 6222 d4b5 bf50 8335

policy_net.attention.out_proj.weight f4 [34, 34]
0.013189258 -0.16797903 0.04608345 -0.001989106 -0.046721272 0.0061007724 0.122090176 0.024843913
-0.04385393 -0.14882474 -0.057958227 0.027866192 0.07135961 0.037957937 0.16727947 0.13897683
-0.09952171 -0.038826194 -0.08891233 0.16583145 -0.012815265 0.0022814227 0.10430192 -0.073745176
-0.055355858 0.08341139 0.13496804 0.02775409 -0.07800082 0.10556004 -0.036572903 -0.027600197
-0.020451432 -0.043538637 0.15037577 -0.11843783 -0.1327656 0.16296303 0.12658475 -0.11243227
-0.06414635 0.11677094 0.09372828 -0.15955737 0.07769649 0.08137553 -0.121407166 -0.12804928
-0.042775296 0.016923895 -0.17121087 0.16558218 0.10262884 0.14244811 -0.07261392 -0.10470799
-0.1053803 0.14526148 0.14301534 0.067156374 -0.015918039 -0.17120296 -0.0916037 -0.0658727
0.0028678274 -0.101831555 0.029537419 0.14930058 0.10277283 -0.12700388 0.09061247 -0.098503895
0.16500165 -0.0006393766 0.081471734 0.16885021 0.012991636 0.11461351 0.0692005 -0.04591141
0.1495177 0.083143406 0.07869346 0.14317738 -0.109573096 0.03275263 0.03450194 0.052346546
0.0029857291 0.15391277 0.05822533 -0.098120205 0.12319034 0.12942076 0.16924708 -0.1130646
0.0915889 -0.054809954 -0.04840701 -0.020338122 0.06877028 -0.0338331 -0.16196899 0.090287805
0.12532768 0.039158627 0.14984247 -0.073099904 -0.03394439 0.014066246 -0.081410654 0.097096324
-0.0887649 0.11541427 -0.1111034 -0.03285792 -0.085384406 0.08133112 0.06330495 0.11782345
0.12522615 0.15056634 -0.13905051 -0.061592024 0.16245398 0.12905204 0.054077078 -0.0094004255
0.12415675 0.13740587 0.06388123 -0.16329694 -0.14019053 0.10643731 0.07745432 0.10459626
0.11284511 0.14838426 -0.03402968 -0.097695135 -0.090115994 -0.16911465 0.03312724 0.13736431
0.16147545 -0.09052359 0.08752067 0.122597225 0.08903124 0.06874733 0.008652488 0.1679191
0.12383124 -0.07463615 0.14212874 0.11387674 -0.03025398 -0.018618464 -0.15140773 -0.013942868
0.015463207 -0.14504021 0.045494463 0.040046673 0.03829114 0.02658299 -0.16263282 -0.09408587
-0.0024788927 0.093056336 0.029018912 -0.098642424 -0.13136126 -0.11506677 0.056764033 -0.15260446
0.02317793 0.026630705 0.11802119 -0.14585394 -0.10259298 0.12089381 0.15864284 0.026310567
-0.14306834 -0.008393482 0.11119665 0.07319889 0.09441143 -0.04233548 -0.052352842 0.061215594
-0.13664675 -0.042876177 -0.020448433 0.115991965 0.08465946 -0.12872323 -0.021755194 -0.07347308
-0.025475744 0.0006411158 -0.05802741 0.013714627 0.11029138 0.047597546 0.010134965 -0.06078295
0.10889741 -0.14300324 0.02517457 0.0963443 0.1677614 -0.1519271 0.12651289 -0.13991785
-0.13961378 0.0939777 0.13047418 -0.055886623 0.07127614 -0.095142625 0.010663807 -0.091037765
-0.03909584 0.09661734 -0.039855286 -0.020934071 0.028976044 0.05595314 0.08438842 0.116421685
0.15344891 -0.0012065971 -0.12121969 0.153504 0.0028802366 0.008998933 0.15820487 0.123601325
0.1167144 0.04387913 -0.09882344 -0.024009887 -0.10433513 0.0761373 -0.15109059 -0.05982223
-0.0033183268 0.07371069 -0.048638094 -0.11504175 0.10761558 0.096671745 -0.13599172 -0.1255424
00000000: c217 583c b202 2cbe 00c2 3c3d a95b 02bb
00000010: ce5e 3fbd fde8 c73b 6a0a fa3d 7685 cb3c
00000020: 2ea0 33bd 8365 18be 9b65 6dbd a447 e43c
00000030: fd24 923d c879 1b3d 4f4b 2b3e f14f 0e3e
00000040: 0ad2 cbbd 3708 1fbd ab17 b6bd b8cf 293e
00000050: 1ef7 51bc ec83 153b 3f9c d53d b607 97bd
00000060: d3bc 62bd 97d3 aa3d 1035 0a3e 8c5c e33c
00000070: e5be 9fbd dd2f d83d 78cd 15bd cf19 e2bc
00000080: c389 a7bc 9255 32bd 1bfc 193e 888f f2bd
00000090: b5f3 07be c8df 263e 6f9f 013e e442 e6bd
000000a0: 295f 83bd 9a25 ef3d 9df4 bf3d 0263 23be
000000b0: 561f 9f3d 37a8 a63d 52a4 f8bd 5a1f 03be
000000c0: 2635 2fbd fba3 8a3c e751 2fbe 608e 293e
000000d0: 122f d23d ebdd 113e 9bb6 94bd 2571 d6bd
000000e0: a0d1 d7bd 6dbf 143e 9d72 123e 4889 893d
000000f0: 8c66 82bc d44f 2fbe b89a bbbd 44e8 86bd
00000100: 29f2 3b3b 108d d0bd 75f8 f13c 40e2 183e
00000110: 907a d23d 4e0d 02be 0893 b93d 69bc c9bd
00000120: 31f6 283e d69b 27ba a7da a63d 12e7 2c3e
00000130: dfda 543c 7dba ea3d feb8 8d3d 9a0d 3cbd
00000140: 2b1b 193e 1747 aa3d 092a a13d 179d 123e
00000150: dc67 e0bd 9f27 063d e851 0d3d 5569 563d
00000160: 39ac 433b 4f9b 1d3e af7d 6e3d 3ff3 c8bd
00000170: 384b fc3d e086 043e 1b4f 2d3e 6a8e e7bd
00000180: f692 bb3d 6780 60bd 6e46 46bd 229c a6bc
00000190: 6fd7 8c3d 9494 0abd 33db 25be d0e8 b83d
000001a0: e655 003e cc64 203d 4e70 193e 67b5 95bd
000001b0: 4609 0bbd 1d76 663c a1ba a6bd 70da c63d
000001c0: 5fca b5bd 515e ec3d 2e8a e3bd 0796 06bd
000001d0: 05de aebd ee90 a63d 07a6 813d 6c4d f13d
000001e0: 493b 003e 102e 1a3e 4263 0ebe eb47 7cbd
000001f0: 565a 263e 3826 043e ed7f 5d3d 3e04 1abc
00000200: e545 fe3d 20b4 0c3e 2ad4 823d 5037 27be
00000210: 1b8e 0fbe cefb d93d 5fa0 9e3d 9036 d63d
00000220: 561b e73d 0bf2 173e b562 0bbd 6314 c8bd
00000230: bc8e b8bd 642c 2dbe 6eb0 073d 3ba9 0c3e
00000240: d259 253e 6f64 b9bd 093e b33d 4114 fb3d
00000250: 0356 b63d 66cb 8c3d 2ac3 0d3c fcf2 2b3e
00000260: 3c9b fd3d d6da 98bd 328a 113e 3538 e93d
00000270: 32d7 f7bc c085 98bc a10a 1bbe a170 64bc
00000280: 6459 7d3c 6c85 14be 6758 3a3d fb07 243d
00000290: 2cd7 1c3d 92c4 d93c 3889 26be 18b0 c0bd
000002a0: eb74 22bb 5294 be3d 12b9 ed3c 0a05 cabd
000002b0: 9183 06be 20a8 ebbd 6781 683d 5844 1cbe
000002c0: a4df bd3c a328 da3c 18b5 f13d bc5a 15be
000002d0: 451c d2bd 2d97 f73d 4573 223e 4289 d73c
000002e0: 8280 12be d184 09bc 12bb e33d 4de9 953d
000002f0: c85a c13d f867 2dbd ef6f 56bd 34bd 7a3d
00000300: 20ed 0bbe ee9e 2fbd 7983 a7bc 328d ed3d
00000310: f061 ad3d 06d0 03be f337 b2bc 0e79 96bd
00000320: 82b2 d0bc 8e10 283a 26ae 6dbd 51b3 603c
00000330: 72e0 e13d a5f5 423d 200d 263c 8bf7 78bd
00000340: 9b05 df3d 716f 12be e63a ce3c 2950 c53d
00000350: a5c9 2b3e c792 1bbe 988c 013e a046 0fbe
00000360: eaf6 0ebe 6177 c03d 069b 053e 5fe9 64bd
00000370: 3af9 913d 23da c2bd 40b7 2e3c 0272 babd
00000380: f622 20bd 50df c53d 4c3f 23bd ee7d abbc
00000390: 2b5f ed3c 1f2f 653d d6d3 ac3d 7e6e ee3d
000003a0: b621 1d3e ae26 9eba 0742 f8bd 2730 1d3e
000003b0: 5ac2 3c3b 4370 133c 7500 223e b122 fd3d
000003c0: f607 ef3d 9aba 333d f263 cabd 62b0 c4bc
000003d0: a8ad d5bd dfed 9b3d 7eb7 1abe 2808 75bd
000003e0: 4978 59bb a1f5 963d bd38 47bd 029b ebbd
000003f0: 8f65 dc3d d6fb c53d 6a41 0bbe 308e 00be

policy_net.attention.out_proj.bias f4 [34]
5.5196534e-07 8.753207e-07 7.1365804e-07 -1.8591985e-06 1.3531591e-06 -1.5638777e-07 2.3588571e-07 -2.3489742e-06
-5.00929e-07 -9.707879e-07 1.8212944e-06 -1.864865e-06 3.2130051e-06 7.1888684e-07 -1.6968462e-06 1.9593347e-06
-5.8275094e-07 2.9769199e-06 -1.0153731e-06 2.6523562e-06 7.562825e-08 1.2483265e-07 2.8478848e-07 1.7364371e-07
-1.0086106e-06 -3.2914031e-06 -2.6041604e-07 -2.045691e-06 -8.915215e-07 -8.058148e-07 -6.599957e-07 9.2773627e-07
5.4685756e-07 2.0821208e-06
00000000: c52a 1435 95f7 6a35 3592 3f35 9389 f9b5
00000010: 319e b535 8beb 27b4 c547 7d34 12a3 1db6
00000020: 9477 06b5 054c 82b5 3373 f435 464c fab5
00000030: 029f 5736 87f9 4035 31bf e3b5 1d7d 0336
00000040: 576e 1cb5 18c7 4736 f447 88b5 22ff 3136
00000050: 1269 a233 bd09 0634 08e5 9834 d272 3a34
00000060: 995f 87b5 e0e1 5cb6 4fcf 8bb4 b448 09b6
00000070: e450 6fb5 2c4f 58b5 8f2a 31b5 8d09 7935
00000080: c4cb 1235 90ba 0b36
