scripts/models/602/34/1/qModel.pth (torch, 119483 bytes, 9 tensors)

value_net.0.input_layer.weight f4 [64, 128]
0	0xbcaf2a1d	-0.021382386
1	0x3d3d1a74	0.046167806
2	0xbd870ff4	-0.0659484
3	0xbd1b23f2	-0.037876077
4	0x3d62112f	0.05519217
5	0xbd58d880	-0.052940845
6	0xbd705596	-0.05867537
7	0xbda2e466	-0.0795372
8	0xbd8190d0	-0.06326449
9	0xbd0ff611	-0.035146777
10	0x3d2ec171	0.04266495
11	0x3d2348ff	0.039864536
12	0x3d1a375d	0.037650455
13	0xbd59c8f8	-0.053170174
14	0xbcf57717	-0.029964013
15	0xbd62ec88	-0.055401355
16	0xbd618ddc	-0.05506693
17	0x3cdcabba	0.026937354
18	0xbc29be42	-0.010360302
19	0x3c08788f	0.008329525
20	0xbd4d2e42	-0.050092943
21	0xbd4cbd2e	-0.049985103
22	0x3cad2c94	0.02113942
23	0xbd7ba7f0	-0.061439455
24	0xbce58a43	-0.02802003
25	0x3d22d114	0.039750174
26	0x3ba61095	0.0050678947
27	0x3d67e02f	0.056610283
28	0xbdbd2351	-0.09235252
29	0xbd2ad3d6	-0.04170593
30	0xbd92c154	-0.07165781
31	0x3d74170b	0.059592288
32	0xbd0333fc	-0.032031998
33	0x3d03f094	0.032211855
34	0xbd830e95	-0.06399266
35	0x3cdef04e	0.027214196
36	0x3ae5f13f	0.001754321
37	0xbdac3a22	-0.084095255
38	0xbdb2bd85	-0.08727554
39	0x3d541374	0.051776364
40	0xbdadf9b7	-0.08494895
41	0x3d6a5bf9	0.05721662
42	0x3d1b4b57	0.037913647
43	0x3d37c7eb	0.04486839
44	0xbd7f566a	-0.06233827
45	0xbd977431	-0.073952086
46	0x3d09a1bc	0.033601508
47	0xba0a9393	-0.00052862725
48	0xbd4a1f69	-0.04934636
49	0xbc97e1bf	-0.018540261
50	0x3d3dc6b0	0.04633206
51	0xbd53db33	-0.051722717
52	0x3c8c0f6a	0.017097194
53	0x3d2620c5	0.040558595
54	0x3c1913a8	0.009343065
55	0xbd4c060c	-0.049810454
56	0x3d405646	0.046957277
57	0x3d96d412	0.07364668
58	0x3d922efe	0.07137869
59	0x3c157a17	0.009123347
60	0xbd09363b	-0.033498984
61	0x3da6f1a6	0.081515595
62	0xbd3a3dd8	-0.045469135
63	0xbc987c71	-0.018614026
64	0xbda0360d	-0.07822809
65	0x3da47f49	0.0803209
66	0x3be9c443	0.007133992
67	0x3d6d0468	0.05786553
68	0x3d922b7c	0.071372
69	0xbd35b42c	-0.04436128
70	0x3b1620b0	0.0022907667
71	0xbdc05584	-0.09391311
72	0x3d2166bf	0.039404627
73	0x3cc6ce5e	0.024268325
74	0x3d3922d1	0.04519922
75	0x3d24b825	0.040214676
76	0x3d9c38e9	0.07628042
77	0xbdaf291a	-0.085527614
78	0xbb2dee7e	-0.0026539857
79	0xbd0cbb05	-0.034358043
80	0x3c9d197e	0.019177195
81	0xbd4938c2	-0.049126394
82	0x3d4c875f	0.049933787
83	0x3d8eef78	0.06979269
84	0x3d6e4d4e	0.058179192
85	0xbcbe8946	-0.023258816
86	0x3d130162	0.03588999
87	0xbc7d7ef9	-0.015472167
88	0xbd8a2ae9	-0.06746466
89	0x3bbba751	0.005726733
90	0xbd520191	-0.051271025
91	0x3c0c8a21	0.008577854
92	0xbcdd4c5b	-0.027013948
93	0x3cf4c24f	0.02987781
94	0xbd73bcc2	-0.059506185
95	0xbda62669	-0.08112795
96	0x3d9018ba	0.07035966
97	0x3d743536	0.05962106
98	0xbd2932e2	-0.04130829
99	0xbd1eb7fd	-0.038749684
100	0xbd69e911	-0.057107035
101	0xbd46dc93	-0.0485502
102	0xbdb8bd83	-0.090205215
103	0xbd86b05d	-0.065766074
104	0xbd88f0ae	-0.06686531
105	0xbcbd4fdb	-0.023109367
106	0x3d834d6c	0.064112514
107	0x3ccd7a41	0.02508271
108	0x3d28b041	0.041183714
109	0x3c86157d	0.016367668
110	0xbd601a9d	-0.05471288
111	0x3d966414	0.07343307
112	0xbd4da377	-0.05020472
113	0xbd5df986	-0.054193042
114	0xbc346d7a	-0.011012429
115	0x3c80d70d	0.015727544
116	0x3d90da29	0.07072861
117	0x3c54a72a	0.012979308
118	0x3da93596	0.08262174
119	0xbd3cab19	-0.04606161
120	0x3d978efe	0.074003205
121	0xbdaa3cf3	-0.083124064
122	0xbd035468	-0.032062918
123	0xbbca92ea	-0.0061820643
124	0xbd128633	-0.035772514
125	0x3d8fc4a6	0.070199296
126	0xbd9a2492	-0.075265065
127	0xb9ca367a	-0.0003856903
128	0xbd30f76b	-0.043204706
129	0x3d8d435c	0.068976134
130	0xbd111181	-0.035417084
131	0x3d28262e	0.041052036
132	0x3da7855c	0.08179733
133	0xbcb2a5b2	-0.021807525
134	0xbdb501f6	-0.08838265
135	0x3b97dc2f	0.004634402
136	0xbb40ef82	-0.0029439633
137	0x3d15de77	0.036589112
138	0xbd9023c4	-0.07038072
139	0x3d3b2e42	0.04569841
140	0xbd2c79d2	-0.042108364
141	0xbd90644d	-0.07050381
142	0xbd9e73c4	-0.07736924
143	0x3d89210d	0.06695757
144	0xbd33a621	-0.043859605
145	0x3d2bbc60	0.041927695
146	0xbcde4f99	-0.027137564
147	0x3d47f2a7	0.048815396
148	0x3da44b8c	0.08022222
149	0xbd62ea94	-0.055399492
150	0xbd867df4	-0.065669924
151	0x3b08426a	0.002079154
152	0xbbc149c9	-0.0058986885
153	0xbdb2f969	-0.087389775
154	0xbd829e0d	-0.06377802
155	0xbd3cfb2c	-0.046137974
156	0x3d7f8bd5	0.062389214
157	0xbc46bf3f	-0.012130558
158	0xbd3cdb59	-0.046107624
159	0x3d1da7c9	0.03849009
160	0xbc1f74b0	-0.00973241
161	0xbbd7f488	-0.0065904297
162	0xbda47862	-0.08030774
163	0x3d213691	0.03935868
164	0xbdadc7a9	-0.08485348
165	0xbd7b864b	-0.06140737
166	0x3d938358	0.07202786
167	0x3bb5144f	0.0055261026
168	0x3ca868cb	0.020557782
169	0x3c10ce31	0.008838222
170	0x3c1bc1c9	0.009506651
171	0x3d6e2f42	0.058150537
172	0x3d041a98	0.032251924
173	0xbaf6c95b	-0.0018828319
174	0xbd9fb694	-0.07798496
175	0xbd2ea3b4	-0.04263659
176	0x3b802a4a	0.0039112912
177	0x3dabb9b7	0.08385032
178	0x3c2e682d	0.010644955
179	0x3d060812	0.03272254
180	0x3cb1772a	0.021663267
181	0x3cda72ea	0.026666123
182	0xbce2cc0f	-0.027685193
183	0xbcb29524	-0.021799631
184	0xbdb88e71	-0.090115435
185	0x3da24e16	0.0792505
186	0xbd6a8c81	-0.0572629
187	0x3d328976	0.043588124
188	0xbd44b4b6	-0.048023902
189	0x3cccbfd7	0.02499382
190	0x3dabe80d	0.083938695
191	0xbc827a6c	-0.015927516
192	0xbcf9c251	-0.030488165
193	0x3d800780	0.062514305
194	0x3ce769b5	0.028248647
195	0x3d0328bf	0.03202128
196	0xbd8addb4	-0.06780568
197	0x3b9df234	0.0048201326
198	0x3d465855	0.048424084
199	0x3b607647	0.0034250186
200	0x3d94f14d	0.07272587
201	0xbd85f0fd	-0.065401055
202	0xbd1df0cc	-0.03855972
203	0xbd637dd1	-0.05553991
204	0x3d81c704	0.06336787
205	0x3cdc769d	0.026912028
206	0xbd2936e6	-0.04131212
207	0xbd5fad1b	-0.054608446
208	0x3d87527d	0.0660753
209	0xbc1dbae0	-0.009627074
210	0xbd2b6c86	-0.041851543
211	0xbcea4986	-0.028599512
212	0xbd6850f2	-0.05671782
213	0xbce43b4f	-0.027860312
214	0x39599357	0.00020749621
215	0x3d324012	0.043518133
216	0xbd592b0c	-0.05301957
217	0xbdb59786	-0.088667914
218	0xbc8faac9	-0.017537491
219	0x3cb5f7f6	0.022212964
220	0x3cacfecf	0.021117596
221	0x3b1c06d4	0.002380778
222	0x3d488725	0.04895701
223	0xbda50d22	-0.080591455
224	0xbc39d907	-0.011343247
225	0xbd4d2300	-0.050082207
226	0x3ba026e3	0.004887448
227	0x3da677d5	0.08128325
228	0xbbbe61e7	-0.0058100107
229	0xbd98fc60	-0.07470012
230	0xbbf4fa87	-0.0074761542
231	0x3c2b2a93	0.010447162
232	0xbd7794c8	-0.060444623
233	0xbd9f6a25	-0.07783917
234	0xbc0fd2cc	-0.008778285
235	0x3c0112a4	0.007877979
236	0x3cd3a9c4	0.025837786
237	0xbd368626	-0.044561528
238	0xba99e7c5	-0.0011742046
239	0xbd15930a	-0.03651718
240	0x3d993706	0.07481198
241	0x3d8f9d24	0.07012394
242	0x3c916eb0	0.017752975
243	0x3c145211	0.009052769
244	0xbd986ca3	-0.07442596
245	0xbd9340a6	-0.07190065
246	0x3d399817	0.04531106
247	0x3d9e34b9	0.077249
248	0x3d3abf51	0.04559261
249	0x3d181280	0.037127018
250	0x3d15a701	0.03653622
251	0x3b6a81aa	0.0035782852
252	0x3c642d50	0.013926819
253	0x3d8d0b0f	0.06886875
254	0x3d925f28	0.07147056
255	0x3d9b1fe2	0.075744405

value_net.0.input_layer.bias f4 [64]
0	0x3cebfaaa	0.02880605
1	0x3a8c1262	0.0010686631
2	0xbcf223a7	-0.029558016
3	0x3d68d1c4	0.056840673
4	0x3da53157	0.080660515
5	0xbca505e0	-0.020144403
6	0xbdb4a464	-0.088204175
7	0x3c83bfe3	0.01608271
8	0x3d86173c	0.065474
9	0x3d98c45a	0.07459326
10	0xbd0c36f9	-0.034232114
11	0xbc8a45ad	-0.016878927
12	0x3c3a9c93	0.011389869
13	0xbbc114f9	-0.0058923927
14	0x3c204e45	0.009784286
15	0x3d72ff24	0.059325352
16	0x3d17e4b2	0.037083335
17	0xbdb03cc6	-0.086053416
18	0x3c0dc984	0.008654002
19	0x3da3ed40	0.08004236
20	0xbd4d921c	-0.05018817
21	0xbd442396	-0.0478855
22	0x3cd46f67	0.025932027
23	0x3d8c0afe	0.06838034
24	0x3cc4aac6	0.024007212
25	0x3d55e9de	0.052224986
26	0xbd0af048	-0.033920556
27	0x3da51a60	0.08061671
28	0xbdb4ef0c	-0.08834657
29	0x3d6f49a7	0.05841985
30	0x3d9b4a4e	0.07582532
31	0x3c6b06eb	0.014344911
32	0x3d9b11e7	0.07571774
33	0xbdad22e6	-0.08453922
34	0xbda3f9fc	-0.08006665
35	0x3d1c2483	0.038120758
36	0x3b396a66	0.0028292178
37	0xbbac1197	-0.0052511203
38	0x3d374272	0.0447411
39	0x3d92f702	0.07176019
40	0x3cc832b3	0.024438238
41	0x3d1acde7	0.03779402
42	0xbd03804b	-0.03210477
43	0x3d5120a0	0.051056504
44	0x3c87df2e	0.016585913
45	0x3d914e83	0.07095053
46	0xbdbce1a3	-0.09222724
47	0x3b610392	0.0034334403
48	0x3d8e8279	0.069584794
49	0xbd883880	-0.066514015
50	0x3d7319a6	0.059350632
51	0x3d6f5204	0.058427826
52	0x3d0a6f6d	0.03379767
53	0x3ba7f110	0.0051251724
54	0x3cc8783f	0.0244714
55	0xbd140d4a	-0.036145486
56	0xbd94f709	-0.07273681
57	0x3d8df0c0	0.06930685
58	0xbda201ce	-0.079105005
59	0xbdabca1d	-0.083881594
60	0x3d5f13a0	0.054462075
61	0xbdaa6ba5	-0.08321313
62	0x3ba11c4d	0.004916704
63	0x3dac3cc8	0.084100306

value_net.0.output_layer.weight f4 [64, 64]
0	0x3d8cdc2e	0.068779334
1	0x3d920aa8	0.07130939
2	0xbc95da07	-0.01829244
3	0x3dbda10c	0.09259233
4	0x3dcfe943	0.10151913
5	0x3d3bd3cf	0.045856293
6	0xbddbd04c	-0.10733089
7	0xbce06d63	-0.02739591
8	0x3d03a5f6	0.032140695
9	0xbd78efbc	-0.060775504
10	0x3defa5ae	0.11701523
11	0xbd902306	-0.0703793
12	0xbdac5fe7	-0.084167294
13	0xbc689969	-0.014196732
14	0x3cc9bbcf	0.024625687
15	0xbd109033	-0.03529377
16	0x3cba585a	0.022747207
17	0x3e0019c8	0.12509835
18	0x3d816791	0.06318582
19	0xbd2a9325	-0.041644234
20	0x3d89da75	0.067311205
21	0xbcaee98d	-0.0213516
22	0xbd8b5487	-0.06803232
23	0x3d96d795	0.07365338
24	0xbd5210d6	-0.051285587
25	0x3d47e62c	0.048803493
26	0xbd0e9d2e	-0.034817867
27	0xbdc6b53b	-0.09702536
28	0xbda36827	-0.0797885
29	0xbd9f9bfc	-0.077934235
30	0x3d5053ab	0.050861042
31	0x3da34100	0.07971382
32	0xbdc7219f	-0.097232096
33	0x3d97e802	0.07417299
34	0xbda466a3	-0.08027389
35	0x3d628c47	0.05530956
36	0xbdaf4c1f	-0.08559441
37	0x3c603a35	0.013685753
38	0xbdf1dc86	-0.1180964
39	0xbde1cd92	-0.110255376
40	0x3d78e66f	0.060766634
41	0x3cb9fe3d	0.022704238
42	0x3df98c26	0.12184934
43	0x3dd4513a	0.10367055
44	0xbd5d5e52	-0.05404503
45	0xbd75eba6	-0.060039185
46	0xbdc83047	-0.09774833
47	0x3dc988a5	0.09840516
48	0x3d8baa11	0.06819547
49	0x3dea4c42	0.11440326
50	0xbdbc3524	-0.09189823
51	0x3b9633bc	0.004583804
52	0x3d6c2464	0.057651892
53	0xbdd93165	-0.106051244
54	0xbd5d48f3	-0.054024648
55	0xbd8a557a	-0.067545846
56	0x3dcea166	0.10089378
57	0x3dd141ce	0.102176294
58	0xbbff299e	-0.0077869436
59	0xbc128d4e	-0.0089448225
60	0xbdccd0d6	-0.1000077
61	0xbd0801a1	-0.03320468
62	0x3dc360b3	0.09539928
63	0x3dbec304	0.0931454
64	0x3c999420	0.01874739
65	0xbcfdb390	-0.030969411
66	0x3d0945b4	0.03351374
67	0x3d58b4f8	0.05290696
68	0xbda065f4	-0.07831946
69	0x3d94b41c	0.07260916
70	0x3c95ec80	0.018301249
71	0x3c175880	0.009237409
72	0xbc307da0	-0.010772139
73	0x3d93b780	0.07212734
74	0xbdb20350	-0.08692038
75	0x3cc8b658	0.02450101
76	0xbd966a8a	-0.073445395
77	0x3c4a4510	0.012345567
78	0xbdd9350e	-0.106058225
79	0x3d683c40	0.056698084
80	0xbd80c742	-0.062880054
81	0x3d625c4c	0.055263802
82	0x3cb23f88	0.02175881
83	0x3dae5e6e	0.08514105
84	0x3da64cde	0.0812013
85	0xbde4f4a4	-0.11179474
86	0x3dc4be9c	0.09606668
87	0xbd779e48	-0.060453683
88	0x3da38c72	0.07985772
89	0xbd176604	-0.036962524
90	0xbde8401e	-0.113403544
91	0x3da49bb0	0.080375075
92	0x3da4a1b8	0.08038658
93	0xbdab1bc0	-0.08354902
94	0xbdd6daa6	-0.10490923
95	0x3d2ce91c	0.042214498
96	0xbdbfbc0a	-0.093620375
97	0x3d848188	0.064700186
98	0xbdfdfaf2	-0.1240138
99	0xbd5c0cfc	-0.05372332
100	0x3dd92ce8	0.10604268
101	0xbdd449be	-0.10365628
102	0xbdd133dc	-0.102149695
103	0x3d5ba320	0.053622365
104	0x3d597d74	0.053098157
105	0xbde91044	-0.113800555
106	0xbc34ddd0	-0.011039212
107	0x3db8f0de	0.09030317
108	0xbdb8718c	-0.09006032
109	0xbd8fd388	-0.07022768
110	0xbdf879ea	-0.12132628
111	0x3d451a54	0.04812081
112	0xbdcc988c	-0.099900335
113	0xbd31ac84	-0.043377414
114	0xbd431590	-0.047627985
115	0xbde9586a	-0.11393817
116	0xbd27be8c	-0.040953204
117	0xbda6f13c	-0.081514806
118	0x3ddb52d6	0.10709159
119	0xbda80454	-0.082039505
120	0xbc380810	-0.011232391
121	0xbdedb9be	-0.11607693
122	0x3d021c3c	0.031765208
123	0x3db39366	0.087683484
124	0xbdeab9fe	-0.114612564
125	0xbcff8a68	-0.031193927
126	0x3d0871e8	0.033311754
127	0x3ca80ab0	0.020512909
128	0x3d7a829c	0.061159715
129	0xbd929886	-0.07157998
130	0x3dbd432d	0.092413284
131	0xbd91c395	-0.071173824
132	0xbbb5ec3a	-0.005551842
133	0x3d8e749c	0.06955835
134	0xbd95787f	-0.072983734
135	0x3d9afc79	0.075676866
136	0x3dcc7861	0.09983898
137	0x3cf14432	0.029451463
138	0xbde32fc8	-0.11093098
139	0xbd386460	-0.0450176
140	0x3da75e3c	0.08172271
141	0x3daf81d5	0.08569685
142	0x3c7a938c	0.015293967
143	0xbd57f748	-0.05272606
144	0xbbe922aa	-0.007114728
145	0x3d874632	0.066051856
146	0x3c9c5226	0.01908214
147	0x3dd53791	0.10410989
148	0x3df63d1a	0.12023373
149	0xbcb3e5bc	-0.021960132
150	0x3d34ff50	0.044188797
151	0xbddeeab2	-0.10884608
152	0x3d8fb173	0.07016268
153	0x3d3f5937	0.04671594
154	0x3d808c2e	0.06276737
155	0x3d9e954f	0.07743322
156	0x3c079cea	0.008277157
157	0x3df6f193	0.120577954
158	0xbd6dd864	-0.058067694
159	0xbdfc4af7	-0.12318986
160	0xbd6b2c64	-0.05741538
161	0x3dc9e305	0.09857754
162	0xbdbd8eb3	-0.09255733
163	0xbddf1cf7	-0.108941965
164	0xbb79d238	-0.0038119685
165	0xbde41bf4	-0.11138144
166	0xbd6e7beb	-0.058223646
167	0x3c909a8d	0.01765182
168	0x3de6ec55	0.112755455
169	0x3d561872	0.052269407
170	0xbdc2f266	-0.0951889
171	0x3d799b10	0.060938895
172	0xbcfc5f3d	-0.030807132
173	0xbd1d4044	-0.038391367
174	0xbd9244d3	-0.071420334
175	0xbd8076e3	-0.06272676
176	0x3cb448e1	0.022007408
177	0x3dd44b44	0.10365918
178	0x3b15c838	0.0022854935
179	0xba8d7ee1	-0.0010795259
180	0x3d832493	0.0640346
181	0xbdc9e793	-0.098586224
182	0xbc35c5cc	-0.011094522
183	0x3c91716a	0.017754275
184	0x3c093cbc	0.008376297
185	0x3dab9a2b	0.083790146
186	0xbde2627a	-0.11053939
187	0x3dc4da37	0.09611934
188	0xbddb6d1d	-0.10714171
189	0x3dd84761	0.105604894
190	0x3c83dbfc	0.016096108
191	0xbc248d32	-0.010043429
192	0xbdf75a0a	-0.120777205
193	0xbd0bde08	-0.034147292
194	0x3c610340	0.013733685
195	0x3dd58b6a	0.10426982
196	0xbd88cc58	-0.066796005
197	0xbd14f6e0	-0.03636825
198	0xbdcc30f2	-0.09970273
199	0xbc5d1b80	-0.013495326
200	0x3dd4b6ce	0.1038643
201	0x3da878e0	0.0822618
202	0x3d430ac4	0.04761769
203	0xbdcc1256	-0.09964435
204	0x3c9a8b90	0.018865377
205	0x3bb39c40	0.005481273
206	0xbdf89f1c	-0.12139723
207	0x3ddda8d6	0.108232185
208	0xbc4c2070	-0.012458906
209	0xbdabe412	-0.0839311
210	0xbd224c80	-0.039623737
211	0xbc7817b0	-0.015142366
212	0x3c4b0250	0.012390688
213	0xbdf41db6	-0.119197294
214	0x3d97c5a2	0.07410742
215	0x3d8b4bf0	0.06801593
216	0xbd925562	-0.07145192
217	0xbdb75128	-0.08951026
218	0xbdfe7506	-0.12424664
219	0xbba0ce60	-0.0049074143
220	0xbdf49c9e	-0.11943935
221	0xbd2d21c0	-0.042268515
222	0xbdcc07ec	-0.099624485
223	0xbd5a925c	-0.053362235
224	0xbd3f6a40	-0.046732187
225	0xbc7c4d60	-0.015399307
226	0x3dc3ad8c	0.09554586
227	0x3ce17648	0.027522221
228	0x3d6f5a40	0.05843568
229	0xbd423bbc	-0.04742025
230	0xbdcdf378	-0.100562036
231	0xbac33c00	-0.0014895201
232	0xbde71ff8	-0.112853944
233	0xbd354140	-0.04425168
234	0x3c753a20	0.014967471
235	0xbd34a090	-0.044098437
236	0x3c678680	0.014131188
237	0x3dc5df4e	0.096617326
238	0xbce6b1f8	-0.028161034
239	0xbddbfa6c	-0.107411236
240	0xbdf884a8	-0.12134677
241	0xbb8069e0	-0.0039188713
242	0xbd9cbc54	-0.07653108
243	0xbdd6b4c0	-0.10483694
244	0x3c869460	0.016428173
245	0x3cfdff78	0.031005606
246	0x3c83f750	0.016109139
247	0x3dc9395c	0.098253936
248	0x3dacb108	0.084322035
249	0x3dba147e	0.0908594
250	0xbc9bbed0	-0.019011885
251	0x3df525f2	0.11970128
252	0x3dccba62	0.09996487
253	0x3d11c308	0.035586387
254	0xbd4070a4	-0.046982422
255	0xbca32c30	-0.019918531

value_net.0.output_layer.bias f4 [64]
0	0xbc61f02a	-0.01379017
1	0xbdf69bcc	-0.12041435
2	0x3a3f0cd9	0.0007287986
3	0x3d50171c	0.05080329
4	0x3dd4baac	0.10387167
5	0x3d823bfc	0.06359097
6	0xbd97461d	-0.0738642
7	0xbc924480	-0.017854929
8	0xbc7c62a0	-0.015404373
9	0x3d8d41fd	0.06897352
10	0xbdcf8b8c	-0.10134038
11	0xbd88480c	-0.06654367
12	0x3d94b3cc	0.07260856
13	0x3cde2a95	0.027119914
14	0xbd5eecbc	-0.054424986
15	0x3db58ab1	0.08864344
16	0x3d4b1119	0.049576852
17	0xbcb6f678	-0.022334322
18	0x3ddb8838	0.10719341
19	0xbdce2cb9	-0.10067124
20	0xbdd55a98	-0.1041767
21	0xbdccaca2	-0.099938646
22	0xbc9329aa	-0.017964203
23	0xbda4c614	-0.08045593
24	0xbdfba4d0	-0.12287295
25	0x3dfe5f4c	0.1242052
26	0x3d598d84	0.053113475
27	0x3d296011	0.04135138
28	0xbcf8ffec	-0.03039547
29	0x3defe365	0.11713294
30	0xbdac4f7b	-0.08413597
31	0x3d3bc193	0.045838904
32	0x3be515c0	0.006991118
33	0xbd3ca01c	-0.04605113
34	0x3d13c56c	0.036076948
35	0x3d8bd1c8	0.06827122
36	0x3bdb385d	0.0066900686
37	0x3d914691	0.070935376
38	0x3cdc3407	0.026880277
39	0x3d0c7268	0.034288794
40	0xbd674f74	-0.056472257
41	0xbcae6ca6	-0.021292042
42	0x3dd1a8a1	0.102372415
43	0xbd551010	-0.05201727
44	0xbdc3f953	-0.09569039
45	0xbdf24751	-0.11830009
46	0x3d2958a8	0.041344315
47	0xbcc59ada	-0.02412169
48	0x398f2200	0.00027300417
49	0x3d22a774	0.039710477
50	0x3c847e1f	0.01617342
51	0xbd8eb616	-0.06968324
52	0xba9c709b	-0.0011935415
53	0x3db3b65f	0.08775019
54	0xbcd95ab3	-0.026532507
55	0x3c89a294	0.016801156
56	0xbdb07f50	-0.08618033
57	0x3d4e47e5	0.050361533
58	0xbd7f2bdf	-0.062297698
59	0xbd124ba5	-0.03571667
60	0x3d77c67f	0.060492035
61	0x3cff3171	0.031151505
62	0xbcc4d6a1	-0.024028124
63	0xbbbc5be0	-0.005748257

value_net.0.attention.in_proj_weight f4 [192, 64]
0	0x3e1655ad	0.1468112
1	0x3e09729d	0.13422628
2	0x3d1f006f	0.038818773
3	0xbc2b2e23	-0.010448012
4	0x3e1a5376	0.150709
5	0x3e0f3ef2	0.13988855
6	0xbe0b7f20	-0.13622713
7	0xbcbaa73b	-0.02278482
8	0xbdf9c49d	-0.12195704
9	0xbce106ae	-0.027469005
10	0x3df41bb6	0.11919348
11	0xbcd60c6b	-0.026128968
12	0x3de72906	0.112871215
13	0x3dabb800	0.083847046
14	0xbc8a7f81	-0.016906502
15	0x3e1c0988	0.15238011
16	0xbca5af5e	-0.020225223
17	0xbdd0e4ae	-0.10199867
18	0xbd7466f9	-0.059668515
19	0x3db7ff67	0.08984261
20	0x3de1e495	0.11029927
21	0xbdc09109	-0.09402663
22	0xbc8a21ae	-0.016861763
23	0xbdb92bbe	-0.09041546
24	0x3cc243f4	0.023714043
25	0xbde51bfe	-0.1118698
26	0x3b53eda5	0.0032337692
27	0xbd98bab3	-0.07457485
28	0xbb369724	-0.0027861083
29	0xbd1d42a6	-0.03839364
30	0xbe08bca9	-0.13353218
31	0x3df634b7	0.12021773
32	0x3df89cc3	0.12139275
33	0x3e043a58	0.12912881
34	0x3d9370d9	0.07199258
35	0xbc841a52	-0.016125832
36	0x3d9166a6	0.07099657
37	0x3b485609	0.003056886
38	0xbddd3f62	-0.10803105
39	0x3d7aadab	0.06120078
40	0xbe19e152	-0.15027359
41	0x3e1664c9	0.14686884
42	0x3d82b1f0	0.06381595
43	0xbc1f2065	-0.009712313
44	0xbd482b05	-0.04886915
45	0x3e005670	0.12532973
46	0xbc41cdd4	-0.011828858
47	0xbdbfb9bb	-0.09361597
48	0x3ca178c0	0.019710898
49	0xbd3b36e4	-0.045706645
50	0x3d862a42	0.06551029
51	0xbdb69aef	-0.0891627
52	0x3d774551	0.06036884
53	0x3dabf3ef	0.08396136
54	0x3b8cf55b	0.0043017096
55	0x3e0a2cd7	0.13493668
56	0xbdfb6852	-0.12275757
57	0xbdd7fdd2	-0.10546459
58	0x3b7d3042	0.00386335
59	0xbd445124	-0.047928944
60	0xbd86e27d	-0.06586168
61	0xbd806e70	-0.06271064
62	0xbdd1b167	-0.10238915
63	0x3e0896e4	0.1333881
64	0xbe01984d	-0.12655754
65	0xbd99a6ec	-0.07502541
66	0xbd551927	-0.05202594
67	0xbd76e995	-0.060281355
68	0x3d2a9148	0.041642457
69	0xbdbfea0c	-0.09370813
70	0x3dfa2915	0.12214867
71	0x3d5d760e	0.054067664
72	0x3d9348c4	0.07191613
73	0xbdadc47a	-0.084847406
74	0x3df17c74	0.11791316
75	0x3dc30549	0.095224924
76	0xbd06aa7c	-0.03287743
77	0x3dfccfc7	0.12344318
78	0x3d0a05c6	0.033696912
79	0xbdaab448	-0.08335167
80	0x3d9d4b53	0.076803826
81	0x3c8faa38	0.017537221
82	0xbddabe75	-0.10680858
83	0x3e04eeb6	0.12981686
84	0x3d5722b7	0.05252334
85	0xbd04f12c	-0.032456562
86	0x3dc9d011	0.09854139
87	0xbcd83781	-0.026393654
88	0xbdf69e0a	-0.12041862
89	0x3c922fe1	0.017845096
90	0xbd0c8d78	-0.034314603
91	0xbdf57996	-0.11986081
92	0xbc32b2b9	-0.010906869
93	0xbce099eb	-0.027417144
94	0x3c0e4719	0.008683943
95	0xbe0efc68	-0.13963473
96	0x3d4df5ab	0.050283115
97	0x3e06d8fc	0.1316871
98	0x3ce144e1	0.027498664
99	0xbc83ece5	-0.016104171
100	0xbe197518	-0.14986074
101	0xbc559813	-0.013036746
102	0xbd8ace1d	-0.06777594
103	0x3ca2ced6	0.019874018
104	0xbe0d0972	-0.13773134
105	0x3d72a807	0.059242275
106	0xbe12cc2a	-0.14335695
107	0x3dd97c80	0.106194496
108	0xbe17d9e1	-0.14829208
109	0xbd6872af	-0.056749996
110	0xbd2b0149	-0.041749272
111	0x3d51e7ef	0.05124658
112	0xbe181573	-0.14851932
113	0x3dc4c101	0.09607125
114	0xbdd3ea8e	-0.10347472
115	0xbdf85e7b	-0.12127396
116	0xbe05df31	-0.13073422
117	0xbdffc44a	-0.12488611
118	0x3dc3b00e	0.09555064
119	0x3de4e6e8	0.11176854
120	0x3cce63fd	0.025194163
121	0x3a88460d	0.0010396853
122	0xbdd9e9d4	-0.10640302
123	0x3d25d569	0.040486727
124	0xbdb6e66a	-0.08930667
125	0xbdddeb84	-0.10835937
126	0x3ce61ab6	0.028088909
127	0x3cd17a66	0.02557106
128	0x3cef232e	0.02919158
129	0xbda129aa	-0.07869275
130	0xbd089f83	-0.033355247
131	0x3e01c601	0.12673189
132	0xbe0f8347	-0.14014922
133	0x3d8a8e9e	0.06765483
134	0x3d97564e	0.07389508
135	0xbb5cd8fb	-0.0033698666
136	0x3d76d5da	0.06026254
137	0x3d94b359	0.0726077
138	0x3dff2607	0.12458425
139	0xbdeb5604	-0.114910156
140	0x3df56b7e	0.11983393
141	0xbdd392ab	-0.10330709
142	0x3e0dc9a4	0.13846451
143	0xbd8fba65	-0.07017974
144	0xbde952e8	-0.11392766
145	0x3c9403b0	0.018068165
146	0x3c8260fa	0.015915383
147	0x3c01d860	0.007925123
148	0xbda5ea6a	-0.081013516
149	0xbca3f7af	-0.020015566
150	0x3e1948b6	0.14969143
151	0x3d93f045	0.07223562
152	0xbd85dc42	-0.065361515
153	0x3d88bcda	0.066766456
154	0xbd2da5d9	-0.042394493
155	0x3e15f80a	0.146454
156	0x3df4725c	0.11935875
157	0xbda80bc7	-0.08205371
158	0x3d866271	0.06561745
159	0x3d9392ea	0.07205756
160	0xbe0e3c4c	-0.13890189
161	0xbcc7acb8	-0.02437435
162	0xbd07097b	-0.032968026
163	0x3c940a68	0.018071368
164	0x3d6623b6	0.0561864
165	0xbdb1d4e0	-0.08683181
166	0xbdb3d71a	-0.08781262
167	0x3c0721fe	0.00824785
168	0x3da8bbeb	0.082389675
169	0x3d00a350	0.031405747
170	0xbe0a6969	-0.13516773
171	0x3e02b688	0.12764943
172	0xbca57612	-0.020197902
173	0xbdd06b2b	-0.10176691
174	0x3d2d42c5	0.042300005
175	0xbc124335	-0.008927156
176	0x3db884fa	0.09009738
177	0xbdeb21c6	-0.11481051
178	0xbd8311cd	-0.063998796
179	0x3e0ec01c	0.13940471
180	0x3d6a00a4	0.057129517
181	0xbde8737c	-0.11350152
182	0x3a822905	0.0009930438
183	0x3dc1b63f	0.09458589
184	0xbda73dbe	-0.08166073
185	0xbc22e50e	-0.009942306
186	0x3cd08f60	0.025458992
187	0xbddca115	-0.107729115
188	0x3bfc7b35	0.007705117
189	0x3dbc2095	0.09185902
190	0x3e0e322f	0.13886331
191	0x3dcbe6f4	0.0995616
192	0xbd4a13f0	-0.04933542
193	0x3dd3955a	0.10331221
194	0xbde6e732	-0.11274566
195	0xbae506fd	-0.0017473396
196	0x3e071bd1	0.13194205
197	0xbc4e4c71	-0.012591467
198	0xbddfd01f	-0.10928368
199	0xbd82d14b	-0.06387576
200	0x3de69b65	0.11260108
201	0xbdc3999f	-0.09550785
202	0x3dd5c497	0.10437887
203	0x3bc05dce	0.0058705574
204	0x3d9b6588	0.07587725
205	0x3c4249e3	0.011858436
206	0xbd9f293a	-0.07771535
207	0x3da28236	0.07934992
208	0xbe172739	-0.14761056
209	0x3ae6a703	0.0017597381
210	0x3c4c96c3	0.012487116
211	0xbe1a83c5	-0.15089329
212	0x3d5d9294	0.054094866
213	0xbd60bb5c	-0.05486618
214	0x3e00e55b	0.12587492
215	0x3d29833d	0.041384924
216	0xbd76707c	-0.060165867
217	0xbd7260a7	-0.059174206
218	0xbd870146	-0.0659204
219	0xbd99f5dc	-0.07517597
220	0x3c479151	0.012180642
221	0xbe1c9551	-0.15291335
222	0xbace7838	-0.0015752381
223	0xbd0e249c	-0.034702882
224	0x3dbf553f	0.09342431
225	0x3d19a9a4	0.037515298
226	0x3d246679	0.040136788
227	0x3ce1314a	0.027489323
228	0xbd62ec48	-0.055401117
229	0xbdf53ff3	-0.11975088
230	0x3d6a5f1c	0.05721961
231	0x3e1378dc	0.14401573
232	0xbb6de138	-0.003629757
233	0x3df334f8	0.11875337
234	0x3da8016d	0.08203397
235	0xbd9c4d8e	-0.0763198
236	0x3de66e28	0.112514794
237	0xbde52073	-0.1118783
238	0xbcd21d21	-0.025648655
239	0xbdc262bf	-0.094914906
240	0x3a3bee6e	0.00071690127
241	0xbe0f13f3	-0.13972454
242	0xbd5ef17a	-0.05442951
243	0xbde07785	-0.109602965
244	0x3dd7ab4e	0.10530721
245	0x3da0afe4	0.078460485
246	0x3d7e0c77	0.062023606
247	0xbda87a46	-0.08226447
248	0x3dad0627	0.08448439
249	0xbc8ee19c	-0.017441563
250	0x3e08dc69	0.1336533
251	0xbdb918aa	-0.090379074
252	0xbca81294	-0.020516671
253	0x3dc65f74	0.09686175
254	0x3d952128	0.07281715
255	0x3daab74b	0.083357416

value_net.0.attention.in_proj_bias f4 [192]
0	0xb996b013	-0.00028741415
1	0xbb59963a	-0.0033201114
2	0x3b1524d8	0.0022757556
3	0x3b40a2d7	0.0029393935
4	0xbaa1eeb6	-0.0012354467
5	0xbad238ba	-0.0016038634
6	0x3b12e48f	0.0022414064
7	0x3bb350e8	0.0054722913
8	0xbb0cf443	-0.0021507896
9	0x399b0999	0.00029571055
10	0x3b0a6524	0.0021117413
11	0x3b91d238	0.004450109
12	0x3add262d	0.0016872339
13	0xbb8468a6	-0.0040407954
14	0x3aec4416	0.0018025662
15	0x3b154648	0.0022777487
16	0xb9c01280	-0.00036634877
17	0x3b964883	0.004586281
18	0x3b29d430	0.0025913827
19	0x3bac006e	0.0052490747
20	0xbba2ac7b	-0.004964409
21	0xbb9aa796	-0.004719685
22	0xb99d446e	-0.00029996358
23	0xbb8045cd	-0.003914571
24	0xbac12914	-0.0014736974
25	0xbb8e335a	-0.0043396177
26	0xbb14636c	-0.0022642268
27	0xba8fe13d	-0.001097716
28	0xbba31af1	-0.004977577
29	0xbbf202cc	-0.0073855873
30	0xbaf668a3	-0.0018799495
31	0x3a722d26	0.0009238295
32	0x3b783044	0.0037870565
33	0xbbbc4a51	-0.005746164
34	0x3b886f6c	0.004163673
35	0xbaee9e0b	-0.001820506
36	0x39821a15	0.00024814965
37	0xbaee2a55	-0.0018170575
38	0x39917b24	0.00027748302
39	0x3a88e481	0.0010444076
40	0x3bbbcc69	0.0057311547
41	0x39ed41d8	0.0004525322
42	0x3bcdacba	0.006276694
43	0x3a6016b4	0.0008548305
44	0xbba7ca57	-0.0051205563
45	0xbb83e5cb	-0.004025196
46	0xbb39913f	-0.0028315333
47	0xbadc09da	-0.0016787604
48	0x3ba8245e	0.0051312884
49	0x39f6c041	0.00047064017
50	0xbb6a570c	-0.003575745
51	0xbad47fe9	-0.0016212437
52	0xbb43e888	-0.0029893238
53	0xbbbabe4b	-0.005698954
54	0xb8f418bf	-0.00011639436
55	0xbbace18d	-0.005275911
56	0xbbd22740	-0.0064133704
57	0x3bd1c508	0.006401662
58	0x3ad1727f	0.0015979557
59	0xbba9b012	-0.00517846
60	0xbb8e6d76	-0.004346545
61	0xbb2bdaca	-0.0026222938
62	0x3b16b500	0.0022996068
63	0xbb877e95	-0.004134963
64	0x359a3f03	1.1492233e-06
65	0x372cdf73	1.0304025e-05
66	0xb7661984	-1.3715009e-05
67	0x3693ef97	4.4088333e-06
68	0xb675d09c	-3.6629272e-06
69	0xb710f2c7	-8.639595e-06
70	0x366eb7e7	3.557181e-06
71	0x370e4337	8.479509e-06
72	0xb729b2e6	-1.0114838e-05
73	0xb723c341	-9.761018e-06
74	0xb7047aa1	-7.896365e-06
75	0xb66ab354	-3.49731e-06
76	0xb7be4988	-2.2684006e-05
77	0x362b15f7	2.549377e-06
78	0xb6a46a67	-4.8999677e-06
79	0xb68ef44d	-4.26037e-06
80	0x353ba48c	6.9902376e-07
81	0xb5ddc6b2	-1.6523611e-06
82	0xb47f9851	-2.3804138e-07
83	0x359630a1	1.1190024e-06
84	0xb3f474c9	-1.13833785e-07
85	0xb610c7ff	-2.1574085e-06
86	0x35e2c902	1.6896813e-06
87	0xb551803f	-7.804519e-07
88	0x36002adc	1.9098434e-06
89	0xb593faec	-1.1025381e-06
90	0xb61d4521	-2.3435061e-06
91	0xb6154ca5	-2.2247343e-06
92	0x3675ac94	3.6608299e-06
93	0x363a5788	2.776711e-06
94	0x364020a2	2.8629224e-06
95	0x36bdbc27	5.6545427e-06
96	0x3589f52d	1.0278651e-06
97	0xb466a210	-2.1479377e-07
98	0xb6698791	-3.4798616e-06
99	0xb4226343	-1.5123537e-07
100	0x3589f820	1.0279509e-06
101	0x35961cb5	1.1184226e-06
102	0x3520440b	5.970366e-07
103	0x3586e6da	1.0050965e-06
104	0xb38d961f	-6.593131e-08
105	0xb66ca135	-3.5260575e-06
106	0xb4d191f7	-3.9035487e-07
107	0x34a0b939	2.993709e-07
108	0xb38b50b4	-6.487372e-08
109	0x3665da07	3.4250568e-06
110	0x34b7ca5f	3.423365e-07
111	0x358ea428	1.06276e-06
112	0x339902e7	7.1251456e-08
113	0xb6234081	-2.432644e-06
114	0x34b1e94a	3.313856e-07
115	0x354fe9cc	7.745373e-07
116	0xb55c1fae	-8.2002487e-07
117	0xb5fa3cbd	-1.8644129e-06
118	0xb5c67c26	-1.4788282e-06
119	0xb57d0010	-9.4249936e-07
120	0xb4f4d8e4	-4.560635e-07
121	0x3613948e	2.1991177e-06
122	0xb61523c1	-2.2223542e-06
123	0xb59fc5a8	-1.1903949e-06
124	0xb516a44b	-5.611843e-07
125	0xb56cc514	-8.820364e-07
126	0xb58680b0	-1.0021231e-06
127	0x35a25625	1.2095012e-06
128	0xbc81f458	-0.015863582
129	0xbab991ba	-0.001415781
130	0x3a18e940	0.0005833097
131	0xbbadc0c7	-0.005302522
132	0x3b379eff	0.0028018353
133	0x3b8c34d0	0.0042787567
134	0xba29a679	-0.0006471645
135	0x39fe36c6	0.00048487465
136	0x3ae9f161	0.0017848426
137	0xbb16e3d3	-0.0023023977
138	0xbab4358f	-0.0013748872
139	0x3b00146d	0.0019543425
140	0x3b1827d9	0.002321711
141	0xba67af4a	-0.0008838071
142	0xb98b5f6b	-0.00026583238
143	0x3c0a88f7	0.0084555065
144	0x3b0adc2d	0.0021188364
145	0x3b29fb78	0.002593724
146	0xba3cdc43	-0.00072044524
147	0x3bfe94c8	0.007769201
148	0x3b1baf0f	0.0023755466
149	0x3add7fdc	0.0016899067
150	0xbbdd4cfa	-0.006753561
151	0xbac06bc9	-0.001468056
152	0x3c574386	0.013138657
153	0x3c00d357	0.007862887
154	0xba7efe5a	-0.00097272324
155	0xba626550	-0.00086363126
156	0xba90fe3e	-0.0011062098
157	0x3be79f44	0.0070685465
158	0xbb4b9b18	-0.0031067785
159	0xba2c591b	-0.0006574557
160	0xbad2d6b7	-0.0016085719
161	0x3b618cf3	0.0034416288
162	0x3c6a17c1	0.01428789
163	0x3ac08972	0.0014689399
164	0xbabd1bf8	-0.0014427891
165	0xbb4a9210	-0.0030909814
166	0xb90de8e8	-0.00013533572
167	0xbaae67e5	-0.001330611
168	0x3ae43ed5	0.0017413745
169	0xba9ddf27	-0.0012044654
170	0x3beb7b9d	0.0071863667
171	0xbb3ecb67	-0.0029112936
172	0x3b798732	0.0038074967
173	0x3af2da68	0.0018528225
174	0x3c1c51e7	0.009541011
175	0xb9867833	-0.00025648027
176	0xbb800ec8	-0.003908012
177	0x3b600066	0.0034179925
178	0xba2fbe6c	-0.0006704095
179	0xbb6360e8	-0.0034695212
180	0x3a9b9a02	0.001187146
181	0xbbccb606	-0.006247285
182	0xbb67b624	-0.0035356367
183	0xbbebb8f6	-0.00719368
184	0x3991efc7	0.00027835203
185	0x3b61df53	0.0034465387
186	0xbbdbae70	-0.006704144
187	0x3baa294d	0.0051929117
188	0xbb1bf2eb	-0.0023795913
189	0x3cbd06dc	0.02307456
190	0x3a77978e	0.00094448857
191	0xb89a7874	-7.3657284e-05

value_net.0.attention.out_proj.weight f4 [64, 64]
0	0x3d98066a	0.074230984
1	0xbd172178	-0.036897153
2	0x3d0f2b96	0.034953676
3	0x3d343a08	0.044000655
4	0x3d898e76	0.067166254
5	0x3de75620	0.11295724
6	0x3df36eaf	0.118863456
7	0xbdfa9374	-0.12235156
8	0x3d8c9184	0.068636924
9	0xbd9921d9	-0.07477159
10	0xbd3c1fb3	-0.04592867
11	0xbd4b77db	-0.04967485
12	0x3d8e686d	0.069535114
13	0xbd9bb202	-0.07602312
14	0xbca82d61	-0.02052945
15	0x3ddc25b9	0.107493825
16	0xbdb4abff	-0.08821868
17	0x3c1bd4e7	0.009511209
18	0xbdc74e3f	-0.09731721
19	0x3d820a39	0.06349606
20	0x3c5000eb	0.012695531
21	0x3db9780b	0.090560995
22	0xbc1d776e	-0.009610994
23	0xbce09aef	-0.027417628
24	0xbdf71387	-0.120642714
25	0x3daeeffe	0.085418686
26	0x3dd22aa9	0.10262043
27	0x3dfa74ad	0.122292854
28	0x3a64b93f	0.00087251136
29	0xbdb22168	-0.08697778
30	0xbda8a41c	-0.082344264
31	0xbde8a97a	-0.1136045
32	0x3d352e85	0.044233818
33	0x3dbce433	0.09223213
34	0xbd609427	-0.05482879
35	0xbcbbaff0	-0.022911042
36	0x3d28230b	0.041049045
37	0x3d004ea5	0.031325
38	0x3d5832e4	0.052782908
39	0x3de9cf1d	0.11416457
40	0xbd9894f7	-0.07450288
41	0xbdc3a66d	-0.095532276
42	0xbdfaf6ea	-0.12254126
43	0xbd852363	-0.0650089
44	0xbd53f9dc	-0.051751956
45	0x3d3e06ba	0.046393134
46	0xbd4b8f4a	-0.049697198
47	0xbd4cc390	-0.04999119
48	0xbbd8780f	-0.006606109
49	0xbc6a9ab0	-0.014319107
50	0x3dc7166f	0.09721076
51	0xbdc4dd2a	-0.09612496
52	0xbcec138a	-0.02881791
53	0xbc91b726	-0.017787527
54	0xbdeeb874	-0.116562754
55	0xbd89bc13	-0.067253254
56	0xbd4afce8	-0.049557596
57	0x3dea1a1d	0.11430762
58	0x3db14605	0.08655933
59	0xbdc2d580	-0.09513378
60	0xbd84fdf6	-0.06493752
61	0x3d0e70ff	0.03477573
62	0xbde89f2a	-0.11358483
63	0xbdd6a86a	-0.10481341
64	0xbdfff608	-0.124980986
65	0x3dd5fcaf	0.10448586
66	0x3d3989c7	0.04529741
67	0x3df35629	0.11881668
68	0x3d810244	0.0629926
69	0xbdf030c7	-0.117280535
70	0xbc871128	-0.016487673
71	0xbbd33864	-0.0064459313
72	0x3d0c0e6f	0.034193452
73	0x3d86f600	0.065898895
74	0xbdb9bd7e	-0.09069346
75	0xbd386c70	-0.04502529
76	0x3d1e7126	0.038682126
77	0xbd1b4284	-0.03790523
78	0xbddc464c	-0.107555956
79	0xbd901197	-0.07034605
80	0xbdad3ad1	-0.08458484
81	0x3df06e3b	0.11739775
82	0xbb7df7bd	-0.00387524
83	0x3df311cf	0.11868631
84	0x3d9a6b6a	0.07540019
85	0xbcec1020	-0.028816283
86	0x3dcf0251	0.10107864
87	0xbda3c8e2	-0.079973
88	0xbc369ab5	-0.0111452835
89	0xbddc6fa4	-0.10763481
90	0x3d2d7998	0.04235229
91	0xba0dc484	-0.0005408006
92	0xbdc31fd2	-0.095275536
93	0xbda031a8	-0.07821971
94	0x3db62cca	0.088952616
95	0x3e0476e9	0.12935986
96	0xbd5d2d1a	-0.05399809
97	0x3d4785a9	0.048711453
98	0xbcbc98a4	-0.023022003
99	0xbd9f5d87	-0.07781511
100	0xbc9251e9	-0.017861323
101	0x3d9c2b9a	0.07625504
102	0x3de0c884	0.10975745
103	0xbd176748	-0.03696373
104	0xbd1fccee	-0.039013796
105	0x3d2e874e	0.042609505
106	0xbd9dffa6	-0.07714777
107	0xbb247d69	-0.0025099164
108	0x3df4ebb4	0.11959019
109	0xbc2e6275	-0.010643591
110	0xbd7dc473	-0.061954927
111	0x3dc124b2	0.09430827
112	0xbd3a103d	-0.045425642
113	0x3c359e29	0.011085072
114	0xbd536644	-0.0516112
115	0xbceaaeea	-0.028647859
116	0x3dddbcb1	0.10827006
117	0x3b832bf3	0.004003042
118	0x3c4fee14	0.01269104
119	0xbdec77bc	-0.11546275
120	0x3d3e1a8f	0.046412047
121	0x3d45dce1	0.04830635
122	0x3c4f7ba2	0.012663754
123	0xbaa50c2f	-0.0012592132
124	0xbd563ce7	-0.052304175
125	0xbd16c32b	-0.03680722
126	0xbd1ab649	-0.037771497
127	0x3dc45946	0.0958734
128	0xbdc66582	-0.0968733
129	0xbdc573b7	-0.096412115
130	0xbd441461	-0.047870997
131	0xbc3bb324	-0.011456285
132	0x3ce6077c	0.02807974
133	0xbe014171	-0.1262262
134	0x3dd2acec	0.102868885
135	0xbd81dfec	-0.06341538
136	0x3d919de6	0.07110195
137	0xbd0007cc	-0.031257436
138	0x3c938c97	0.018011374
139	0xbd9c8bb8	-0.07643837
140	0x3dea50dc	0.11441204
141	0x3dc07e7d	0.09399126
142	0xbde161ef	-0.110050075
143	0x3dc9d120	0.098543406
144	0xbd5eac74	-0.054363683
145	0x3dd4776f	0.10374343
146	0xbc42fd8d	-0.0119012715
147	0xbd37c001	-0.044860844
148	0x3dd204bb	0.102548085
149	0x3d997ddf	0.07494711
150	0x3cfeed5d	0.031119043
151	0xbda2358a	-0.07920368
152	0xbb080970	-0.0020757578
153	0xbddb4880	-0.10707188
154	0x3d0f8206	0.03503611
155	0xbdadc50c	-0.08484849
156	0xbd96e8f7	-0.07368653
157	0x3cc6a40c	0.024248146
158	0x3da1b2b9	0.07895417
159	0x3da2b9dd	0.07945607
160	0xbdca75fd	-0.09885786
161	0x3dc99ac9	0.09843976
162	0x3d067b2f	0.03283232
163	0xbda06008	-0.078308165
164	0x3dc69986	0.09697251
165	0xbd5e768f	-0.054312285
166	0x3df1fb5e	0.118155226
167	0x3df39d7a	0.11895271
168	0xbc1e755c	-0.009671535
169	0x3d8530ba	0.065034345
170	0xbcfe0ba3	-0.031011408
171	0xbdaeaf51	-0.08529533
172	0x3d50c2d9	0.05096707
173	0xbcbe9d10	-0.023268253
174	0x3c281745	0.010259454
175	0x3d223f1e	0.039610974
176	0x3df98ac3	0.1218467
177	0x3ddd5ea1	0.10809065
178	0xbcfa976b	-0.03058978
179	0x3da10096	0.0786144
180	0xbdfb3cc4	-0.122674495
181	0x3d8dbe07	0.069210105
182	0xbd676ca2	-0.056500085
183	0x3e01cb87	0.12675296
184	0x3da59d49	0.080866404
185	0x39a067e1	0.00030594974
186	0xbdd68f6e	-0.10476576
187	0x3deeab3e	0.116537556
188	0x3d1929f0	0.03739351
189	0xbd23dffa	-0.040008523
190	0x3daaab82	0.08333494
191	0xbcf4ae25	-0.029868195
192	0x3d9eeaf4	0.077596575
193	0xbdc1c73c	-0.09461829
194	0xbd9bb8bc	-0.07603595
195	0x3deb33f5	0.114845194
196	0xbda25b4b	-0.07927569
197	0x3df18c45	0.117943324
198	0x3dc7b0d7	0.097505264
199	0x3ce11e31	0.027480217
200	0xbdbc52c4	-0.09195474
201	0x3da3b00b	0.07992562
202	0x3c71d606	0.0147605
203	0xbe0229bf	-0.12711237
204	0x3cdca98a	0.026936311
205	0x3c1bd4e3	0.009511205
206	0x3d842b42	0.06453563
207	0xbd654b83	-0.055980217
208	0xbc814884	-0.015781648
209	0x3de5f134	0.112276465
210	0x3d7a5ffc	0.061126694
211	0x3d1e9561	0.038716678
212	0xbdb93d8c	-0.09044942
213	0x3dfa6756	0.12226741
214	0xbd46e0c4	-0.048554197
215	0x3db6f73d	0.08933876
216	0x3d32f8a3	0.04369415
217	0x3d8e3c36	0.06945078
218	0x3c9c45e8	0.019076303
219	0x3d9060ab	0.07049688
220	0x3cde49d5	0.027134815
221	0x3da42b3b	0.08016058
222	0xbd499302	-0.049212463
223	0xbd252963	-0.040322673
224	0x3d9fed8f	0.078089826
225	0x3db51e78	0.08843702
226	0x3b019be8	0.0019776765
227	0xbd38672a	-0.04502026
228	0xbd10e53f	-0.035374876
229	0x3d93aae3	0.072103284
230	0x3d752334	0.059848025
231	0xbdaba4db	-0.08381053
232	0x3d8fd1ce	0.07022439
233	0x3d9fb5d5	0.077983536
234	0xbcfec375	-0.03109906
235	0xbdadf9f0	-0.084949374
236	0xbdee11a4	-0.116244584
237	0xbd981c3f	-0.074272625
238	0xbdf48edb	-0.1194131
239	0xbd807010	-0.06271374
240	0xbd092ddb	-0.033490997
241	0xbdbc3fd8	-0.09191865
242	0xbd123270	-0.035692632
243	0xbd9e5d08	-0.07732588
244	0xbd0ed068	-0.03486672
245	0x3c1ce648	0.009576388
246	0xbc40e082	-0.011772277
247	0xbceb62a4	-0.028733559
248	0xbd884cc7	-0.06655269
249	0x3dac5510	0.08414662
250	0x3de54f03	0.11196711
251	0x3d9c519e	0.07632755
252	0xbdac138c	-0.08402166
253	0x3c1cc790	0.009569064
254	0x3dc7cd48	0.09755951
255	0x3c19d3c3	0.009388867

value_net.0.attention.out_proj.bias f4 [64]
0	0x3a4de185	0.00078537344
1	0xbac7f7b7	-0.001525632
2	0xbb4f48a2	-0.0031628986
3	0xbb10fbc4	-0.002212272
4	0xba1d1b97	-0.0005993186
5	0xbb24fc37	-0.0025174746
6	0xba1a86e3	-0.00058947335
7	0x3b2a286f	0.0025964042
8	0x38c39dcc	9.3277165e-05
9	0xbb4c823e	-0.003120556
10	0x3c0159db	0.007894958
11	0xbb99c883	-0.0046930923
12	0xbb96299b	-0.0045825965
13	0xbb23daf7	-0.002500234
14	0xbaf7841c	-0.0018883976
15	0x3b7cfd43	0.0038603104
16	0x3b12deeb	0.0022410701
17	0xbbe0c8e1	-0.006859884
18	0xba40a2f2	-0.00073484995
19	0xbb167c89	-0.0022962412
20	0x3974ed20	0.00023357989
21	0xbc256861	-0.010095687
22	0xb9969a38	-0.0002872513
23	0x3b0c2ef1	0.0021390284
24	0xbacae3d5	-0.0015479276
25	0xbaf1b18b	-0.0018439753
26	0xbba28242	-0.0049593756
27	0x3b5519b2	0.0032516536
28	0xbb21b5fd	-0.0024675124
29	0xbab3516d	-0.0013680883
30	0x3ae0de64	0.0017156121
31	0xba14b580	-0.00056727976
32	0xba43de8d	-0.00074718223
33	0x3a2a7040	0.0006501712
34	0xba441c3e	-0.0007481015
35	0x3a7b68b3	0.00095904915
36	0x3c0195aa	0.007909218
37	0x3bb870d4	0.0056286845
38	0xba57e9e8	-0.0008236454
39	0x39577481	0.00020547399
40	0x3bb0e6f0	0.0053986236
41	0x3a5b3117	0.0008361502
42	0x39a06676	0.00030593917
43	0xbabaed22	-0.0014261345
44	0xb94944e6	-0.0001919452
45	0x39ff2a5f	0.0004866896
46	0xbb71c492	-0.0036890847
47	0x3a77ac7a	0.0009448003
48	0xbb194a39	-0.0023390187
49	0xbaa569e9	-0.0012620065
50	0xbb05b99b	-0.002040482
51	0xbaf111df	-0.0018392167
52	0x3b6c440d	0.0036051304
53	0x3a50cde7	0.0007965252
54	0xbb00d475	-0.0019657884
55	0xbbc5d484	-0.0060372967
56	0xbb96dc7d	-0.004603921
57	0xbbd26b47	-0.00642148
58	0xbb94777d	-0.0045308457
59	0xba905353	-0.0011011161
60	0xbad18701	-0.0015985669
61	0xbc166fdb	-0.009181942
62	0xbb4c4f8a	-0.0031175339
63	0xba8d21f7	-0.0010767569

value_net.2.weight f4 [1, 64]
0	0xbdb088af	-0.0861982
1	0xbd88b16e	-0.06674467
2	0xbd8399e2	-0.06425835
3	0x3c898b00	0.016789913
4	0x3c7599f1	0.014990316
5	0xbcff989e	-0.031200703
6	0x3db3024d	0.08740673
7	0xbbf29080	-0.0074024796
8	0xbd6b8f98	-0.05750999
9	0x3d79cc1e	0.060985677
10	0xbde065ea	-0.109569386
11	0x3d428e14	0.047498778
12	0xbdb7916f	-0.08963286
13	0x3dc57bdb	0.09642764
14	0xbb246dc0	-0.002508983
15	0x3da06af1	0.078328975
16	0xbdcc7f50	-0.099852204
17	0x3d833eea	0.06408484
18	0x3d4530cb	0.048142236
19	0xbd0773c3	-0.033069383
20	0x3dcd4bf2	0.10024251
21	0xbc44a73f	-0.012002765
22	0x3ccb023e	0.024781343
23	0x3d22e0e4	0.039765254
24	0xbc9f9390	-0.019479543
25	0x3d8e4a6e	0.0694779
26	0x3d08f704	0.033438697
27	0xbaee0e5a	-0.0018162236
28	0xbc55939b	-0.01303568
29	0xbdf08f0d	-0.11746035
30	0x3bc60f9d	0.0060443417
31	0xbb71870f	-0.0036854183
32	0x3da57d64	0.08080557
33	0xbd9e6bf8	-0.07735437
34	0xbd97b790	-0.07408059
35	0x3d5347f6	0.0515823
36	0x3c222ded	0.009898645
37	0x3ca468c8	0.020069495
38	0xbd0e7147	-0.034776
39	0x3c4eab80	0.012614131
40	0x3ca37b18	0.019956157
41	0xbc72a856	-0.014810642
42	0x3daa387e	0.08311556
43	0x3d3865c3	0.045018923
44	0x3cd594dc	0.026071958
45	0xba7207ff	-0.0009232759
46	0xbd949b52	-0.072561875
47	0x3dcd87c0	0.10035658
48	0xbbbc83a0	-0.0057529956
49	0x3dae196c	0.085009426
50	0x3c3240a3	0.010879668
51	0x3df70a4a	0.12062509
52	0x3db493a1	0.088172205
53	0x3dc83042	0.097748294
54	0x3d4a9d28	0.049466282
55	0xbd49197d	-0.049096573
56	0xbdbd93aa	-0.0925668
57	0x3dbcbc33	0.09215584
58	0x3d95e274	0.07318583
59	0x3c0c7f26	0.008575236
60	0xbd8ce2bf	-0.06879186
61	0xbd3f5688	-0.046713382
62	0xbb2fb1df	-0.00268089
63	0x3caa58c5	0.020794282
