scripts/models/602/34/1/qModel.pth (torch, 264307 bytes, 11 tensors)

value_net.0.input_layer.weight f4 [96, 128]
-0.009226494 -0.027941734 -0.08917342 0.016216611 -0.075995676 -0.08313351 -0.03515969 0.022932364
-0.015485859 0.023493147 -0.06821681 0.016341213 0.04624578 0.03568128 0.06300835 -0.022401882
0.016523816 -0.037831657 0.034080174 -0.018410245 0.07231576 -0.028368454 0.016567444 -0.04466479
-0.036482114 0.034214586 0.052343324 0.008076992 -0.014322243 0.06560062 0.05616988 0.018293593
-0.0876086 -0.05017267 0.07509572 0.003329229 -0.07480955 0.08242967 -0.0521493 -0.049021177
0.024456866 0.018711098 0.016003925 0.029075146 0.0020330253 -0.009188559 -0.043988124 -0.008471968
-0.05523959 0.02414637 0.010349925 -0.055765014 0.048636798 -0.06091551 0.049733523 -0.07644466
-0.079890996 0.025999583 -0.039880298 -0.00531372 0.015540642 -0.08347813 0.030385407 -0.025880722
0.018594734 -0.03381755 0.008496605 0.057251904 -0.04550526 0.03857751 0.0563067 -0.0691816
0.07941086 -0.026395494 0.0059364806 0.072555706 -0.046968944 0.021127852 0.012200004 -0.01483034
0.064259425 -0.09303915 -0.07974441 -0.016566139 0.0658617 0.0125514455 0.024246905 -0.03675122
-0.036671698 -0.02041059 -0.0132795265 0.06499535 -0.04019096 -0.04713853 0.06847053 0.079015255
-0.019169431 0.0431268 0.07210875 0.05418688 -0.025737265 -0.06966389 -0.034209475 0.01967508
-0.054513834 -0.038201906 0.0360838 0.015305089 -0.052066296 -0.04281553 0.08774282 0.016605664
-0.07802915 0.052052263 0.032776605 -0.08778453 0.039020564 -0.07587455 0.0019258829 -0.06322612
-0.035475384 -0.07210341 0.07875573 -0.07456829 0.085548714 0.018117534 -0.01763849 0.011724435
-0.002010029 -0.09375248 0.07330212 -0.027383024 0.049856838 -0.05805022 -0.08898784 -0.0012780884
0.0026094578 0.06648598 0.052115172 -0.072487704 -0.03697377 -0.053502858 0.06133824 0.046611793
-0.08595542 -0.054703206 0.04431352 0.04276871 -0.024331935 0.0061414074 0.009397603 -0.04062928
0.026877444 -0.0075071356 -0.048925996 -0.015648684 -0.0479747 0.048830222 0.006350838 0.008281291
0.048137188 -0.08141672 -0.06013203 -0.06451995 -0.0492895 0.028938651 0.024992183 -0.005803623
-0.050650313 0.065980114 0.061871935 -0.044774428 -0.10415445 -0.039544757 -0.07324613 0.07285162
0.02336887 -0.042962477 -0.038439322 -0.0089765 -0.047667433 -0.077862106 0.056901947 -0.082503706
-0.01760875 0.021854714 0.026853442 -0.0310434 -0.048728082 -0.06251022 -0.01844358 0.05675176
-0.041355617 -0.03360089 0.0692629 0.01769804 -0.058396894 0.02047175 -0.020909132 0.071280226
-0.071753144 0.012280589 0.014651956 -0.055657122 -0.035944592 0.0028140538 -0.033908974 -0.055352256
-0.0040725186 -0.0759851 0.074886106 0.04488919 0.071435526 -0.0006740811 0.06709933 0.027020883
-0.028638685 0.0773062 0.01803473 0.023224987 0.079058185 -0.03030844 0.043868937 -0.00019541611
0.055283032 -0.07283779 -0.0027990201 0.07506359 0.052625425 0.036873944 -0.053484507 -0.021296637
0.032877583 0.027120536 0.06922245 -0.070182085 -0.07596142 0.0040686126 0.0023482484 0.05549474
-0.08912139 -0.014655569 -0.046284437 0.07293426 0.03731739 -0.035029255 -0.03539892 0.037630636
-0.03569713 0.05920376 -0.09128154 0.012633564 -0.014511985 -0.008230948 0.058737464 -0.015857857
00000000: b82a 17bc 10e6 e4bc 8ea0 b6bd b3d8 843c
00000010: 9fa3 9bbd e741 aabd 9b03 10bd a7dc bb3c
00000020: 66b8 7dbc b374 c03c 41b5 8bbd 02de 853c
00000030: 376c 3d3d 8926 123d 860a 813d 2784 b7bc
00000040: f45c 873c 5ef5 1abd a797 0b3d 15d1 96bc
00000050: 491a 943d f664 e8bc 73b8 873c 6df2 36bd
00000060: 456e 15bd 9824 0c3d f465 563d 5c55 043c
00000070: d7a7 6abc 9e59 863d 6312 663d 72dc 953c
00000080: 236c b3bd dc81 4dbd c9cb 993d 322f 5a3b
00000090: c035 99bd e3d0 a83d 819a 55bd 6eca 48bd
000000a0: c459 c83c 0448 993c aa1a 833c 002f ee3c
000000b0: 813c 053b 9c8b 16bc e42c 34bd 02ce 0abc
000000c0: e942 62bd 9cce c53c bb92 293c db69 64bd
000000d0: 6137 473d 8b82 79bd 61b5 4b3d 058f 9cbd
000000e0: e49d a3bd 14fd d43c 8659 23bd b71e aebb
000000f0: 2d9e 7e3c 95f6 aabd d1ea f83c cf03 d4bc
00000100: fc53 983c 4584 0abd 5835 0b3c f980 6a3d
00000110: b963 3abd 7303 1e3d dba1 663d 15af 8dbd
00000120: 29a2 a23d 5d3b d8bc cf86 c23b 1698 943d
00000130: 8262 40bd 5114 ad3c 87e2 473c f4fa 72bc
00000140: 729a 833d 4f8b bebd 0a51 a3bd b6b5 87bc
00000150: 80e2 863d 94a4 4d3c 72a1 c63c 7288 16bd
00000160: 1035 16bd 1c34 a7bc 5f92 59bc 481c 853d
00000170: 479f 24bd 5514 41bd 473a 8c3d c0d2 a13d
00000180: 3609 9dbc baa5 303d c1ad 933d 10f3 5d3d
00000190: f5d6 d2bc f1ab 8ebd 3c1f 0cbd a22d a13c
000001a0: e649 5fbd 9a79 1cbd 9bcc 133d 32c2 7a3c
000001b0: 7843 55bd 565f 2fbd 82b2 b33d 9a08 883c
000001c0: bfcd 9fbd c134 553d c340 063d 60c8 b3bd
000001d0: 07d4 1f3d 1e64 9bbd e86d fc3a b27c 81bd
000001e0: a34e 11bd f4aa 93bd af4a a13d 42b7 98bd
000001f0: 2a34 af3d 396b 943c 987e 90bc d817 403c
00000200: b1ba 03bb 4d01 c0bd 6c1f 963d 5d52 e0bc
00000210: af36 4c3d 11c6 6dbd 423f b6bd 8885 a7ba
00000220: 7003 2b3b cd29 883d b876 553d 6f74 94bd
00000230: cf71 17bd d025 5bbd ce3d 7b3d 02ec 3e3d
00000240: 6509 b0bd 7810 60bd 1882 353d 3e2e 2f3d
00000250: c453 c7bc dc3d c93b 67f8 193c e36a 26bd
00000260: 162e dc3c 6bfe f5bb a066 48bd ab31 80bc
00000270: 1e81 44bd 3302 483d b11a d03b 41ae 073c
00000280: 802b 453d cfbd a6bd 014d 76bd 0923 84bd
00000290: c9e3 49bd c010 ed3c 68bc cc3c 512c bebb
000002a0: b476 4fbd 9520 873d 6d6d 7d3d 6465 37bd
000002b0: ee4e d5bd aff9 21bd 1102 96bd 3b33 953d
000002c0: 1370 bf3c 6cf9 2fbd 8d72 1dbd 2b12 13bc
000002d0: ed3e 43bd 2b76 9fbd 0412 693d b4f7 a8bd
000002e0: 3a40 90bc a808 b33c c0fb db3c ba4e febc
000002f0: 1997 47bd 5c05 80bd fe16 97bc 8974 683d
00000300: 8264 29bd 16a1 09bd b5d9 8d3d 7bfb 903c
00000310: 9531 6fbd 5fb4 a73c a149 abbc 5efb 913d
00000320: 50f3 92bd 8634 493c c20e 703c b9f8 63bd
00000330: a33a 13bd fd6b 383b 23e4 0abd 0cb9 62bd
00000340: c372 85bb 139e 9bbd e35d 993d badd 373d
00000350: ca4c 923d d1b4 30ba 606b 893d e65a dd3c
00000360: ad9b eabc b752 9e3d 92bd 933c 5442 be3c
00000370: 42e9 a13d 6849 f8bc eaaf 333d 9de8 4cb9
00000380: 7670 623d fb2b 95bd c46f 37bb f1ba 993d
00000390: c28d 573d 2209 173d 9212 5bbd 4976 aebc
000003a0: a5aa 063d e32b de3c 80c4 8d3d a0bb 8fbd
000003b0: a991 9bbd ff51 853b 12e5 193b 744e 633d
000003c0: 4685 b6bd e91d 70bc c094 3dbd 8f5e 953d
000003d0: 1fda 183d d67a 0fbd 75fe 10bd 9522 1a3d
000003e0: 2737 12bd a47f 723d d1f1 babd 02fd 4e3c
000003f0: adc3 6dbc 19db 06bc b296 703d 56e8 81bc

value_net.0.input_layer.bias f4 [96]
0.05536448 0.017597212 -0.022846755 -0.059228756 -0.049733773 0.0076091588 0.025417216 -0.03457921
-0.019826816 0.02695291 -0.08620573 0.05721814 0.062939726 -0.08935931 -0.082884535 0.058915436
0.028548142 -0.062173095 -0.06380964 -0.08687147 -0.003430714 -0.024952434 0.06557223 -0.053229276
-0.027856525 0.075573035 0.07017915 -0.013294781 0.07302653 0.0136611685 -0.067290105 0.023330875
0.027841395 0.045098774 0.041586913 -0.06455574 -0.066336505 0.0072088563 -0.040243708 0.04940899
-0.020790331 0.03935049 0.0019370114 0.054846425 -0.052919526 -0.07272457 0.020181334 0.06398442
-0.0044292137 0.009818065 0.031254936 0.05703409 -0.045728493 -0.007277178 -0.07819026 -0.019195009
0.028427703 0.076491624 -0.061115827 0.054675262 -0.07462802 0.017941494 -0.05738331 -0.08190286
-0.07447876 0.052645735 -0.022213794 -0.093196504 0.02313668 0.08144519 0.030341003 0.011680196
-0.066071086 -0.05138201 -0.08112285 0.055879615 0.042569544 0.0010063678 -0.019586097 0.084663704
0.004797915 -0.091449074 0.0025987762 0.04477512 -0.014572821 -0.07585892 -0.023983154 0.055959724
-0.08883464 0.0448696 0.07742641 -0.059739936 0.0034969253 -0.030331252 -0.056302093 0.029732728
00000000: ddc5 623d 0728 903c 1e29 bbbc da99 72bd
00000010: a4b5 4bbd 4056 f93b c437 d03c eea2 0dbd
00000020: d96b a2bc 59cc dc3c a18c b0bd 925d 6a3d
00000030: 8be6 803d 0402 b7bd 5ebf a9bd 5051 713d
00000040: cbdd e93c 37a9 7ebd a1ae 82bd abe9 b1bd
00000050: d4d5 60bb 0c69 ccbc bc4a 863d f106 5abd
00000060: 5e33 e4bc 09c6 9a3d 16ba 8f3d 5ad2 59bc
00000070: ef8e 953d 18d3 5f3c 65cf 89bd 6420 bf3c
00000080: a313 e43c 7eb9 383d 0a57 2a3d cd35 84bd
00000090: 6fdb 87bd 4538 ec3b 96d6 24bd 1561 4a3d
000000a0: 7c50 aabc fb2d 213d 51e3 fd3a a5a6 603d
000000b0: 25c2 58bd 9ff0 94bd 5353 a53c 430a 833d
000000c0: f022 91bb f3db 203c 2d05 003d 949c 693d
000000d0: cd4d 3bbd 6575 eebb 3722 a0bd da3e 9dbc
000000e0: 37e1 e83c a4a7 9c3d 9754 7abd 2bf3 5f3d
000000f0: 93d6 98bd 0afa 923c c30a 6bbd b0bc a7bd
00000100: 5288 98bd 0ea3 573d b4f9 b5bc cfdd bebd
00000110: 2289 bd3c bccc a63d b28d f83c 4b5e 3f3c
00000120: 4750 87bd f175 52bd bd23 a6bd 06e2 643d
00000130: 675d 2e3d 1ae8 833a 0673 a0bc 2a64 ad3d
00000140: d437 9d3b a749 bbbd 3b50 2a3b 1e66 373d
00000150: d7c2 6ebc ec5b 9bbd 5278 c4bc 0636 653d
00000160: f0ee b5bd 30c9 373d bd91 9e3d ddb1 74bd
00000170: ac2c 653b 3f79 f8bc 069d 66bd 0d92 f33c

value_net.0.output_layer.weight f4 [96, 96]
-0.04203104 -0.023301495 -0.08997258 -0.033730447 0.03010504 0.050873507 -0.020620985 -0.05041866
0.09972009 0.08247306 -0.05897055 -0.007223244 0.03492517 -0.0059940703 -0.092454806 -0.043306746
-0.043034427 0.03843273 -0.08712777 -0.08055042 -0.08581921 -0.010668081 -0.04011689 -0.04666261
0.019581936 -0.0027082746 0.009323767 -0.10323323 -0.009563436 0.038191557 0.022969015 0.013987408
-0.033774965 0.099026315 0.09159763 -0.03191447 -0.022714853 -0.04519308 0.05385289 0.06906162
-0.055749144 -0.013385906 0.09194989 0.055640463 -0.08425183 0.072353564 -0.059867177 0.06762133
0.06645882 0.11367314 -0.047590178 0.08703875 0.023621902 0.079081476 0.071553715 0.09406458
-0.071735814 0.009040116 0.008567833 -0.039963044 -0.038565774 -0.02742995 -0.01708312 -0.08393
0.08206173 -0.06914649 0.099455304 0.03184238 -0.08240247 0.10463784 0.010288897 -0.09715499
0.013250668 0.023648001 0.09283866 -0.011084188 -0.09081418 -0.033485044 -0.04682409 -0.033695944
-0.042145155 0.0671003 0.030942194 -0.08191495 0.10107985 -0.06468901 -0.08152222 0.034589726
0.06409542 -0.009774999 -0.052504364 -0.039215356 0.07086403 0.016326588 -0.0056675836 0.034484133
-0.09093163 -0.06641024 -0.026347697 -0.083113685 -0.088811085 0.1030678 -0.02162172 0.014071539
-0.09023698 -0.0010743672 0.018821422 -0.07394438 0.038088843 -0.07179792 0.0045355344 -0.06898219
0.06120703 0.0061020264 -0.09189463 0.010454669 0.0042093582 0.03583111 0.09333513 0.018822456
0.042891886 0.07539251 0.0061513884 -0.0063030617 0.005985275 0.09746444 -0.020401545 -0.09366327
0.019947033 0.08344947 -0.00966521 -0.019480811 -0.011632446 -0.09539807 -0.039817102 -0.106655374
0.06781181 0.049395915 0.045693085 0.023102175 -0.042648073 -0.066947214 0.07920988 0.011703217
0.006699397 0.04759229 -0.06737524 -0.06127204 0.06928832 -0.099765494 0.017792022 -0.09148076
0.016727256 0.020472102 -0.0696677 -0.05044397 -0.057527974 0.012844526 -0.011761525 0.02399667
0.06335933 0.042425167 0.06525292 0.003840253 -0.053795245 -0.031586446 0.08220747 -0.044182755
0.021953162 0.009386695 -0.030682614 -0.07295609 0.042392783 0.0054932903 0.0030967426 0.01892741
-0.020696513 0.07628304 0.0075688 -0.021324435 -0.08854042 -0.049038094 0.09684705 0.048978545
-0.050163016 -0.024015704 -0.10098325 -0.012165301 0.01618667 0.07535916 0.091615535 0.076736145
0.038951736 0.078983516 -0.06294951 0.05913213 0.09323063 0.040705804 -0.09438437 -0.076477736
-0.043375663 -0.06749734 -0.09942764 0.051437072 -0.074062414 -0.039332703 0.006896092 -0.033282205
-0.08794655 0.08129272 -0.04549327 -0.018940168 -0.05373999 -0.050302345 0.058466587 -0.00015559008
0.0067320694 0.06887673 0.004744429 0.091281794 -0.04288198 0.092385516 0.056340486 0.035266437
-0.013785711 -0.06387263 -0.057060014 0.08345758 0.08572228 -0.10186519 0.045384556 -0.050860535
-0.067317836 -0.03828067 -0.03444493 0.038615055 -0.06775083 -0.05041304 0.07672578 -0.10015324
0.017368013 0.07178285 0.065544896 -0.03904578 -0.071410246 -0.056719933 -0.066045 0.09874834
0.034604948 -0.09601062 -0.0391602 0.015093135 -0.08840174 -0.014574463 -0.034492936 -0.08634961
00000000: bd28 2cbd c7e2 bebc 8b43 b8bd f028 0abd
00000010: d89e f63c bd60 503d 57ed a8bc cc83 4ebd
00000020: 0c3a cc3d a3e7 a83d 1a8b 71bd f6b0 ecbb
00000030: b20d 0f3d e869 c4bb f258 bdbd 6a62 31bd
00000040: de44 30bd a36b 1d3d 0b70 b2bd 9ef7 a4bd
00000050: fbc1 afbd 2dc9 2ebc 9c51 24bd 4b21 3fbd
00000060: 4c6a a03c 4f7d 31bb b7c2 183c f26b d3bd
00000070: f5af 1cbc c06e 1c3d 8429 bc3c 712b 653c
00000080: 9e57 0abd 4fce ca3d 8a97 bb3d bfb8 02bd
00000090: 8014 babc 611c 39bd d994 5c3d 2e70 8d3d
000000a0: 3759 64bd 8f50 5bbc 3950 bc3d 41e7 633d
000000b0: 398c acbd 1b2e 943d 4937 75bd 0d7d 8a3d
000000c0: 901b 883d 77cd e83d ebed 42bd 5f41 b23d
000000d0: b882 c13c 78f5 a13d c18a 923d eea4 c03d
000000e0: 3aea 92bd ff1c 143c 1960 0c3c 4ab0 23bd
000000f0: 25f7 1dbd c6b4 e0bc e6f1 8bbc 7ee3 abbd
00000100: fb0f a83d ad9c 8dbd 39af cb3d 286d 023d
00000110: a0c2 a8bd 5d4c d63d c392 283c 32f9 c6bd
00000120: 5419 593c 74b9 c13c 3222 be3d 749a 35bc
00000130: c9fc b9bd 9d27 09bd 9eca 3fbd c204 0abd
00000140: 66a0 2cbd e26b 893d 7c7a fd3c 06c3 a7bd
00000150: f402 cf3d ac7b 84bd 1ff5 a6bd f5ad 0d3d
00000160: 7644 833d 5127 20bc d10e 57bd 48a0 20bd
00000170: 2921 913d 56bf 853c 23b7 b9bb 3c3f 0d3d
00000180: 5d3a babd 1802 88bd 20d7 d7bc 8237 aabd
00000190: 96e2 b5bd 3615 d33d 0920 b1bc 508c 663c
000001a0: 2ace b8bd c8d1 8cba 622f 9a3c 2770 97bd
000001b0: 0c03 1c3d ca0a 93bd d29e 943b 8946 8dbd
000001c0: 39b4 7a3d 82f3 c73b 4033 bcbd 0f4a 2b3c
000001d0: a8ee 893b a4c3 123d 7d26 bf3d 8d31 9a3c
000001e0: 67af 2f3d 6367 9a3d 9691 c93b ea89 cebb
000001f0: 2020 c43b 709b c73d 2421 a7bc 87d2 bfbd
00000200: f667 a33c 8ee7 aa3d d45a 1ebc 3996 9fbc
00000210: 0496 3ebc 1060 c3bd 4217 23bd 226e dabd
00000220: ebe0 8a3d 5f53 4a3d ac28 3b3d c640 bd3c
00000230: bfaf 2ebd 9f1b 89bd ca38 a23d dabe 3f3c
00000240: 9e86 db3b 22f0 423d 08fc 89bd 64f8 7abd
00000250: 09e7 8d3d da51 ccbd 93c0 913c 445a bbbd
00000260: 9907 893c 1cb5 a73c f0ad 8ebd 569e 4ebd
00000270: 74a2 6bbd d971 523c 69b3 40bc aa94 c43c
00000280: 89c2 813d 03c6 2d3d 53a3 853d c1ac 7b3b
00000290: 6758 5cbd ca60 01bd 645c a83d faf8 34bd
000002a0: 1ed7 b33c a7ca 193c 1b5a fbbc 016a 95bd
000002b0: 0ea4 2d3d 0f01 b43b b8f2 4a3b a80d 9b3c
000002c0: bc8b a9bc 483a 9c3d b203 f83b 95b0 aebc
000002d0: ae54 b5bd 2bdc 48bd bf57 c63d ba9d 483d
000002e0: bc77 4dbd 95bc c4bc 4ed0 cebd f850 47bc
000002f0: e899 843c e755 9a3d eda0 bb3d d727 9d3d
00000300: db8b 1f3d 1cc2 a13d aceb 80bd 8834 723d
00000310: b3ef be3d 21bb 263d 984c c1bd 5ca0 9cbd
00000320: aeaa 31bd 0c3c 8abd b8a0 cbbd aeaf 523d
00000330: 09ae 97bd 541b 21bd 9df8 e13b ec52 08bd
00000340: 521d b4bd cc7c a63d 2757 3abd 6928 9bbc
00000350: 771e 5cbd d509 4ebd a97a 6f3d e525 23b9
00000360: b198 dc3b 3e0f 8d3d 2877 9b3b f3f1 ba3d
00000370: 04a5 2fbd 9e34 bd3d 48c5 663d 8a73 103d
00000380: 76dd 61bc a7cf 82bd c3b7 69bd cfeb aa3d
00000390: 2a8f af3d b29e d0bd 28e5 393d 2353 50bd
000003a0: efdd 89bd 31cc 1cbd 2016 0dbd d22a 1e3d
000003b0: f2c0 8abd e77d 4ebd 6822 9d3d 241d cdbd
000003c0: 5d47 8e3c e302 933d 673c 863d 78ee 1fbd
000003d0: 893f 92bd 2953 68bd 9a42 87bd 923c ca3d
000003e0: ebbd 0d3d 37a1 c4bd 7266 20bd 3249 773c
000003f0: f90b b5bd bac9 6ebc 7748 0dbd 10d8 b0bd

value_net.0.output_layer.bias f4 [96]
0.04100324 0.024991186 0.0052774823 -0.115933694 0.03418525 0.026602924 -0.10709368 0.10118071
-0.091403864 0.071637794 -0.04783937 -0.09132555 -0.080101244 -0.061529107 -0.07590052 0.012843729
-0.01817927 -0.014745441 -0.0088285785 -0.061122008 -0.100149594 -0.063652575 0.0012717936 0.07591543
0.06306122 0.073307596 -0.09665688 0.017474022 -0.0539598 -0.057842765 0.08175562 0.09443064
-0.10254368 -0.01150255 0.09393448 -0.048580766 -0.05644389 -0.09883118 0.04883508 -0.079031736
-0.10060942 -0.013110147 -0.097411275 0.048559252 -0.10487096 -0.059158918 0.04116888 -0.05240994
-0.075638905 -0.05504047 0.043595538 -0.048929613 -0.0069570774 0.05374282 -0.060859535 -0.0052625155
-0.079149835 0.0708024 0.05277995 0.09512119 -0.011421668 -0.036737375 0.016152304 -0.076431
0.08399597 -0.05670613 0.055518888 -0.057762675 0.0058154785 -0.099392325 0.063102424 -0.09976086
0.023014901 -0.036980707 0.052808337 -0.014163478 -0.00075243815 -0.09075001 -0.06847279 -0.066102706
0.07604138 0.017648827 0.06966736 -0.09982058 0.050965864 -0.06682032 -0.061498426 0.006482269
0.08285318 -0.05836801 -0.036388345 -0.041518085 -0.07681719 -0.079904854 0.026172267 0.012404473
00000000: 03f3 273d 51ba cc3c bbee ac3b a56e edbd
00000010: d505 0c3d 60ee d93c ee53 dbbd d537 cf3d
00000020: f331 bbbd d6b6 923d 37f3 43bd e408 bbbd
00000030: 1f0c a4bd f205 7cbd bb71 9bbd 816e 523c
00000040: b1ec 94bc dd96 71bc bea5 10bc 125b 7abd
00000050: 3b1b cdbd 485c 82bd 50b2 a63a 8d79 9b3d
00000060: 3e26 813d 4b22 963d 0bf4 c5bd ae25 8f3c
00000070: f404 5dbd 89ec 6cbd 7e6f a73d da64 c13d
00000080: 6c02 d2bd 3175 3cbc b860 c03d a0fc 46bd
00000090: b531 67bd 0068 cabd 4b07 483d 64db a1bd
000000a0: 500c cebd f1cb 56bc 907f c7bd 11e6 463d
000000b0: 96c6 d6bd 9f50 72bd b3a0 283d ceab 56bd
000000c0: 92e8 9abd 1e72 61bd 3c91 323d 6b6a 48bd
000000d0: 32f8 e3bb 6e21 5c3d d947 79bd 2e71 acbb
000000e0: 4f19 a2bd d900 913d ca2f 583d e6ce c23d
000000f0: f321 3bbc ee79 16bd d651 843c db87 9cbd
00000100: 1406 ac3d b044 68bd c667 633d 8e98 6cbd
00000110: c58f be3b 348e cbbd d83b 813d 6c4f ccbd
00000120: bf89 bc3c 1579 17bd 8e4d 583d ef0d 68bc
00000130: 453f 45ba 24db b9bd 763b 8cbd db60 87bd
00000140: 95bb 9b3d 4694 903c c3ad 8e3d bb6e ccbd
00000150: 95c1 503d 18d9 88bd c6e5 7bbd 3769 d43b
00000160: eeae a93d 4b13 6fbd f20b 15bd de0e 2abd
00000170: 5552 9dbd 28a5 a3bd 3967 d63c 213c 4b3c

value_net.0.attention.in_proj_weight f4 [288, 96]
0.019681001 0.020977044 0.10332539 -0.07153149 -0.07183322 -0.09446857 -0.02767403 -0.106390715
-0.09377331 0.05257743 0.064888224 0.005878291 -0.101486795 0.018855667 -0.09758083 -0.116722815
-0.072824165 0.092970036 0.07665596 -0.0073620295 -0.10106412 0.037404846 -0.040386874 0.022402124
0.085560255 0.0896696 -0.0989341 0.07191572 -0.099782325 0.0015740208 -0.017641727 -0.11632924
0.08777336 0.12514159 -0.104971565 0.07410933 -0.11534587 -0.001464505 -0.1164465 -0.11521475
-0.018774096 -0.10365874 -0.08261335 -0.10152144 0.010350137 -0.07150848 -0.012248939 -0.019085877
-0.065905444 0.0165476 0.051211745 0.011604385 -0.04359341 0.012480741 0.06638971 0.07145275
-0.0034046883 -0.048983816 0.0025275068 0.059445895 0.013611884 0.104663745 -0.048946247 -0.014069467
-0.03056597 0.07856375 -0.09110134 0.01545253 -0.05223441 0.08964487 0.07904533 0.095626116
0.09329513 0.029520744 0.0047841277 0.054225918 0.07722462 0.11396019 0.08393694 -0.1028128
0.09294974 0.05071192 -0.061431065 -0.012819504 0.06707546 0.058257665 -0.07490905 0.003477048
0.007048725 -0.08834637 -0.07760005 -0.09596874 -0.0018086922 -0.08037707 -0.050338928 0.09538027
-0.08483381 0.017058676 -0.12003024 -0.043290608 -0.028424563 0.07916904 -0.030441131 0.13832659
-0.0367317 0.017930612 0.04221427 -0.103547074 0.08670681 -0.02278389 -0.0626377 0.0249965
0.03231217 0.013058036 -0.093042836 0.0769362 -0.06901753 0.08746879 0.035575945 -0.054736607
-0.02076012 -0.07325297 -0.04971651 0.057534285 -0.104649715 -0.060755294 0.011750491 0.0883257
-0.12441583 0.013731685 0.043221407 -0.04801812 -0.034475267 -0.070465155 -0.00879873 -0.0788804
0.06640962 -0.059810277 -0.12232127 0.10086029 0.082994565 0.08004353 0.048371162 -0.06325662
-0.07805077 0.050839834 0.035987798 0.12449558 0.08560922 -0.048483998 -0.07135983 -0.0846462
0.10754216 0.00914612 0.07216223 -0.11961682 -0.099265 0.041850492 0.070669405 0.03297954
0.09790692 0.11258263 -0.109991536 -0.008079356 0.13010149 -0.01095126 0.08492426 -0.02682431
-0.026787667 -0.05371475 -0.044581547 -0.10192522 -0.075485714 0.0062798015 0.051101025 -0.07264057
0.0622038 0.015505495 0.11288353 -0.115182176 0.017410677 0.03291605 0.13255407 -0.11177506
0.10356027 -0.040519614 -0.019540623 0.036648158 0.005358639 -0.013215406 0.06705187 -0.031301264
-0.045127105 -0.032049168 -0.0321169 -0.048355125 -0.10897814 -0.10268761 0.0040801247 0.091947414
0.108890206 -0.1138607 -0.041144926 -0.040032946 -0.097747184 0.10070058 -0.102141604 -0.020215422
-0.046274487 0.093129285 0.07793177 -0.08728885 0.09550712 -0.081165254 0.11371604 -0.10368782
0.08591377 -0.030459391 0.06005759 -0.0012358193 0.0038429175 0.09528044 -0.10340251 -0.047429614
0.11041229 -0.009598223 0.0008322008 0.09077717 0.03787451 0.032175068 0.014573304 -0.037077054
-0.0024896734 0.032898527 0.09127686 0.009056267 0.016776394 0.015119483 -0.07600433 0.08937818
-0.06406134 -0.076639816 -0.05667654 0.025245957 0.03776769 0.10067346 -0.112242185 -0.03304436
0.11213827 -0.07574975 0.093485385 0.041317105 0.076353945 0.050366253 -0.022132047 -0.038470503
00000000: 0d3a a13c 0dd8 ab3c 439c d33d 1a7f 92bd
00000010: 4c1d 93bd bd78 c1bd a6b4 e2bc 60e3 d9bd
00000020: 390c c0bd 6e5b 573d 1ee4 843d ae9e c03b
00000030: 4fd8 cfbd 3377 9a3c 75d8 c7bd 5f0c efbd
00000040: d624 95bd 1367 be3d cdfd 9c3d 2e3d f1bb
00000050: b5fa cebd d335 193d b56c 25bd a984 b73c
00000060: 373a af3d b2a4 b73d f69d cabd 8d48 933d
00000070: ad5a ccbd 604f ce3a 6285 90bc 063e eebd
00000080: 85c2 b33d 1e25 003e 55fb d6bd a2c6 973d
00000090: 753a ecbd a2f4 bfba 817b eebd b6f5 ebbd
000000a0: 22cc 99bc 094b d4bd 3031 a9bd 79ea cfbd
000000b0: 9f93 293c 0a73 92bd c6af 48bc fc59 9cbc
000000c0: 6ff9 86bd d58e 873c 68c3 513d 5220 3e3c
000000d0: 018f 32bd 067c 4c3c 54f7 873d d255 923d
000000e0: 3121 5fbb 41a3 48bd 87a4 253b 8a7d 733d
000000f0: 6104 5f3c f259 d63d dc7b 48bd 9f83 66bc
00000100: 7c65 fabc 08e6 a03d 5793 babd 9c2c 7d3c
00000110: c0f3 55bd bb97 b73d 85e2 a13d a0d7 c33d
00000120: 8411 bf3d 7dd5 f13c 2cc4 9c3b ff1b 5e3d
00000130: f127 9e3d f663 e93d 21e7 ab3d 848f d2bd
00000140: 6f5c be3d 4db7 4f3d 249f 7bbd e608 52bc
00000150: dc5e 893d 979f 6e3d ea69 99bd 2fdf 633b
00000160: fef8 e63b f1ee b4bd c6ec 9ebd 428b c4bd
00000170: a411 edba bc9c a4bd 3130 4ebd bb56 c33d
00000180: 59bd adbd a3be 8b3c 6ad2 f5bd 7e51 31bd
00000190: a1da e8bc 6123 a23d ae5f f9bc 7ca5 0d3e
000001a0: fb73 16bd 38e3 923c dfe8 2c3d 7d10 d4bd
000001b0: 5793 b13d 48a5 babc 3248 80bd 76c5 cc3c
000001c0: c459 043d 5ff1 553c 3e8d bebd ba90 9d3d
000001d0: 1059 8dbd d622 b33d 15b8 113d 7e33 60bd
000001e0: 2111 aabc a705 96bd 8aa3 4bbd 12a9 6b3d
000001f0: 9752 d6bd 8bda 78bd 2285 403c 1be4 b43d
00000200: bacd febd dcfa 603c ee08 313d a6ae 44bd
00000210: f035 0dbd 0950 90bd 8c28 10bc 0c8c a1bd
00000220: c401 883d 9ffb 74bd 9383 fabd d78f ce3d
00000230: 0ef9 a93d dded a33d d720 463d b08c 81bd
00000240: 15d9 9fbd 6e3d 503d f167 133d 8af7 fe3d
00000250: e353 af3d 2897 46bd 1a25 92bd fd5a adbd
00000260: 103f dc3d 9cd9 153c cbc9 933d aaf9 f4bd
00000270: 734b cbbd 6c6b 2b3d 1fbb 903d 8e15 073d
00000280: 6c83 c83d b991 e63d 3e43 e1bd 465f 04bc
00000290: 5339 053e ea6c 33bc c5ec ad3d a8be dbbc
000002a0: cf71 dbbc ff03 5cbd 249b 36bd 2bbe d0bd
000002b0: 4198 9abd cbc6 cd3b 4f4f 513d 94c4 94bd
000002c0: 69c9 7e3d c20a 7e3c 7b2f e73d a2e4 ebbd
000002d0: d6a0 8e3c fbd2 063d 41bc 073e 53ea e4bd
000002e0: 6817 d43d e5f7 25bd a813 a0bc 611c 163d
000002f0: 8697 af3b 6e85 58bc 7e52 893d c135 00bd
00000300: 33d7 38bd fd45 03bd 038d 03bd 0610 46bd
00000310: ee2f dfbd e24d d2bd 91b2 853b ed4e bc3d
00000320: d401 df3d cc2f e9bd 9587 28bd 96f9 23bd
00000330: ad2f c8bd 1b3c ce3d 9e2f d1bd d09a a5bc
00000340: 518a 3dbd 91ba be3d b19a 9f3d 7fc4 b2bd
00000350: 3d99 c33d f839 a6bd f5e3 e83d 485a d4bd
00000360: 8ff3 af3d f985 f9bc f3fe 753d 37fb a1ba
00000370: 75d9 7b3b 6422 c33d b2c4 d3bd 8e45 42bd
00000380: d71f e23d dd41 1dbc 0d28 5a3a 62e9 b93d
00000390: 4d22 1b3d 01ca 033d dec4 6e3c 1cde 17bd
000003a0: ca29 23bb 9bc0 063d 5def ba3d bd60 143c
000003b0: a66e 893c b5b7 773c 28a8 9bbd e80b b73d
000003c0: 9832 83bd 56f5 9cbd a925 68bd 9cd0 ce3c
000003d0: 4bb2 1a3d e32d ce3d 3bdf e5bd 8659 07bd
000003e0: c0a8 e53d af22 9bbd 4475 bf3d 203c 293d
000003f0: 755f 9c3d d84c 4e3d 444e b5bc 3f93 1dbd

value_net.0.attention.in_proj_bias f4 [288]
0.0068078875 0.006571151 -0.007544812 0.0013631519 0.00069752004 0.0045559322 -0.00047478132 0.0061903666
0.0025872637 -0.0047043194 -0.002988061 -0.0038016716 -0.006798828 0.010008412 0.015885504 0.0003796059
-0.005424403 -0.005045501 -0.0021895054 -0.005866611 -0.005223249 -0.002447643 -0.0075584217 -0.002712186
0.0025489621 0.0023791047 0.0047005764 0.0060386457 -0.0039765732 0.0027019903 0.0035984728 -0.00815447
0.0023361407 -0.0058067334 0.005043838 -0.0003813643 -0.005868792 -0.00462293 -0.012504018 0.0059821615
0.000428951 -0.0053485893 -0.0023282566 -0.006441174 -0.0054564485 0.005561603 0.0011043472 -0.0033289567
0.021264922 -0.009141959 0.01093451 -0.016030466 0.010051017 -0.009775903 -0.011462693 -0.00024028607
-0.0035446507 0.0046078055 -0.0075503 0.012071471 0.0004331418 -0.011637472 0.007738854 -0.017626965
0.009219769 0.013703962 0.005995723 -0.0047485996 -0.0023018494 0.0057171592 0.020286163 -0.012034284
-0.0029292714 -0.015872238 0.0032525926 -0.005320297 -0.005335703 -0.007898471 -0.004641292 0.0101438295
-0.0056632706 -0.009868269 -0.0008952955 -0.007950831 0.00057253573 -0.0106601715 -0.00738325 -0.009241568
-0.008288528 -0.00024699126 -0.0058960295 -0.0016295275 -0.0030042613 -0.0008853451 -0.018825212 -0.0069367033
1.2935084e-07 -4.450757e-08 -1.8626237e-06 -1.099457e-06 -5.5445514e-07 -2.4805485e-07 -9.272506e-07 -4.612568e-07
4.5876032e-08 1.077998e-07 2.066217e-06 1.4639594e-06 -5.9435102e-08 8.764058e-07 -9.3845756e-07 9.472541e-07
4.0420156e-07 -1.1262827e-06 6.781936e-07 4.7212447e-09 -6.278888e-07 -1.0620635e-06 1.4490554e-06 1.464613e-06
-2.1704623e-06 3.3594986e-07 -6.3081495e-07 -3.387006e-06 -1.0927348e-06 -7.98753e-07 -1.8428265e-06 -2.1577498e-06
-4.444068e-07 -5.2047497e-08 -1.3491806e-06 -6.853817e-07 1.4050275e-06 2.0078392e-06 1.6362172e-06 1.6985516e-06
-4.7276782e-07 7.457317e-08 -9.443652e-07 1.1086172e-06 -2.5613137e-08 -1.4466701e-06 -1.0914058e-06 2.434395e-07
5.4786124e-08 3.367582e-07 -2.7955778e-07 -4.6870284e-07 -6.5043605e-07 2.280742e-06 1.7464022e-06 -3.5891367e-07
1.4395617e-06 -2.3174969e-06 -1.6662268e-06 -1.8602806e-07 2.2599213e-06 -2.260513e-06 3.5815947e-06 -3.5892995e-08
4.1165976e-07 -1.8022469e-06 3.7421405e-06 1.5142143e-06 -1.2194263e-06 3.3029155e-06 -6.027636e-07 1.7196982e-06
-3.477044e-07 -2.3375078e-07 6.844529e-08 -2.6067244e-06 -4.188659e-07 6.128409e-07 2.67163e-07 -4.439581e-07
-2.5662243e-07 -1.5437986e-07 -3.0370165e-07 1.5626235e-06 3.266813e-08 4.8583223e-07 -9.2089806e-08 -2.099502e-06
-1.2984492e-07 5.6924415e-07 6.4452234e-07 -5.964954e-07 -1.2425285e-06 -3.8950242e-07 3.094908e-07 -4.8814115e-07
0.0076348158 -0.0030657582 0.0070467973 0.0046371124 0.0072873323 -0.004544622 -0.0043152045 -0.004265583
0.0018811661 -0.006484818 0.00029305092 0.0084140925 -0.013516792 0.0029539193 -0.003315241 -0.015490269
0.014827063 -0.005748214 -0.0010473356 0.003530036 0.003297156 -0.0020653012 -0.009307861 0.004013706
-0.0013497182 -0.013567177 0.0068042963 0.0026715326 0.0011508451 0.0044396473 -0.0022753866 0.0043145344
0.00262708 -0.005226494 0.007755235 0.010761257 -0.011092921 -0.011597108 -0.0076974244 -0.0043504685
0.0067090793 0.010770537 0.014560879 0.0048230984 0.0034536524 0.0022215666 -0.0060974997 -0.01562364
-0.00055815716 0.010710122 -0.0011668281 0.004236261 -0.0038125922 -0.006718511 -0.004670676 -0.00852561
-0.00036695262 -0.001564266 -0.002161117 0.0050252075 0.0069422238 -0.001185857 0.0012446025 0.009373051
00000000: b314 df3b cf52 d73b 783a f7bb caab b23a
00000010: c7d9 363a ee49 953b 12ec f8b9 8fd8 ca3b
00000020: 158f 293b b126 9abb 58d3 43bb 7725 79bb
00000030: b4c8 debb 53fa 233c 5122 823c d705 c739
00000040: 31bf b1bb bb54 a5bb ce7d 0fbb b33c c0bb
00000050: ca27 abbb a368 20bb a3ac f7bb eebe 31bb
00000060: 7d0c 273b c1ea 1b3b 4b07 9a3b d5df c53b
00000070: ea4d 82bb e013 313b 5bd4 6b3b 539a 05bc
00000080: f019 193b 6946 bebb c846 a53b daf1 c7b9
00000090: ff4e c0bb f37b 97bb a7dd 4cbc 0206 c43b
000000a0: d4e4 e039 3843 afbb aa95 18bb 7c10 d3bb
000000b0: 02cc b2bb 1b3e b63b bebf 903a a02a 5abb
000000c0: c633 ae3c 28c8 15bc a926 333c 5352 83bc
000000d0: 05ad 243c 1c2b 20bc 05ce 3bbc 4df5 7bb9
000000e0: 5f4d 68bb 13fd 963b 8268 f7bb 6bc7 453c
000000f0: 4f17 e339 18ab 3ebc 3696 fd3b 6d66 90bc
00000100: 840e 173c 9586 603c c577 c43b 249a 9bbb
00000110: a0da 16bb 0257 bb3b 2b2f a63c 722b 45bc
00000120: 05f9 3fbb 7f06 82bc 7329 553b e355 aebb
00000130: 1fd7 aebb 9768 01bc fb15 98bb 4e32 263c
00000140: f592 b9bb 85ae 21bc 44b2 6aba 3444 02bc
00000150: 3916 163a 00a8 2ebc 31ef f1bb f269 17bc
00000160: 9bcc 07bc 9b7e 81b9 7b33 c1bb df95 d5ba
00000170: 24e3 44bb 8116 68ba 5537 9abc 494d e3bb
00000180: b0e3 0a34 9728 3fb3 43ff f9b5 0e91 93b5
00000190: ded5 14b5 662c 85b4 2de8 78b5 a7a2 f7b4
000001a0: 3b09 4533 917f e733 56a9 0a36 437d c435
000001b0: 9645 7fb3 2642 6b35 50ea 7bb5 ce46 7e35
000001c0: 0a01 d934 c72a 97b5 1c0d 3635 8238 a231
000001d0: 318c 28b5 398c 8eb5 2a7d c235 b893 c435
000001e0: 42a8 11b6 995c b434 4655 29b5 524c 63b6
000001f0: 15aa 92b5 e369 56b5 0957 f7b5 dccd 10b6
00000200: ce96 eeb4 d48a 5fb3 7e15 b5b5 12fb 37b5
00000210: 6194 bc35 6abe 0636 ff9b db35 caf9 e335
00000220: b7d0 fdb4 0925 a033 4880 7db5 cccb 9435
00000230: e203 dcb2 352b c2b5 6b7c 92b5 12b2 8234
00000240: fb4d 6b33 b2cb b434 2116 96b4 07a2 fbb4
00000250: a099 2eb5 d90e 1936 ec65 ea35 b8b0 c0b4
00000260: f736 c135 4b86 1bb6 1ea3 dfb5 01bf 47b4
00000270: 27a9 1736 51b3 17b6 545b 7036 c428 1ab3
00000280: 1602 dd34 bbe4 f1b5 7c21 7b36 023c cb35
00000290: 2bab a3b5 a8a7 5d36 99cd 21b5 61d0 e635
000002a0: 21ac bab4 edfc 7ab4 32fc 9233 2fef 2eb6
000002b0: 7ee0 e0b4 1b82 2435 9a6e 8f34 2359 eeb4
000002c0: ebc5 89b4 9dc3 25b4 700c a3b4 56bb d135
000002d0: fd4e 0c33 236a 0235 e8c2 c5b3 2be5 0cb6
000002e0: 806b 0bb4 29ce 1835 3d03 2d35 da1e 20b5
000002f0: f4c4 a6b5 ce1c d1b4 1728 a634 ce08 03b5
00000300: 7a2d fa3b e3ea 48bb d2e8 e63b ebf2 973b
00000310: 93ca ee3b 0deb 94bb 8f66 8dbb 4ec6 8bbb
00000320: 7691 f63a 997e d4bb a1a4 9939 43db 093c
00000330: 8975 5dbc 8b96 413b 8444 59bb e6ca 7dbc
00000340: 36ed 723c 845b bcbb c046 89ba 2d58 673b
00000350: 1915 583b 015a 07bb 0080 18bc 6885 833b
00000360: 07e9 b0ba dd48 5ebc 93f6 de3b e114 2f3b
00000370: f4d7 963a 767a 913b a71e 15bb f060 8d3b
00000380: 172b 2c3b 0243 abbb a01f fe3b fc4f 303c
00000390: 15bf 35bc cc01 3ebc ad3a fcbb 608e 8ebb
000003a0: d6d7 db3b e876 303c c190 6e3c 150b 9e3b
000003b0: ac56 623b b497 113b 89cd c7bb 4cfa 7fbc
000003c0: 4b51 12ba 8279 2f3c 41f0 98ba 55d0 8a3b
000003d0: afdc 79bb f526 dcbb 780c 99bb 00af 0bbc
000003e0: 8c63 c0b9 0f08 cdba 87a1 0dbb 7faa a43b
000003f0: 987b e33b c26e 9bba ee21 a33a 6d91 193c

value_net.0.attention.out_proj.weight f4 [96, 96]
0.023490276 0.095639795 0.094728395 0.073343135 0.0071128653 0.023699211 -0.10750546 -0.08668239
0.02119158 -0.07576119 0.073102415 -0.007961154 0.050440535 0.07854544 0.10108712 -0.04987503
0.010743897 0.008194278 -0.100916944 0.05581966 -0.0442029 -0.030700937 0.06888092 -0.060376734
-0.07395171 0.07519409 0.07970369 -0.02494137 -0.080393955 0.08814168 -0.10085846 0.09666905
-0.004879409 0.023801716 -0.027652895 0.010035773 0.021298252 -0.0544085 0.09498072 -0.035906103
-0.06558341 -0.016015856 -0.021131609 0.061178796 0.08348096 0.013536263 -0.08993893 0.048049733
0.018348577 0.03032824 0.08815886 0.010670877 -0.084554866 0.054147508 0.032274757 0.088994086
0.050826706 0.074090116 0.048126638 0.011266122 0.06968062 -0.01634755 -0.066106796 -0.04772743
-0.092377745 0.025390089 -0.029078253 -0.0021615787 -0.0010045953 0.047993913 0.07283651 -0.064464815
-0.039959177 -0.051989164 0.0440508 -0.055101212 -0.104658544 -0.049143035 0.04831843 0.07480704
0.009666961 0.06533584 0.06727308 -0.08428752 0.0059447465 -0.020564532 0.061276693 0.027682964
0.05903763 0.0058170604 -0.0042307544 0.06516155 -0.02538946 -0.031050373 -0.03919338 0.059080936
-0.07840398 0.07056037 -0.07671015 -0.06388783 0.043319575 -0.030998664 -0.019108662 -0.047525063
-0.02656591 0.054474458 -0.0580112 0.085744485 0.089063786 0.08681768 0.016766572 0.0012583119
-0.013893711 -0.057019915 0.106961265 0.047770977 -0.036730435 -0.03541774 0.0034867148 -0.024168866
-0.05315856 0.020735873 -0.055394802 -0.045030244 0.036447644 0.029591892 0.069479875 -0.02509937
0.0076010637 -0.013035468 -0.0058141104 -0.047429793 -0.08028679 0.0051938496 0.01785221 -0.075445645
-0.07511348 0.08683318 0.093538664 0.030656407 0.10527823 -0.064792536 -0.010776199 0.06409476
-0.06840019 -0.09262142 -0.029677354 0.0894399 0.09654393 -0.035412136 -0.079480946 -0.068059325
0.0671084 0.06915492 0.0413612 -0.039552208 0.03641104 0.07006314 -0.012846043 0.080860995
0.09441022 -0.07727353 0.08880432 -0.014257037 -0.06642462 -0.03605662 -0.03153477 0.08662189
-0.06859554 -0.018686187 -0.013877831 -0.05524581 -0.0964124 -0.07659371 0.05849419 0.043271214
0.018813606 -0.089405455 -0.015303946 0.043808516 0.08351571 -0.026783844 -0.08489862 -0.033252325
-0.07534462 0.0059003434 0.0035320104 -0.10231508 0.059814263 -0.068319924 -0.056085814 -0.043994848
0.03128639 -0.007974687 0.081241965 0.014433731 -0.057145257 -0.051569723 0.0848108 -0.091719374
-0.006514048 -0.06852199 0.035103574 0.01942473 -0.072926454 0.077924505 -0.028553976 -0.040419247
0.024156151 -0.0064158705 0.03348727 0.03645428 0.006944501 0.09191908 0.067218445 -0.072055645
0.09393466 -0.026536167 0.043715138 -0.041128214 0.07149737 -0.09590546 0.08956817 0.07452758
-0.057399023 0.064899355 0.0027846391 -0.02483099 -0.010469179 -0.037117016 0.049497645 -0.010389926
-0.0847411 -0.071529046 0.08465868 0.06405713 0.08756965 0.014271123 0.07313916 -0.017920546
-0.014757048 -0.06916715 -0.05823592 0.049374573 0.07738004 0.046646815 0.0026170542 0.020238994
-0.0017628351 -0.094224036 0.016245361 -0.029756045 0.099090554 -0.06062966 0.012075576 -0.08185736
00000000: ae6e c03c ccde c33d f600 c23d ed34 963d
00000010: 0a13 e93b d924 c23c d32b dcbd 8986 b1bd
00000020: f799 ad3c af28 9bbd b8b6 953d 806f 02bc
00000030: bc9a 4e3d 6fdc a03d c406 cf3d c249 4cbd
00000040: 2c07 303c 4b41 063c 8bad cebd 28a3 643d
00000050: 1a0e 35bd 8880 fbbc 7111 8d3d 984d 77bd
00000060: fe73 97bd 5cff 993d b03b a33d d851 ccbc
00000070: 96a5 a4bd a083 b43d e18e cebd 6cfa c53d
00000080: 73e3 9fbb d1fb c23c 5388 e2bc 156d 243c
00000090: ac79 ae3c 73db 5ebd 4085 c23d 4712 13bd
000000a0: 9850 86bd af33 83bc 321c adbc 9e96 7a3d
000000b0: 11f8 aa3d 34c7 5d3c e731 b8bd cccf 443d
000000c0: c14f 963c ee72 f83c a28c b43d e7d4 2e3c
000000d0: 1a2b adbd c7c9 5d3d 8932 043d 8842 b63d
000000e0: aa2f 503d 8fbc 973d 7020 453d 8a95 383c
000000f0: b7b4 8e3d 4ceb 85bc 0063 87bd d67d 43bd
00000100: 8b30 bdbd e0fe cf3c 8435 eebc 46a9 0dbb
00000110: a0ac 83ba 4495 443d 4f2b 953d 2106 84bd
00000120: 3cac 23bd 97f2 54bd 9d6e 343d cfb1 61bd
00000130: 3857 d6bd 354a 49bd 8ce9 453d 6f34 993d
00000140: 2c62 1e3c ccce 853d 78c6 893d ef9e acbd
00000150: 26cc c23b f376 a8bc 45fd 7a3d 62c7 e23c
00000160: 71d1 713d 0a9d be3b 24a2 8abb 6b73 853d
00000170: 8ffd cfbc 5a5d febc 3d89 20bd dafe 713d
00000180: 4492 a0bd f581 903d 361a 9dbd 9fd7 82bd
00000190: de6f 313d e9f0 fdbc c589 9cbc a4a9 42bd
000001a0: c0a0 d9bc 9c20 5f3d 279d 6dbd ce9a af3d
000001b0: 1367 b63d 78cd b13d 0d5a 893c f1ed a43a
000001c0: 73a2 63bc b78d 69bd 820e db3d 80ab 433d
000001d0: a772 16bd 3112 11bd 5e81 643b c9fd c5bc
000001e0: cabc 59bd 47de a93c a9e5 62bd a271 38bd
000001f0: 204a 153d b26a f23c 774b 8e3d 329d cdbc
00000200: 5812 f93b b792 55bc 4b84 bebb be45 42bd
00000210: 676d a4bd 2b31 aa3b cc3e 923c 3f83 9abd
00000220: 19d5 99bd 98d5 b13d 3391 bf3d 2523 fb3c
00000230: 1d9c d73d f3b1 84bd a88e 30bc 1d44 833d
00000240: 6615 8cbd 4db0 bdbd ec1d f3bc 442c b73d
00000250: d3b8 c53d 510c 11bd e8c6 a2bd b062 8bbd
00000260: 2170 893d 18a1 8d3d 5d6a 293d 7f01 22bd
00000270: be23 153d 437d 8f3d 3678 52bc 739a a53d
00000280: 255a c13d 9641 9ebd 0adf b53d 5996 69bc
00000290: a209 88bd 1bb0 13bd 9a2a 01bd d166 b13d
000002a0: d27b 8cbd c613 99bc d85f 63bc 6e49 62bd
000002b0: dd73 c5bd 2add 9cbd 9b97 6f3d 283d 313d
000002c0: fe1e 9a3c 351a b7bd 67bd 7abc 8f70 333d
000002d0: 490a ab3d cb69 dbbc 54df adbd 9733 08bd
000002e0: 484e 9abd ab57 c13b 4d79 673b 928a d1bd
000002f0: cdff 743d 51eb 8bbd 3dba 65bd f133 34bd
00000300: 2826 003d 43a8 02bc 3062 a63d 757b 6c3c
00000310: 2511 6abd c63a 53bd 49b1 ad3d 5ed7 bbbd
00000320: cc73 d5bb 4255 8cbd c4c8 0f3d 9d20 9f3c
00000330: 775a 95bd e296 9f3d 07ea e9bc a78e 25bd
00000340: 1fe3 c53c 393c d2bb f329 093d 1551 153d
00000350: b28e e33b 1240 bc3d d3a9 893d e991 93bd
00000360: d160 c03d 6062 d9bc a50e 333d 0f76 28bd
00000370: 376d 923d 156a c4bd 846f b73d eaa1 983d
00000380: 3d1b 6bbd f4e9 843d 7e7e 363b 5c6a cbbc
00000390: eb86 2bbc 0308 18bd 0bbe 4a3d 823a 2abc
000003a0: be8c adbd d27d 92bd 8861 ad3d 6230 833d
000003b0: b757 b33d 6ed1 693c fcc9 953d 1cce 92bc
000003c0: 8cc7 71bc 82a7 8dbd ca88 6ebd fe3c 4a3d
000003d0: 6d79 9e3d bb10 3f3d e282 2b3b 3fcc a53c
000003e0: ee0e e7ba 88f8 c0bd fe14 853c f3c2 f3bc
000003f0: fdef ca3d ce56 78bd a3d8 453c d5a4 a7bd

value_net.0.attention.out_proj.bias f4 [96]
-0.0064315135 0.0009654517 -0.0024972446 -0.008225039 0.00442079 0.008706908 0.002088893 -0.004525057
0.002533084 -0.0071484363 -0.00019124025 -0.0068371594 0.0035223605 -0.0041521485 0.0058369474 -0.0058423392
0.012440788 0.0063944357 0.0014578315 0.0037030326 0.0036904826 0.0046689366 -0.010700167 -0.0070445677
0.012181573 0.002257042 0.011114785 -0.0055165216 -0.016063701 -0.0053008064 0.002136298 -0.013848028
-0.007861696 0.005483868 -0.017638857 -0.0029050554 0.008192636 0.0022643064 -0.0040275636 -0.0031763066
-0.008430202 -0.005557858 -0.006216588 -0.007814388 0.0016899367 -0.007855221 -0.0004950277 -0.007193697
0.0060297474 -0.0041000214 0.0068686404 0.006121992 -0.0024689212 0.006516427 -0.0033581443 -0.0033637031
-0.0070500025 0.009336516 0.00044126296 0.0020675857 -0.0046973876 -0.0048445812 0.0007148865 0.0018962314
0.0012812485 -0.005467909 -0.010121493 -0.0002210863 0.0009886719 0.0034501427 -0.007721686 -0.002478965
0.002838095 -0.008412212 -0.011820705 -0.00058224786 -0.011352665 0.0005776485 -0.0067677256 0.012591589
0.0014974319 -0.0020066823 -0.00763518 -0.0049482575 0.007958785 0.010058572 -0.0012933834 -0.008051023
-0.011341034 0.0019106916 -0.0031099995 0.0023895188 0.004179109 0.004453486 0.0008335728 -0.004887512
00000000: 72bf d2bb 5e16 7d3a d0a8 23bb 50c2 06bc
00000010: 46dc 903b 6ba7 0e3c cfe5 083b ee46 94bb
00000020: 1902 263b 6e3d eabb aa87 48b9 400a e0bb
00000030: 67d7 663b bf0e 88bb dd43 bf3b 1871 bfbb
00000040: 72d4 4b3c 6a88 d13b b514 bf3a 94ae 723b
00000050: 06dc 713b e1fd 983b c14f 2fbc 1ed6 e6bb
00000060: 3895 473c e2ea 133b ca1a 363c f0c3 b4bb
00000070: 0698 83bc 63b2 adbb 2201 0c3b d7e2 62bc
00000080: 58ce 00bc 05b2 b33b 5d7f 90bc be62 3ebb
00000090: 683a 063c c264 143b a7f9 83bb 9529 50bb
000000a0: d41e 0abc b11e b6bb 85b4 cbbb eb07 00bc
000000b0: de80 dd3a 2fb3 00bc bfc4 01ba 1bb9 ebbb
000000c0: 3095 c53b 7959 86bb 5512 e13b fe9a c83b
000000d0: a0cd 21bb c087 d53b 5014 5cbb 9371 5cbb
000000e0: b503 e7bb 30f8 183c 5059 e739 5580 073b
000000f0: 8bec 99bb 4bbf 9ebb 3967 3b3a f88a f83a
00000100: 91ef a73a 252c b3bb 9ed4 25bc 67d3 67b9
00000110: 5396 813a ca1b 623b 3206 fdbb 2276 22bb
00000120: 55ff 393b 60d3 09bc a1ab 41bc fea1 18ba
00000130: 8700 3abc 566d 173a ccc3 ddbb f44c 4e3c
00000140: 7a45 c43a 8b82 03bb 8830 fabb fe24 a2bb
00000150: 9065 023c b5cc 243c bf86 a9ba 70e8 03bc
00000160: bfcf 39bc 2c70 fa3a 22d1 4bbb 7999 1c3b
00000170: e8f0 883b 8cee 913b 2084 5a3a 6c27 a0bb

value_net.1.weight f4 [64, 96]
-0.06586509 -0.060394503 0.013984543 -0.016697692 -0.030580956 -0.09536913 -0.08133822 0.013392601
-0.033441138 -0.046103127 -0.0077460753 0.091400795 -0.094640605 -0.054598033 -0.03113032 -0.014095363
-0.082640745 -0.012112862 -0.042779896 -0.00654299 -0.03801526 0.015057896 0.032442205 0.07983182
-0.033225626 -0.07623898 -0.09992532 0.042162035 0.052329957 0.03188304 -0.09691154 0.08013426
0.032450598 -0.006340747 -0.019945081 -0.0860849 -0.054852124 -0.11125494 -0.0035695545 0.022477733
0.023724686 -0.027797101 -0.021941215 -0.088952176 -0.04962801 -0.048201 -0.07570493 0.07884001
0.08758721 0.08042365 -0.069164746 -0.0060107093 -0.06078237 0.01602859 -0.022829393 -0.028516203
0.051072214 -0.09439322 -0.09034981 -0.0064222207 0.021762637 -0.07216574 0.06444558 -0.067602135
0.05040238 0.09235447 0.004575341 0.09386284 0.012979232 0.013503774 0.05548032 0.039535906
-0.04793524 0.063972734 -0.10893204 -0.041055135 -0.036793258 -0.11174663 -0.11222878 -0.06623609
0.0838651 0.076342225 0.08416524 0.081999965 0.026708765 0.007211496 -0.013862141 -0.060392637
-0.034566905 -0.07525403 0.012448647 -0.09390473 -0.07334638 -0.0030083423 0.006250592 0.024462096
0.0070438273 0.0016868371 0.029016333 0.008279606 -0.009508359 -0.054250084 -0.006186514 -0.083978504
-0.09043913 -0.022034412 0.082338125 -0.06622048 -0.0108350245 0.061234597 0.006277544 -0.07369962
-0.07847808 0.057487894 0.0101967305 -0.08993284 -0.0005840796 -0.057196323 -0.0998097 0.0027945596
-0.03922371 0.09686085 -0.010598707 -0.04315107 -0.037597217 0.052015655 0.036183566 0.04906636
0.011713123 -0.081191316 -0.07499598 0.06819351 0.07984892 0.06161384 0.078414194 0.08164852
-0.009684773 -0.032708623 0.037079595 0.053831257 -0.046087466 0.08503768 -0.07111051 0.06054472
0.03520138 0.013691193 -0.05161121 0.06578966 0.067592315 0.011339062 0.016098032 -0.09196897
-0.0813538 0.086573005 -0.0050755343 0.010615304 -0.015193615 -0.10501447 -0.017157912 0.04308179
-0.08484954 -0.0008390563 -0.08406198 -0.06240254 -0.015908083 -0.01755399 -0.07341186 -0.07094664
0.029669804 -0.026541127 -0.057912588 -0.016618341 -0.02020003 0.05155838 -0.03893431 0.04216925
0.027655404 -0.04855739 0.050852485 -0.048038635 0.039508477 -0.008941404 0.084147945 -0.052996926
-0.019029967 0.05967165 0.030093117 -0.08007127 -0.094872944 0.06302899 0.031184845 -0.082659945
-0.09184275 0.03719664 -0.06628982 0.08818931 0.04397146 -0.06224516 0.028951388 0.08529734
0.054910775 -0.013526422 -0.035238616 0.061908185 0.027716156 0.087586984 -0.0687423 -0.09860078
-0.09387972 -0.009934719 -0.05932593 0.06976845 -0.09460316 0.05462202 0.041371964 0.051677853
-0.069651954 0.035960317 0.027786043 0.057189666 -0.010228314 0.016664898 0.059058223 -0.090755045
-0.081093654 0.09864279 -0.03146885 -0.084552266 0.0021721777 -0.04306391 -0.03919687 0.053049408
-0.05517598 -0.069516614 0.062493935 0.09072165 0.048094932 0.02506409 -0.053003 0.03958435
-0.04659634 0.030702505 0.09912877 -0.042189054 0.066985615 0.057344418 0.04582797 0.032667086
0.0036624093 0.033603314 0.073056154 -0.091987714 -0.09511171 0.06939446 -0.09684071 0.00756416
00000000: 47e4 86bd 3a60 77bd 6d1f 653c 99c9 88bc
00000010: ea84 fabc e450 c3bd a794 a6bd a46c 5b3c
00000020: 93f9 08bd a2d6 3cbd cad2 fdbb 5730 bb3d
00000030: efd2 c1bd 30a2 5fbd 0305 ffbc 3df0 66bc
00000040: 8d3f a9bd 0775 46bc f939 2fbd 9466 d6bb
00000050: e4b5 1bbd 65b5 763c 1ee2 043d de7e a33d
00000060: 9817 08bd 2f23 9cbd a5a5 ccbd 19b2 2c3d
00000070: f057 563d ca97 023d 8f79 c6bd 6e1d a43d
00000080: ebea 043d 0ac6 cfbb de63 a3bc 484d b0bd
00000090: 9fac 60bd a1d9 e3bd 30ef 69bb 3923 b83c
000000a0: 465a c23c bfb6 e3bc 10be b3bc 8f2c b6bd
000000b0: bd46 4bbd 696e 45bd 300b 9bbd df76 a13d
000000c0: ec60 b33d 28b5 a43d 3fa6 8dbd 7cf5 c4bb
000000d0: eff6 78bd 644e 833c b504 bbbc d09a e9bc
000000e0: 1931 513d 3c51 c1bd 5209 b9bd 7e71 d2bb
000000f0: 8f47 b23c a2cb 93bd 0bfc 833d fd72 8abd
00000100: ba72 4e3d 5724 bd3d beec 953b 293b c03d
00000110: d8a6 543c ef3e 5d3c 553f 633d 67f0 213d
00000120: be57 44bd 2304 833d c317 dfbd 6e29 28bd
00000130: 87b4 16bd 6bdb e4bd 34d8 e5bd caa6 87bd
00000140: 77c1 ab3d 5059 9c3d d35e ac3d 99ef a73d
00000150: 57cc da3c 6a4e ec3b 091e 63bc 455e 77bd
00000160: 0796 0dbd c91e 9abd 69f5 4b3c 2051 c0bd
00000170: a036 96bd 9c27 45bb c4d1 cc3b bc64 c83c
00000180: e8cf e63b dc18 dd3a a9b3 ed3c 2fa7 073c
00000190: f3c8 1bbc 5635 5ebd 3eb8 cabb ecfc abbd
000001a0: 2738 b9bd 8381 b4bc e4a0 a83d 9a9e 87bd
000001b0: 6385 31bc 21d1 7a3d dbb3 cd3b d4ef 96bd
000001c0: 1eb9 a0bd 6d78 6b3d 3010 273c b52e b8bd
000001d0: eb1c 19ba b146 6abd 0769 ccbd ee24 373b
000001e0: 0aa9 20bd fb5e c63d 33a6 2dbc 2dbf 30bd
000001f0: 8aff 19bd 5e0e 553d 3835 143d cff9 483d
00000200: 66e8 3f3c a247 a6bd 7e97 99bd 0aa9 8b3d
00000210: d587 a33d cb5e 7c3d 9f97 a03d 5737 a73d
00000220: e2ac 1ebc 7af9 05bd c6e0 173d 2a7e 5c3d
00000230: 36c6 3cbd 3c28 ae3d 63a2 91bd befd 773d
00000240: 522f 103d 0751 603c 4766 53bd bbbc 863d
00000250: d76d 8a3d 79c7 393c 05e0 833c 3a5a bcbd
00000260: d29c a6bd 304d b13d ab50 a6bb d0eb 2d3c
00000270: a4ee 78bc d411 d7bd c08e 8cbc 8876 303d
00000280: 98c5 adbd 1df4 5bba b028 acbd ce99 7fbd
00000290: ab51 82bc 63cd 8fbc f558 96bd 794c 91bd
000002a0: 170e f33c c76c d9bc c035 6dbd 3023 88bc
000002b0: 897a a5bc e12e 533d 9579 1fbd aab9 2c3d
000002c0: 968d e23c 1de4 46bd b24a 503d 29c4 44bd
000002d0: a4d3 213d f77e 12bc c255 ac3d 4e13 59bd
000002e0: bce4 9bbc 436a 743d d785 f63c 68fc a3bd
000002f0: bf4c c2bd 5815 813d 5c77 ff3c 9e49 a9bd
00000300: 0d18 bcbd 815b 183d f5c2 87bd 999c b43d
00000310: 6b1b 343d c8f4 7ebd 762b ed3c 5fb0 ae3d
00000320: 1fea 603d ed9d 5dbc 5e56 10bd 7093 7d3d
00000330: fe0c e33c ce60 b33d c3c8 8cbd 35ef c9bd
00000340: 0344 c0bd 3bc5 22bc bfff 72bd c3e2 8e3d
00000350: 4dbf c1bd 57bb 5f3d a675 293d 28ac 533d
00000360: afa5 8ebd 204b 133d 8e9f e33c b63f 6a3d
00000370: a994 27bc d384 883c 09e7 713d c8dd b9bd
00000380: 6e14 a6bd 3b05 ca3d 7be5 00bd bd29 adbd
00000390: 185b 0e3b c863 30bd e68c 20bd 564a 593d
000003a0: 3500 62bd ba5e 8ebd a4f9 7f3d 46cc b93d
000003b0: 31ff 443d 3553 cd3c ac19 59bd 3323 223d
000003c0: cedb 3ebd d283 fb3c 0604 cb3d 6ece 2cbd
000003d0: c12f 893d fbe1 6a3d 1cb6 3b3d eccd 053d
000003e0: 0805 703b a1a3 093d 779e 953d 0e64 bcbd
000003f0: eec9 c2bd af1e 8e3d 6c54 c6bd c6dc f73b

value_net.1.bias f4 [64]
0.01664493 -0.03766928 -0.020003736 0.031016225 0.10559594 -0.10738928 0.060205273 -0.04440235
0.06379618 0.038842544 0.095465556 -0.03621426 -0.033665072 -0.029598933 -0.044283267 -0.018878303
-0.084675394 0.04668817 -0.0993908 -0.08328044 -0.05375745 -0.07884674 0.063692406 -0.047822285
0.048933975 -0.10187486 0.08730924 -0.0910461 -0.09800036 -0.03587364 0.10693469 -0.04355024
-0.0056779105 -0.0561773 0.02187179 0.1029131 0.063994534 0.0977949 -0.057611316 0.07617609
0.083236754 -0.082913905 0.08180403 -0.09045112 0.05941774 0.111334816 0.07860164 0.08187703
0.07509432 0.05470838 -0.083483115 -0.034874473 -0.0055968524 -0.09971015 0.0031370597 -0.090359725
0.060238168 0.070895925 -0.07968943 -0.10988893 -0.09105238 -0.0319701 -0.092342325 0.036330152
00000000: f35a 883c 1a4b 1abd e0de a3bc bd15 fe3c
00000010: af42 d83d e9ee dbbd ce99 763d 3ddf 35bd
00000020: 92a7 823d 5c19 1f3d 7283 c33d 6755 14bd
00000030: 63e4 09bd 7679 f2bc 5f62 35bd aca6 9abc
00000040: 4b6a adbd 183c 3f3d 678d cbbd ef8e aabd
00000050: c630 5cbd 667a a1bd 2a71 823d 4de1 43bd
00000060: fe6e 483d c4a3 d0bd 30cf b23d 6176 babd
00000070: 6ab4 c8bd 3df0 12bd 9300 db3d bd61 32bd
00000080: c40d babb 2b1a 66bd 782c b33c 1ac4 d23d
00000090: 910f 833d b148 c83d d8f9 6bbd 3602 9c3d
000000a0: 0878 aa3d c4ce a9bd df88 a73d 703e b9bd
000000b0: 0460 733d 8203 e43d e6f9 a03d 25af a73d
000000c0: 0dcb 993d e515 603d 32f9 aabd 89d8 0ebd
000000d0: cd65 b7bb d634 ccbd 2197 4d3b 850e b9bd
000000e0: 4cbc 763d e231 913d 3634 a3bd 730d e1bd
000000f0: ac79 babd 14f3 02bd f91d bdbd edce 143d

value_net.3.weight f4 [1, 64]
-0.07637829 -0.008424996 -0.04079542 0.0034002033 -0.039879102 -0.104703434 -0.06947015 0.053449754
-0.08158709 -0.03403761 -0.009962197 0.034512717 0.10057547 -0.079214126 0.05798495 0.011971278
-0.015683351 -0.009694549 0.06334227 0.09257062 -0.047527798 -0.045391098 -0.039420865 0.017827636
-0.109995805 -0.057707213 -0.000109217326 -0.07851372 0.088944934 -0.0001553562 -0.066509105 0.03596663
0.013552842 -0.019290263 0.07731306 -0.0585706 -0.005027042 -0.07584646 0.114355244 -0.055343304
-0.04099974 -0.06780145 -0.072063714 -0.08924389 -0.10746143 -0.03909624 -0.07730672 0.0929684
0.07195595 0.091426134 0.061541785 0.0859148 0.07833638 0.07891628 -0.07396733 -0.06757104
-0.023340698 -0.11792862 -0.10396413 0.039019812 0.032527346 0.07607852 -0.07089709 0.0021027336
00000000: 396c 9cbd ff08 0abc 1919 27bd f2d5 5e3b
00000010: 4558 23bd c16e d6bd 5e46 8ebd 21ee 5a3d
00000020: 2217 a7bd 056b 0bbd 7c38 23bc 355d 0d3d
00000030: 83fa cd3d 043b a2bd a081 6d3d 2e23 443c
00000040: 5f7a 80bc e3d5 1ebc 98b9 813d aa95 bd3d
00000050: 82ac 42bd 04ec 39bd c677 21bd 430b 923c
00000060: 7b45 e1bd 665e 6cbd 9b0b e5b8 cdcb a0bd
00000070: c328 b63d 1de7 22b9 ed35 88bd bf51 133d
00000080: bd0c 5e3c 9d06 9ebc 4f56 9e3d bae7 6fbd
00000090: e2b9 a4bb 6455 9bbd 1533 ea3d a9af 62bd
000000a0: 58ef 27bd 7ddb 8abd 2496 93bd 80c5 b6bd
000000b0: bd14 dcbd 6123 20bd fc52 9ebd 3766 be3d
000000c0: a45d 933d a03d bb3d 3d13 7c3d 19f4 af3d
000000d0: d36e a03d dc9e a13d 2f7c 97bd af62 8abd
000000e0: fe34 bfbc 8f84 f1bd 25eb d4bd 3dd3 1f3d
000000f0: 653b 053d 0ecf 9b3d 7e32 91bd 04ce 093b
