scripts/models/602/34/1/qModel.pth (torch, 264307 bytes, 11 tensors)

value_net.0.input_layer.weight f4 [96, 128]
000000 5d 59 a0 bd 46 2b 92 3d 74 90 d3 bb 0f 01 53 3b
       -0.07829545 0.0713716 -0.006456429 0.0032196676
000010 f9 08 c3 3b 0f 00 d9 3b a2 eb ea bc ac 92 8b bd
       0.0059519974 0.0066223214 -0.028676812 -0.06815085
000020 9b 18 8d 3c d3 08 ac 3d e2 40 8b 3c 96 0f 78 3d
       0.017223647 0.084001206 0.016998712 0.06056174
000030 1b 2a 66 3c 38 08 96 bc be d8 a4 bc 50 d2 b4 bd
       0.014048125 -0.018314466 -0.020122882 -0.088291764
000040 25 24 86 bc 23 13 4f 3d 5d c3 86 3d e0 73 02 3b
       -0.016374657 0.05055536 0.06580231 0.0019905493
000050 cb 95 84 3d bd 33 a5 3c 8a 08 11 bd ff 15 08 3d
       0.06473883 0.020166272 -0.035408534 0.033224102
000060 74 1e 11 3b 71 2a 4a bd 2b 36 44 bd 4f c9 6e 3d
       0.0022143396 -0.04935688 -0.04790322 0.05829745
000070 cf 12 c8 3b e9 1b a9 3d 2a 64 94 bd a7 0d 31 bd
       0.006105758 0.082572766 -0.07245667 -0.04322591
000080 36 96 ad 3c bf da 72 3d 39 1b 11 3c d4 81 e5 bc
       0.02118979 0.059290644 0.008856588 -0.028016008
000090 5e 78 99 3c 64 39 37 bd 6d da 30 3c fe 2a 7b bd
       0.018734153 -0.044732466 0.010794264 -0.061320297
0000a0 b7 5e 16 3d 99 e4 bb bb da f3 83 3c 31 a9 88 3c
       0.03671142 -0.005734038 0.016107488 0.01668224
0000b0 4a 23 35 bd 97 2d 67 bb c0 ab 49 bd d3 63 99 3d
       -0.044223107 -0.0035274976 -0.04923606 0.07489743
0000c0 98 f9 ba bd 1f 36 9d bc a6 88 bf bd 4f 07 13 3d
       -0.091296375 -0.019190846 -0.093522355 0.035895642
0000d0 e4 5b d0 ba 89 36 3b bb 98 54 91 3d c7 a0 8a bd
       -0.0015896526 -0.002856644 0.07096213 -0.06768947
0000e0 b0 3f 12 bd 46 2d 26 3d 8a 0c f0 bc 32 10 f3 bc
       -0.03570527 0.04057052 -0.029302854 -0.029670808
0000f0 c4 8c ec bc 13 35 4d bd 4d cf 8c bc 22 a2 a2 bd
       -0.028875716 -0.050099444 -0.017188692 -0.07941081
000100 6d ca 8a bc 43 af 7c bd fe 9d b2 bd 2a 22 71 bd
       -0.016942227 -0.06169058 -0.08721541 -0.058870472
000110 89 90 fb bc a3 73 56 3d 4f 80 9d bd 00 42 34 bd
       -0.030708568 0.052356374 -0.076904885 -0.044008255
000120 c6 83 29 3d e5 84 6c 3d 90 fc 0c bd a6 7d 92 3c
       0.041385435 0.057743926 -0.03442055 0.01788218
000130 fa 59 96 3d 6b e3 29 3d 1f f4 06 3d 1d 5d 90 3c
       0.073413804 0.04147665 0.032947656 0.017622525
000140 2d b1 3b bc 74 59 78 3d ba 75 5e bd 16 73 20 3d
       -0.011455816 0.060632184 -0.05431149 0.039172255
000150 0e 6c dc bc 79 2e 13 3b 0d aa ad bd 6d 67 ad 3b
       -0.026906993 0.002245812 -0.084797 0.0052918703
000160 ea 67 70 3d ac 35 e1 bc de 8e 85 bd 51 1b 81 3d
       0.05869285 -0.027491413 -0.065213904 0.06304038
000170 75 7b 9a 3d 12 80 0e bc 32 c7 a6 3d 6c a0 ba bd
       0.07543079 -0.0086975265 0.08143462 -0.09112629
000180 4f 6a 6d bd aa 04 9f bd fe 42 b0 bc 12 19 f4 bb
       -0.057962712 -0.077645615 -0.02151632 -0.0074492777
000190 0f 45 a9 bd 15 e6 47 3d 6b 4f a1 bd 1d 23 07 3d
       -0.08265125 0.048803408 -0.07876476 0.03299247
0001a0 81 5a 1b 3c 56 ae 86 bd ed c0 0a 3d d6 9d 8c bd
       0.009482027 -0.06576221 0.033875395 -0.06866042
0001b0 5a 1c 7d 3d ad 0e e8 3c e8 81 18 bc 79 4f b4 bd
       0.061794616 0.02832731 -0.009308316 -0.08804221
0001c0 58 42 cc bc ae 75 6d bc 4c c8 21 39 44 e3 a1 3d
       -0.024933979 -0.014493389 0.00015428773 0.079046756
0001d0 03 2e 9b bc be 08 44 3d 21 a3 7b 3d 10 da cf 3b
       -0.018942839 0.0478599 0.06143487 0.0063431337
0001e0 db e0 e9 bc 90 21 1b 3d db c0 3d 3d b4 6a 7d 3d
       -0.028549602 0.037873805 0.0463265 0.06186934
0001f0 bf 50 14 bd e1 b8 91 3d af 4d 84 3d 14 ac 72 3d
       -0.036209818 0.07115341 0.064601295 0.059246138
000200 79 85 ad 3d a2 1f e9 bc d1 31 1a bd 27 61 c6 bb
       0.084727235 -0.028457467 -0.037645165 -0.006054062
000210 cd 99 d3 3c 5a 62 9b 3d 08 a3 ca bd e3 6f 47 bd
       0.025830174 0.075871184 -0.09894377 -0.048690688
000220 38 9a 8b bd c7 6a ae 3d 4f ae a9 3c 41 8f 0f bd
       -0.06816524 0.0851646 0.020713 -0.035048727
000230 40 a5 56 3d 75 d4 9e 3d 94 4b 63 3d b5 2a c5 bc
       0.05240369 0.07755367 0.055492 -0.024068216
000240 ac 30 9e bd 69 d3 a5 3d 7f be 41 bd c6 83 d2 bc
       -0.07724127 0.08096964 -0.04730081 -0.0256976
000250 18 ab 73 3d e3 f9 78 3d 97 af 06 3d 71 80 a3 3d
       0.05948934 0.060785186 0.0328823 0.07983483
000260 d4 d8 27 3c 4c bf 53 bd 19 2f 8a bd 55 72 1b 3c
       0.010244567 -0.051696107 -0.067472644 0.009487708
000270 32 7d bb 3c 0e c6 8a bc 7a 44 23 ba c3 eb 9a 3d
       0.022886846 -0.016940143 -0.00062281603 0.07564499
000280 48 ac 58 3d 8e 16 c5 bb 78 13 95 bd dd 73 2c 3d
       0.052898675 -0.0060146516 -0.07279104 0.042102683
000290 9c df b2 bc 7d 5b a0 bd c4 1b e7 bc 1c 5f 9a bd
       -0.02183514 -0.0782995 -0.028211482 -0.07537672
0002a0 f5 90 d5 3c fc d2 b6 3c 78 7f 3e 3d f3 c5 ba bd
       0.026070097 0.022317402 0.046508282 -0.09119787
0002b0 19 83 8d bc c8 33 28 3d 8a 17 44 3d b6 83 60 3d
       -0.017274426 0.041065007 0.04787401 0.05481311
0002c0 0b 4d 95 bd ae 7b 6c bd 0d dd c7 bc c1 dd 03 bd
       -0.072900854 -0.057735138 -0.024397397 -0.032193903
0002d0 b1 ad ba 3c a0 0f 33 3d 67 bd 80 3d c6 92 b2 bd
       0.0227879 0.043716073 0.06286126 -0.08719401
0002e0 34 ac 2b bc eb 63 d7 3a 1a 87 45 bd b5 f4 68 3d
       -0.010478068 0.0016432976 -0.048224546 0.056873996
0002f0 ae dc 48 3d fe b6 26 3d 38 86 8e 3c 67 8a a0 bb
       0.04903858 0.04070186 0.017397985 -0.0048993113
000300 1f f5 7e 3d f0 0b 5e 3c 6e c7 80 bd 78 20 0c bc
       0.062245484 0.013552651 -0.06288038 -0.008552663
000310 51 9c b8 3c c2 6d cf 3c 82 5c 54 3b c2 00 e4 3b
       0.022535475 0.025320891 0.0032403772 0.006958098
000320 8e 1a 2c 3d 28 46 bc bd 10 4f 92 bb 56 19 cb bb
       0.042017512 -0.09193069 -0.0044649914 -0.0061980886
000330 1c 00 fa bc 5c cc 24 3d 1a e3 77 bd 81 54 90 3b
       -0.03051763 0.040233955 -0.060519315 0.004404605
000340 c9 e3 67 3d dc 20 5d bd 28 9a 0c bd 16 26 6d 3d
       0.056613717 -0.053986415 -0.034326702 0.05789765
000350 37 6c 9b bd ab 03 f8 39 b7 37 a0 bd c9 80 89 3d
       -0.07589 0.0004730498 -0.07823127 0.06714017
000360 b1 35 be bd 9d 4c 93 bd 43 b9 55 3d b7 7c a3 3b
       -0.092875846 -0.07192347 0.052178632 0.0049892324
000370 52 b5 a8 3b ed 34 c9 3c 60 d5 a3 3d 5a f5 b0 bd
       0.005148568 0.02456137 0.079996824 -0.08640547
000380 4b 7e 47 3d 91 fe 89 3c c1 7e 9e 3c d1 f9 ee 3c
       0.048704427 0.01684502 0.01934755 0.029171856
000390 4e 14 cb bc a8 26 80 bd f2 67 88 3d 50 49 8c bd
       -0.024789955 -0.06257373 0.06660451 -0.06849921
0003a0 1d d7 c4 ba 4a 8a 9d bd a9 87 5b bc 0e d6 4b 3d
       -0.0015017722 -0.07692392 -0.013399043 0.049764685
0003b0 66 4a 52 bc 6f 9d 80 bd 29 ed ac 3d 20 da cb bc
       -0.012835121 -0.06280028 0.08443672 -0.024884284
0003c0 5a 26 53 39 e1 82 50 bc 42 1d 50 3d 3f 05 89 3d
       0.00020136815 -0.012726516 0.050809152 0.06690454
0003d0 ce 11 0b 3d 38 4f 65 bd cb b6 00 bd 6c ee 8b bd
       0.033952527 -0.055983752 -0.031424325 -0.06832585
0003e0 d7 3e eb 3c eb 5e 94 3a 75 3b 66 bb 30 0d 92 bd
       0.028716488 0.0011319792 -0.0035130654 -0.071314216
0003f0 01 5a 18 bd 26 26 0b bd ed ff 96 3d 25 a0 8f bd
       -0.03719521 -0.033971928 0.07373033 -0.07012967

value_net.0.input_layer.bias f4 [96]
000000 bb 51 8d bd c7 30 28 bd 62 3b 2d 3d a9 f8 9f bd
       -0.069003545 -0.041062143 0.04229296 -0.078111
000010 a8 75 60 bd 22 49 aa bc 02 78 77 3c 1d 7a bd bd
       -0.054799706 -0.020786826 0.015104296 -0.09251807
000020 ef 3f 67 bd 9d fa 80 3d 30 a5 87 bd f3 cb 8e bd
       -0.056457456 0.06297801 -0.06623304 -0.06972494
000030 e5 ac c1 bd 43 65 0c bc ed bc ab 3d ee f4 70 3d
       -0.09456805 -0.008569065 0.08385644 0.058827333
000040 ee 18 25 3d c7 e4 88 3d 1e 30 89 bd 6e 92 9f 3c
       0.040306978 0.06684261 -0.06698631 0.019479003
000050 a6 80 27 bd 6f cc a6 bc 5e a2 ce bc 66 f7 10 3d
       -0.040894173 -0.020361153 -0.025223907 0.035392188
000060 77 55 30 bc de 2c 3f bd 9d 76 50 bd ab 74 b7 bd
       -0.010762564 -0.046673648 -0.05089437 -0.089577995
000070 22 d8 a2 bd 9d f8 8d 3c 52 17 8b bd 42 7b a1 bc
       -0.0795138 0.017330462 -0.06791557 -0.019712094
000080 1b 6a 2f 3c 47 a3 38 bb b8 14 32 bc b2 e3 3b bd
       0.01070645 -0.0028173493 -0.010869198 -0.045871444
000090 f7 75 ae bc bd 6d d4 3b 3e bf 1e 3d 3b 9b 9d 3d
       -0.021296484 0.0064828084 0.0387566 0.076956235
0000a0 bf 56 8c bc 4c 47 7a bd 72 af 48 ba d1 8a 5f bc
       -0.017131208 -0.06110315 -0.0007655538 -0.013643936
0000b0 4d 1c 16 bd 2e 6d a8 bc c5 69 3b 3d b5 53 d2 3c
       -0.036648083 -0.020559873 0.045755167 0.02567468
0000c0 52 5f 9e bd 40 05 72 3d 4a 18 5d 3d ab 01 8c 3c
       -0.07733025 0.059087038 0.053978242 0.01709064
0000d0 d0 5d 77 bd 6c 8b 8d bd 5b 8d 67 3d 5c d7 4b 3d
       -0.0603922 -0.06911358 0.05653129 0.04976593
0000e0 40 1f b4 bd 2f 9b 9c 3d 93 bd 28 bd 26 c9 f9 3c
       -0.08795023 0.076467864 -0.041196417 0.030491423
0000f0 28 c8 ed bb a5 9a 9d 3d aa 26 a7 3c 5e 04 8c bd
       -0.0072565265 0.07695512 0.020404179 -0.068367705
000100 2e a0 32 bd 67 6f 6f ba 4c 2e 69 bd 78 8d 83 3d
       -0.04360979 -0.00091337267 -0.056928918 0.064234674
000110 76 65 12 3d 86 72 a7 3d f8 ca 16 3d ac c6 09 3d
       0.035741292 0.081761405 0.03681466 0.033636734
000120 67 2c f1 bc 08 97 55 3d 43 06 e4 bb 15 74 85 bd
       -0.029440118 0.052145988 -0.0069587543 -0.065162815
000130 39 66 38 bc cc e1 bb 3c 7c 31 75 bd 9c 83 b3 bd
       -0.0112548405 0.022934817 -0.059861645 -0.08765337
000140 6c e4 d1 3c d8 6f 14 bd a2 72 c8 bc 14 e3 82 bd
       0.025621615 -0.036239475 -0.024468724 -0.06390968
000150 e4 3d 4d bd 60 f2 8f bc 44 09 99 3b 2e 87 98 bd
       -0.05010785 -0.017571628 0.004670294 -0.074476585
000160 ee 9d b3 3c d4 b8 31 bd 06 1c 42 bd f1 20 35 3d
       0.021925893 -0.043389156 -0.047390006 0.04422087
000170 4b 66 07 bc bb 7c 2b bd 59 5f 7d bc a8 08 a0 bd
       -0.008264135 -0.041867 -0.015464627 -0.07814151

value_net.0.output_layer.weight f4 [96, 96]
000000 32 5a 66 3b 19 c0 97 3d 72 75 27 3c 8d 40 ac bd
       0.0035148975 0.074096866 0.010220872 -0.084107496
000010 d4 bc a9 3a db 66 6e bd 2d 3a 5f 3c b3 d3 d9 3c
       0.0012949952 -0.05820356 0.01362471 0.026590204
000020 2d 08 72 bb 8f 33 14 bd e2 98 2c 3d 14 35 68 3d
       -0.0036931143 -0.036181983 0.042137988 0.056691244
000030 10 ef 7d bc c8 33 dc 3d 3d c1 6a bd 46 81 db 3d
       -0.0154988915 0.10752064 -0.057313193 0.10718016
000040 70 85 3c 3d 6a 8b eb ba ee 70 65 bd 5e 58 94 bd
       0.046025693 -0.0017970626 -0.0560159 -0.07243417
000050 2a ce a9 bc 00 11 63 3d 81 00 92 3d ab a0 85 3d
       -0.02072819 0.055436134 0.07129002 0.065247856
000060 49 2e a3 bd b3 64 30 3c 23 e3 3e bd cc 30 a9 3d
       -0.079678126 0.010766196 -0.046603333 0.082612604
000070 6d b6 af 3d 0e 0f 91 bd 43 cc ef bc 88 d2 7d bd
       0.08579717 -0.070829496 -0.029272204 -0.061968356
000080 cf 8b a4 3d a3 9e 95 bc c9 10 32 bd 98 51 b5 bc
       0.08034479 -0.01826412 -0.04347304 -0.022133633
000090 7a 4f 80 bd 10 d5 84 bd 13 e9 c0 3c 05 2e 5a bd
       -0.06265159 -0.06485951 0.023548638 -0.053266544
0000a0 74 64 1d bd f3 eb 24 3d 7d b6 9b 3d 3d 70 21 3d
       -0.038425878 0.04026408 0.07603166 0.03941368
0000b0 c9 81 8d bc 07 ae ae bd 2f 1f 4e bd d0 b1 c2 bc
       -0.0172738 -0.08529287 -0.050322708 -0.023766428
0000c0 26 b2 92 3d f6 92 15 3d 77 53 27 3d ba 9b 3b 3d
       0.07162885 0.036517106 0.040851083 0.04580281
0000d0 68 9d e2 bc 8c 72 67 3d 45 bc f2 bd 1c c6 b8 3d
       -0.027662948 0.056505725 -0.11852316 0.09022161
0000e0 98 aa 5c bd 53 51 83 3d cc b0 ba bd 7d eb 8b 3d
       -0.05387363 0.06411996 -0.091157526 0.06832025
0000f0 05 67 0e bd c6 9c aa 38 12 aa 6c bd fb f0 39 bc
       -0.034766216 8.135433e-05 -0.05777938 -0.011348958
000100 52 8f 50 bd 4a 8c 32 bd 36 10 cb bc a2 c1 b9 bc
       -0.05091793 -0.04359082 -0.024788003 -0.02267534
000110 de 23 62 bd 0d 67 df bd 23 38 24 bd e6 e6 ae bc
       -0.055209987 -0.10908327 -0.0400926 -0.021350335
000120 0b 99 31 3d 15 0e b1 bd 24 89 9e bd 84 a1 1d bc
       0.043358844 -0.08645264 -0.07741001 -0.009621028
000130 5d eb bf bd c2 6d f4 bc a8 56 3f 3d 9e a7 d7 bd
       -0.09371064 -0.029837493 0.0467135 -0.10530017
000140 fa 92 26 3d d9 bc bc bc f1 e0 2f 3d 41 a6 a6 3d
       0.04066751 -0.023039268 0.04293913 0.08137179
000150 da 94 97 bd 55 b5 a8 bd a3 df 8a 3b 85 b8 ae bd
       -0.07401438 -0.08237711 0.0042380854 -0.08531288
000160 40 00 43 3d 22 62 67 bd c9 c1 63 3d 9a 80 40 3d
       0.04760766 -0.05649007 0.05560473 0.046997644
000170 0a 14 b7 3d d9 55 c1 3c 38 3f 6a 3d 7d 10 b7 bd
       0.08939369 0.023600506 0.057189196 -0.08938692
000180 03 30 29 bd f0 71 6c bd 82 49 ae bd a8 72 61 bd
       -0.041305553 -0.057725847 -0.08510114 -0.055040985
000190 35 eb 9b bc 61 b3 a9 3d 07 8a 1f bd 94 73 58 bd
       -0.019033054 0.08286167 -0.038949993 -0.0528446
0001a0 85 1e 81 3d b2 43 89 3d 82 cf 16 bb 85 1f b9 bc
       0.06304649 0.06702365 -0.0023011868 -0.022598037
0001b0 53 12 9b bd 51 c7 84 3d dd f7 be bd b6 7e 89 3d
       -0.075718544 0.06483329 -0.0932462 0.06713621
0001c0 e9 1d 8a bd e6 eb 1d bd a7 f6 91 3d 0a 8d 99 bd
       -0.06743986 -0.03855505 0.07127123 -0.07497604
0001d0 04 f0 54 bd 16 5d 6f bd d7 0e 62 bd 11 d5 b7 bd
       -0.05198671 -0.058438383 -0.055189934 -0.08976186
0001e0 59 b8 03 3d 2d 1f 82 3d 82 53 a8 3d 69 f8 21 3d
       0.03215823 0.063536026 0.08219053 0.039543543
0001f0 ec d2 e6 3b c1 56 08 bc c3 a3 0b bd 4d b2 14 bd
       0.007044187 -0.008321465 -0.034091722 -0.036302853
000200 47 a7 d4 3b 3e c2 66 bd c3 1e d7 bb 22 17 b6 bc
       0.0064896676 -0.056337588 -0.0065649464 -0.022227827
000210 49 5f e1 3c 9d c0 ad bd bb 3d 6b bc 95 20 52 3c
       0.027511256 -0.08484004 -0.014357979 0.012825151
000220 a8 d7 aa 3d 03 f3 c2 3d 4a 7a 7c 3c 7e 87 dd 3d
       0.083419144 0.09519007 0.015410015 0.10816859
000230 7a 74 b2 bd a0 90 48 3a ee 49 18 3d 4f fd ad 3c
       -0.087136224 0.00076509453 0.03717988 0.021238951
000240 fc 7d 01 3d 40 a0 16 bd 51 44 bc 3d 97 9c c4 3c
       0.03161429 -0.03677392 0.09192718 0.02400045
000250 a0 e1 aa 3d 50 70 a1 bd cc 74 af 3d 82 4d 72 bd
       0.08343816 -0.0788275 0.08567199 -0.05915595
000260 2f 51 4b bd 28 4c 05 bd 22 2f 8a 3d 1c 98 92 bd
       -0.04963797 -0.03254333 0.06747271 -0.07157919
000270 5f dc ab 3c 2e fd cb bd 7b 95 9e bd 11 71 98 3d
       0.020979105 -0.099603996 -0.07743355 0.07443441
000280 3c 2a cf 3b c7 13 0f 3d a7 54 8d 3c 09 45 d4 3d
       0.0063221734 0.03493097 0.01725228 0.1036473
000290 7e 6a 02 3d ae f6 23 bb 99 a2 23 3d 42 d9 e3 bd
       0.03183984 -0.0025018859 0.039949987 -0.11125423
0002a0 fe 29 a8 3c 19 b6 16 3d 15 e6 3e bd 21 84 85 3c
       0.020527836 0.036794756 -0.046606142 0.016298356
0002b0 40 ee d6 bd e8 29 8e 3d 83 f3 b4 3d b5 b2 5d 3d
       -0.10494661 0.06941587 0.08835509 0.054125506
0002c0 a9 93 89 bd 45 49 40 3d 09 73 15 bb 74 ac b0 3c
       -0.06717617 0.046944875 -0.0022804162 0.021566607
0002d0 7b fd 07 bc 36 0f bb 3c a9 fa b3 3d 7b 86 07 3c
       -0.008300181 0.022834402 0.08788044 0.008271809
0002e0 7a e8 1a bc 8d 2f 0f 3c 8b 3c 2f 3d ab f9 3d bd
       -0.009454841 0.008739364 0.042782348 -0.04638068
0002f0 ff 93 84 bd 38 a7 43 3d e8 51 9f 3d b3 08 9a 3d
       -0.064735405 0.047766894 0.07779294 0.075211905
000300 bc a9 93 bc ff 94 46 bd c8 5f 4f bc 7d a9 48 3d
       -0.018025272 -0.048481937 -0.012657113 0.04898976
000310 97 f8 13 bd 00 f2 5b 3d b1 cb c2 3d 5e d5 a4 bd
       -0.036125746 0.053697586 0.09511507 -0.08048509
000320 06 b4 f3 3c b7 5e f2 3c 29 84 da 3c d4 89 89 bd
       0.029748928 0.02958618 0.026674347 -0.06715742
000330 a3 20 aa 3d 3f f8 bb bd fb 5d 76 3d 77 40 f2 3b
       0.08307006 -0.091782086 0.06014822 0.0073929387
000340 85 ee 24 bd a8 ca 89 bd f5 0d 44 bd 33 c1 5b 3d
       -0.040266532 -0.06728107 -0.047864873 0.053651046
000350 05 fc 8c bd 79 26 6d 3d 32 34 bb bd e6 ce bd bd
       -0.068840064 0.05789802 -0.09140815 -0.09267978
000360 82 0c 85 bd f5 82 bf bd 4e de 37 3c ed be 09 3c
       -0.06496526 -0.0935115 0.011222435 0.008407337
000370 6a 2c b0 bd 65 3f 5d 3d 2d b1 71 3c e2 be dc bd
       -0.08602221 0.054015536 0.014751715 -0.107785955
000380 c5 57 b3 3b 15 66 43 bc ce 97 ba 3c 95 3f 92 3d
       0.0054731094 -0.011926194 0.022777464 0.071410336
000390 fc 3f 82 3d fc 69 7e bd 59 7e 96 3d b2 00 ce bc
       0.0635986 -0.062112793 0.07348318 -0.025146816
0003a0 5c 71 76 3d a3 4f 1f bd 55 e8 66 3d 3c fd ad 3d
       0.0601667 -0.038894307 0.056373913 0.08495566
0003b0 fa 12 fb 3c eb 23 8f 3d e2 10 66 bd 53 f0 d9 3b
       0.030648697 0.06989273 -0.056168444 0.0066509633
0003c0 d6 ae 73 3c ad 30 42 3d 1b 73 8b bd 51 9b 43 bc
       0.014873227 0.047409702 -0.06809064 -0.011938886
0003d0 d1 f3 51 3d 13 4f 87 3d ce 51 a1 bd e2 b9 9f 3c
       0.051257912 0.06606879 -0.07876931 0.019497816
0003e0 d6 bd 9a bd 83 9b 9b 3d 8b a5 06 bd 1f b3 4f bc
       -0.075557396 0.07598021 -0.032872718 -0.012676983
0003f0 16 14 be bd 83 0a 3d 3d 78 d9 dd 3c 92 39 96 3b
       -0.09281175 0.046152603 0.027081236 0.0045844996

value_net.0.output_layer.bias f4 [96]
000000 00 5c b0 3d a7 dd 13 bd 6e 09 8a 3c 1d 05 c5 3d
       0.086112976 -0.036100056 0.0168502 0.09620116
000010 7a f3 ca 3c a7 af 56 3d 78 4f c0 bd 31 e8 39 bd
       0.024774302 0.05241361 -0.093901575 -0.04538745
000020 d4 e4 a9 bd 94 c1 e9 bc e4 ce 86 3d 18 38 4a bd
       -0.082955986 -0.028534688 0.0658243 -0.0493699
000030 f5 2d af bd dc e8 90 bd 54 1f 9f bd ed eb 35 bd
       -0.085536875 -0.070756644 -0.07769647 -0.04441445
000040 d5 77 fc 3c 6f 17 e2 3c d2 6c 86 3d 0e dc 75 bd
       0.03081886 0.027599065 0.065637246 -0.060024314
000050 1b 84 db 3d 0b f1 0c 3d d2 f6 68 3c 3c 2f 50 3b
       0.107185565 0.034409564 0.014219003 0.0031766435
000060 20 96 13 3c fc ff 66 3d 3d 61 42 3d 41 4a 0a 3c
       0.009007961 0.05639647 0.047456015 0.008440555
000070 0a 62 04 bd 4d db 84 bd 76 79 64 3c 53 03 ce bd
       -0.03232006 -0.06487141 0.013944974 -0.10059228
000080 49 99 c9 bd 42 7d 7a 3c f9 43 50 3c 92 a5 b3 3d
       -0.0984369 0.015288653 0.012711518 0.087718144
000090 21 9c 9b bb 20 19 b4 3d fd 5c c6 bd 76 9b 5a 3d
       -0.0047488366 0.08793855 -0.09685705 0.053370915
0000a0 88 71 c6 bb fc c7 b3 3d 0d 68 4f bd 8c f7 e5 b6
       -0.0060560144 0.08778378 -0.05063634 -6.85355e-06
0000b0 89 96 d8 3d 18 91 95 bd 27 58 33 bc c4 f8 93 bd
       0.10575587 -0.07303065 -0.01094631 -0.07225183
0000c0 f8 2b 21 3c 03 dc 1b 3d 5f 38 12 3a 2b 5b 04 bd
       0.009837143 0.038051616 0.0005577858 -0.032313507
0000d0 b6 29 52 bd 72 35 86 bc 43 6a b9 3d 35 ba dd 3d
       -0.05130931 -0.016382907 0.09053471 0.10826532
0000e0 f9 51 8b bd 32 58 bb bc 80 44 39 bb 15 bc c9 3d
       -0.068027444 -0.022869203 -0.002826959 0.09850327
0000f0 9f 7e d4 3c 25 2c bc bd 05 7b a2 3d 5b 91 b5 bc
       0.025939284 -0.091881074 0.0793362 -0.022164037
000100 dd 44 a5 bc 00 0a 93 3d 5d 5e de 3d 06 79 b8 bd
       -0.020174438 0.07179642 0.10857842 -0.090074584
000110 04 31 46 3d c4 b1 a9 bd 5f 9d aa 3d 5a 0c b3 bd
       0.04838659 -0.08285859 0.083307974 -0.0874259
000120 c7 a9 ce bb 29 4b bd 3b a6 e8 7f 3d 14 a2 90 bd
       -0.00630686 0.005776782 0.06247773 -0.07062164
000130 13 fd bf bd 83 02 22 bd 74 58 a8 3d e4 7c a6 bd
       -0.09374442 -0.039553177 0.08219996 -0.0812929
000140 d4 b5 a6 3d 8e 63 95 bd 4a 78 3a 3d 4f 4a 6c 3d
       0.0814015 -0.07294379 0.045524873 0.057688054
000150 7d a6 49 3c 80 db 99 3d ed 52 7b bd 3d 43 b7 bd
       0.01230776 0.075125694 -0.06135838 -0.089483716
000160 f7 5e d9 3d 2c 3b ba bc 52 4d 3e 3b 97 42 17 3c
       0.10613816 -0.022733293 0.0029037786 0.009232185
000170 c6 5c c7 bd 4a a6 99 ba f6 1e 35 bd c9 1e 77 3c
       -0.09734492 -0.0011722532 -0.04421898 0.015083023

value_net.0.attention.in_proj_weight f4 [288, 96]
000000 f1 1c e9 3a 8c e1 02 3a 8c f6 06 3d fd 28 fc bb
       0.0017785114 0.00049927155 0.03294997 -0.007695316
000010 59 c2 49 bd b4 02 af 3d 2f 44 e0 bc 30 d5 a7 3d
       -0.04925761 0.085454375 -0.027376262 0.08194959
000020 7e 64 04 bd 8c ec c9 bd 16 83 d8 bd 32 d2 e3 bc
       -0.0323224 -0.09859571 -0.10571878 -0.02781019
000030 95 5b 0e bc 36 1c 6d bd be 77 41 bd 61 d0 ab bd
       -0.008688827 -0.057888232 -0.047233336 -0.083893545
000040 46 1a 94 3c 29 b7 a5 bd a8 56 fb 3c 05 4e 63 3d
       0.018078934 -0.08091576 0.03068097 0.055494327
000050 09 ba f0 3d 11 25 88 bb ec 12 1a 3c 39 f4 69 bd
       0.117542334 -0.0041548093 0.009403925 -0.057117674
000060 ce e4 ff bd 3e 1f f6 3d 1d f1 38 bd 21 77 8b 3b
       -0.12494813 0.12017678 -0.04515182 0.0042561446
000070 53 21 9c 3d e7 f3 a5 3d cb 08 a0 bd a3 5d 0c 3c
       0.076235436 0.08103161 -0.07814177 0.008567247
000080 81 c5 09 bd 63 6e 30 bd 74 a1 e4 bc 99 6a 03 3c
       -0.03363562 -0.043074023 -0.027909018 0.00802102
000090 fa 58 2b bd 7d b1 a7 ba ab ac bd 3d 83 88 30 3d
       -0.0418329 -0.0012793984 0.092614494 0.043098938
0000a0 56 0b a6 bd 1b f0 00 be 86 07 22 bc e7 8a a9 bd
       -0.08107631 -0.12591593 -0.009889489 -0.08278447
0000b0 04 9f ba bd 42 58 cd ba f6 9d 4c 3d 22 93 86 bd
       -0.09112361 -0.0015666562 0.04995533 -0.06571032
0000c0 29 7e 24 3d f2 ce a3 3d 8d 95 34 bd fd 77 08 3d
       0.04015938 0.07998456 -0.044087935 0.033317555
0000d0 3b e5 04 bd 97 b5 82 bd 10 d6 0d bd fc 98 c3 3d
       -0.032445174 -0.06382292 -0.034627974 0.09550664
0000e0 1a 9b 61 3b f2 fb 13 3c 27 1a a0 bd 6c 39 19 3d
       0.0034424723 0.009032236 -0.07817488 0.037408277
0000f0 37 da bd bd 0b f6 d4 bd 24 92 0e 3c 46 30 2f 3c
       -0.09270137 -0.103984915 0.008701835 0.010692662
000100 63 2a 02 3e 12 e3 39 3d 1e 7d 9b bc 0b 8e ee bd
       0.12711482 0.045382567 -0.018980559 -0.11648186
000110 33 e2 89 3d c8 88 a0 bb 47 ba 76 bd 6a d0 33 3d
       0.06732597 -0.004899118 -0.06023624 0.04389993
000120 2c c5 e3 3d be 88 e0 bc d5 17 88 bd 02 bf dd bd
       0.11121592 -0.027408954 -0.066451706 -0.108274475
000130 78 c7 05 be 1a 79 eb 3c 32 f6 f6 bd ba a4 c6 bb
       -0.13064373 0.02874427 -0.12058677 -0.0060621174
000140 49 8c b3 bd b9 0d 77 3d 0a 9e 97 bd 9c b3 7f 3d
       -0.08766992 0.06031582 -0.074031904 0.06242715
000150 02 d8 cf 3d b8 f6 40 bd 0c 33 16 bd 5a c9 f0 3c
       0.10148622 -0.04711029 -0.036669776 0.029392887
000160 4c 49 5c bd 77 23 23 bd e2 ec ce bd 94 4e ac bb
       -0.05378084 -0.039828744 -0.101037756 -0.0052583907
000170 15 03 27 bd 48 ae e6 bd 75 fa 47 3d c8 36 50 3b
       -0.040774424 -0.1126371 0.04882284 0.0031770933
000180 fb 2f 4d 3d dd 60 97 3d 86 17 47 3d 4f 02 02 3e
       0.050094586 0.07391522 0.048606418 0.12696193
000190 c6 48 c9 bd 62 19 1a 3b d7 6d ba 3d 57 d4 2d bd
       -0.098283336 0.0023513664 0.091029815 -0.04243883
0001a0 35 f8 ec 3a 2e 7c 08 be 3c d8 67 3d f1 b6 90 3d
       0.0018079343 -0.13328621 0.0566027 0.07066143
0001b0 30 44 0c bb 84 57 ea 3d 94 c1 cc bc 5e ed fd bb
       -0.0021402948 0.114424735 -0.024994649 -0.0077492436
0001c0 c4 b2 fc bd 38 04 6c bd b2 de 8d bd 4a 1e ce 3d
       -0.12338784 -0.05762121 -0.069272414 0.10064371
0001d0 b1 bc 3f bc 4a 78 a5 3d 64 d8 ff bd 9c 50 a3 3d
       -0.011702702 0.08079584 -0.12492445 0.079743594
0001e0 21 87 82 bc 0b d1 bd 3c c7 a5 c7 bd 09 7e 90 3c
       -0.015933575 0.023170969 -0.097484164 0.017638223
0001f0 d8 08 ce bd dc 0b 2b bd 15 1c 96 3d de fc c9 bd
       -0.100602806 -0.041759357 0.07329575 -0.09862684
000200 36 8e c9 bd b6 bc c2 bd 0e 80 9e 3d 3c d1 c4 3c
       -0.09841578 -0.0950865 0.07739268 0.024025552
000210 54 7f c5 3d 43 0e 97 bd b3 cf e3 3d 1a 31 f6 3d
       0.096434265 -0.07375767 0.111236 0.12021084
000220 0a c0 ac 3d dd 53 cd 3d 86 80 ba 3d 2d 39 90 3d
       0.08435066 0.10025761 0.09106545 0.070421554
000230 f9 0b d1 3d 00 94 44 3d 9d 84 86 bc 3f 23 e4 bd
       0.10207362 0.047992706 -0.016420657 -0.11139535
000240 af b5 38 3c 90 77 3e 3d 06 77 e5 3d ce de ba bc
       0.0112737855 0.046500742 0.112043425 -0.02281132
000250 4a f3 f5 bd b8 76 22 3d 80 34 e5 bd 24 2f 01 3e
       -0.12009294 0.039664 -0.11191654 0.12615639
000260 4d 13 c5 3d 5d 3a 8f 3d db b4 c0 bc 10 cb 9c 3d
       0.09622822 0.06993554 -0.023523739 0.076559186
000270 15 7f 08 be 9f 07 c2 bd bc 2e 09 3b c8 8c 1b be
       -0.13329728 -0.0947411 0.0020932397 -0.15190423
000280 9a 15 b3 bd 26 ed 82 bd a0 3c 65 bd 5d df a1 3c
       -0.087443545 -0.06392889 -0.05596602 0.019759828
000290 7e 8b b0 3d 0b ff 8f 3b af 4f b7 3a 36 38 dd bd
       0.08620356 0.004394417 0.001398554 -0.10801737
0002a0 ff 61 16 3c 01 27 1f 3d 5f f6 92 3d 31 d5 6f bd
       0.0091786375 0.038855556 0.07175898 -0.058552925
0002b0 6d a4 9c 3d 9a 48 e0 3d 36 c9 3f bd 08 b0 97 bc
       0.07648549 0.10951348 -0.04682275 -0.018516555
0002c0 ad 08 15 3d 17 d6 02 be 71 47 f3 bd d1 89 9c 3c
       0.036385227 -0.12776981 -0.11878861 0.019108685
0002d0 7d 80 b7 bd 58 ab 80 bd e2 50 8a 3d ce 39 8e bc
       -0.08960054 -0.06282681 0.067537084 -0.017361548
0002e0 b2 4b 38 bd d3 44 3d bc 40 18 7d bd 2f b7 cc bd
       -0.044994064 -0.0115520535 -0.061790705 -0.09995877
0002f0 54 45 d2 3c 15 70 c2 3d 0b f2 0d bd 88 c2 c9 3d
       0.025667824 0.09494034 -0.03465466 0.09851557
000300 c4 2d 65 3d 6e c1 21 bb b8 9b f5 3c 0a de 60 bd
       0.05595185 -0.0024681943 0.029981479 -0.054899253
000310 29 0b db bd ba bf 68 3d be a9 9c 3b 70 17 aa 3d
       -0.10695488 0.05682347 0.004780977 0.083052516
000320 ad 96 b7 bd cd e7 98 3b 7e 9b 07 bd ca 75 26 bb
       -0.08964286 0.0046663047 -0.033107273 -0.0025399798
000330 08 e2 c2 bd 42 89 8a 3d f3 d4 4b bc ab c3 3c bc
       -0.09515768 0.06764461 -0.012440908 -0.01152126
000340 df 33 c2 3d 23 45 e8 3d ec aa a0 3d 6d 4d 60 3d
       0.0948255 0.11341312 0.07845101 0.05476134
000350 c9 ba f2 3d e8 80 5f 3d 54 fa b0 3d 5b 66 13 3d
       0.11852033 0.054566294 0.08641496 0.035986286
000360 b2 9b 0e 3d 2d 76 c9 bd 20 ab 97 3d 3c 95 b2 3d
       0.03481645 -0.09836993 0.074056864 0.087198704
000370 f3 0c 83 bd 0c 05 47 bd e2 e1 00 3e da 26 d8 bd
       -0.06398954 -0.048588797 0.12586167 -0.10554285
000380 d5 51 63 bd a8 d3 e9 bd f5 0b a6 3d 78 6f 39 bd
       -0.055497963 -0.11417323 0.081077494 -0.04527232
000390 d7 b5 01 be fc e2 28 bd 57 44 de bc f5 38 44 3d
       -0.12667023 -0.041232094 -0.027132196 0.04790588
0003a0 e6 b0 a8 bd 0f a0 bc bd 8c 2c bd bc 5f 74 ce bd
       -0.08236866 -0.09210216 -0.02309253 -0.1008079
0003b0 4d 29 91 3d f3 70 e5 bd de 75 95 3d d6 2a 47 bd
       0.070879556 -0.11203184 0.07297872 -0.048624836
0003c0 cf ce 09 bd dd 98 56 bc 08 15 dd 3c f9 5a b0 3d
       -0.033644494 -0.013097969 0.026987568 0.08611102
0003d0 37 9e 78 3c f5 42 42 3d 04 ed df 3d a8 11 1c 3d
       0.01517444 0.047427136 0.10933879 0.038102776
0003e0 a5 98 92 38 31 30 0b bd 4a ca 73 bd 68 e5 c6 3d
       6.990255e-05 -0.033981506 -0.05951909 0.097117245
0003f0 e6 30 cf 3d e2 91 c7 3d 01 73 b9 bd 70 08 ce bd
       0.101167485 0.09744622 -0.090551384 -0.10060203

value_net.0.attention.in_proj_bias f4 [288]
000000 6f a5 e3 bb dd 82 55 bb fa 81 07 3c ef e9 84 3b
       -0.0069472115 -0.0032579221 0.008270735 0.0040562074
000010 96 a0 1c 3c be bb 69 bb 0d 80 72 3b b9 90 43 bc
       0.009559771 -0.0035664882 0.0037002594 -0.01193636
000020 f2 26 ad 3b b0 b7 33 bc d3 96 48 3a 33 f4 cc bb
       0.0052841837 -0.0109690875 0.0007651869 -0.0062546968
000030 12 f3 38 bb 49 fb e5 3b 9a a8 dd 3b e7 84 23 3c
       -0.0028221053 0.007018481 0.0067644836 0.009980417
000040 96 c6 67 3b 4f 56 66 bb 06 b4 c9 bb 05 c7 57 bb
       0.003536617 -0.0035146659 -0.0061554937 -0.0032925021
000050 90 84 c7 bb e7 d1 92 bc 45 f3 89 3a 36 b5 05 3c
       -0.0060888007 -0.017922355 0.001052477 0.00816088
000060 1a 52 70 3c 39 62 0d 3c c1 31 0f 3c 27 ac fe bb
       0.014668012 0.008629375 0.00873989 -0.007771987
000070 e0 00 4c 3a 52 8e da 3a bf c5 e1 3b 9b 2d b3 bb
       0.0007782113 0.0016674495 0.0068900282 -0.005468083
000080 e3 e9 57 bc ce 4b 39 3b c1 45 c8 3b 8c ce 9b 3b
       -0.0131783215 0.0028273943 0.006111831 0.004754847
000090 67 31 2c 3c 87 8e ed bb c1 ab a0 3c 62 aa d0 bb
       0.010509825 -0.0072496566 0.019613149 -0.0063679675
0000a0 c1 ae 43 bc f5 86 87 bc 44 3c b9 bb 0d 46 a4 3b
       -0.01194352 -0.016543845 -0.005652936 0.0050132335
0000b0 93 7d 85 bc 19 f4 b7 ba 08 29 49 bb f7 b2 2d 3c
       -0.01629523 -0.0014034539 -0.0030694623 0.010601751
0000c0 ee b1 b5 bb 23 04 1f bb 09 6f 84 3b b3 db 26 bc
       -0.0055448925 -0.002426394 0.0040415567 -0.010184216
0000d0 4e db 38 3b b4 a0 35 bc e0 ef 94 3b c5 8d be bb
       0.0028206888 -0.011085678 0.004545197 -0.00581524
0000e0 27 1e d1 bb 10 f4 2e 3b 74 84 92 bb e2 23 a1 bb
       -0.0063817683 0.0026695766 -0.004471356 -0.0049176076
0000f0 f9 b2 c8 3b ff 44 2e bc 2c 35 92 3c 8f c6 aa b9
       0.006124851 -0.010636567 0.01784762 -0.00032572864
000100 cc 4f 35 bc 60 b4 6e 3a 4b 55 0f bc 21 15 e5 3b
       -0.011066388 0.00091058575 -0.008748363 0.006991044
000110 78 fb ee bb d6 1f 8c 3b 51 0d be 3b aa 1b 1d bc
       -0.007293161 0.004276256 0.0057999273 -0.009589115
000120 47 82 68 bc 38 d8 0a bc e4 de 41 bc b8 6d 1e 3c
       -0.014191217 -0.008474402 -0.011832926 0.009669714
000130 6a 0c 55 bc c9 0a bf 3b 27 d3 06 3b eb c2 20 bb
       -0.013003448 0.005830143 0.0020572634 -0.0024530243
000140 d1 31 4b bb 78 01 d7 bc c6 03 32 bc fd 49 92 3b
       -0.0031005035 -0.026245818 -0.0108651575 0.0044643865
000150 25 d1 0d bb 71 d5 02 bb a7 d8 e0 bb 65 9a 01 bc
       -0.0021639552 -0.0019963647 -0.0068617645 -0.007910346
000160 0d 12 d5 3a 01 ab d1 3a de 40 9f 3c d1 68 af 3b
       0.001625599 0.0015996398 0.01944011 0.0053530713
000170 19 cc 3e bc f6 81 29 bc 46 1b 6c 3c 24 f5 85 3b
       -0.01164534 -0.0103459265 0.014410799 0.004088061
000180 01 7c 12 36 27 98 b6 36 06 dd 28 b7 fc ee df b6
       2.1827875e-06 5.4417355e-06 -1.0065041e-05 -6.6737393e-06
000190 77 78 93 b5 36 a3 72 b7 c4 95 97 36 8b 87 b8 b6
       -1.0987413e-06 -1.44623245e-05 4.5175857e-06 -5.4994066e-06
0001a0 bb 1d c0 35 08 68 c8 36 a5 fc c9 36 ec 16 00 b6
       1.4313767e-06 5.9725753e-06 6.0196785e-06 -1.9086829e-06
0001b0 1a 41 5a b7 69 7e 0a b7 f3 28 57 b7 54 47 4a b7
       -1.300897e-05 -8.254873e-06 -1.2824533e-05 -1.2056746e-05
0001c0 fc 59 23 37 36 bd 36 36 70 82 1a 36 7e 19 35 37
       9.736508e-06 2.7230249e-06 2.3023713e-06 1.0794376e-05
0001d0 71 e5 bc b6 69 62 4f 36 b5 8b 80 b7 94 73 0e b6
       -5.629547e-06 3.0902686e-06 -1.5323845e-05 -2.1226924e-06
0001e0 7b bd 41 37 e1 f9 86 b7 47 83 42 b5 85 46 31 36
       1.1547813e-05 -1.6090404e-05 -7.2461665e-07 2.6416103e-06
0001f0 b4 ff 06 38 c0 d2 0b 35 12 e2 b1 36 bd 31 af 37
       3.218623e-05 5.2088217e-07 5.301329e-06 2.0884787e-05
000200 bc 47 94 b7 d0 f5 11 b8 f1 72 2f b7 6c bd 09 37
       -1.7676379e-05 -3.4799625e-05 -1.0457575e-05 8.20994e-06
000210 ea 81 9c b7 a2 9a 10 b8 dc c1 da b6 9f 9a 94 36
       -1.8657145e-05 -3.447629e-05 -6.5194745e-06 4.428744e-06
000220 ae 5d 34 37 71 65 9e 36 89 cc b2 36 f2 e0 11 b7
       1.0750648e-05 4.7205763e-06 5.3286244e-06 -8.695048e-06
000230 1c 1f 76 b7 00 b8 57 35 5b 80 de 35 c8 ff 03 38
       -1.4669986e-05 8.0361497e-07 1.6577645e-06 3.147105e-05
000240 e7 13 08 37 fc 3d 86 37 84 47 0b b7 f5 1b 55 37
       8.110866e-06 1.6002909e-05 -8.301697e-06 1.2702299e-05
000250 af 93 e8 b4 11 8a 57 36 2b c0 74 37 73 b1 20 b5
       -4.332082e-07 3.2117862e-06 1.4588276e-05 -5.986287e-07
000260 9d cc 01 36 3d 02 80 b7 0d 6e af 37 b7 84 8b 35
       1.9341599e-06 -1.5259831e-05 2.0912872e-05 1.0394932e-06
000270 32 0a 6f b6 40 cf 22 b6 24 3d 39 36 65 cb 59 36
       -3.561971e-06 -2.4260517e-06 2.7602737e-06 3.245391e-06
000280 4f c3 cb b7 a0 c1 8e b7 22 04 6c b6 d9 48 f4 36
       -2.4290433e-05 -1.7017883e-05 -3.5169146e-06 7.2802472e-06
000290 be 0e 8b b7 70 9a 4e 37 56 51 a6 36 6f de 8a 35
       -1.6576956e-05 1.2314515e-05 4.9566543e-06 1.0346538e-06
0002a0 3d 8b 1a 37 ae fb e3 b5 0e 49 2f 37 8c b7 f3 35
       9.211534e-06 -1.6986066e-06 1.0447822e-05 1.815833e-06
0002b0 78 e3 28 36 58 92 48 37 b3 52 b9 36 19 4d 1d b7
       2.5166355e-06 1.1955002e-05 5.523057e-06 -9.37588e-06
0002c0 6f 22 37 b7 29 7b de 36 21 08 c9 36 04 44 cd 36
       -1.0915667e-05 6.6304533e-06 5.991213e-06 6.117394e-06
0002d0 6e 66 06 b7 ca 86 20 b7 36 26 3f 36 a8 8b 9a 36
       -8.010871e-06 -9.568126e-06 2.848346e-06 4.605816e-06
0002e0 05 c2 79 b6 30 54 4e b7 73 96 14 b7 5b 35 54 b6
       -3.7216826e-06 -1.2298158e-05 -8.856517e-06 -3.1621519e-06
0002f0 f8 d0 70 36 83 ca 9e 36 1f 8b 8e 36 08 f3 94 b5
       3.5884423e-06 4.7323424e-06 4.2481256e-06 -1.1097591e-06
000300 36 c7 eb bb 49 f8 42 3c 23 77 10 3c dc 27 8f 39
       -0.0071953787 0.011900016 0.008817467 0.00027304783
000310 8b 09 d0 3b a4 67 1b bc 25 52 5c 3b b1 5f fc bb
       0.006348794 -0.009485159 0.0033618298 -0.007701837
000320 e2 39 16 bb 33 75 c7 3b 6f 24 29 ba 7a 6d ae 3c
       -0.0022922684 0.0060869693 -0.00064522674 0.021292437
000330 93 11 32 bb e8 0a 17 3c 0b ef 28 bc bd 8a 22 3c
       -0.002717112 0.009218909 -0.010310899 0.009920773
000340 50 ae 57 3c ab a4 9f 3b 70 74 e4 3b c0 aa 53 bc
       0.013164118 0.004871925 0.0069718882 -0.012919128
000350 82 a0 e2 bb e2 6a 6d bb 8f b3 26 3b 26 e6 31 bb
       -0.0069161067 -0.0036227037 0.0025436615 -0.0027145236
000360 e7 fb 28 bb 92 3f 32 bc 7b 73 72 3b 02 2b 9e 3b
       -0.002578491 -0.010879414 0.0036995101 0.0048269043
000370 74 93 af 3b 96 b7 ea bb f5 f9 68 3c e9 8b 16 bc
       0.005358154 -0.0071629984 0.014219751 -0.009188631
000380 a6 87 f7 3b 7a d4 e3 3b 26 63 68 bb 54 49 8b bb
       0.0075540124 0.0069528194 -0.0035459488 -0.0042506848
000390 46 bb 23 3c 3b a3 cb 3b 1a 9a 0f 3a fe f3 38 3b
       0.00999338 0.006214527 0.000547798 0.0028221603
0003a0 c5 93 27 bc b0 25 18 3c 32 fa 34 bc 19 96 88 ba
       -0.010228102 0.009286329 -0.011045979 -0.0010420709
0003b0 a6 57 db b9 bb 63 b0 3b 07 a7 c8 bb 9c af b6 bb
       -0.00041836238 0.0053829825 -0.006123427 -0.0055751335
0003c0 82 bc 09 3c c1 e1 3e 3c 1b 7a 08 3b 5d 66 11 bc
       0.00840676 0.011650504 0.0020824734 -0.008874503
0003d0 b0 3d 1b bc 64 fb 01 bc 48 cc a6 3b d4 b6 eb 3b
       -0.009475157 -0.007933471 0.00509027 0.0071934257
0003e0 85 54 9f 3a 32 27 03 3c 17 50 5b bb 9b 85 48 3c
       0.0012155926 0.00800495 -0.0033464485 0.012238885
0003f0 3b db 2d bb 9a 3b ff 3b 82 9e 07 bb b7 80 0f 3c
       -0.0026528377 0.0077890875 -0.0020693843 0.008758715

value_net.0.attention.out_proj.weight f4 [96, 96]
000000 36 87 99 bd a8 80 51 bd 3f 9a 7b 3d 91 0b 4b bc
       -0.074964926 -0.051148087 0.061426397 -0.012392894
000010 ee af 45 3d 69 21 88 3d 5d 17 3e bd 76 c6 a8 bc
       0.048263483 0.066469975 -0.046409 -0.020602446
000020 e0 b3 9a bd d2 84 40 bd 79 ab dd 3c fe c0 82 bc
       -0.0755384 -0.047001667 0.027059304 -0.015961166
000030 02 00 b5 3d 4b 99 af 3d 4a 43 35 3b d3 0f dc bc
       0.08837892 0.0857416 0.0027658516 -0.026863014
000040 e9 74 12 3d 89 21 8e bd 77 9f 74 bb 51 27 5f 3d
       0.035756025 -0.0693999 -0.0037326494 0.054480854
000050 49 d0 c3 3d 5b b7 8d bc 78 44 c5 bb 73 8b 9b bd
       0.095612116 -0.017299345 -0.006020125 -0.07594957
000060 d7 13 0a bd 1d af 80 3d 71 f8 cf bd bb 96 73 3d
       -0.033710327 0.062834 -0.10154808 0.05946992
000070 f0 b0 13 bd 86 86 83 bc fb cb 65 bd 9b cd 6e ba
       -0.036057413 -0.016055357 -0.056102734 -0.0009109617
000080 ab 3c ba 3c 3a 3b 91 bb 53 5c 8f bd 1b c3 82 3d
       0.022734007 -0.004432109 -0.07000031 0.0638487
000090 33 5e 03 3c c1 f8 7c 3d 2c b2 dd bc 30 3d b1 bd
       0.008018064 0.061760668 -0.027062498 -0.08654249
0000a0 cd 95 00 3d ff 18 75 bc f4 f5 3e bd 21 cd c2 3d
       0.03139286 -0.014959573 -0.046621278 0.095117815
0000b0 db c1 f0 3b 78 37 b1 bd 8b 6c a8 3c 4a bb eb bc
       0.007347328 -0.08653158 0.02055957 -0.02877583
0000c0 76 a7 5e bc 33 08 6f 3d 48 22 a1 bd 89 27 a5 bc
       -0.0135897305 0.05835743 -0.07867867 -0.020160453
0000d0 fb a9 ac 3d 4e 1e 30 3d 6b 40 f3 b9 d3 8a 34 3d
       0.08430859 0.04299765 -0.00046396567 0.044077706
0000e0 20 3f 7b bc af 37 30 bd 96 24 c5 3d 32 51 8e 3a
       -0.015334874 -0.043021854 0.09626119 0.0010857938
0000f0 da a3 cc bd b4 8b f0 bc 98 89 a1 3d d3 f0 56 3d
       -0.0999219 -0.02936349 0.07887572 0.05247576
000100 da 0d ae bb 55 a6 8c bd 15 34 f3 ba ea 75 2a bd
       -0.00531171 -0.06867663 -0.001855495 -0.041616358
000110 57 b1 d2 bd 03 9f c3 3c 31 81 1e 3d cf b1 cf 3d
       -0.10287731 0.023879534 0.038697425 0.10141336
000120 42 c2 12 bd 65 93 3d 3d 86 3b 37 3d 3f df a0 bc
       -0.03582979 0.046283145 0.0447345 -0.019637702
000130 04 a6 76 3c fe 34 60 3d 5d 36 e6 3c ea c2 77 3c
       0.01505423 0.054738037 0.028102094 0.015122155
000140 a3 d2 3d 3d c2 f8 33 3d eb 35 e3 bd 43 7a b0 3d
       0.046343457 0.043938406 -0.110942684 0.086170696
000150 bd 45 a7 bc 35 8e 28 3d 63 22 1e bd 22 4b f4 bc
       -0.020418996 0.041151244 -0.038607012 -0.029820982
000160 0a 49 c4 bd e0 5b 80 bc ca 2a 95 3d cd cd 90 bd
       -0.095842436 -0.01566881 0.07283552 -0.070705034
000170 a2 1b 8c bb 27 27 87 bd 2f e2 05 bd d2 58 b3 bd
       -0.004275755 -0.065992646 -0.03268641 -0.087571755
000180 b3 cd 89 bd 8c e5 76 3c fc 70 a6 bd 44 5e ad 3c
       -0.06728687 0.015069377 -0.08127019 0.021163113
000190 ab 99 38 bb d6 f8 a0 ba 94 a3 98 bd ad 36 72 bd
       -0.0028167765 -0.001228119 -0.07453075 -0.059134174
0001a0 c2 20 60 bd 9b 95 4a bd f8 54 07 3d b2 a3 a2 bd
       -0.05471874 -0.04945908 0.033040017 -0.07941379
0001b0 4b e8 07 bd 6d 9d 53 bd 54 1f 33 bc 1e 1d cf 3d
       -0.033180516 -0.051663805 -0.010932762 0.101129755
0001c0 f1 b2 8f 3c 2e 8d 32 3c 01 26 5a bd 31 53 9e bd
       0.01754138 0.010897918 -0.0532589 -0.07730711
0001d0 d2 fb 19 bd d5 fa 73 3d 1f a4 00 3c 8e ab dc bc
       -0.03759367 0.059565384 0.0078516295 -0.026937272
0001e0 ea 14 0e bd b5 a7 0d bd d4 76 a8 bd 8f bd 91 bd
       -0.034687914 -0.034583766 -0.0822579 -0.071162336
0001f0 66 90 b8 38 62 2e 32 bd 2b af a7 3d e7 3a 86 3c
       8.8007e-05 -0.043501265 0.081877075 0.016385509
000200 c3 e3 8f 3d 59 6e e0 bc 35 c4 55 3d 9b c8 94 3d
       0.07025864 -0.027396368 0.05218907 0.07264825
000210 43 c7 a6 3d c0 32 64 bd 15 9d 12 bd 5d ad a5 3d
       0.08143475 -0.05571246 -0.035794336 0.08089707
000220 68 c0 77 bd 21 2b 72 bd 22 ff 94 bd d3 24 87 3d
       -0.060486227 -0.059123162 -0.07275225 0.065988205
000230 27 de 3a bd 1d f1 98 3b d4 29 fc 3c 31 73 45 bd
       -0.045622017 0.004667415 0.030781664 -0.04820556
000240 73 74 95 3d c3 ad 7d 3d 0c 0a 56 bd 87 17 92 bd
       0.072976016 0.06193329 -0.052255675 -0.07133394
000250 cf f8 be bd 14 74 00 bd cc 27 a3 3d 53 59 66 3d
       -0.093248 -0.0313607 0.07966575 0.05623753
000260 b6 ac 93 bd a9 64 c3 bd 06 9e 03 bb 59 6b 7a bd
       -0.07210676 -0.09540684 -0.0020083203 -0.06113753
000270 20 0c 31 bd e1 7e 28 bc 87 9f c0 bc 7f 8b 79 bd
       -0.043224454 -0.010284157 -0.023513569 -0.06092405
000280 10 8b 90 bc 2f 8a 7a bb 74 ff 7b 3d 0b 07 41 bd
       -0.017644435 -0.0038229336 0.061522916 -0.047125857
000290 5a f1 aa 3d db ae 70 bd c9 be bf 3d ca 06 6d 3c
       0.083468154 -0.058760505 0.09362561 0.014466951
0002a0 ca 2c 8c 3d 76 74 9e 3d 85 38 72 bd 4c c6 9c bd
       0.0684448 0.07737057 -0.059135932 -0.076550096
0002b0 19 34 92 3d 88 cb b2 3d 0e 00 e1 3c e1 58 27 bd
       0.07138843 0.08730227 0.027465846 -0.040856246
0002c0 e6 bf 27 3d ed 8f 99 bc dd 9e b9 3d 09 2f ce 3d
       0.040954493 -0.018745387 0.09063504 0.10067565
0002d0 fe 11 b2 bc 9f e5 16 3d 91 de d8 bd 1f 5a 27 bd
       -0.021737095 0.036840077 -0.10589326 -0.04085743
0002e0 61 e2 2b bc 04 53 5c 3d 4b ac f5 bc ba 47 2e 3c
       -0.010490985 0.053790107 -0.029989382 0.010637218
0002f0 42 94 87 3d c2 54 c1 bd fa 53 82 3c 8c eb a3 bd
       0.06620075 -0.094399944 0.015909184 -0.080039114
000300 47 f9 71 3d d1 54 80 bd c8 2e a9 3d b9 56 ac bd
       0.05907562 -0.062661774 0.08260876 -0.084149785
000310 f6 96 5d 3d 90 88 8e bd 02 47 19 bd 6d c0 ad bd
       0.054099046 -0.06959641 -0.037421234 -0.08483968
000320 6c 25 7b 3d 73 af ac ba 04 f4 c0 bd d2 3d 79 bd
       0.061314985 -0.0013174847 -0.09421542 -0.060849972
000330 d2 71 8d bd 54 c8 81 3d f2 be 7d 3d 40 f2 b1 bd
       -0.06906475 0.06337038 0.061949678 -0.08688784
000340 0c 96 61 bc 7f c9 97 3d 59 49 ad 3d 35 71 3f bd
       -0.013768684 0.07411479 0.084612556 -0.046738822
000350 03 e3 2d 3d fa 15 05 bb 2c 1e e3 bc 2a bd 80 bd
       0.042452823 -0.0020307289 -0.027724348 -0.0628608
000360 5c 84 c0 bd bf a4 94 bc d2 fb bb 3d 33 71 0a 3d
       -0.094002455 -0.018144963 0.0917889 0.03379936
000370 11 7f a8 bd 88 a6 53 bd 2e 62 bd bd 62 70 4a 3c
       -0.08227361 -0.05167249 -0.09247242 0.012355896
000380 34 40 f9 bc aa 70 5a 3d 9c 36 14 3d 79 71 de bd
       -0.030426122 0.0533301 0.036184892 -0.10861487
000390 9e b3 ad bd b7 36 8a bd 69 4b a0 bd 25 31 c7 3d
       -0.08481525 -0.06748717 -0.07826883 0.097261705
0003a0 c0 71 5f bd 86 26 24 bc cd 36 d4 3c 0f 48 4b 3d
       -0.05455184 -0.01001895 0.025905037 0.049629267
0003b0 73 0a 68 3d 1d 9f 8e bd 20 ca f2 bc 06 4c b4 3d
       0.05665059 -0.06963942 -0.029637396 0.08803563
0003c0 83 99 8c bc a4 ba b5 3d aa 1a 89 bd bb dd 22 bd
       -0.017163044 0.088734895 -0.06694539 -0.03976224
0003d0 d1 a4 ce 3c 2e 84 58 3d d5 61 14 bd 16 11 8d bd
       0.025225075 0.05286043 -0.036226112 -0.068880245
0003e0 1d 73 a1 bd 30 49 1c bd cc a6 48 3c e7 f6 6c bd
       -0.07883284 -0.038155735 0.012246799 -0.057852652
0003f0 50 b6 1d bc 0e 21 1d bd ed fa a3 3c 3b 08 01 3d
       -0.009625986 -0.0383616 0.020017112 0.03150199

value_net.0.attention.out_proj.bias f4 [96]
000000 3c 80 71 bb 5b 48 9f 39 86 03 1c bc 56 ba e0 ba
       -0.0036850115 0.00030380752 -0.009522324 -0.0017145376
000010 1b 79 12 bc 9d fd 00 3c ab 94 d9 bb bd 32 41 ba
       -0.008940007 0.007872966 -0.006640037 -0.00073699263
000020 2f 4d 27 bc 30 3c 0a 3b b6 a3 32 bc 04 55 9d bb
       -0.010211273 0.0021093003 -0.01090329 -0.0048013944
000030 fe 40 ad bb 49 11 68 bb 31 6d 60 3c b1 ff f6 bb
       -0.0052872887 -0.0035410693 0.013697908 -0.007537805
000040 5e 6f 9c 3b 36 60 06 bc 81 22 2b 3c 59 8c e2 bb
       0.004774018 -0.008201649 0.010445238 -0.0069137034
000050 d5 87 0b bb 00 30 a3 bb d5 9c 24 3c f1 7b 83 3c
       -0.002129068 -0.0049800873 0.010047157 0.01605031
000060 c5 91 79 3b 0e 6f 32 bc 42 97 4b 3c 1e d7 13 bc
       0.003808127 -0.010890735 0.012426199 -0.009023456
000070 21 75 8d bb a2 83 71 3c 27 e0 54 bb 9a b2 42 3c
       -0.0043169414 0.014740856 -0.0032482238 0.011883402
000080 20 69 ee 3b b7 57 01 bc e4 25 6c bc 00 70 1a bc
       0.0072757155 -0.007894448 -0.014413331 -0.009426117
000090 08 c4 bf 3b 69 54 1a bc ef 5b 3e bc 66 88 ec 3b
       0.005852226 -0.009419539 -0.011618598 0.0072184084
0000a0 93 06 09 b9 f6 7b 4d bc d8 5a 3e 3c c5 44 9f bc
       -0.00013067787 -0.012541762 0.0116183385 -0.019441972
0000b0 90 c7 b0 3b 9e 0e 1d bc dc a4 ed 3b 60 80 7a bb
       0.0053948835 -0.009586005 0.007252319 -0.003822349
0000c0 b2 01 c1 bb 87 67 3f 3b 39 85 1e bc 9f f0 ba 3b
       -0.0058900947 0.0029205994 -0.009675317 0.005704954
0000d0 46 d0 82 bb bd 7c a3 3b f6 c6 73 3b 56 07 c8 bb
       -0.0039921133 0.004989235 0.0037197447 -0.00610439
0000e0 0b bd 48 3a de cd 94 3a ab 9a 0e 3c 37 98 ea 3b
       0.0007657564 0.0011352857 0.008703868 0.0071592587
0000f0 20 20 53 3b 4b d1 02 bc 54 55 22 3c ad 49 19 b9
       0.0032215193 -0.00798447 0.009908039 -0.00014618663
000100 33 33 b6 3b e0 71 4d bc 49 ad e6 ba 2f 41 b1 3a
       0.0055603026 -0.012539357 -0.001759925 0.0013523455
000110 04 e6 07 3c 74 3f 6f 3b 26 b5 67 bb 39 d9 56 3c
       0.008294586 0.0036506327 -0.0035355776 0.013113313
000120 fe 43 ca bb e8 c6 fa 3b ca 48 0b 3c e6 2f 47 3c
       -0.006172656 0.007653106 0.008501241 0.012157416
000130 d8 f9 c5 3b 0a 8c ee 3b be 24 91 3c cf c8 c7 bc
       0.0060417466 0.0072798776 0.017717715 -0.024387745
000140 8b fd e1 ba 82 9c 04 bc 87 c8 23 3a 4a c7 c4 bb
       -0.0017241699 -0.008093955 0.00062478374 -0.0060052024
000150 09 16 36 39 32 02 7d bc 9b f4 2b 3c 7e 22 db 3b
       0.00017365081 -0.015442418 0.01049533 0.0066874614
000160 2b 7f 36 3c ca 82 27 bb 0d 1c 0e 3c 00 a0 9e 3b
       0.011138718 -0.0025560134 0.00867368 0.004840851
000170 6d 27 d9 3b e1 b6 1b bc 88 fb 30 3b 07 c9 e4 3b
       0.0066270144 -0.009504051 0.0027005393 0.006981972
