scripts/models/602/34/1/vModel.pth (torch, 264307 bytes, 11 tensors)

value_net.0.input_layer.weight f4 [96, 128]
0	0x3d16f6bd	0.0368564
1	0x3cab8a0c	0.02093985
2	0xbd803256	-0.06259601
3	0xbd1721b6	-0.036897384
4	0x3cde0394	0.027101316
5	0xbd9838eb	-0.07432731
6	0xbc8df174	-0.017327048
7	0xbd9cef09	-0.0766278
8	0x3d3f84d4	0.046757534
9	0x3d87b59e	0.066264376
10	0x3d996421	0.07489801
11	0xbd173a73	-0.036920976
12	0x3d3eb886	0.046562694
13	0xbcffbb3e	-0.031217214
14	0xbcfc38fa	-0.030788887
15	0x3adbecf3	0.001677899
16	0xbd88528b	-0.06656369
17	0xbd821f6d	-0.0635365
18	0xbd11bc47	-0.035579946
19	0xbd70dd07	-0.058804538
20	0x3daddb99	0.084891506
21	0xbd44fe10	-0.048093855
22	0xbd88e8bf	-0.06685018
23	0x3d74d285	0.05977108
24	0x3d7702c0	0.060305357
25	0x3bcfa161	0.0063363765
26	0x3c298974	0.010347713
27	0xbd055a70	-0.03255695
28	0x3c0494ab	0.008092086
29	0x3c33ce03	0.01097441
30	0x3dbe47c8	0.09291035
31	0xbb0c1a81	-0.0021378102
32	0x3d803b1e	0.06261276
33	0xbc296f89	-0.010341533
34	0x3b8716fd	0.0041226135
35	0x3cb4ee30	0.022086233
36	0xbd576f58	-0.05259642
37	0x3cb8818b	0.022522708
38	0x3d4fa466	0.050693892
39	0x3d2e71c7	0.042588975
40	0xbdc6ed36	-0.09713213
41	0x3d6212a0	0.055193543
42	0xbd64bbb9	-0.05584309
43	0xbd9e7e4d	-0.07738934
44	0x3cbcc465	0.023042867
45	0xbd8ef171	-0.06979645
46	0xbca264d2	-0.019823465
47	0x3d350dfa	0.044202782
48	0x3d77535d	0.060382236
49	0xbda030eb	-0.0782183
50	0x3d0612e9	0.032732878
51	0x3d95d799	0.073165126
52	0x3d4af312	0.049548216
53	0x3d92cebd	0.071683384
54	0x3d7e080b	0.06201939
55	0x3d3e8f4c	0.046523377
56	0xbc4248f5	-0.011858215
57	0xbc1b74bf	-0.009488284
58	0x3c83ca24	0.0160876
59	0x3c41b825	0.011823689
60	0xbcd95fa1	-0.026534857
61	0x3d954d90	0.072901845
62	0x3d8890e4	0.06668261
63	0x3ca90929	0.02063425
64	0x3cd92200	0.02650547
65	0xbd90326d	-0.07040868
66	0xbcff3da5	-0.031157324
67	0x3c6e4f4b	0.014545272
68	0x3c35ae99	0.011088991
69	0xbcbfbf6a	-0.023406703
70	0x3d02595a	0.031823494
71	0xbd67637b	-0.056491356
72	0x3d58c8ae	0.052925758
73	0x3d82fda4	0.06396034
74	0xbb792495	-0.003801619
75	0x3cf581b2	0.02996907
76	0xbcbf6117	-0.023361726
77	0x3caafe5e	0.020873245
78	0xbc5f7430	-0.013638541
79	0x3cb8cb0e	0.022557762
80	0xbc5ad3a9	-0.013356128
81	0x3c26b12d	0.010174078
82	0x3af7d795	0.0018908853
83	0x3d87a612	0.06623472
84	0xba8aaa50	-0.0010579322
85	0xbd9d1a4f	-0.076710336
86	0xbda71036	-0.08157389
87	0xbd5aed5a	-0.053449012
88	0x3c8747c9	0.016513722
89	0xbda7cc10	-0.08193219
90	0xbd40e672	-0.04709477
91	0x3c97d57e	0.018534418
92	0x3d87e0f0	0.066347
93	0x3aa1e7d8	0.001235242
94	0xbd34943d	-0.044086684
95	0xbd416761	-0.04721773
96	0xbc7fdf5a	-0.015617216
97	0x3d98f82b	0.07469209
98	0x3d0c7619	0.034292314
99	0xbda375df	-0.079814665
100	0xbc823b98	-0.015897557
101	0xbd8d200a	-0.068908766
102	0x3c28b54b	0.01029713
103	0x3d5373bb	0.05162404
104	0x3da2d198	0.07950133
105	0xbc3adaf0	-0.011404738
106	0x3d812bfc	0.063072175
107	0xbbcfad85	-0.006337824
108	0x3d9d8b59	0.07692594
109	0xbdd4f742	-0.10398723
110	0xbc0edbb9	-0.008719378
111	0x3d192cd3	0.037396263
112	0x3dbd70b2	0.092500106
113	0xbd6bc617	-0.05756196
114	0xbd9f70fc	-0.07785222
115	0x3da719ae	0.08159195
116	0x3d238654	0.039923027
117	0x3ce7ecf5	0.028311232
118	0x3d1a231c	0.03763114
119	0xbc6a1c14	-0.014288921
120	0xbda35753	-0.0797564
121	0x3d2f6569	0.04282132
122	0xbdaf7d82	-0.085688606
123	0x3cbfdcaf	0.02342066
124	0x3d7da58a	0.06192545
125	0x3d330534	0.043706134
126	0x3b603985	0.0034213972
127	0xb92c9018	-0.00016456877
128	0xbd9d4136	-0.076784536
129	0xbd925dfd	-0.07146833
130	0xbd960579	-0.073252626
131	0xbd2d80f5	-0.04235931
132	0x3d87e537	0.06635516
133	0x3d504404	0.050846115
134	0x3bc4209a	0.0059853317
135	0xbd429c22	-0.04751218
136	0x3be61e4b	0.007022654
137	0xbcbc1bad	-0.022962416
138	0xbc8df7cf	-0.017330078
139	0x3d92e033	0.07171669
140	0x3d4552f8	0.04817483
141	0xbd4ea4b7	-0.050450053
142	0xbc94d28c	-0.018166803
143	0x3d7f34a2	0.062306054
144	0xbcf7bfc0	-0.0302428
145	0xbdaad71e	-0.083418116
146	0x3d0ca3ed	0.03433602
147	0x3d848edd	0.064725615
148	0xbd6a1c12	-0.057155676
149	0xbd1aaabe	-0.03776049
150	0xbcea6edb	-0.028617313
151	0xbd690a51	-0.056894604
152	0xbd262732	-0.040564723
153	0xbd026a6e	-0.03183978
154	0xbd0765a5	-0.03305592
155	0x3d20d757	0.039267864
156	0xbd205a19	-0.039148424
157	0x3d603d64	0.054746047
158	0x3d2de9e2	0.042459376
159	0x3d57aa0b	0.0526524
160	0xbd4e0b24	-0.050303593
161	0xbd360009	-0.044433627
162	0x3cc17b31	0.023618313
163	0x3c759e16	0.014991304
164	0x3b9fce01	0.0048768525
165	0xbd8ff99d	-0.07030032
166	0xbd862489	-0.06549937
167	0xbd4ec078	-0.05047652
168	0xbb76859b	-0.0037616256
169	0x3a058e04	0.00050947093
170	0x3d8b6c26	0.06807737
171	0xbd47999e	-0.048730485
172	0xbca220bd	-0.019791001
173	0x3c112bfc	0.008860584
174	0xbd91e8b8	-0.07124466
175	0xbdb448d2	-0.08802952
176	0x3bd98b81	0.0066389446
177	0xbc831831	-0.016002746
178	0x3cf27689	0.029597538
179	0xbc058b20	-0.008150846
180	0xbd83fbc5	-0.064445056
181	0x3d900257	0.07031696
182	0xbc8d43ca	-0.017244238
183	0xbce63dbe	-0.028105613
184	0x3cbf9bf2	0.02338979
185	0x3cc16a55	0.023610273
186	0x3d1d29f1	0.038370077
187	0x3d07b395	0.033130247
188	0xbca3a6cc	-0.019976996
189	0xbc57e4b0	-0.013177082
190	0x3d546b2c	0.05186002
191	0xbc2f6e5c	-0.010707464
192	0xbc8b1e61	-0.01698226
193	0x3d555198	0.052079767
194	0x3d9c6b46	0.07637648
195	0x3d9b4a48	0.075825274
196	0xbd0d419d	-0.0344864
197	0xbd00c7ee	-0.031440668
198	0xbc137c51	-0.009001807
199	0x3c52ae37	0.012858919
200	0xbcd2f1c0	-0.025750041
201	0x3d71fa62	0.059076674
202	0x3d942194	0.07232967
203	0xbccb2f9b	-0.024802973
204	0xbd9645aa	-0.07337506
205	0xbc2e1f0e	-0.010627521
206	0xbca6d2dd	-0.02036422
207	0x3d5532f5	0.05205055
208	0x3d89ba95	0.06725041
209	0x3d74c2c8	0.05975607
210	0xbd7f87fd	-0.062385548
211	0xbd53c52d	-0.051701713
212	0x3d28568f	0.041098174
213	0xbdac73ad	-0.08420501
214	0xbd43be33	-0.04778881
215	0x3d4e8a45	0.050424833
216	0xbd88f9ae	-0.066882476
217	0xbb43dfba	-0.002988799
218	0x3cc21d8a	0.023695726
219	0xbcae24ac	-0.02125772
220	0x3bc2bd21	0.005942956
221	0x3c650805	0.013978963
222	0xbd819260	-0.06326747
223	0xbd223d8c	-0.039609477
224	0x3d9060af	0.07049691
225	0xbc2ded02	-0.010615589
226	0xbbfe0d40	-0.0077530444
227	0x3c8b331b	0.016992142
228	0x3d5792c0	0.052630186
229	0xbd7bee8b	-0.06150679
230	0x3ca6a224	0.020340987
231	0xbd6d5a97	-0.05794772
232	0xbad48c09	-0.001621605
233	0x3d40a962	0.047036536
234	0xbd8f3f64	-0.06994513
235	0x3d823b35	0.06358949
236	0x3d98fb05	0.07469753
237	0x3da53282	0.08066274
238	0xbd83d00f	-0.064361684
239	0x3caf166a	0.021372993
240	0x3ca0c923	0.01962716
241	0x3d23ea15	0.04001816
242	0xbd269fc4	-0.040679708
243	0x3d11c8f0	0.03559202
244	0x3c8d1e05	0.017226228
245	0xbd08fd9f	-0.033444997
246	0xbd8f7ef0	-0.07006633
247	0x3b9fec18	0.0048804395
248	0xbd89d6f7	-0.067304544
249	0xbdaafef5	-0.083494104
250	0xbd4af945	-0.04955413
251	0x3d04f6fa	0.032462098
252	0xbcf7f4d0	-0.030268103
253	0x3d0bd2ca	0.03413657
254	0xbd07bb47	-0.033137586
255	0xbbf786a7	-0.0075538936

value_net.0.input_layer.bias f4 [96]
0	0x3d8849d0	0.066547036
1	0x3d9dd55b	0.0770671
2	0xbdaefb4e	-0.08544026
3	0x3d7c00bf	0.06152415
4	0x3c8d0627	0.017214848
5	0xbcb38e27	-0.02191837
6	0xbdaa4fc4	-0.08315995
7	0xbb7af778	-0.0038294476
8	0xbc5a6743	-0.013330284
9	0x3c628e32	0.013827847
10	0xbcb20fb4	-0.021736003
11	0x3c8c37b6	0.017116409
12	0xb8806c62	-6.1237035e-05
13	0x3d7ee3d9	0.06222901
14	0x3d93257a	0.071848825
15	0x3cf347f0	0.029697388
16	0xbd35cffa	-0.044387795
17	0xbd0c0671	-0.03418583
18	0xbc156091	-0.0091172615
19	0x3d98f682	0.07468893
20	0xbb821f94	-0.0039710496
21	0x3d5e1a36	0.054224215
22	0xbd9a37b1	-0.075301535
23	0x3d916822	0.0709994
24	0x3d14a94f	0.036294278
25	0xbd9917f8	-0.07475275
26	0xbd8fd76e	-0.07023512
27	0xbdcb4366	-0.099249646
28	0xbd95d8c6	-0.07316737
29	0xbdc39521	-0.095499285
30	0x3da3a347	0.07990127
31	0x3d676b08	0.056498557
32	0xbd92f7cf	-0.07176172
33	0xbbb3661a	-0.005474818
34	0x3ca7b3d8	0.020471498
35	0xbd8c1240	-0.068394184
36	0x3d6910de	0.05690085
37	0x3d6c7320	0.05772698
38	0x3cc447fa	0.023960102
39	0x3cf3e273	0.029771065
40	0x3d986e9f	0.07442974
41	0xbca5d5d6	-0.020243566
42	0x3d389868	0.04506722
43	0x3d3de37a	0.046359517
44	0xbdcb99da	-0.09941454
45	0xbc9cb869	-0.019130902
46	0xbda8ef39	-0.08248753
47	0x3d2c5c1f	0.04208004
48	0xbda2bb5e	-0.07945894
49	0x3db26128	0.08709937
50	0x3d8900f7	0.06689637
51	0xbdb7b215	-0.08969513
52	0x3bb3cca3	0.005487041
53	0x3d934589	0.07190997
54	0x3d7b89a1	0.06141055
55	0x3d03188c	0.03200583
56	0xbc8790d8	-0.01654856
57	0x3d908fe8	0.07058698
58	0x3bb5eb4d	0.0055517317
59	0xbd05cb7b	-0.032664757
60	0xbb02277f	-0.0019859967
61	0x3d826997	0.06367796
62	0xbd9de9d9	-0.077106185
63	0x3d8a8259	0.06763143
64	0xbc7e3ca9	-0.015517392
65	0xbc379b75	-0.011206497
66	0xbd108d06	-0.03529074
67	0x3c886da8	0.01665385
68	0x3d960927	0.073259644
69	0x3d85f9c2	0.06541778
70	0xbae7f5eb	-0.0017697191
71	0x3d1a6a9d	0.03769933
72	0x3d869922	0.065721765
73	0x3da0c309	0.078497
74	0xbcbf807f	-0.023376701
75	0x3d355e9b	0.044279676
76	0xbd019d1d	-0.031643976
77	0x3d9dd6e2	0.07707001
78	0xb96e721b	-0.00022739956
79	0x3cfbc2bd	0.030732507
80	0x3d8b585d	0.06803963
81	0xbdcc1359	-0.09964628
82	0x3d38bdb2	0.045102783
83	0x3d704547	0.058659818
84	0xbbde97cb	-0.0067929975
85	0x3d702bab	0.058635395
86	0xbd999f29	-0.075010605
87	0x3c74f169	0.014950135
88	0x3d8d8f2d	0.06912074
89	0xbbb35a82	-0.005473436
90	0xbcbc8329	-0.02301176
91	0x3d50a53f	0.05093884
92	0x3cfe1ceb	0.031019649
93	0x3cdde134	0.027084924
94	0x3cc196de	0.02363151
95	0x3cc86df9	0.024466502

value_net.0.output_layer.weight f4 [96, 96]
0	0xbda2e4a5	-0.07953767
1	0xbc3f9454	-0.011693079
2	0xbd8a0bf7	-0.06740563
3	0xbdd298fd	-0.102830864
4	0xbdb3d41e	-0.087806925
5	0xbc50d311	-0.012745635
6	0xbdbc009b	-0.09179803
7	0xbdd4c901	-0.10389901
8	0x3e0402ca	0.12891689
9	0x3c801a7c	0.015637629
10	0xbd324219	-0.043520067
11	0x3ce43d17	0.027861161
12	0xbd9cb818	-0.076523006
13	0x3d5184a4	0.051151887
14	0x3c1f4862	0.009721847
15	0x3d81f7fb	0.06346127
16	0xbd05af05	-0.032637615
17	0xbdad5b34	-0.08464661
18	0xbdb7e9aa	-0.08980115
19	0xbd82761f	-0.06370186
20	0x3d9779db	0.07396289
21	0x3cb401e9	0.021973567
22	0x3da1c44c	0.07898769
23	0x3d813cc6	0.0631042
24	0xbc51788d	-0.012785089
25	0x3c23f537	0.010007194
26	0x3d64c463	0.05585135
27	0x3d72a8e0	0.059243083
28	0xbd8ccd9f	-0.068751566
29	0xbd9522a5	-0.072819985
30	0x3d317e6d	0.04333346
31	0xbd8d3e5f	-0.06896662
32	0xbdc583ee	-0.09644304
33	0x3d0490b4	0.032364562
34	0xbd390842	-0.04517389
35	0x3d14ff77	0.036376443
36	0xbd4e2a76	-0.050333463
37	0xbda56be5	-0.0807722
38	0x3d03eb82	0.03220702
39	0xbc8b4974	-0.017002799
40	0xbcda996d	-0.026684487
41	0x3dd1649d	0.102242686
42	0x3cc9b315	0.024621526
43	0xbdb88bd1	-0.09011043
44	0xbd80145f	-0.062538855
45	0x3c27a649	0.010232517
46	0x3d20e7d2	0.03928358
47	0xbd83a078	-0.06427091
48	0x3c33c7ff	0.010972976
49	0xbc1c13fa	-0.009526247
50	0xbd571c8b	-0.052517455
51	0x3da1845a	0.07886572
52	0x3c58d7dc	0.013235059
53	0xbd531d82	-0.051541813
54	0x3da58a3f	0.08083009
55	0xbb8d701a	-0.004316342
56	0xbc6fe88f	-0.014642849
57	0x3ba5bb0e	0.005057699
58	0x3d62b2b2	0.0553462
59	0xbd127110	-0.035752356
60	0x3d0387f0	0.032112062
61	0x3d94efe1	0.07272316
62	0xbca205c2	-0.019778136
63	0x3d9f1f9c	0.07769701
64	0xbd805fc0	-0.06268263
65	0xbdcbb75b	-0.09947082
66	0xbd116601	-0.03549767
67	0x3cf6d84e	0.030132439
68	0x3d07f732	0.03319473
69	0x3d81c084	0.063355476
70	0x3b698dfc	0.0035637608
71	0x3d8d9e4e	0.0691496
72	0x3d8288ee	0.063737735
73	0xbd831d2b	-0.06402048
74	0xbca9b94f	-0.020718245
75	0xbdbff329	-0.09372551
76	0x3d2d860f	0.042364176
77	0x3db2a44f	0.087227456
78	0xbdbfd1a4	-0.09366158
79	0x3d697351	0.05699474
80	0x3d2e1dab	0.042508762
81	0x3d352f3e	0.044234507
82	0xbd10e643	-0.035375845
83	0xbdb1a907	-0.086748175
84	0x3bc01206	0.0058615236
85	0xbd9da470	-0.076973796
86	0xbd13f75c	-0.036124572
87	0x3ca25e64	0.0198204
88	0x3c42dac1	0.011892975
89	0x3d577bfa	0.052608468
90	0xbd7448e8	-0.05963984
91	0x3c12a9c9	0.008951613
92	0x3aeb4eee	0.00179526
93	0x3d11db85	0.03560974
94	0x3d7d6dae	0.061872177
95	0xbdaddc06	-0.08489232
96	0xbdc61197	-0.09671324
97	0xbd9cd12e	-0.07657085
98	0xbcc3b93f	-0.023892043
99	0xbd7c0722	-0.06153024
100	0xbdc2d6ec	-0.09513649
101	0x3ab2ab18	0.0013631312
102	0xbd468ac8	-0.048472196
103	0x3b2be165	0.0026226875
104	0xbdb5e00c	-0.08880624
105	0xbd4ca867	-0.04996529
106	0xbdb9edce	-0.09078561
107	0xbd808406	-0.062751815
108	0xbcd02c7c	-0.025411837
109	0x3db05b20	0.08611131
110	0x3d9b160f	0.07572567
111	0xbd380ffb	-0.044937115
112	0xbc542a8b	-0.012949596
113	0xbcee1864	-0.029064365
114	0x3d47c6cb	0.048773568
115	0xbd2a5f0a	-0.041594543
116	0x3c281e7d	0.010261175
117	0xbd8b53cf	-0.068030946
118	0x3dd5ac83	0.104332946
119	0x3cd4cb33	0.0259758
120	0x3d8f955d	0.07010911
121	0x3d0bff52	0.03417904
122	0xbd968ae0	-0.07350707
123	0x3d614ff5	0.055007894
124	0x3c8847d6	0.016635817
125	0xbdc5bed9	-0.09655542
126	0xbd8c3648	-0.06846291
127	0x3d30ce1b	0.043165307
128	0x3cdf3cdd	0.027250702
129	0xbd77f5bd	-0.06053709
130	0xbba010d8	-0.0048848204
131	0x3d58002a	0.05273453
132	0x3d5194c4	0.051167265
133	0x3dc57ea1	0.09643293
134	0x3d901470	0.07035148
135	0x3d224d64	0.039624587
136	0xbbc6dd35	-0.0060688504
137	0xbd2f4158	-0.042786926
138	0x3d783377	0.060595956
139	0xbcf869e4	-0.03032393
140	0xbd6e774b	-0.058219235
141	0xbd9f2370	-0.07770431
142	0x3d42741b	0.047474008
143	0xbccd2543	-0.025042182
144	0xbbcdb547	-0.0062777135
145	0xbb96dcfd	-0.0046039806
146	0x3c5489da	0.0129723195
147	0xbd8b68da	-0.06807108
148	0x3d8f3a12	0.06993498
149	0x3dab9d55	0.08379618
150	0xbd6965c3	-0.056981813
151	0xbdc29080	-0.095002174
152	0x3c8f29c7	0.017475976
153	0xbcf6edd3	-0.0301427
154	0x3dba9ff7	0.09112542
155	0xbd2d5b11	-0.042323176
156	0xbd13ad18	-0.036053747
157	0x3d9cf9ab	0.07664808
158	0xbb7855f5	-0.0037893031
159	0x3ca9ab29	0.020711498
160	0x3c8b3558	0.01699321
161	0x3da4fbfe	0.08055876
162	0x3d5e67f7	0.054298367
163	0xbd86b35f	-0.06577181
164	0xbc1c4209	-0.009537228
165	0xbb2be300	-0.0026227832
166	0x3c9e4b76	0.019323092
167	0x3c564d39	0.013079935
168	0xbd9006d8	-0.07032555
169	0xbdc42a27	-0.095783524
170	0xbd9db013	-0.07699599
171	0xbc4a9ba0	-0.012366205
172	0x3dbc8a92	0.09206118
173	0xbd94d4dc	-0.07267162
174	0xbd9c2015	-0.07623307
175	0x3da422ca	0.08014448
176	0xbd937ee3	-0.07201936
177	0xbc8253ba	-0.015909065
178	0xbd703d47	-0.05865219
179	0x3db20b4f	0.08693563
180	0xbd03b72b	-0.032157104
181	0xbd8ea29b	-0.06964608
182	0xbc3a1bca	-0.0113591645
183	0xbd8d178f	-0.06889259
184	0xbd6806a2	-0.05664695
185	0xbbcd7eb8	-0.0062712096
186	0x3c939744	0.018016465
187	0xbd87161b	-0.06596013
188	0xbc1076ef	-0.0088174185
189	0xbdbc957a	-0.09208198
190	0x3bf798f8	0.007556077
191	0x3bf87494	0.0075822566
192	0x3ce476ba	0.027888644
193	0xbd70f153	-0.058823895
194	0x3d2ad27f	0.04170465
195	0x3d03765e	0.032095306
196	0xbdaeeae2	-0.08540894
197	0xbdc6e502	-0.097116485
198	0x3d1d62fd	0.03842448
199	0x3b92f571	0.0044848253
200	0xbcaceb9a	-0.021108437
201	0xbc9a9456	-0.01886956
202	0xbdeb50d3	-0.11490025
203	0x3d416700	0.04721737
204	0xbd94ac40	-0.072594166
205	0x3d9e77e2	0.077377096
206	0xbdcbddca	-0.09954412
207	0xbcaec04d	-0.02133193
208	0xbb9b2ae7	-0.004735339
209	0xbd8ac5ae	-0.06775986
210	0x3d176537	0.03696176
211	0x3d4b70aa	0.04966799
212	0x3d1e4922	0.038643964
213	0x3b0021cf	0.0019551401
214	0x3d34c8c9	0.044136796
215	0xbc75d63d	-0.015004692
216	0x3dd46ac8	0.103719294
217	0x3c8813ec	0.016611062
218	0x3d2ab44d	0.041675854
219	0xbd4e7e35	-0.05041333
220	0xbd95d53c	-0.07316062
221	0xbd412330	-0.047152698
222	0x3c703625	0.014661347
223	0xbd45255c	-0.04813133
224	0x3992754f	0.00027934692
225	0x3c6bc7c2	0.014390888
226	0xbd067329	-0.03282467
227	0xbd86ae35	-0.06576196
228	0x3d5133aa	0.05107466
229	0xbdc7fd32	-0.0976509
230	0xbc7e8d99	-0.015536689
231	0xbd4aa30b	-0.049471896
232	0xbdb460e3	-0.08807542
233	0x3da8e7ad	0.08247314
234	0xbcd95f5f	-0.026534734
235	0xbd502df0	-0.05082506
236	0xbdb34834	-0.08754006
237	0x3d5369d1	0.051614586
238	0x3c724190	0.014786139
239	0x3d9b59e4	0.07585505
240	0xbd807ba8	-0.062735856
241	0xbd84cdbe	-0.06484555
242	0x3d86d1dc	0.06582996
243	0xbd9def5a	-0.07711668
244	0xbce94a27	-0.028477741
245	0xbd988c67	-0.074486546
246	0x3bc9ff00	0.0061644316
247	0xbd65cda4	-0.056104317
248	0x3d2077c9	0.039176736
249	0xbd9fd487	-0.07804208
250	0x3d5de655	0.05417474
251	0xbdb324bf	-0.08747243
252	0x3cb31e05	0.0218649
253	0xbd0d9dd6	-0.034574352
254	0xbd386a35	-0.045023162
255	0x3d4e90a1	0.050430898

value_net.0.output_layer.bias f4 [96]
0	0xbc0e9c3e	-0.008704243
1	0x3cadb34f	0.021203665
2	0x3db39b30	0.08769834
3	0xbdc23264	-0.094822675
4	0x3d89c3e8	0.06726819
5	0x3d89a7d4	0.06721464
6	0x3db8cec3	0.09023812
7	0x3d42e458	0.047581047
8	0x3c20dbe8	0.009818055
9	0xbddfd383	-0.109290145
10	0x3c1f7e91	0.009734766
11	0x3d5c80cf	0.05383378
12	0xbd159e94	-0.036528185
13	0x3d752c04	0.05985643
14	0xbdc1cb7f	-0.09462642
15	0x3c3b98dd	0.01145002
16	0x3c0b0cd6	0.008486947
17	0x3d3e6e43	0.046491873
18	0xbc3c537d	-0.0114945145
19	0xbd45886c	-0.048225805
20	0xbda4bb0a	-0.08043487
21	0xbc0bacd0	-0.008525088
22	0xbc8c485c	-0.017124347
23	0xbdd1af13	-0.10238471
24	0xbda9d1e4	-0.082919866
25	0xbdd35ef4	-0.10320845
26	0x3beac870	0.0071650073
27	0xbd5067c0	-0.050880194
28	0xba9ead96	-0.0012106176
29	0x3d0b6b32	0.034037776
30	0xbd86fc14	-0.06591049
31	0x3d666956	0.0562528
32	0xbdc08f7a	-0.09402366
33	0x3d5bde4e	0.053678803
34	0xbd5995f1	-0.05312151
35	0x3d3d5453	0.046222996
36	0xbd8eb731	-0.06968535
37	0xbd90cdce	-0.07070504
38	0x3ca7de0c	0.020491622
39	0xbda5356e	-0.080668315
40	0xbcbabc25	-0.022794792
41	0x3c709dab	0.0146860285
42	0xbcfb75d6	-0.030695837
43	0xbdbf25e7	-0.09333401
44	0x3d82f639	0.063946195
45	0xbd9b1db8	-0.07574028
46	0xbd1848c3	-0.037178766
47	0x3da5db99	0.080985256
48	0xbb4f8056	-0.0031662188
49	0xbc4e900d	-0.012607587
50	0x3da525b7	0.08063834
51	0x3d638cf4	0.055554345
52	0xbdb0a5f6	-0.086254045
53	0x3dd23f5e	0.102659926
54	0x3d1b8237	0.03796598
55	0x3c1ef84c	0.009702753
56	0x3cdc0e68	0.026862338
57	0xbd9ecffc	-0.077545136
58	0xbdb98466	-0.09058456
59	0x3d90e014	0.070739895
60	0xbd96eaee	-0.07369028
61	0xbdbd9e30	-0.092586875
62	0xbd341580	-0.043965816
63	0xbda1c69b	-0.07899209
64	0xbdc17b15	-0.09447304
65	0x3d4168e8	0.047219187
66	0x3d8a20e0	0.06744552
67	0xba4ecd2e	-0.00078888505
68	0x3d10a487	0.035313156
69	0xbdc91140	-0.09817743
70	0xbd903202	-0.07040788
71	0x3c309ffb	0.01078033
72	0x39b2c0ff	0.000340946
73	0x3d0a3c9f	0.03374922
74	0x3d7794fe	0.060444824
75	0xbb0947c9	-0.0020947328
76	0x3c158fe8	0.009128548
77	0x3d1f9bd1	0.038966957
78	0xbcd7b6ed	-0.026332343
79	0xbd96781e	-0.07347129
80	0x3d49d05c	0.049270973
81	0xbda06f22	-0.07833697
82	0xbcf265bc	-0.029589526
83	0xbd9feb74	-0.07808581
84	0xbd0abf93	-0.033874106
85	0xbd1c5fb9	-0.038177226
86	0xbad6e28f	-0.0016394424
87	0xbcdb762b	-0.026789745
88	0xbc996dee	-0.018729176
89	0xbd79c20b	-0.06097607
90	0xbc181136	-0.009281447
91	0x3d6b5604	0.057455078
92	0x3db0a9e2	0.086261526
93	0x3d742e18	0.05961427
94	0xbd8631f6	-0.06552498
95	0x3c67b4d1	0.014142231

value_net.0.attention.in_proj_weight f4 [288, 96]
0	0xbd9f477a	-0.07777305
1	0x3c804500	0.015657902
2	0x3d9fce80	0.078030586
3	0xbd9de2bc	-0.07709262
4	0xbc7275e0	-0.014798611
5	0x3dc2ae54	0.09505907
6	0xbcc41658	-0.023936436
7	0xbd9f0bc8	-0.07765919
8	0xbdfa0ef2	-0.12209882
9	0x3dbd2ea8	0.092374146
10	0x3da6ff80	0.081542015
11	0x3d467aac	0.048456833
12	0xbdb93ec6	-0.09045176
13	0xbdf72ed6	-0.1206948
14	0xbd7114bc	-0.058857664
15	0x3d8961c8	0.067081034
16	0xbdf5d17c	-0.120028466
17	0xbdb18482	-0.08667852
18	0xbc8361e8	-0.016037896
19	0x3cc0ddd0	0.023543268
20	0x3cabb6a0	0.020961106
21	0x3d2b37a8	0.041801125
22	0xbddd2a96	-0.10799138
23	0xbdecc7f6	-0.11561577
24	0x3db7f50a	0.08982284
25	0x3dab0a28	0.083515465
26	0xbd9a51e6	-0.07535152
27	0x3d97de98	0.07415503
28	0x3dc76700	0.097364426
29	0xbda7d248	-0.08194405
30	0xbd17444c	-0.036930367
31	0xbddba844	-0.107254535
32	0x3df1bcd8	0.11803597
33	0x3d915320	0.07095933
34	0x3da7636e	0.081732616
35	0xbdcec9b8	-0.100970685
36	0x3d4de504	0.050267234
37	0x3d7a4e5c	0.061109886
38	0xbdb481d4	-0.08813825
39	0xbd144ffc	-0.03620909
40	0x3d089894	0.033348635
41	0x3dd0028e	0.10156737
42	0xbdac94c4	-0.08426812
43	0xbd0d6b9c	-0.034526452
44	0xbdd75276	-0.10513775
45	0xbd524464	-0.051334754
46	0x3b5ef140	0.0034018308
47	0xbd69e668	-0.0571045
48	0x3cb87c30	0.022520155
49	0x3dbeba32	0.09312858
50	0x3dc636d0	0.096784234
51	0x3c63a440	0.013894141
52	0x3dc82cc2	0.09774162
53	0xbdbc0526	-0.091806695
54	0x3d57227c	0.05252312
55	0x3d72e508	0.059300452
56	0xbd76d990	-0.060266078
57	0xbdf95978	-0.12175268
58	0x3dd61f8e	0.10455237
59	0xbd9e2320	-0.07721543
60	0xbcb0d6d0	-0.021586806
61	0xbdab068a	-0.083508566
62	0x3dd2c23e	0.10290955
63	0x3d93c5d8	0.0721547
64	0xbd787f00	-0.06066799
65	0xbd83689c	-0.06416437
66	0x3dfb9166	0.12283592
67	0x3d7d04ec	0.061772272
68	0xbd9f739a	-0.07785721
69	0x3d54bff0	0.05194086
70	0xbda54c42	-0.08071186
71	0xbd73bf00	-0.059508324
72	0x3d3c6684	0.045996204
73	0xbdbc7fa2	-0.092040315
74	0xbd680b94	-0.056651667
75	0xbdcc7ffe	-0.0998535
76	0x3db8943e	0.0901265
77	0x3d6ccae8	0.057810694
78	0xbd19b74c	-0.03752832
79	0x3dfb09d6	0.122577354
80	0xbda16c8a	-0.0788203
81	0xbdcd2732	-0.100172415
82	0x3b4c8940	0.0031209737
83	0x3db4a2f0	0.0882014
84	0xbd690590	-0.05689007
85	0xbcbf4e18	-0.023352668
86	0xbcb5ee30	-0.022208303
87	0x3d8b5694	0.06803623
88	0xbbd86280	-0.006603539
89	0x3def92cc	0.11697921
90	0x3dd30fcc	0.103057474
91	0xbd8d3bea	-0.06896193
92	0x3db75b92	0.089530125
93	0x3dd28696	0.102795765
94	0xbd4c1bcc	-0.049831197
95	0xbd88835c	-0.0666568
96	0x3d86ed92	0.06588282
97	0x3c00e180	0.007866263
98	0xbc9dec38	-0.019277677
99	0x3d75a06c	0.059967443
100	0x3d30f350	0.04320079
101	0x3ddf7994	0.10911861
102	0x3dc80586	0.097666785
103	0xbbab90a0	-0.0052357465
104	0xbd979670	-0.074017406
105	0xbdc98ea0	-0.09841657
106	0x3debba94	0.11510196
107	0xbd47913c	-0.04872249
108	0x3dbaca80	0.09120655
109	0x3d046e88	0.032331973
110	0x3db94e1e	0.09048103
111	0xbd8a1412	-0.06742109
112	0x3db12c68	0.08651048
113	0xbc3d47c0	-0.011552751
114	0xbcdc6288	-0.026902452
115	0xbcbfd438	-0.023416623
116	0x3c6bbcb0	0.014388248
117	0xba814980	-0.0009863824
118	0xbdfe5bea	-0.12419875
119	0x3d2fa214	0.04287918
120	0xbd0d7b34	-0.034541324
121	0x3cc02c30	0.02345857
122	0xbd8bc33c	-0.068243474
123	0xbd2e9b10	-0.042628348
124	0xbd444598	-0.047917932
125	0xbdb21770	-0.086958766
126	0x3d2798bc	0.040917143
127	0xbd2be1f0	-0.041963518
128	0x3d6fcc28	0.058544308
129	0x3dcae34e	0.09906636
130	0xbda7ba4a	-0.08189829
131	0xbd49c1b0	-0.04925698
132	0xbdadc15a	-0.084841445
133	0x3dbea316	0.0930845
134	0xbdfb0db8	-0.12258476
135	0x3dbc3e8c	0.09191617
136	0x3d6633cc	0.05620174
137	0xbdfb514c	-0.122713655
138	0x3deee8f0	0.11665523
139	0xbd87207c	-0.06597993
140	0x3df2f500	0.11863136
141	0xbdb8af4a	-0.09017809
142	0x3d551f30	0.052031696
143	0xbde76d46	-0.11300139
144	0x3c0669d0	0.008203939
145	0x3d273780	0.040824413
146	0x3df5676c	0.11982617
147	0x3c92cca8	0.017919853
148	0x3d4883fc	0.048953995
149	0xbd211a20	-0.039331555
150	0x3d97af7c	0.07406518
151	0xbde4bc3c	-0.11168715
152	0x3da16258	0.07880086
153	0x3df799cc	0.12089881
154	0x3dfefa44	0.12450078
155	0xbdc7b62e	-0.09751545
156	0xbaf77f00	-0.0018882453
157	0x3dbef732	0.093244925
158	0x3dbd28de	0.092363104
159	0x3db399ae	0.087695464
160	0x3de2a028	0.11065704
161	0xbdaa82fc	-0.083257645
162	0x3d47e544	0.04880263
163	0xbdba72f4	-0.09103957
164	0xbd266244	-0.040621057
165	0x3dcd24bc	0.10016772
166	0xbcae9030	-0.021308988
167	0x3d8fec6a	0.07027514
168	0x3d6a548c	0.057209536
169	0x3d7d7508	0.061879188
170	0x3d17e878	0.037086934
171	0x3d489a64	0.048975363
172	0xbd0353e0	-0.03206241
173	0xbdec05fc	-0.11524579
174	0xbb42d000	-0.0029726028
175	0x3de1e842	0.11030628
176	0x3d07fff8	0.033203095
177	0xbbcbf5e0	-0.006224379
178	0xbdb97104	-0.09054759
179	0x3dcb38a2	0.09922911
180	0xbd8129e4	-0.06306818
181	0xbda854d2	-0.08219303
182	0x3d8d1128	0.06888038
183	0x3d8a4b8c	0.06752691
184	0xbc214aa0	-0.009844452
185	0xbdedccb0	-0.11611307
186	0x3b4eb000	0.003153801
187	0xbd3e8250	-0.046510994
188	0xbde17b56	-0.110098526
189	0xbd6568d8	-0.05600819
190	0xbc68fea0	-0.014220864
191	0xbc3f6f10	-0.011684194
192	0x3db3dca0	0.08782315
193	0x3d0c6430	0.034275234
194	0xbdf61764	-0.1201618
195	0x3dc27a08	0.09495932
196	0x3ddd1190	0.107943654
197	0x3df3fa8c	0.119130224
198	0x3df7ba90	0.12096131
199	0xbd93b9fc	-0.07213208
200	0x3d9ec010	0.07751477
201	0x3d9349f0	0.07191837
202	0x3dedec7e	0.11617373
203	0x3dfcfcb6	0.12352888
204	0x3dfb3f10	0.122678876
205	0xbd8a5412	-0.067543164
206	0x3cc596b0	0.024119705
207	0x3ca58d00	0.020208836
208	0xbdc0efe8	-0.094207585
209	0xbd5409b0	-0.05176705
210	0xbbc42b00	-0.0059865713
211	0xbcd32020	-0.025772154
212	0x3c545f80	0.012962222
213	0x3d081618	0.033224195
214	0xbd746520	-0.059666753
215	0x3d50e870	0.05100292
216	0x3dbe67d0	0.092971444
217	0xbd524d28	-0.051343113
218	0x3ddbbd0c	0.10729417
219	0x3d7b9030	0.061416805
220	0xbdf34fcc	-0.118804544
221	0x3d07e21c	0.03317462
222	0x3ca3f220	0.020012915
223	0x3dfd9b7e	0.123831734
224	0x3dc13ffa	0.09436031
225	0xbc77fb60	-0.015135616
226	0x3d9d3076	0.07675259
227	0x3d5ab60c	0.05339627
228	0x3dec29f4	0.115314394
229	0xbbfedf80	-0.007778108
230	0xbdbbd0dc	-0.09170696
231	0xbdc6bb60	-0.09703708
232	0xbd35761c	-0.04430209
233	0x3d751ab8	0.059839934
234	0x3c0cff70	0.008605823
235	0xbde30fb2	-0.11086978
236	0xbbb8b3c0	-0.0056366622
237	0x3d69be34	0.057066157
238	0x3d51ba84	0.051203266
239	0xb8eed000	-0.000113874674
240	0x3dbedc46	0.093193576
241	0x3d9d76a2	0.07688643
242	0xbdc3a922	-0.09553744
243	0xbdfc2354	-0.12311426
244	0x3b952d40	0.0045525134
245	0xbc032e40	-0.008006632
246	0x3a44b500	0.0007503778
247	0x3df93d08	0.12169844
248	0x3d8197a6	0.06327753
249	0x3dae9d92	0.08526148
250	0xbdd66b52	-0.104696885
251	0x3d16476c	0.036689207
252	0x3d4284e4	0.047490016
253	0xbd754e38	-0.05988905
254	0x3b1fa600	0.0024360418
255	0xbdd4562c	-0.103679985

value_net.0.attention.in_proj_bias f4 [288]
0	0x00000000	0.0
1	0x00000000	0.0
2	0x00000000	0.0
3	0x00000000	0.0
4	0x00000000	0.0
5	0x00000000	0.0
6	0x00000000	0.0
7	0x00000000	0.0
8	0x00000000	0.0
9	0x00000000	0.0
10	0x00000000	0.0
11	0x00000000	0.0
12	0x00000000	0.0
13	0x00000000	0.0
14	0x00000000	0.0
15	0x00000000	0.0
16	0x00000000	0.0
17	0x00000000	0.0
18	0x00000000	0.0
19	0x00000000	0.0
20	0x00000000	0.0
21	0x00000000	0.0
22	0x00000000	0.0
23	0x00000000	0.0
24	0x00000000	0.0
25	0x00000000	0.0
26	0x00000000	0.0
27	0x00000000	0.0
28	0x00000000	0.0
29	0x00000000	0.0
30	0x00000000	0.0
31	0x00000000	0.0
32	0x00000000	0.0
33	0x00000000	0.0
34	0x00000000	0.0
35	0x00000000	0.0
36	0x00000000	0.0
37	0x00000000	0.0
38	0x00000000	0.0
39	0x00000000	0.0
40	0x00000000	0.0
41	0x00000000	0.0
42	0x00000000	0.0
43	0x00000000	0.0
44	0x00000000	0.0
45	0x00000000	0.0
46	0x00000000	0.0
47	0x00000000	0.0
48	0x00000000	0.0
49	0x00000000	0.0
50	0x00000000	0.0
51	0x00000000	0.0
52	0x00000000	0.0
53	0x00000000	0.0
54	0x00000000	0.0
55	0x00000000	0.0
56	0x00000000	0.0
57	0x00000000	0.0
58	0x00000000	0.0
59	0x00000000	0.0
60	0x00000000	0.0
61	0x00000000	0.0
62	0x00000000	0.0
63	0x00000000	0.0
64	0x00000000	0.0
65	0x00000000	0.0
66	0x00000000	0.0
67	0x00000000	0.0
68	0x00000000	0.0
69	0x00000000	0.0
70	0x00000000	0.0
71	0x00000000	0.0
72	0x00000000	0.0
73	0x00000000	0.0
74	0x00000000	0.0
75	0x00000000	0.0
76	0x00000000	0.0
77	0x00000000	0.0
78	0x00000000	0.0
79	0x00000000	0.0
80	0x00000000	0.0
81	0x00000000	0.0
82	0x00000000	0.0
83	0x00000000	0.0
84	0x00000000	0.0
85	0x00000000	0.0
86	0x00000000	0.0
87	0x00000000	0.0
88	0x00000000	0.0
89	0x00000000	0.0
90	0x00000000	0.0
91	0x00000000	0.0
92	0x00000000	0.0
93	0x00000000	0.0
94	0x00000000	0.0
95	0x00000000	0.0
96	0x00000000	0.0
97	0x00000000	0.0
98	0x00000000	0.0
99	0x00000000	0.0
100	0x00000000	0.0
101	0x00000000	0.0
102	0x00000000	0.0
103	0x00000000	0.0
104	0x00000000	0.0
105	0x00000000	0.0
106	0x00000000	0.0
107	0x00000000	0.0
108	0x00000000	0.0
109	0x00000000	0.0
110	0x00000000	0.0
111	0x00000000	0.0
112	0x00000000	0.0
113	0x00000000	0.0
114	0x00000000	0.0
115	0x00000000	0.0
116	0x00000000	0.0
117	0x00000000	0.0
118	0x00000000	0.0
119	0x00000000	0.0
120	0x00000000	0.0
121	0x00000000	0.0
122	0x00000000	0.0
123	0x00000000	0.0
124	0x00000000	0.0
125	0x00000000	0.0
126	0x00000000	0.0
127	0x00000000	0.0
128	0x00000000	0.0
129	0x00000000	0.0
130	0x00000000	0.0
131	0x00000000	0.0
132	0x00000000	0.0
133	0x00000000	0.0
134	0x00000000	0.0
135	0x00000000	0.0
136	0x00000000	0.0
137	0x00000000	0.0
138	0x00000000	0.0
139	0x00000000	0.0
140	0x00000000	0.0
141	0x00000000	0.0
142	0x00000000	0.0
143	0x00000000	0.0
144	0x00000000	0.0
145	0x00000000	0.0
146	0x00000000	0.0
147	0x00000000	0.0
148	0x00000000	0.0
149	0x00000000	0.0
150	0x00000000	0.0
151	0x00000000	0.0
152	0x00000000	0.0
153	0x00000000	0.0
154	0x00000000	0.0
155	0x00000000	0.0
156	0x00000000	0.0
157	0x00000000	0.0
158	0x00000000	0.0
159	0x00000000	0.0
160	0x00000000	0.0
161	0x00000000	0.0
162	0x00000000	0.0
163	0x00000000	0.0
164	0x00000000	0.0
165	0x00000000	0.0
166	0x00000000	0.0
167	0x00000000	0.0
168	0x00000000	0.0
169	0x00000000	0.0
170	0x00000000	0.0
171	0x00000000	0.0
172	0x00000000	0.0
173	0x00000000	0.0
174	0x00000000	0.0
175	0x00000000	0.0
176	0x00000000	0.0
177	0x00000000	0.0
178	0x00000000	0.0
179	0x00000000	0.0
180	0x00000000	0.0
181	0x00000000	0.0
182	0x00000000	0.0
183	0x00000000	0.0
184	0x00000000	0.0
185	0x00000000	0.0
186	0x00000000	0.0
187	0x00000000	0.0
188	0x00000000	0.0
189	0x00000000	0.0
190	0x00000000	0.0
191	0x00000000	0.0
192	0xbbad0911	-0.005280622
193	0x3c227c4a	0.009917328
194	0x3a4cee01	0.0007817448
195	0x399cfa5c	0.0002994117
196	0x3bc726a2	0.0060776034
197	0x3b74cf42	0.003735498
198	0xbc4846df	-0.012223928
199	0xbb6d9315	-0.0036250998
200	0xbc90c5ab	-0.01767238
201	0x3a943491	0.001130717
202	0x3b4abcd7	0.0030935311
203	0x397ef69a	0.00024315194
204	0xbbdd4243	-0.006752284
205	0x3bf80544	0.007568987
206	0xbb7bc7a8	-0.0038418565
207	0x3a9f9e5c	0.0012177932
208	0xbb29ca27	-0.0025907846
209	0xbc239344	-0.009983841
210	0x3bdb2b32	0.006688499
211	0xbbe6818a	-0.007034485
212	0xbb39ddb0	-0.0028360896
213	0x3b6013e6	0.0034191548
214	0x3be206b4	0.0068977717
215	0xbb919cbe	-0.004443734
216	0x3c313f22	0.010818275
217	0x3ba6e0cd	0.0050927163
218	0x3ba24f40	0.004953295
219	0x383473ce	4.3023196e-05
220	0xba53ab56	-0.0008074542
221	0x3b465d02	0.003026784
222	0x3b3db1d8	0.0028945114
223	0xbc373dea	-0.011184195
224	0xbbc70994	-0.00607414
225	0x3b211145	0.0024576944
226	0x3bd040d0	0.0063553825
227	0xbc0420b9	-0.008064442
228	0xbc5e4363	-0.013565871
229	0x3a98c326	0.0011654838
230	0x394133d5	0.00018425223
231	0xbbb05471	-0.00538116
232	0xbb900d0e	-0.0043960875
233	0x3c51f6b5	0.012815167
234	0xbae84be1	-0.0017722809
235	0xbbb2366f	-0.005438618
236	0xbc541890	-0.012945309
237	0x3beaeb4f	0.0071691643
238	0x3c1916da	0.009343827
239	0xbc029c16	-0.007971784
240	0x3c286dd9	0.010280096
241	0xbb88f031	-0.0041790237
242	0x3c6a8836	0.014314702
243	0x3c44fbd7	0.012022934
244	0x3bd9ecab	0.0066505275
245	0x36eb5a42	7.014053e-06
246	0xbb411415	-0.0029461433
247	0xbc2dd394	-0.010609526
248	0xbc0226e6	-0.007943844
249	0xbb662ecf	-0.0035123115
250	0x3c125413	0.008931178
251	0xbc8e3ab8	-0.017361984
252	0x3a9c42ac	0.0011921725
253	0xbc17e8c9	-0.009271809
254	0x3bdc4123	0.006721632
255	0x3ab101d6	0.0013504575

value_net.0.attention.out_proj.weight f4 [96, 96]
0	0x3dae7493	0.085183285
1	0xbd9ee28b	-0.077580534
2	0xbb0b3629	-0.0021241999
3	0x3da17c7d	0.078850724
4	0xbd899898	-0.06718558
5	0x3d8abdf6	0.067745134
6	0x3c5bd434	0.013417292
7	0x3c25cef5	0.010120143
8	0x3d9f9eea	0.07793982
9	0x3d4c7845	0.049919385
10	0x3d6ec744	0.058295503
11	0x3d8ef2b8	0.06979889
12	0xbdce58f0	-0.10075557
13	0xbc96ec13	-0.018423116
14	0xbce95c4e	-0.028486397
15	0xbdb926c8	-0.090406
16	0xbdce0c3e	-0.10060929
17	0x3d805db4	0.062678725
18	0x3dbd5077	0.09243863
19	0xbdb6390b	-0.08897599
20	0x3c53c929	0.012926378
21	0x3db0f27c	0.0864
22	0x3d8cdd4a	0.06878145
23	0x3d7652c8	0.06013754
24	0x3d043010	0.0322724
25	0xbdb5b30a	-0.088720396
26	0x3de55945	0.111986674
27	0x3df55937	0.11979907
28	0x3d0e9b13	0.03481586
29	0xb9a02984	-0.0003054851
30	0x3db73cdb	0.08947154
31	0x3d2717fc	0.040794358
32	0x3c748271	0.014923678
33	0xbdbafec3	-0.09130623
34	0x3d4289d8	0.04749474
35	0xbd95fba4	-0.07323387
36	0x3d2fab46	0.04288795
37	0xbdb4e79d	-0.08833239
38	0xbd52754b	-0.05138139
39	0x3dab511f	0.08365082
40	0x3d179abc	0.0370128
41	0x3db94dfc	0.090480775
42	0x3c636d12	0.013880985
43	0xbac39165	-0.001492065
44	0x3d656574	0.056004956
45	0x3ce2f7a6	0.027705979
46	0x3cec8be4	0.028875299
47	0xbd23fe6a	-0.04003755
48	0xbd54b4ae	-0.051930122
49	0xbcb2ce86	-0.021826994
50	0x3d98edca	0.0746723
51	0xbd81c6b7	-0.0633673
52	0xbdb408b6	-0.08790724
53	0x3bc62c6e	0.006047777
54	0xbce82f0b	-0.028342744
55	0xbdca8da0	-0.09890294
56	0x3cc6b5e5	0.024256656
57	0x3dc96382	0.09833433
58	0x3d164eb7	0.036696162
59	0xbdb98b97	-0.09059828
60	0x3d189407	0.037250545
61	0xbd90e38d	-0.07074652
62	0xbce86de9	-0.028372722
63	0xbdb0f6be	-0.08640812
64	0x3d5ed8c4	0.054405943
65	0xbd16aaf5	-0.03678413
66	0xbbc35ee4	-0.0059622396
67	0x3cabf3f3	0.020990347
68	0x3d5e3b02	0.054255493
69	0x3d1ae1c5	0.037812967
70	0x3cabf36b	0.020990094
71	0x3d17e3d1	0.037082497
72	0xbd95abf4	-0.07308188
73	0x3d814706	0.06312375
74	0x3c4b203c	0.012397822
75	0xbd4e6c35	-0.050396163
76	0x3b0db365	0.002162182
77	0xbd5f254f	-0.05447894
78	0xbd94a5c4	-0.0725818
79	0xbd5fb023	-0.054611336
80	0x3ca34586	0.019930612
81	0xbd91ab27	-0.07112723
82	0xbdb36e67	-0.08761292
83	0xbdd39ad2	-0.10332264
84	0xbbdfa910	-0.0068255737
85	0xbcb3f8a4	-0.021969147
86	0x3cbfb9fe	0.023404118
87	0x3d1fd60f	0.0390225
88	0x3ccf604f	0.025314478
89	0x39c875cd	0.0003823474
90	0x3cad8cbb	0.02118527
91	0xbcb9423a	-0.022614587
92	0x3a7f9abd	0.0009750536
93	0xbdacaf28	-0.08431846
94	0xbd88fa2a	-0.0668834
95	0x38e316aa	0.00010828425
96	0x3dad77c7	0.08470111
97	0xbc8d652f	-0.017260162
98	0x3d6ff0f9	0.05857942
99	0x3d4d3ccd	0.050106812
100	0xbd174d0a	-0.036938705
101	0x3c9354b6	0.01798473
102	0xbd7b9f44	-0.061431184
103	0x3c281db2	0.010260986
104	0x3dd9f0c6	0.10641627
105	0xbce21ca1	-0.027601542
106	0xbdb5b82f	-0.08873021
107	0x388ed636	6.8109875e-05
108	0xbc957afd	-0.018247122
109	0x3d5e8b4e	0.05433207
110	0xbc63e6be	-0.013909994
111	0x3daf2abd	0.085530736
112	0x3dcfa0a1	0.101380594
113	0xbdb11f5d	-0.0864856
114	0x3dc31851	0.09526122
115	0xbd4dd541	-0.050252203
116	0x3d4396a0	0.04775107
117	0xbd09dedd	-0.033659805
118	0x3dca58a6	0.098801896
119	0xbd521803	-0.05129243
120	0xbd27a5ae	-0.04092949
121	0x3db70bf8	0.0893783
122	0xbce5c1b8	-0.028046474
123	0xbd3b069c	-0.0456606
124	0xbdc2b461	-0.09507061
125	0x3b04b1f1	0.0020247663
126	0x3dbc6502	0.09198953
127	0xbcc42473	-0.023943162
128	0x3ded5835	0.1158909
129	0xbce47e66	-0.027892303
130	0xbdebf53d	-0.11521385
131	0xbcb48571	-0.022036286
132	0x3d978b8c	0.07399663
133	0xbdcd2327	-0.100164704
134	0x3da48530	0.08033216
135	0xbc07200c	-0.008247387
136	0x3d61d69f	0.05513632
137	0xbd6a3964	-0.05718364
138	0xbda1cddd	-0.079005934
139	0x3d48a759	0.04898772
140	0x3d3cf23f	0.04612946
141	0xbd86f34f	-0.06589376
142	0x3d22b8ed	0.03972714
143	0xbd6f361f	-0.058401223
144	0x3cc5cda2	0.024145905
145	0xbc37bc6c	-0.011214357
146	0xbd9e1b04	-0.077199966
147	0x3ba522fa	0.00503957
148	0xbd27272e	-0.04080885
149	0x3cd9985f	0.026561914
150	0xbde7daf6	-0.1132106
151	0x3cffa0a9	0.031204538
152	0xbcbf568b	-0.023356697
153	0x3da5e7e2	0.08100869
154	0x3db11001	0.08645631
155	0x3be67231	0.0070326556
156	0x3dc0de88	0.094174445
157	0x3d9803b7	0.074225836
158	0xbda5c040	-0.080933094
159	0xbd8129c3	-0.063067935
160	0x39f00dea	0.00045786734
161	0x3dba5068	0.090973675
162	0x3d9f0545	0.07764677
163	0x3d668da8	0.056287438
164	0xbd6603be	-0.056155913
165	0x3d8389fb	0.06422802
166	0xbcb698e8	-0.022289708
167	0x3d3cff4e	0.046141915
168	0xbc9b8efa	-0.018989075
169	0x3d0b63c2	0.034030683
170	0x3d9c7836	0.07640116
171	0xbd74d991	-0.0597778
172	0x3bf40db9	0.007447925
173	0xbc9b0af5	-0.018926123
174	0x3bef1576	0.0072962595
175	0x3bd304a3	0.0064397617
176	0xbc18ac18	-0.009318374
177	0xbd76fccc	-0.06029968
178	0xbce887a2	-0.028384987
179	0x3d210c59	0.039318416
180	0xbd7c8aa1	-0.061655644
181	0xbdb0eff8	-0.086395204
182	0xbc8a72a6	-0.016900372
183	0x3d6e69d0	0.05820638
184	0x3da22bbb	0.07918497
185	0xbd4c27ce	-0.04984265
186	0xbd61ddba	-0.055143096
187	0x3d885c48	0.06658226
188	0x3dacf1dc	0.084445685
189	0x3c9df7a7	0.019283129
190	0xbcbcd4ad	-0.02305063
191	0xbcaeabdd	-0.021322185
192	0x3d9a8fc5	0.07546953
193	0xbd19253d	-0.03738903
194	0xbd6f2d5b	-0.058392864
195	0x3da9746e	0.0827416
196	0x3d8728d6	0.06599586
197	0xbcffda9a	-0.031232167
198	0x3d0332f8	0.03203103
199	0xbc9fdf9a	-0.019515801
200	0xbd328450	-0.043583214
201	0xbd291883	-0.04128314
202	0xb9ced929	-0.0003945318
203	0xbd6dd169	-0.058061037
204	0xbd57949f	-0.05263197
205	0xbdd31a21	-0.10307718
206	0xbdc81d56	-0.097712204
207	0x3d3ee8e8	0.046608835
208	0xbd963551	-0.07334388
209	0x3d49179c	0.04909478
210	0xbdabafbd	-0.08383129
211	0x3d90f6e8	0.07078344
212	0xbb88a805	-0.00417042
213	0xbd0f60f1	-0.03500456
214	0xbd77d707	-0.0605078
215	0xbcfe5952	-0.03104845
216	0xbdd1fe12	-0.10253538
217	0x3d6c6d08	0.057721168
218	0x3c621cfd	0.013800857
219	0xbda28369	-0.07935221
220	0x3cc1d4ab	0.023660978
221	0x3d753e12	0.059873648
222	0xbdb52ee4	-0.08846834
223	0x3da901dd	0.082523085
224	0xbda3b076	-0.07992642
225	0x3d2fb6e1	0.042899016
226	0x3b201acd	0.0024430037
227	0x3db5b8a8	0.08873111
228	0x3db9b822	0.09068324
229	0xbd9399d5	-0.072070755
230	0x3d8b9f70	0.0681752
231	0x3b5ff068	0.0034170393
232	0xbcb091bb	-0.021553865
233	0x3b8690b2	0.0041066045
234	0xbd9d3529	-0.07676155
235	0x3b72f9cd	0.0037075162
236	0xbdb3b614	-0.08774963
237	0xbd2c46ec	-0.042059824
238	0xbd9a2ef3	-0.07528486
239	0x3db2a848	0.08723503
240	0xbc9f8820	-0.01947409
241	0xbdd44102	-0.10363962
242	0xbd89773f	-0.067121975
243	0xbd9bc528	-0.07605964
244	0xbde41fcb	-0.111388765
245	0x3d8e6a78	0.06953901
246	0xbc4ff903	-0.012693646
247	0x39c148a3	0.00036865947
248	0xbdd2697d	-0.102740265
249	0xbc0f800e	-0.008758558
250	0x3dace26d	0.08441625
251	0x3abe74e0	0.0014530681
252	0xbdaca608	-0.084301054
253	0xbd8b6450	-0.068062425
254	0xbccabfec	-0.024749719
255	0xbc150f4e	-0.009097887

value_net.0.attention.out_proj.bias f4 [96]
0	0x3b49097b	0.0030675817
1	0xbc197e2e	-0.0093684625
2	0xbc21e780	-0.009881854
3	0x3abc3ea2	0.0014361928
4	0x3bda3b11	0.0066598733
5	0x3c3b60d3	0.011436659
6	0x3ad13f99	0.0015964388
7	0x3c19f177	0.009395949
8	0xbc3de3dd	-0.011589971
9	0xb9e7b3ef	-0.00044193814
10	0x3b31771d	0.0027079054
11	0xbc03d9a7	-0.008047498
12	0x3b963846	0.004584345
13	0xbbd1ce0e	-0.0064027375
14	0x3c14a7cc	0.009073209
15	0x3b17354c	0.002307254
16	0x3c27016a	0.010193208
17	0xbc3cbeca	-0.011520097
18	0x3c70a082	0.014686706
19	0x3a5a5c20	0.0008329768
20	0xbcd2dbe9	-0.025739627
21	0xbc810034	-0.015747167
22	0xbc3dc4a5	-0.011582528
23	0xbc69412f	-0.014236732
24	0x3b5f400c	0.0034065275
25	0x3b2c1499	0.0026257394
26	0x3b2eb614	0.002665882
27	0xbc12d45b	-0.008961762
28	0xbc0b7aca	-0.008513162
29	0xbc124354	-0.008927185
30	0xbad9cd25	-0.0016616924
31	0x3c1fb216	0.009747049
32	0xbbd0ff21	-0.00637807
33	0x3c1990c7	0.0093728965
34	0x3bb8587b	0.005625782
35	0xbc909372	-0.017648432
36	0x3c31332c	0.010815423
37	0x3b8812a1	0.0041526114
38	0x3bbae60c	0.0057036933
39	0x3c101ddb	0.008796181
40	0x3ac881d5	0.0015297482
41	0x3ba05a75	0.004893596
42	0xbb80e4c1	-0.0039335196
43	0x3bc6f62c	0.0060718264
44	0xbbb078bd	-0.005385487
45	0xbc635ede	-0.013877599
46	0x3c962b63	0.018331235
47	0xbba93298	-0.005163502
48	0xbc3d207f	-0.011543392
49	0x3a536959	0.0008064709
50	0x3a888dcf	0.0010418239
51	0xbb1e9ae1	-0.0024201202
52	0x3a9a81d9	0.0011787965
53	0xbb0f14d1	-0.0021832476
54	0xbaa2443d	-0.0012379956
55	0x3c958daf	0.018256037
56	0x3c306419	0.010766053
57	0x3bbbce78	0.0057314
58	0x3bb2e890	0.0054598525
59	0x3c5fec06	0.013667112
60	0xbb3a34a3	-0.0028412722
61	0x3b957fca	0.004562353
62	0x3a61c543	0.0008612463
63	0xbcb8942a	-0.022531588
64	0xbb68b9a5	-0.0035511043
65	0xbc4827de	-0.012216536
66	0xbc7d0ae6	-0.015444493
67	0xbc09144c	-0.008366656
68	0xbb0272c4	-0.0019904831
69	0x3c05fd94	0.0081781335
70	0xbb37bdd2	-0.0028036726
71	0x3bab76d4	0.0052326713
72	0x3b8f3b74	0.004371101
73	0xbb0d4492	-0.0021555764
74	0x3c684ac4	0.014177982
75	0x3b128e29	0.0022362566
76	0xbc11fe87	-0.008910782
77	0x3bb20c26	0.005433577
78	0x3c41923e	0.011814652
79	0xbb2351f2	-0.002492067
80	0x3b1f5aba	0.0024315552
81	0x39b34985	0.00034196317
82	0x3ba8a162	0.0051461915
83	0x3b4b444e	0.0031016055
84	0x3b0a4fcc	0.0021104692
85	0xbba0f1a7	-0.0049116197
86	0xbc3fabe7	-0.0116987
87	0x3c101520	0.008794099
88	0x3be8c0d7	0.0071030664
89	0x3c477241	0.012173236
90	0xbafcf38a	-0.0019298655
91	0xbbaa8ea8	-0.005204994
92	0x3c40c7cd	0.011766386
93	0x3b7d5074	0.003865269
94	0x3bc9c9df	0.006158098
95	0x3bafab2a	0.0053609805

value_net.1.weight f4 [64, 96]
0	0xbd7dc506	-0.061955474
1	0xbc3913a7	-0.011296189
2	0xbcff54ac	-0.031168304
3	0x3d9201c5	0.07129244
4	0xbc80f9db	-0.01574414
5	0xbcc3969d	-0.023875529
6	0xbd896f90	-0.06710732
7	0xbd426fe3	-0.047469985
8	0x3da7141c	0.081581324
9	0x3cd5da9c	0.026105218
10	0xbd8d49eb	-0.06898864
11	0xbdbf71ad	-0.09347854
12	0x3d877cc9	0.06615598
13	0xbd7fd88e	-0.062462382
14	0x3d9cde55	0.07659594
15	0xbc04fb60	-0.008116573
16	0x3d89e370	0.067328334
17	0xbc09c814	-0.008409519
18	0xbd1719e4	-0.036889926
19	0x3db22047	0.08697563
20	0xbdd02f55	-0.10165278
21	0xbcf98643	-0.030459529
22	0xbd3edffd	-0.04660033
23	0x3d96ad81	0.07357312
24	0xbcbe6094	-0.023239411
25	0x3d9dfa3b	0.07713743
26	0x3b8aa9b1	0.0042316546
27	0x3d3899c2	0.04506851
28	0x3cf46354	0.02983252
29	0x3da6a781	0.081374176
30	0x3d40b392	0.04704625
31	0x3ca0f5f2	0.019648526
32	0x3dbba8bf	0.09163045
33	0xbdc5972c	-0.09647974
34	0xbcbca862	-0.02302951
35	0xbdbf4e0e	-0.093410596
36	0xbc9f751d	-0.019465024
37	0xb944f0d9	-0.0001878174
38	0xbdb9fcb4	-0.090814024
39	0xbca44643	-0.020053035
40	0x3d20344f	0.039112385
41	0xbd2d32d5	-0.042284805
42	0x3dce7fac	0.10082945
43	0x3d53fc85	0.051754493
44	0xbd9fd2cb	-0.078038774
45	0xbd414b1b	-0.047190767
46	0x3d51a182	0.051179416
47	0x3ba1318d	0.004919237
48	0xbd89aaf7	-0.06722062
49	0x3c8b4052	0.016998444
50	0x3d29f8e0	0.04149711
51	0x3d8b251e	0.06794189
52	0x3d608fda	0.054824688
53	0xbd54d333	-0.051959228
54	0x3d8d9a8e	0.069142446
55	0xbdd48024	-0.103760034
56	0x3d930f4c	0.07180652
57	0xbdc3fe37	-0.09569972
58	0x3dba2162	0.090883985
59	0x3c566583	0.013085726
60	0x3bab5116	0.005228172
61	0xbd8f616a	-0.07001002
62	0x3b965eaa	0.0045889216
63	0xbd661c3f	-0.05617928
64	0xbdd5615e	-0.10418962
65	0x3d9a57ea	0.075362995
66	0x3cf8e12a	0.030380804
67	0x3d079667	0.03310242
68	0xbad0f0a8	-0.0015940862
69	0x3da5478e	0.080702886
70	0xbd2e003d	-0.042480696
71	0xbd5f9767	-0.054587748
72	0xbc9c6e0f	-0.019095449
73	0x3dd4eb19	0.10396404
74	0x3dcafe73	0.099118136
75	0xb996de97	-0.00028776072
76	0xbd7b6a2a	-0.061380543
77	0xbdbcf78f	-0.092269056
78	0xbd95fffd	-0.073242165
79	0xbcfa28d0	-0.030537039
80	0xbcc456f0	-0.023967236
81	0x3cbe5a5e	0.02323645
82	0x3da7b44c	0.08188686
83	0xbd053909	-0.032525096
84	0x3d575f4e	0.052581124
85	0xbd20a829	-0.03922287
86	0xbd02620c	-0.031831786
87	0x3cb7838b	0.022401592
88	0x3d6358f1	0.055504743
89	0x3d306dc0	0.043073416
90	0xbcf5adc8	-0.029990092
91	0x3c9bf178	0.01903604
92	0xbc80de9a	-0.015731145
93	0x3cda26b0	0.026629776
94	0x3ad31cbc	0.0016106586
95	0xbd2a3941	-0.041558508
96	0xbd88cc90	-0.06679642
97	0xbd580b6c	-0.052745268
98	0x3cf15f1f	0.029464303
99	0xbd0aa694	-0.033850268
100	0x3d026be0	0.03184116
101	0x3d9dfb6e	0.07713972
102	0xbd8a4251	-0.0675093
103	0x3d58cc0c	0.05292897
104	0xbd732948	-0.05936554
105	0xbce64612	-0.028109584
106	0xbd07ec87	-0.033184554
107	0x3a9c869c	0.0011941972
108	0xbd986610	-0.07441342
109	0xbcd067a8	-0.025440052
110	0xbd062126	-0.032746457
111	0x3c887fcb	0.016662499
112	0xbca6f026	-0.020378184
113	0x3d9a594f	0.075365655
114	0x3d66db00	0.0563612
115	0xbd48b381	-0.048999313
116	0x3dab4049	0.08361871
117	0x3d93862b	0.07203325
118	0x3db51687	0.088421874
119	0xbd8e6fea	-0.0695494
120	0xbcf7c936	-0.030247312
121	0xbda72419	-0.08161182
122	0xba67c388	-0.0008841087
123	0xbc81ef7e	-0.01586127
124	0x3bda25e6	0.00665735
125	0xbdc1b6de	-0.09458707
126	0xbd0c2cd4	-0.03422244
127	0x3d99ba70	0.07506263
128	0xbdb920ff	-0.09039497
129	0x3d856de6	0.06515102
130	0x3d137ddc	0.0360087
131	0x3c80123d	0.015633697
132	0xbdb7dd28	-0.08977729
133	0xbdbe1a8b	-0.092824064
134	0x3c05b7d5	0.008161505
135	0xbdc6f9da	-0.09715624
136	0xbcfbd91d	-0.030743176
137	0xbbcf8734	-0.006333256
138	0xbd710396	-0.05884131
139	0x3d345d13	0.044034075
140	0x3d4aa27e	0.04947137
141	0xbd364072	-0.044495054
142	0xbbb44e11	-0.0055024703
143	0x3d0b6db7	0.03404018
144	0x3bce30a2	0.0062924186
145	0x3c9ac5b0	0.018893093
146	0x3da9093b	0.08253714
147	0xbbd869b6	-0.0066043986
148	0xbda1d3f2	-0.079017535
149	0x3d3b8fb4	0.045791343
150	0x3c94e4a6	0.018175434
151	0xbcc9c3c8	-0.024629489
152	0xbc327a33	-0.010893392
153	0xbd9c8bb3	-0.07643833
154	0xbc34c01e	-0.011032132
155	0x3c9d9c49	0.019239562
156	0xbd6d4242	-0.057924516
157	0xbd8949bf	-0.06703519
158	0xbda4413d	-0.08020256
159	0xbdd0d8be	-0.1019759
160	0xbd3bd11a	-0.04585371
161	0xbd6f75ca	-0.05846194
162	0x3d3341c2	0.043763883
163	0xbdd81054	-0.10549989
164	0xbd3e75f8	-0.046499223
165	0xbdb85701	-0.0900097
166	0x3dae1ebf	0.08501958
167	0xbd95a2a6	-0.07306413
168	0xbdb2b0b3	-0.08725109
169	0x3d07019f	0.03296053
170	0x3d0ac611	0.033880297
171	0x3d883cef	0.06652247
172	0x3b9a09a1	0.004700855
173	0x3cdc6bd5	0.026906887
174	0x3d60ba4f	0.054865178
175	0xbc8a8e09	-0.01691343
176	0xbd99ba70	-0.07506263
177	0xbd7a7392	-0.061145373
178	0x3c1ee713	0.009698647
179	0xbc373efb	-0.011184449
180	0xbc8806f5	-0.01660488
181	0x3db8c9c0	0.09022856
182	0x3d0e0b50	0.034678757
183	0x3da154db	0.07877513
184	0xbc69ae15	-0.014262696
185	0x3cfc659f	0.030810175
186	0xbd69d3ff	-0.05708694
187	0x3d46bdcd	0.048520852
188	0xbdab2d83	-0.0835829
189	0xbcf39d1b	-0.029738
190	0x3dd9e24c	0.10638866
191	0x3d64b532	0.055836864
192	0xbc0d3163	-0.008617732
193	0xbbbf00d7	-0.0058289575
194	0xbda46450	-0.080269456
195	0xbd3a1d0a	-0.04543785
196	0xbdbc07b4	-0.09181157
197	0xbd55f037	-0.05223104
198	0x3d90a572	0.07062806
199	0x3d067490	0.032826006
200	0x3d9326c6	0.0718513
201	0x3c4b7b64	0.012419555
202	0xbd03d12c	-0.032181904
203	0xbd1f5590	-0.038899958
204	0x3d5cac3a	0.053875186
205	0x3d162127	0.03665271
206	0xbda69534	-0.08133927
207	0x3d8c77c5	0.06858782
208	0x3d8f4f33	0.06997528
209	0xbd99d04d	-0.07510433
210	0xbdbdcfc4	-0.09268144
211	0x3daaf4d5	0.08347479
212	0xbc3c6a3c	-0.011499938
213	0xbd3634ee	-0.04448407
214	0xbd6d4660	-0.057928443
215	0xbd50a013	-0.05093391
216	0xbd48aa05	-0.04899027
217	0x3d790099	0.060791586
218	0x3dbdf82f	0.09275853
219	0x3da9f91d	0.08299468
220	0xbc7c307e	-0.015392421
221	0x3d9acbce	0.07558404
222	0x3db5bb51	0.088736184
223	0xbbaa0a2a	-0.0051892
224	0x3da83c88	0.082146704
225	0xbbabd590	-0.0052439645
226	0x3da3ec23	0.08004024
227	0xbdad3bcd	-0.08458672
228	0xbd56dfb6	-0.05245944
229	0x3d41989b	0.047264677
230	0xbd3d4aaf	-0.046213802
231	0x3c98c0b4	0.018646576
232	0xbd2f916e	-0.042863302
233	0xbdd542d2	-0.104131356
234	0x3c8166dc	0.015796117
235	0x3db2841e	0.087166056
236	0xbdb8dbe8	-0.09026319
237	0xbd1aa6f5	-0.03775688
238	0x3d85db63	0.06535985
239	0x3c39c6d6	0.01133891
240	0x3cf07774	0.029353835
241	0xbd3884a6	-0.04504838
242	0xbd32dfb3	-0.043670367
243	0x3d97d1e6	0.07413082
244	0x3dbecec6	0.09316783
245	0xbdbc6c3f	-0.09200334
246	0x3d94c4a2	0.07264067
247	0x3d87ee4f	0.06637251
248	0xbdbb84d4	-0.09156194
249	0xbd9343e8	-0.071906865
250	0xbc7e2d4e	-0.015513731
251	0xbcad09b3	-0.021122789
252	0x3d93f4d2	0.0722443
253	0x3b8c3a50	0.0042794123
254	0xbdb1d684	-0.08683494
255	0x3c45a5db	0.012063469

value_net.1.bias f4 [64]
0	0x3d4840d3	0.048889946
1	0x3d855f96	0.06512372
2	0x3ce87a0a	0.028378505
3	0xbbb606c9	-0.005555008
4	0x3c8763ab	0.016527018
5	0x3d8868d9	0.06660623
6	0x3d4f877c	0.050666317
7	0xbd4647ba	-0.048408248
8	0x3b0239d6	0.0019870899
9	0x3d57c590	0.052678645
10	0x3a96071f	0.0011446214
11	0x3c29b311	0.010357634
12	0xbd1409f9	-0.036142323
13	0x3ae026ac	0.0017101369
14	0x3cd3e563	0.025866216
15	0x3d138a38	0.036020488
16	0x3dc4ca6c	0.096089214
17	0x3d1a7bba	0.03771565
18	0x3ce50c11	0.027959855
19	0x3d1919bb	0.037378054
20	0x3dc9533c	0.09830329
21	0xbdc578b5	-0.09642164
22	0xbd565410	-0.052326262
23	0x3d935960	0.07194781
24	0xbd489813	-0.048973154
25	0x3caee3cb	0.021348855
26	0xbb9c4cd9	-0.004769903
27	0x3d68fe71	0.05688328
28	0xbcd844fa	-0.026400078
29	0xbcfb0042	-0.030639771
30	0x3cd92573	0.026507115
31	0x3cde8f55	0.027167955
32	0x3ca7a783	0.020465618
33	0xbb619902	-0.0034423475
34	0xbd9172d2	-0.07101978
35	0x3d4d55ec	0.05013077
36	0x3d7077ce	0.058708005
37	0xbc1ed55d	-0.009694424
38	0xbd5adbae	-0.05343216
39	0x3cc9c4ac	0.024629913
40	0x3d73a7ea	0.059486307
41	0xbdcb2467	-0.099190526
42	0xbc52126b	-0.012821774
43	0xbdf840c8	-0.12121731
44	0x3cf2db90	0.029645711
45	0xbc0a455a	-0.008439386
46	0xbdb93907	-0.0904408
47	0x3da978bc	0.082749814
48	0x3d6e41c0	0.058168173
49	0x3d7c247b	0.061558228
50	0xbc5a7f24	-0.013335977
51	0xbd9e4a92	-0.07729067
52	0x3cc06faa	0.023490746
53	0xbdc2d21b	-0.09512731
54	0x3d6a7f18	0.057250112
55	0xbcdbc7e1	-0.026828708
56	0xbdb9ea9c	-0.09077951
57	0xbdb15320	-0.08658433
58	0x3d8fd5e7	0.070232205
59	0x3d88324e	0.0665022
60	0x3ce9e0e4	0.028549619
61	0xbd11ae8d	-0.035566855
62	0xbd126f2e	-0.03575056
63	0xbdb99cac	-0.09063086
