scripts/models/602/34/1/vModel.pth (torch, 119483 bytes, 9 tensors)

value_net.0.input_layer.weight f4 [64, 128]
0	0xbdacb594	-0.08433071
1	0xbbee0a49	-0.0072644097
2	0xbd055761	-0.032554034
3	0x3d47cfbd	0.0487821
4	0xbcb92ea0	-0.02260524
5	0xbdb0506d	-0.0860909
6	0xbc931b18	-0.017957255
7	0xbca86863	-0.020557588
8	0x3a65b689	0.00087628566
9	0xbdabb823	-0.08384731
10	0x3d993a8f	0.07481872
11	0x3c9e4a63	0.01932258
12	0xbd836a0f	-0.064167134
13	0xbdaa8345	-0.08325819
14	0x3d023772	0.031791158
15	0x3cbf8959	0.023380922
16	0x3d026be1	0.031841163
17	0xb9e8f837	-0.00044435423
18	0x3d8fe42b	0.070259415
19	0x3dae662b	0.08515581
20	0xbd82f92e	-0.063951835
21	0x3d38c084	0.045105472
22	0xbc4f82b9	-0.012665444
23	0x3d3628d7	0.04447254
24	0xbdad2cc0	-0.08455801
25	0xbda9d4b0	-0.0829252
26	0x3d43c8a5	0.04779877
27	0xbc0d32c5	-0.008618061
28	0xbce998c0	-0.02851522
29	0xbc81efb2	-0.015861366
30	0x3d90466b	0.07044681
31	0xbcf28b7d	-0.029607529
32	0xbd9232e8	-0.07138616
33	0xbd9b65ef	-0.07587802
34	0xbd98e62f	-0.07465779
35	0x3d92f2cb	0.07175215
36	0x3d358473	0.044315767
37	0xbd8ae04e	-0.06781064
38	0x3db099dc	0.08623096
39	0x3adcb832	0.0016839562
40	0x3c83afab	0.016074976
41	0x3db4b624	0.08823803
42	0x3cc5df2f	0.024154274
43	0x3d0e04d3	0.03467257
44	0xbd2f169a	-0.042746164
45	0xbd7ab103	-0.061203968
46	0xbd30a2df	-0.043124076
47	0x3d7e5d60	0.062100768
48	0x3daac443	0.08338215
49	0xbce9db43	-0.028546935
50	0xbd036d66	-0.032086752
51	0xbc9a48b5	-0.018833498
52	0x3d931d5e	0.07183336
53	0x3d98a69b	0.074536525
54	0xbd8cd538	-0.06876606
55	0xbd6891fb	-0.056779843
56	0xbc5c451d	-0.013444212
57	0xbd966ac9	-0.073445864
58	0x3cdddb2b	0.027082046
59	0x3be79309	0.0070670885
60	0xbda133fd	-0.07871244
61	0xbd0987a7	-0.033576634
62	0xbdae704e	-0.08517514
63	0x3da8cf80	0.082427025
64	0xbc7c1b5c	-0.015387382
65	0x3cb0d532	0.021586034
66	0x3cdc3f15	0.026885549
67	0x3da4fd22	0.08056094
68	0x3d0090b2	0.031387992
69	0xbd0ce170	-0.03439468
70	0xbd52362c	-0.051321194
71	0xbd6f2269	-0.058382425
72	0x3d4abf76	0.049498998
73	0xbcae8b12	-0.021306548
74	0x3c43e973	0.011957514
75	0x3d7a18af	0.061058696
76	0x3c033968	0.008009292
77	0xbce90f0a	-0.028449554
78	0xbc9262d3	-0.017869389
79	0x3d6bdb2c	0.057582065
80	0x3da91d07	0.0825749
81	0x3d936dae	0.07198654
82	0x3d40facd	0.047114182
83	0xbd85b3a8	-0.06528407
84	0xbd5e8bcd	-0.054332543
85	0x3da7a033	0.081848525
86	0xbd9488a5	-0.072526254
87	0xbd684a8b	-0.056711715
88	0x3da705d6	0.0815541
89	0x3dab636f	0.08368575
90	0xbd3e97ea	-0.046531595
91	0xbd7b30c9	-0.061325822
92	0x3d870b21	0.065939195
93	0xbd7d0d52	-0.06178028
94	0x3c6e63e9	0.014550188
95	0xbd13a36e	-0.03604453
96	0xbcb51b99	-0.022107886
97	0xbd107aa5	-0.035273213
98	0x3d9afd89	0.07567889
99	0xbd945b6b	-0.07243999
100	0xbc8c6e8c	-0.017142557
101	0xbd8527de	-0.06501745
102	0x3ca6d759	0.020366358
103	0x3ca17f2a	0.019713957
104	0xbcb5a39b	-0.02217274
105	0x3d302d72	0.04301209
106	0xbc084a10	-0.008318439
107	0xbccaed20	-0.024771273
108	0x3c928141	0.017883899
109	0xbd01a688	-0.031652957
110	0xbd868a6a	-0.06569369
111	0x3d50e652	0.0510009
112	0x3d748c4e	0.059704117
113	0x3d5b2a12	0.05350692
114	0xbd3e4e00	-0.046461105
115	0xbd49f00c	-0.049301192
116	0xbd864e93	-0.065579556
117	0x3c2a1ffd	0.010383603
118	0xbc49bde3	-0.012313339
119	0xbc72ceaa	-0.01481978
120	0xbd873561	-0.06601978
121	0xbd280abb	-0.04102586
122	0x3d8a3921	0.06749178
123	0x3d95ff5f	0.07324099
124	0xbd8eb9eb	-0.06969055
125	0xbcd56a19	-0.026051568
126	0xbd1a2911	-0.03763682
127	0x3d966417	0.073433094
128	0xbd2e05d6	-0.042486034
129	0xbca93513	-0.02065519
130	0xbd869f7f	-0.0657339
131	0xbd202f58	-0.03910765
132	0xbd92a803	-0.07160952
133	0x3d3e1c67	0.046413805
134	0x3dad7b73	0.08470812
135	0xbc2aa7f9	-0.010416024
136	0x3db500d8	0.088380516
137	0xbda1ff59	-0.07910032
138	0x3bdb7977	0.0066978293
139	0x3cb9681f	0.022632657
140	0xbd9b38a1	-0.075791605
141	0xbd1090a2	-0.035294183
142	0xbd5e7be2	-0.054317363
143	0x3c62e94f	0.01384957
144	0x3d412bfd	0.04716109
145	0xbdae123c	-0.08499572
146	0xbd850516	-0.06495111
147	0x3daaba29	0.083362885
148	0x3c9e1b0e	0.01930001
149	0xbd852071	-0.06500328
150	0xbbe9ab33	-0.0071310042
151	0x3b99d212	0.004694232
152	0xbd5f68c9	-0.05454329
153	0x3c3b9e02	0.011451246
154	0xbc58b24b	-0.013226102
155	0x3d2028e4	0.039101496
156	0xbd2f4888	-0.04279378
157	0xbcc7462c	-0.024325453
158	0x3c886a6a	0.016652305
159	0x3c8a572d	0.016887272
160	0x3d949a1a	0.07255955
161	0xbd69216a	-0.05691663
162	0x3c98bf8f	0.01864603
163	0xbc8fd915	-0.017559567
164	0xbcd203a0	-0.025636494
165	0xbd21c5a1	-0.039495114
166	0x3d762125	0.060090203
167	0x3da98e28	0.08279067
168	0x3c1ed58e	0.00969447
169	0x3b0ea797	0.0021767372
170	0x3d9cc572	0.07654847
171	0xbd842537	-0.06452411
172	0x3b9ed578	0.004847225
173	0x3daf5d5c	0.08562729
174	0xbc8d53a0	-0.01725179
175	0x3d85f5a9	0.065409966
176	0x3d2268ee	0.03965085
177	0xbd3408e9	-0.04395381
178	0x3d1e69b9	0.038675044
179	0xbdb054e7	-0.08609944
180	0xbc33a46a	-0.010964492
181	0xbd755e37	-0.059904303
182	0x3bdfab90	0.0068258718
183	0xbcef45c9	-0.02920808
184	0xbd89cf89	-0.06729037
185	0xbc2c2120	-0.0105059445
186	0xbd95e644	-0.0731931
187	0xbd6fd0fd	-0.058548916
188	0xbcc04006	-0.023468029
189	0xbda91a93	-0.08257022
190	0xbd846315	-0.06464211
191	0x3d2ed264	0.042681113
192	0x3c3e874c	0.011628937
193	0xbd5e6a4e	-0.0543006
194	0xbc1c17e3	-0.009527179
195	0x3d037bf1	0.03210062
196	0xbd6b1562	-0.05739344
197	0x3ca11f05	0.019668112
198	0xbca46e06	-0.020071995
199	0x3cf2463c	0.029574506
200	0xbd692663	-0.056921374
201	0xbad0e2f3	-0.0015936777
202	0xbc7731fd	-0.015087602
203	0xbd2295be	-0.039693587
204	0x3d53db30	0.051722705
205	0xbd0ce039	-0.034393523
206	0x3d23da8f	0.040003356
207	0xb78423fd	-1.5752385e-05
208	0x3d55269d	0.052038778
209	0x3aad69ee	0.0013230422
210	0x3d8e43b3	0.06946506
211	0x3c9142b9	0.017732011
212	0xbd0558c6	-0.032555364
213	0x3cd5e3fc	0.026109688
214	0x3a90a0d1	0.0011034255
215	0x3bfa2f6f	0.007635049
216	0xbcdb0c60	-0.0267393
217	0xbd86b63e	-0.06577729
218	0x3d97f315	0.07419411
219	0x3d83ce76	0.06435864
220	0x3d9a1e6e	0.07525335
221	0xbc326b41	-0.010889829
222	0xbdb0a17f	-0.08624553
223	0xbb9f84d5	-0.0048681297
224	0xbc0c5889	-0.00856603
225	0x3cce681a	0.025196124
226	0xbdb4f46f	-0.088356845
227	0x3c12d681	0.0089622745
228	0xbca28f4f	-0.019843725
229	0xbd9d67f3	-0.07685842
230	0xbcc5f7f5	-0.024166087
231	0xbc80c6d8	-0.015719816
232	0x3d94a1f5	0.07257453
233	0x3d395310	0.04524523
234	0xbb71667b	-0.0036834765
235	0x3d55680b	0.052101176
236	0xbc9bf9ca	-0.019040007
237	0xbd279020	-0.040908933
238	0xbd576586	-0.052587055
239	0xbda22bf9	-0.07918543
240	0x3d410c8b	0.047131103
241	0x3a90190e	0.0010993795
242	0xbd3ac900	-0.045601845
243	0x3d9bbce2	0.07604386
244	0x3d8f04b5	0.0698332
245	0x3cd4068e	0.025882032
246	0xbd8f4ebe	-0.06997441
247	0x3d6f176b	0.058371942
248	0xbcc683f1	-0.024232836
249	0xbd40a611	-0.047033373
250	0x3a5b9e0f	0.00083777396
251	0x3c8aa48a	0.016924161
252	0xbd93f23f	-0.07223939
253	0x3cd61bc7	0.026136292
254	0x3dafaa2c	0.085773796
255	0x3c7f6f1d	0.015590456

value_net.0.input_layer.bias f4 [64]
0	0xbd775c13	-0.060390543
1	0x3d97f816	0.074203655
2	0xbd470d68	-0.04859677
3	0x3cc19d88	0.023634687
4	0xbd012522	-0.031529553
5	0x3cfb5246	0.03067888
6	0xbd1dfcd7	-0.038571205
7	0x3c4e485e	0.012590496
8	0xbd7e8129	-0.062134895
9	0x3d8fcdeb	0.070216976
10	0xbd61f857	-0.055168476
11	0x3d978a9d	0.07399485
12	0xbcc4becb	-0.024016758
13	0x3c37c5cb	0.011216591
14	0x3bf41a35	0.007449413
15	0xbbf6026c	-0.007507613
16	0x3d3acd47	0.045605924
17	0xbd9264c7	-0.07148128
18	0xbd80c966	-0.06288414
19	0xbd9244d4	-0.07142034
20	0xbd42e8ec	-0.047585413
21	0x3d7ec212	0.0621968
22	0xbbace871	-0.0052767326
23	0xbd232f9f	-0.039840337
24	0xbd7b95ed	-0.061422277
25	0x3cb57b95	0.022153655
26	0xbc657cf5	-0.014006843
27	0x3d632660	0.05545652
28	0xbc7ad78d	-0.01531018
29	0x3d877618	0.066143215
30	0xbbc3eab8	-0.0059789084
31	0x3ba34ebe	0.004983752
32	0xbbba40bd	-0.005683987
33	0x3d17e1d3	0.037080597
34	0x3d91fd22	0.071283594
35	0xbc0afb98	-0.008482836
36	0xbd3a5ddd	-0.04549967
37	0xbd9c3e3a	-0.07629056
38	0xbda39357	-0.07987087
39	0x3c055d88	0.008139975
40	0x3d912a29	0.070881195
41	0x3d5d6088	0.054047137
42	0xbd21fb56	-0.039546333
43	0xbd6f0407	-0.05835345
44	0x3d959465	0.07303695
45	0x3d5b1ea3	0.053496014
46	0x3d529510	0.05141169
47	0xbd0b57cc	-0.034019276
48	0xbd0e73bc	-0.03477834
49	0xbd889a3c	-0.06670043
50	0xbc1ad933	-0.009451198
51	0x3d9114bf	0.07084035
52	0x3d0964e6	0.03354349
53	0x3c5806bc	0.013185199
54	0x3d845cd2	0.064630166
55	0x3d7d4c16	0.06184014
56	0xbbc60c43	-0.006043942
57	0xbd04f6c6	-0.032461904
58	0xbc654018	-0.013992332
59	0x3bf4ae9c	0.007467104
60	0x3c0526fe	0.008126972
61	0x3d8dcb3e	0.06923531
62	0xbd28bed2	-0.041197605
63	0xbc7f6821	-0.015588791

value_net.0.output_layer.weight f4 [64, 64]
0	0xbde93af5	-0.11388198
1	0xbd90b1bf	-0.070651524
2	0xbda8a085	-0.08233742
3	0x3d992fb9	0.074798055
4	0xbdaf107f	-0.08548068
5	0x3d81200f	0.06304943
6	0x3dc4e5fe	0.0961418
7	0x3dbf8299	0.093510814
8	0x3da79868	0.08183366
9	0xbdb307c8	-0.087417185
10	0xbccaaf46	-0.02474178
11	0xbdcf361d	-0.10117743
12	0x3ddc4c99	0.10756797
13	0xbdd861fa	-0.105655625
14	0xbccaddfd	-0.024764055
15	0x3d716e30	0.058942974
16	0xbcd21098	-0.025642678
17	0xbd1edc5c	-0.03878437
18	0x3d955fe6	0.07293682
19	0x3d8ee814	0.06977859
20	0x3dd3859b	0.103282176
21	0x3ce9f6d6	0.028560083
22	0x3ded32af	0.11581933
23	0xbb93687d	-0.00449854
24	0xbdbda384	-0.09259704
25	0xbd682a7d	-0.056681145
26	0xbd53d58a	-0.05171732
27	0x3d9fafc2	0.07797195
28	0xbd232f93	-0.039840292
29	0xba8c7269	-0.0010715249
30	0x3d7711ce	0.060319714
31	0x3d449314	0.047991827
32	0xbd78c0ef	-0.06073087
33	0x3dbd3b9a	0.09239884
34	0xbd8ab5fa	-0.067729905
35	0x3c51a19b	0.012794877
36	0x3d2ce71e	0.042212598
37	0x3d3aab41	0.045573477
38	0x3d47732e	0.04869383
39	0x3bd1187b	0.006381092
40	0x3d046881	0.032326225
41	0xbd790fe3	-0.060806166
42	0x3c6841b7	0.014175824
43	0x3d778d0c	0.060437247
44	0xbd0b6489	-0.034031425
45	0xbdeecfb0	-0.11660707
46	0xbc11b540	-0.008893311
47	0x3dbbcf80	0.09170437
48	0xbdce4015	-0.100708164
49	0xbc0892df	-0.008335798
50	0xbd976bdd	-0.0739362
51	0x3dbb83ea	0.0915602
52	0x3d50c5d1	0.050969902
53	0x3df51260	0.119663954
54	0x3dd2ce05	0.10293201
55	0x3dc29534	0.095011145
56	0xbcb531f2	-0.022118542
57	0x3d85d902	0.065355316
58	0xbd86d367	-0.065832905
59	0xbd885850	-0.06657469
60	0x3d949ca3	0.072564386
61	0x3ce1eb1e	0.027577933
62	0x3dd5579a	0.10417099
63	0xbda26801	-0.079299934
64	0x3c8cf4c8	0.017206565
65	0xbd934870	-0.07191551
66	0xbde4b1da	-0.11166735
67	0x3dd61964	0.104540616
68	0xbd7b6414	-0.06137474
69	0x3cf1ca00	0.029515266
70	0x3da852fc	0.08218953
71	0xbdb18c58	-0.086693466
72	0xbdf1e8fa	-0.11812015
73	0xbdb99fb8	-0.09063667
74	0x3d2abf58	0.041686386
75	0xbd3ecbf8	-0.04658124
76	0xbdb8eea8	-0.09029895
77	0xbd3daca0	-0.046307206
78	0xbd33056c	-0.043706343
79	0xbde9d146	-0.11416869
80	0x3ce8ab98	0.028402135
81	0xbdf99376	-0.12186329
82	0xbc6dec80	-0.014521718
83	0x3dd2265e	0.10261224
84	0xbceb4408	-0.028718963
85	0xbd4c09dc	-0.04981409
86	0x3cc0b680	0.023524523
87	0xbda2924c	-0.0793806
88	0xbdf553e6	-0.11978893
89	0xbdd53586	-0.104105994
90	0xbd7dda10	-0.06197554
91	0x3d4ab248	0.04948643
92	0xbdfc6cb2	-0.123254195
93	0x3d98b27a	0.07455917
94	0x3dd4a2a2	0.10382582
95	0x3d0e67e8	0.03476706
96	0xbc92c7b8	-0.017917499
97	0x3ceaca38	0.028660879
98	0xbda10e28	-0.07864028
99	0xbd53eaa4	-0.051737443
100	0xbdae4474	-0.0850915
101	0x3db68566	0.089121625
102	0x3d28a298	0.041170686
103	0xbd9ca294	-0.07648197
104	0xbbb476a0	-0.0055073053
105	0x3d532c04	0.05155565
106	0x3c516620	0.012780696
107	0xbdbe2d1c	-0.09285948
108	0xbde2e6b4	-0.110791594
109	0x3cd06f80	0.025443792
110	0x3d4a5ffc	0.049407944
111	0xbdbce95a	-0.09224196
112	0xbd0b2608	-0.033971816
113	0x3d42c9b0	0.047555625
114	0x3db8ee1e	0.09029792
115	0xbd8cbe4a	-0.06872232
116	0xbd15b200	-0.036546707
117	0xbd02041c	-0.0317422
118	0x3d616a28	0.05503288
119	0x3cfdf850	0.031002194
120	0xbd922cde	-0.07137464
121	0xbd79a608	-0.060949355
122	0x3ddc1844	0.10746816
123	0x3df0d1c2	0.11758758
124	0x3db21bf6	0.086967394
125	0xbd14321c	-0.0361806
126	0x3d3e30d4	0.046433285
127	0xbcb5dd38	-0.022200212
128	0x3d5ea6cb	0.054358285
129	0x3daa1c24	0.08306149
130	0x3c716ea6	0.014735853
131	0xbd8b120c	-0.067905515
132	0x3aac8cad	0.0013164483
133	0xbd555a60	-0.05208814
134	0x3d8ecc77	0.06972592
135	0x3dc2118a	0.094760016
136	0x3d1a1478	0.037617177
137	0xbcabcfa4	-0.020973034
138	0x3dbac736	0.09120028
139	0xbd595be2	-0.053066142
140	0x3d335048	0.043777734
141	0x3def081e	0.1167147
142	0xbd6ac05e	-0.057312362
143	0x3da56464	0.080757886
144	0x3d47afdb	0.048751693
145	0x3c9e7f1d	0.019347722
146	0xbde4edfd	-0.11178205
147	0x3d54e5b7	0.051976886
148	0xbdfb7415	-0.12278
149	0x3df9d6e4	0.1219919
150	0xbd718176	-0.058961354
151	0xbd7cca56	-0.0617164
152	0x3dbd7d10	0.092523694
153	0x3d131504	0.035908714
154	0x3dd0e4a9	0.101998635
155	0xbda337d9	-0.079696365
156	0x3d673235	0.056444366
157	0x3c38ebc4	0.01128668
158	0x3d2d4cb7	0.04230949
159	0xbcc98ab4	-0.024602272
160	0x3de1f393	0.11032786
161	0xbdc1b341	-0.09458018
162	0xbd061bfa	-0.032741524
163	0x3da23325	0.07919911
164	0xbdd4c18a	-0.10388477
165	0xbd833a0e	-0.064075574
166	0xbdf2fd72	-0.11864747
167	0xbdf93d00	-0.12169838
168	0xbc731203	-0.014835837
169	0x3d8255c8	0.06364018
170	0xbde515f4	-0.11185828
171	0x3ddd6178	0.10809606
172	0x3d547501	0.051869396
173	0x3d3efe7c	0.046629414
174	0xbcadb387	-0.02120377
175	0xbd34839d	-0.04407083
176	0xbd0fbedd	-0.03509413
177	0x3d3451e9	0.044023428
178	0x3ce1a174	0.027542807
179	0xbd2eeabc	-0.04270433
180	0x3c25eeeb	0.010127763
181	0x3c0a156e	0.008427961
182	0x3dabc6f8	0.0838756
183	0xbd875b28	-0.066091835
184	0x3d18b499	0.037281606
185	0xbdd1b020	-0.10238671
186	0xbdab0c76	-0.08351986
187	0x3d7da28c	0.061922595
188	0xbd0447cd	-0.032295037
189	0x3dbc795a	0.092028335
190	0xbd6458ad	-0.05574863
191	0x3d929ac6	0.07158427
192	0xbdeb490a	-0.114885405
193	0xbd19d594	-0.0375572
194	0x3d2ac91a	0.04169569
195	0x3d17bc86	0.037045024
196	0x3b4dfcca	0.0031431192
197	0xbe00ff1f	-0.12597321
198	0x3de6bd47	0.112665705
199	0xbdd66c4a	-0.10469873
200	0x3dc75aaa	0.0973409
201	0x3daa3f37	0.083128385
202	0xbc2ebc36	-0.01066499
203	0xbcbd144d	-0.02308097
204	0x3d6e3abf	0.058161493
205	0xbdf80a11	-0.12111295
206	0xbbe47f8a	-0.0069732117
207	0xbd819819	-0.063278385
208	0x3d270735	0.040778358
209	0x3d3c504b	0.04597501
210	0x3dc9545e	0.09830545
211	0x3c81d5c4	0.015849002
212	0x3db745b9	0.089488454
213	0x3bef11cf	0.007295824
214	0x3d92146e	0.07132803
215	0xbc89ae47	-0.016806735
216	0xbcc8eb54	-0.024526276
217	0x3d232a84	0.039835468
218	0x3d1eac0c	0.038738295
219	0xbd989200	-0.07449722
220	0xbdb01ad2	-0.085988656
221	0x3dd750ab	0.10513433
222	0x3dcb6664	0.09931639
223	0x3d3faeb8	0.046797484
224	0xbb2289db	-0.0024801407
225	0x3daba8cb	0.08381804
226	0xbd6a614d	-0.0572217
227	0x3de3307b	0.11093231
228	0xbd3f0d6e	-0.046643667
229	0x3dee1a74	0.11626139
230	0xbdb58be6	-0.08864574
231	0x3cdf2c0f	0.027242688
232	0xbd8c7080	-0.06857395
233	0x3d5c769c	0.053824052
234	0xbb793f04	-0.0038031945
235	0x3cc3f2ec	0.023919545
236	0xbdad8291	-0.08472169
237	0xbdcd3c02	-0.10021211
238	0x3deaa3a5	0.11456994
239	0xbdf059fe	-0.11735915
240	0xbdae8741	-0.085218914
241	0xbca98903	-0.020695215
242	0xbdccaeee	-0.09994303
243	0xbcccaafb	-0.024983874
244	0x3dda13a0	0.106482744
245	0x3c494006	0.012283331
246	0xbc0c2cd0	-0.008555606
247	0x3bce366b	0.006293108
248	0xbdb0fc1c	-0.08641836
249	0xbdc73284	-0.09726432
250	0x3d855f74	0.06512347
251	0xbdb62fec	-0.08895859
252	0x3d3ca9cc	0.04606037
253	0x3db6e24e	0.08929883
254	0x3d38c69c	0.045111284
255	0xbde374a6	-0.11106233

value_net.0.output_layer.bias f4 [64]
0	0xbd5648eb	-0.052315634
1	0xbdab4550	-0.0836283
2	0x3d50e7f5	0.05100246
3	0x3ab057ef	0.0013453941
4	0x3d575300	0.05256939
5	0x3db07c3c	0.08617446
6	0x3b7811b5	0.003785235
7	0xbdaaf390	-0.08347237
8	0x3d74c73d	0.05976032
9	0xbaf03c69	-0.001832855
10	0xbda75bf8	-0.081718385
11	0xbdc66f12	-0.09689154
12	0x3de36e6a	0.11105044
13	0xbd396d9d	-0.04527055
14	0x3d0ed603	0.034872066
15	0x3cd15c75	0.025556782
16	0xbdcbf32d	-0.099584915
17	0x3da0e870	0.07856834
18	0xbdd72492	-0.10505022
19	0x3da5ca8d	0.08095274
20	0xbcd623a4	-0.026140042
21	0x3d15fbff	0.036617275
22	0x3bba651f	0.005688324
23	0xbd41e3a2	-0.04733623
24	0x3dbd41c6	0.09241061
25	0xbcb0ab4f	-0.021566061
26	0xbda2ebd8	-0.0795514
27	0x3ca423ab	0.020036539
28	0xbd65c634	-0.056097224
29	0x3df1e317	0.11810892
30	0xbca47b08	-0.020078197
31	0xbc2d6ba0	-0.010584742
32	0xbd9521f0	-0.07281864
33	0x3d872f68	0.06600839
34	0x3d85498b	0.06508168
35	0x3d8329ae	0.06404434
36	0x3d2a622e	0.041597538
37	0xbdda6eab	-0.106656395
38	0x3d688310	0.056765616
39	0xbcbfa43b	-0.02339374
40	0xbd8ed590	-0.069743276
41	0x3d0b6379	0.03403041
42	0xbd7977f4	-0.06090541
43	0x3d4eb8e6	0.0504693
44	0xbd929fcc	-0.07159385
45	0xbd86408a	-0.065552786
46	0xbd645645	-0.055746336
47	0x3dd2499c	0.10267946
48	0x3d9719ea	0.073779896
49	0xbc8bf340	-0.017083764
50	0xbd5d3e20	-0.054014325
51	0xbcca6608	-0.024706855
52	0xbdc3d5f0	-0.0956229
53	0x3de26e9d	0.11056254
54	0xbd5c744d	-0.05382185
55	0x3d4f131d	0.050555337
56	0xbcf29cf8	-0.029615864
57	0xbc921e88	-0.017836824
58	0xbd734ebf	-0.05940127
59	0x3da78759	0.081801124
60	0x3bb90c12	0.005647191
61	0x3d997745	0.07493452
62	0xbd97257a	-0.07380195
63	0xbd5b446e	-0.053532057

value_net.0.attention.in_proj_weight f4 [192, 64]
0	0x3de4cfef	0.11172473
1	0x3d2475e3	0.040151488
2	0xbda1eb06	-0.07906155
3	0x3dac42a2	0.08411147
4	0xbde8db59	-0.11369962
5	0x3ca9b9d1	0.020718487
6	0xbd19a34e	-0.037509255
7	0x3dad1ff1	0.08453358
8	0xbd931de9	-0.07183439
9	0x3cf222a3	0.029557532
10	0xbd7376d4	-0.059439495
11	0x3e05c205	0.13062294
12	0xbca2b1dd	-0.019860202
13	0x3e035cf8	0.12828434
14	0xbc9a2a90	-0.018819124
15	0xbdd18e38	-0.10232204
16	0x3cb8f1c5	0.022576222
17	0x3c9c8d37	0.019110305
18	0xbd9ce222	-0.07660319
19	0xbd95a1cb	-0.0730625
20	0xbdd8fa11	-0.105945714
21	0x3de9bc91	0.11412919
22	0xbc9da0f9	-0.019241797
23	0x3e1c5dd0	0.15270162
24	0x3ce2bc87	0.027677787
25	0xbdf122f1	-0.11774243
26	0xbdc6cd5e	-0.097071394
27	0x3deb8d3e	0.11501549
28	0xbd3d02cd	-0.04614525
29	0xbe1cb21b	-0.15302317
30	0x3d638339	0.055545066
31	0x3d836b5c	0.064169616
32	0x3c74fe6c	0.014953237
33	0xbc86a6f1	-0.016437026
34	0xbe01432b	-0.12623279
35	0x3e1acc8f	0.15117095
36	0x3d7aad1d	0.06120025
37	0xbe1caa4b	-0.15299337
38	0x3d4273b3	0.04747362
39	0xbe056dcb	-0.13030164
40	0xbde150fb	-0.11001774
41	0x3ded5340	0.11588144
42	0xbc7280ca	-0.0148012135
43	0xbd315e54	-0.04330285
44	0xbd98d97b	-0.07463356
45	0x3d22d001	0.03974915
46	0x3d84889c	0.06471369
47	0x3db238b2	0.0870222
48	0x3dbd9a45	0.0925794
49	0xbdf9a3a4	-0.12189415
50	0xbe16b687	-0.14718066
51	0xbad527e6	-0.0016262501
52	0x3d18c08e	0.03729301
53	0xbdbafdfa	-0.091304734
54	0x3d11a0cc	0.03555374
55	0xbddbae7a	-0.10726638
56	0xbe00f18f	-0.12592147
57	0xbd197a16	-0.037469946
58	0xbcc577e2	-0.024105016
59	0xbad8b36f	-0.0016532968
60	0x3db521aa	0.088443115
61	0xbdbb249b	-0.09137841
62	0xbdfae6a1	-0.1225102
63	0x3d8a35fe	0.067485794
64	0xbd408cc9	-0.047009263
65	0x3cba8da0	0.02277261
66	0x3dbd4bb4	0.09242955
67	0x3dd6cf7a	0.10488792
68	0xbcdd939a	-0.027047921
69	0xbd7e4508	-0.062077552
70	0x3e0aafcd	0.13543625
71	0x3bc2f808	0.005949978
72	0xbe19d743	-0.15023522
73	0xbdd0ba23	-0.10191753
74	0xbd827794	-0.06370464
75	0xbd9757d9	-0.073898025
76	0xbd6bfebc	-0.05761598
77	0x3dde041b	0.10840627
78	0x3df69fde	0.12042211
79	0x3e1384a9	0.14406075
80	0x3ced4a8b	0.028966209
81	0xbe0a01c4	-0.13477236
82	0xbdc38dd5	-0.09548537
83	0x3ddc96bd	0.107709385
84	0x3d9f52b7	0.077794485
85	0xbd43595c	-0.04769264
86	0x3d9fdf59	0.07806272
87	0xbd28eb2e	-0.04123991
88	0x3de811ab	0.11331495
89	0x3df788cf	0.12086641
90	0xbd9e3ae1	-0.07726074
91	0xbc88f59d	-0.01671868
92	0xbba77af4	-0.0051110927
93	0xbdc4d5d3	-0.09611096
94	0xbae77043	-0.0017657358
95	0x3da1837e	0.07886408
96	0xbe0fecdf	-0.14055203
97	0x3cffd383	0.031228786
98	0x3e18a503	0.14906697
99	0xbd9c253c	-0.076242894
100	0xbe19daa7	-0.15024815
101	0x3d27b156	0.040940605
102	0x3dce5ae2	0.10075928
103	0xbb07c9a1	-0.0020719545
104	0x3d4a8787	0.049445655
105	0xb99b3047	-0.00029599873
106	0x3db5df1e	0.08880447
107	0x3e0e24b3	0.13881187
108	0xbd5063ba	-0.050876357
109	0xbe126765	-0.14297254
110	0x3d17964b	0.037008565
111	0xbd5668a1	-0.052345876
112	0xbd9c4e41	-0.07632113
113	0x3dfbe5b1	0.122996695
114	0x3de00757	0.109389
115	0xbe02f404	-0.12788397
116	0x3d74fca4	0.05981125
117	0xbd8ef6c6	-0.06980662
118	0xbd7e9936	-0.062157832
119	0xbc275a1d	-0.010214356
120	0x3e1000af	0.14062761
121	0xbd797ad0	-0.06090814
122	0xbdcba872	-0.09944238
123	0xbbcb7669	-0.006209184
124	0xbe028229	-0.12744965
125	0x3baa1050	0.005189933
126	0x3d2d79c4	0.042352453
127	0x3d6081c7	0.054811265
128	0x3e070ef2	0.13189295
129	0x3d940a8c	0.07228574
130	0x3e1cbcf8	0.15306461
131	0xbd91dee7	-0.071225934
132	0xbc66567e	-0.014058707
133	0x3c1f85be	0.0097364765
134	0xbd304570	-0.04303497
135	0x3df33d38	0.11876911
136	0x3d83d5c3	0.06437256
137	0xbddc6f3e	-0.10763405
138	0x3cdc943e	0.026926156
139	0xbe0ac282	-0.13550761
140	0x3e101825	0.1407171
141	0x3de5ec75	0.11226741
142	0xbd8da1f1	-0.069156535
143	0x3dae62f5	0.08514968
144	0xbd246be1	-0.040141944
145	0xbb700799	-0.0036625622
146	0x3da5e6eb	0.08100685
147	0x3c802095	0.015640536
148	0x3d5f1ca6	0.05447068
149	0x3df89f2e	0.12139736
150	0xbcb37b61	-0.021909418
151	0x3d168b9f	0.036754247
152	0xbd53c048	-0.051697046
153	0x3dc16044	0.09442189
154	0xbd3af055	-0.045639355
155	0xbd20c867	-0.03925362
156	0x3d65134b	0.055926602
157	0x3c51f5ec	0.01281498
158	0xbda35960	-0.07976031
159	0xbdde0dfd	-0.10842512
160	0x3df5b192	0.119967595
161	0x3d6e062e	0.058111362
162	0xbe057314	-0.1303218
163	0x3e0846ad	0.1330821
164	0xbda1bd38	-0.07897419
165	0x3d3f5332	0.0467102
166	0x3cc771db	0.024346283
167	0xbe0d17bb	-0.13778584
168	0xbe131365	-0.14362867
169	0xbd705864	-0.058678046
170	0x3d9f49cc	0.077777475
171	0xbb42d125	-0.002972671
172	0x3d1579a0	0.036492944
173	0x3e123618	0.14278448
174	0xbdf10c95	-0.11769978
175	0x3d887825	0.06663541
176	0xbdd7134f	-0.1050173
177	0x3df843e6	0.121223256
178	0xbb8f00da	-0.004364115
179	0xbda38454	-0.07984224
180	0xbe12ee2a	-0.14348665
181	0x3d864afb	0.0655727
182	0xbcbc2206	-0.022965442
183	0x3d6c8544	0.05774428
184	0xbdfe23e5	-0.1240919
185	0xbdd6b229	-0.104832
186	0xbc8cad96	-0.017172616
187	0x3abdf51c	0.0014492604
188	0xbe1aedd0	-0.15129781
189	0xbc9320d9	-0.017959999
190	0x3defa1d6	0.1170079
191	0xbdd76efb	-0.10519215
192	0xbda93b22	-0.08263232
193	0xbdd9c303	-0.10632899
194	0xbdb7717a	-0.08957191
195	0xbc5f64ee	-0.013634903
196	0x3d64e1f6	0.055879556
197	0x3de090af	0.10965096
198	0xbd1daa8f	-0.038492735
199	0x3d8101d9	0.062991805
200	0xbe1c23e5	-0.15248068
201	0x3d80bd2d	0.062860824
202	0xbc9cfc3e	-0.019163247
203	0xbd099d06	-0.033597015
204	0x3de8282c	0.11335787
205	0x3d72097e	0.059091084
206	0xbdb14e74	-0.08657542
207	0xbd8d42ac	-0.06897482
208	0xbcc1475a	-0.023593593
209	0xbe19c30f	-0.15015815
210	0xbcc25510	-0.023722202
211	0xbde45d50	-0.111506104
212	0xbdc89c15	-0.09795395
213	0x3d5ade83	0.05343486
214	0xbd0ae71c	-0.03391181
215	0xbdb624f8	-0.0889377
216	0x3d223b81	0.03960753
217	0xbb29f2eb	-0.0025932144
218	0xbcefff06	-0.02929641
219	0xbcaa8452	-0.020815048
220	0xbd90c1ee	-0.07068239
221	0x3d706ab4	0.05869551
222	0x3d370086	0.044678234
223	0xbe1a22fd	-0.1505241
224	0xbd359c29	-0.04433838
225	0xbd83f3e6	-0.06443004
226	0x3d6c45a7	0.057683613
227	0xbe138636	-0.14406666
228	0x3d1527df	0.036414977
229	0x3dfa8a3a	0.12233396
230	0xbb518f32	-0.003197622
231	0xbdefe0c9	-0.11712796
232	0xbe123db4	-0.1428135
233	0x3d96e0b9	0.07367081
234	0xbdf6cac3	-0.120503925
235	0xbdfd9064	-0.12381056
236	0x3d8e29da	0.06941576
237	0x3e09d81f	0.1346135
238	0xbdb7d838	-0.08976787
239	0x3d9bcaa7	0.07607012
240	0xbd7c4606	-0.061590217
241	0x3d80e9b1	0.06294573
242	0xbd9a9832	-0.0754856
243	0xbcc16aad	-0.023610437
244	0x3e141253	0.14460115
245	0xbd183ead	-0.037169147
246	0x3cc3678f	0.023853092
247	0xbdb2fd95	-0.08739773
248	0xbde333bd	-0.11093853
249	0xbe19ab0e	-0.15006658
250	0xbdae1715	-0.08500496
251	0xbd813d27	-0.06310492
252	0x3d2d98f1	0.042382184
253	0xbdb68ccb	-0.08913573
254	0xbd0fb04c	-0.03508024
255	0xbd2bc165	-0.041932482

value_net.0.attention.in_proj_bias f4 [192]
0	0x00000000	0.0
1	0x00000000	0.0
2	0x00000000	0.0
3	0x00000000	0.0
4	0x00000000	0.0
5	0x00000000	0.0
6	0x00000000	0.0
7	0x00000000	0.0
8	0x00000000	0.0
9	0x00000000	0.0
10	0x00000000	0.0
11	0x00000000	0.0
12	0x00000000	0.0
13	0x00000000	0.0
14	0x00000000	0.0
15	0x00000000	0.0
16	0x00000000	0.0
17	0x00000000	0.0
18	0x00000000	0.0
19	0x00000000	0.0
20	0x00000000	0.0
21	0x00000000	0.0
22	0x00000000	0.0
23	0x00000000	0.0
24	0x00000000	0.0
25	0x00000000	0.0
26	0x00000000	0.0
27	0x00000000	0.0
28	0x00000000	0.0
29	0x00000000	0.0
30	0x00000000	0.0
31	0x00000000	0.0
32	0x00000000	0.0
33	0x00000000	0.0
34	0x00000000	0.0
35	0x00000000	0.0
36	0x00000000	0.0
37	0x00000000	0.0
38	0x00000000	0.0
39	0x00000000	0.0
40	0x00000000	0.0
41	0x00000000	0.0
42	0x00000000	0.0
43	0x00000000	0.0
44	0x00000000	0.0
45	0x00000000	0.0
46	0x00000000	0.0
47	0x00000000	0.0
48	0x00000000	0.0
49	0x00000000	0.0
50	0x00000000	0.0
51	0x00000000	0.0
52	0x00000000	0.0
53	0x00000000	0.0
54	0x00000000	0.0
55	0x00000000	0.0
56	0x00000000	0.0
57	0x00000000	0.0
58	0x00000000	0.0
59	0x00000000	0.0
60	0x00000000	0.0
61	0x00000000	0.0
62	0x00000000	0.0
63	0x00000000	0.0
64	0x00000000	0.0
65	0x00000000	0.0
66	0x00000000	0.0
67	0x00000000	0.0
68	0x00000000	0.0
69	0x00000000	0.0
70	0x00000000	0.0
71	0x00000000	0.0
72	0x00000000	0.0
73	0x00000000	0.0
74	0x00000000	0.0
75	0x00000000	0.0
76	0x00000000	0.0
77	0x00000000	0.0
78	0x00000000	0.0
79	0x00000000	0.0
80	0x00000000	0.0
81	0x00000000	0.0
82	0x00000000	0.0
83	0x00000000	0.0
84	0x00000000	0.0
85	0x00000000	0.0
86	0x00000000	0.0
87	0x00000000	0.0
88	0x00000000	0.0
89	0x00000000	0.0
90	0x00000000	0.0
91	0x00000000	0.0
92	0x00000000	0.0
93	0x00000000	0.0
94	0x00000000	0.0
95	0x00000000	0.0
96	0x00000000	0.0
97	0x00000000	0.0
98	0x00000000	0.0
99	0x00000000	0.0
100	0x00000000	0.0
101	0x00000000	0.0
102	0x00000000	0.0
103	0x00000000	0.0
104	0x00000000	0.0
105	0x00000000	0.0
106	0x00000000	0.0
107	0x00000000	0.0
108	0x00000000	0.0
109	0x00000000	0.0
110	0x00000000	0.0
111	0x00000000	0.0
112	0x00000000	0.0
113	0x00000000	0.0
114	0x00000000	0.0
115	0x00000000	0.0
116	0x00000000	0.0
117	0x00000000	0.0
118	0x00000000	0.0
119	0x00000000	0.0
120	0x00000000	0.0
121	0x00000000	0.0
122	0x00000000	0.0
123	0x00000000	0.0
124	0x00000000	0.0
125	0x00000000	0.0
126	0x00000000	0.0
127	0x00000000	0.0
128	0xbbc4db5d	-0.0060075955
129	0x3ab27879	0.0013616226
130	0xb57d6d33	-9.440875e-07
131	0x3a764b74	0.00093953987
132	0x3b8d37b5	0.0043096193
133	0x3c1f5d72	0.009726869
134	0x3b9b9800	0.0047483444
135	0xbbda816e	-0.0066682613
136	0xbc02b308	-0.007977255
137	0x3b04eeee	0.0020284015
138	0x3b54f90a	0.0032497072
139	0xba2a0f8f	-0.0006487304
140	0x39dc4f09	0.00042020556
141	0x3c24b3ac	0.010052603
142	0xb8be5868	-9.076373e-05
143	0xba1a9962	-0.00058974896
144	0x3a533f37	0.0008058431
145	0x3af23b0b	0.0018480731
146	0x3b3b3641	0.0028566273
147	0x3baefddc	0.005340321
148	0xba6ef244	-0.000911508
149	0xbb80270c	-0.0039109048
150	0xbbe9730a	-0.0071243094
151	0xbb15eefb	-0.002287804
152	0x3bccdf37	0.006252195
153	0xbbdca10d	-0.006733066
154	0xbbe2dcf4	-0.0069233123
155	0x3b539088	0.0032282192
156	0x3b083f92	0.0020789844
157	0xb94517eb	-0.00018796294
158	0x3c01504c	0.007892679
159	0xb99fdeb1	-0.0003049276
160	0xbb8c138b	-0.0042747906
161	0xbb7869b6	-0.0037904806
162	0xbb3a4b68	-0.0028426293
163	0x3b0b25e9	0.0021232313
164	0xbb080714	-0.0020756172
165	0x39786714	0.00023689523
166	0xbbe210a8	-0.0068989582
167	0xbae57fbb	-0.001750938
168	0x3b1cb15d	0.0023909428
169	0x3b3962be	0.0028287615
170	0x3a63dac2	0.000869196
171	0xbbba23ee	-0.0056805527
172	0xbb891dab	-0.004184445
173	0x3acbc355	0.0015545884
174	0x38aa07aa	8.107659e-05
175	0x3b3062d3	0.0026914373
176	0x3b24957e	0.0025113518
177	0xbb75421f	-0.0037423444
178	0xbafab7f9	-0.0019128314
179	0xbb37ee1f	-0.0028065515
180	0x3b2c20c1	0.002626464
181	0x3b3a5076	0.0028429306
182	0xb8c32c9e	-9.306635e-05
183	0x3aa8b85c	0.0012872326
184	0xb7e5a5ef	-2.7376196e-05
185	0xbbd3376f	-0.006445817
186	0xbb56cfce	-0.003277767
187	0xbb572512	-0.0032828492
188	0x3a46b7d5	0.00075804937
189	0xba0099c5	-0.0004905726
190	0xbbd10bd7	-0.0063795852
191	0x3a8a8aff	0.0010569989

value_net.0.attention.out_proj.weight f4 [64, 64]
0	0xbbc15f6e	-0.0059012687
1	0x3d3bf8d3	0.045891594
2	0xbb9d6a8f	-0.0048039625
3	0x3d9ed114	0.07754722
4	0x3d5c7203	0.053819668
5	0xbcd29357	-0.025705023
6	0xbd7533fa	-0.05986402
7	0xbd9a4cb7	-0.075341634
8	0xbca1cb71	-0.019750329
9	0xbdd5fab7	-0.10448211
10	0x3d8c75a6	0.06858377
11	0x3d83567c	0.0641298
12	0x3d0f0b9c	0.03492318
13	0x3d08ae32	0.03336925
14	0x3dcb6045	0.09930471
15	0xbd95c575	-0.073130526
16	0xbd6fbe6f	-0.05853122
17	0xbd053e2b	-0.03252999
18	0x3da073ae	0.07834564
19	0x3cd63bea	0.026151616
20	0xbdcdc2a0	-0.100468874
21	0xbbeafa9b	-0.007170988
22	0x3d85b003	0.06527712
23	0x3d9d6a58	0.07686299
24	0xb9157e14	-0.00014256715
25	0xbda3787b	-0.07981964
26	0x3b80d365	0.00393145
27	0xbde47ab7	-0.111562185
28	0xbc1ff635	-0.00976329
29	0x3d938a05	0.072040595
30	0xbd93cae0	-0.0721643
31	0xbd0c0285	-0.03418209
32	0xbd0f0d6d	-0.034924913
33	0x3cfb30e7	0.030662967
34	0xbdf0de1d	-0.11761115
35	0xbd9b4839	-0.07582135
36	0xbd290041	-0.041260008
37	0xbd97a6ce	-0.07404862
38	0xbd6540e5	-0.05597009
39	0x3d3a6682	0.045507915
40	0x3d6d8100	0.057984352
41	0x3ddd505e	0.108063444
42	0x3d4a68a1	0.04941619
43	0x3dce565b	0.10075065
44	0xbdf6c79a	-0.1204979
45	0x3d06253b	0.03275035
46	0xbcf4d4a0	-0.029886544
47	0x3ded5e22	0.1159022
48	0x3d3b3a50	0.045709908
49	0x3b531c5a	0.0032212944
50	0x3d912583	0.07087233
51	0xbcc2b145	-0.02376617
52	0x3b512fc5	0.0031919342
53	0x3d7a6426	0.061130665
54	0xbcaf7955	-0.02142016
55	0xbd3217a7	-0.043479588
56	0x3deb4c95	0.11489216
57	0xbc4bb638	-0.012433581
58	0x3c2ccfc6	0.010547584
59	0x3d76eb86	0.060283206
60	0xbd8aab2e	-0.06770931
61	0xbdc8abd0	-0.09798396
62	0xbd73c9c5	-0.059518594
63	0x3d8b876e	0.068129405
64	0xbdf803cb	-0.121100985
65	0x3de391a0	0.1111176
66	0xbb327e3c	-0.0027235886
67	0x3da89ff9	0.08233637
68	0x3d6bc1c5	0.05755784
69	0x3d81dc44	0.063408405
70	0xbdb3b853	-0.087753914
71	0x3ddffe28	0.10937148
72	0x3ddab81b	0.106796466
73	0xbdf91fb8	-0.12164253
74	0xbdd58d8b	-0.10427388
75	0x3d6a7bcd	0.057246972
76	0x3d1d17b5	0.038352687
77	0xbd2690a7	-0.040665295
78	0x3decee13	0.115688466
79	0xbbe78d42	-0.0070664
80	0x3db0af8a	0.086272314
81	0x3cadc4a6	0.021211933
82	0xbc4f304d	-0.012645793
83	0x3d38660f	0.045019206
84	0x3dec85d2	0.11548962
85	0xbde311a9	-0.11087353
86	0x3cebc642	0.02878106
87	0xbdcafa36	-0.09911005
88	0x3dbaab92	0.09114756
89	0xbce5a070	-0.028030604
90	0xbce95baa	-0.028486092
91	0x3dd69c93	0.10479083
92	0xbd115dac	-0.035489723
93	0x3dc60c09	0.09670264
94	0x3d64518f	0.055741843
95	0xbdb3d955	-0.08781687
96	0xbd16db9f	-0.03683054
97	0x3d76534c	0.06013803
98	0x3dc0e8b5	0.09419385
99	0xbcc29c90	-0.023756295
100	0xbd678c88	-0.056530505
101	0xbd17a3a8	-0.03702131
102	0xbdcf6ced	-0.10128198
103	0xbd220c5d	-0.03956257
104	0x3c5af0eb	0.013363103
105	0x3d84767b	0.06467911
106	0x3c963451	0.018335493
107	0x3dda262c	0.10651812
108	0xbdeab733	-0.11460724
109	0x3dc67c15	0.096916355
110	0x3cf1ad51	0.029501589
111	0x3c85970e	0.01630738
112	0xbd1c37cb	-0.038139146
113	0x3bb09bcf	0.0053896676
114	0x3db4554b	0.08805331
115	0x3d73bc81	0.059505943
116	0xbd92e4e4	-0.07172564
117	0xbddcc711	-0.107801564
118	0x3daf3229	0.08554489
119	0x3dbcf8c2	0.09227134
120	0xbd8cdab8	-0.06877655
121	0xbd50576a	-0.050864615
122	0xbd864856	-0.06556766
123	0x3dcc74e9	0.09983236
124	0x3d6580c4	0.056031004
125	0x3d928505	0.07154278
126	0x3da4b688	0.080426276
127	0xbd8b0dda	-0.06789751
128	0xbdab5801	-0.08366395
129	0xbcf8588c	-0.03031566
130	0xbdb2f14d	-0.08737431
131	0xbda58f8a	-0.080840185
132	0x3d1656f9	0.036704037
133	0x3c8b19b3	0.016980028
134	0xbdb2d957	-0.087328605
135	0xbcdf34b9	-0.02724682
136	0xbd1977da	-0.037467815
137	0xbdaaaa86	-0.08333306
138	0x3c33c32a	0.010971824
139	0xbdb591d4	-0.08865705
140	0x3d14248f	0.036167677
141	0x3d3e40e9	0.046448622
142	0xbdbb8cb4	-0.09157696
143	0x3cd14135	0.025543788
144	0x3dde3dea	0.10851653
145	0x3d93e7b8	0.07221931
146	0x3d210d99	0.03931961
147	0xbd2be40c	-0.04196553
148	0x3dc0cba5	0.09413842
149	0x3db8efc4	0.09030107
150	0x3c6fbef9	0.014632934
151	0xbc45b02e	-0.01206593
152	0x3d9c2584	0.07624343
153	0xbd3a5275	-0.045488793
154	0xbdcc9b56	-0.099905655
155	0x3d1e1afe	0.03859996
156	0x3de1d9fe	0.11027907
157	0xbdd10121	-0.102052934
158	0x3db6df08	0.089292586
159	0x3cb8a4a8	0.022539452
160	0x3cd6860a	0.026186962
161	0xbce5bcc0	-0.028044105
162	0xbdb486ea	-0.08814795
163	0xbdd70afa	-0.105001405
164	0x3de3d77b	0.11125084
165	0xbd99e0a9	-0.07513554
166	0xbd1ec52f	-0.038762268
167	0x3d07db60	0.033168197
168	0xbd151261	-0.03639448
169	0xbcd5c22a	-0.026093561
170	0xbdf38ed5	-0.118924774
171	0xbdc3b884	-0.09556678
172	0xbd7372a0	-0.059435487
173	0xbdd6a517	-0.10480707
174	0x3ac2e83b	0.0014870235
175	0xbddb6306	-0.107122466
176	0xbd939188	-0.07205492
177	0x3dce55ce	0.1007496
178	0xbc558118	-0.013031267
179	0xbd954cda	-0.07290049
180	0xbbd71a3f	-0.006564408
181	0xbe01b1d0	-0.12665486
182	0x3d835ed0	0.064145684
183	0xbda0ac8c	-0.07845411
184	0xbc373b16	-0.011183521
185	0x3d85733d	0.065161206
186	0xbbd52744	-0.006504925
187	0xbd0fead6	-0.035136066
188	0xbd639b20	-0.05556786
189	0x3bdffdd4	0.0068356786
190	0xbdba2e66	-0.09090881
191	0x3d13ce32	0.036085315
192	0x3d1bc965	0.03803386
193	0xbd65f84d	-0.056145
194	0x3dfc9be8	0.12334424
195	0x3d2de967	0.042458918
196	0x3c3e6983	0.011621836
197	0xbddee19f	-0.108828776
198	0x3d155285	0.03645565
199	0x3d83e2ec	0.06439766
200	0xbc86561f	-0.016398488
201	0xbd9586e6	-0.073011205
202	0x3d129a85	0.035791893
203	0xbdbd3bd7	-0.09239929
204	0x3d705ea0	0.05868399
205	0xbdd659e8	-0.10466367
206	0xbd65705f	-0.05601537
207	0x3de1e66e	0.11030279
208	0xbc40751e	-0.011746673
209	0xbc2f0c3a	-0.010684067
210	0x3dd78b62	0.10524632
211	0xbce7559f	-0.02823907
212	0xbc421b93	-0.0118473945
213	0xbd84be1c	-0.06481573
214	0x3d070502	0.03296376
215	0x3dc57126	0.09640722
216	0xbdcefa90	-0.10106385
217	0x3d7794f7	0.0604448
218	0x3d98cc07	0.0746079
219	0x3d18b132	0.03727836
220	0x3de6ff79	0.11279196
221	0xbd8370c1	-0.064179905
222	0xbd53248c	-0.051548526
223	0x3db1e7fc	0.08686826
224	0x3d43850f	0.047734316
225	0xbd9d41ba	-0.07678552
226	0x3dba1dce	0.09087716
227	0xbd7848e5	-0.060616393
228	0xbdc78f39	-0.097441144
229	0x3d17e543	0.037083875
230	0x3decd0da	0.11563273
231	0xbd830926	-0.06398229
232	0xbdf11c81	-0.11773015
233	0x3c0c769b	0.0085732
234	0x3cf2da1f	0.029645024
235	0x3dc78dc8	0.097438395
236	0xbd8779fc	-0.066150635
237	0xbd741858	-0.05959353
238	0xbdb5f614	-0.08884826
239	0x3dbae423	0.09125545
240	0x3dec81cf	0.115481965
241	0xbde64a73	-0.11244669
242	0xbccb0840	-0.024784207
243	0x3ca20863	0.01977939
244	0x3cf934eb	0.030420741
245	0xbcf21815	-0.029552499
246	0xbd942239	-0.0723309
247	0x3da489f1	0.08034123
248	0xbcb85c4e	-0.022504952
249	0x3d00410e	0.03131204
250	0x3e036eba	0.12835208
251	0x3deba3f6	0.115058824
252	0xbcfc2aa6	-0.030782055
253	0xbd592eb9	-0.053023074
254	0xbc2f7f13	-0.010711449
255	0xbd54b256	-0.051927887

value_net.0.attention.out_proj.bias f4 [64]
0	0x3a9ff6df	0.0012204311
1	0xbbcf7208	-0.0063307323
2	0x3b4a846d	0.0030901686
3	0x3b1e4d77	0.002415506
4	0x38b9cf52	8.860104e-05
5	0x3b7f0c69	0.003891731
6	0xbb3b8788	-0.0028614718
7	0xbb964e26	-0.0045869527
8	0xbb13cfe2	-0.0022554328
9	0x3c4652d2	0.012104707
10	0xbbad337e	-0.0052856794
11	0xbab76f02	-0.0013994875
12	0xbb966bb7	-0.0045904773
13	0x3aaf4d29	0.0013374436
14	0x3b5a4896	0.0033307425
15	0x3af7de3c	0.0018910835
16	0xbb8cfe1a	-0.004302752
17	0xb9ef53bc	-0.0004564802
18	0xbb1674c1	-0.0022957774
19	0xbb56eddf	-0.003279559
20	0xbb069152	-0.0020533395
21	0xbb36365c	-0.0027803397
22	0xbbb42748	-0.0054978468
23	0xbb1bb528	-0.00237591
24	0x3b105b76	0.0022027171
25	0xbb987207	-0.004652265
26	0xb9596ef5	-0.00020736067
27	0x3a10b9a1	0.0005520825
28	0x3b2e3ae5	0.0026585397
29	0x3a366395	0.0006957588
30	0xbb4528c5	-0.0030084115
31	0xbb98db94	-0.0046648476
32	0x3b8694ce	0.0041070944
33	0xba43db6c	-0.0007471356
34	0xbaa393aa	-0.001247992
35	0xbbea40c4	-0.007148834
36	0x3b27c441	0.0025599154
37	0xbb96e2d3	-0.0046046763
38	0x3b07d963	0.0020728938
39	0xbbc4458c	-0.005989736
40	0xbbf3c650	-0.007439412
41	0xbb3cf330	-0.0028831474
42	0x3af87022	0.0018954317
43	0xbb067699	-0.0020517467
44	0xba4e4976	-0.0007869223
45	0x3bb8196a	0.005618264
46	0xbb5bf88c	-0.0033564894
47	0xba7a4a03	-0.0009547772
48	0xbb9b9146	-0.0047475426
49	0x3ab3ccca	0.0013717648
50	0xbb968852	-0.0045938874
51	0xbb99ad96	-0.0046898825
52	0xbb9ebc1c	-0.0048442017
53	0xbabc1e21	-0.0014352241
54	0x3bfe38a4	0.007758217
55	0x3ab901f3	0.0014114961
56	0x3af36819	0.0018570452
57	0xba7c4d9a	-0.00096246006
58	0xbb1ed858	-0.0024237838
59	0xba55cca4	-0.0008155799
60	0xbb8165ee	-0.0039489185
61	0x3beb28b2	0.007176482
62	0xbabd7eac	-0.0014457307
63	0x3c1724b0	0.009225056

value_net.2.weight f4 [1, 64]
0	0xbd654491	-0.055973593
1	0xbd46c410	-0.048526824
2	0x3dc6e0c3	0.09710839
3	0x3dc79b7f	0.097464554
4	0xbd12e2c3	-0.035860788
5	0x3dc01760	0.093794584
6	0x3dc1659a	0.09443207
7	0x3cfab0b0	0.03060183
8	0x3ca6d8c1	0.020367028
9	0x3d3bb524	0.045827046
10	0xbd5b988c	-0.053612277
11	0x3c38907d	0.011264917
12	0x3dc9e094	0.09857288
13	0xbda82c0e	-0.08211528
14	0x3d083d6e	0.03326171
15	0x3d9d3cfe	0.07677649
16	0xbd1c7bc2	-0.038203962
17	0xbd159eb3	-0.0365283
18	0x3d37803c	0.04480003
19	0x3dae93c6	0.08524279
20	0x3d7b6a71	0.061380807
21	0x3ca097db	0.01960366
22	0xbd86490c	-0.06556901
23	0x3d29bbe7	0.041438963
24	0x3da7b978	0.08189672
25	0xbd91010b	-0.07080277
26	0x3d7088ac	0.05872409
27	0xbd48757a	-0.04894016
28	0x3dc75096	0.097321674
29	0x3ae917a9	0.001778354
30	0x3c7ceb40	0.015436947
31	0x3c120c30	0.008914039
32	0x3afb4880	0.0019171387
33	0x3c96ae3c	0.018393628
34	0x3d9bc329	0.07605583
35	0x3d14b4aa	0.036305107
36	0xbcdb05d5	-0.02673618
37	0x3d1573a0	0.03648722
38	0x3dbbcd36	0.0917
39	0xbd485c5a	-0.0489162
40	0x3ce9e208	0.028550163
41	0xba9f0723	-0.0012132864
42	0x3d6b68f0	0.057473123
43	0x3da9222a	0.082584694
44	0x3b4dafe0	0.0031385347
45	0xbdd5657a	-0.10419746
46	0x3d557fd1	0.05212385
47	0x3de90649	0.11378152
48	0x3db346e6	0.08753757
49	0x3da05f90	0.07830727
50	0xbdcca4cc	-0.0999237
51	0xbd088f47	-0.033339765
52	0xbddd99ec	-0.10820374
53	0x3d7d0cf9	0.06177995
54	0x3b4e1aca	0.0031449073
55	0xbca7e900	-0.020496845
56	0x3d84267a	0.06452651
57	0x3d62bf40	0.05535817
58	0xbd8e2437	-0.06940501
59	0xbd9b4d5c	-0.075831145
60	0x3ca2757d	0.019831413
61	0x3c03ec1f	0.008051901
62	0x3d868824	0.065689355
63	0x3dd746be	0.1051154
