scripts/models/602/34/4/actorModel.pth (torch, 216555 bytes, 12 tensors)

policy_net.0.input_layer.weight f4 [81, 128]
000000 b8 bb bc 3b f1 cb 66 bc 11 bd 08 bd a1 47 cc 3c
       0.0057596825 -0.014086709 -0.033383433 0.0249365
000010 84 bd 78 bd 76 46 36 bd 03 9b aa 3d d9 a3 d7 3c
       -0.06072761 -0.04450079 0.083303474 0.026323246
000020 19 b7 65 bd c8 20 63 3d 88 25 a3 bd 7e f1 6b 3d
       -0.05608282 0.055451185 -0.07966143 0.05760335
000030 fa 15 93 3d 81 f8 3d 3d 54 59 a2 bd 5e 04 87 bd
       0.07181926 0.04637957 -0.07927194 -0.0659263
000040 cf 53 f9 bc e7 92 ac bc db 81 d4 bc 39 bf f1 bc
       -0.03043547 -0.021066142 -0.025940826 -0.029510127
000050 c3 66 91 bc 1e d4 82 ba 72 b8 96 3d b9 4c 81 3d
       -0.017749196 -0.0009981429 0.07359399 0.06313462
000060 ab 33 2e 39 cc 6e aa 3d 1f 34 ed bc d8 3f ef 3c
       0.00016613181 0.08321914 -0.028955517 0.029205248
000070 4b 09 61 bd d1 f4 f3 3b 35 03 69 3d c3 57 65 bd
       -0.054940503 0.007444956 0.056887824 -0.0559919
000080 04 ee c0 bc 42 47 8c bc 79 b1 78 bd 3b 9f ae 3d
       -0.023550995 -0.017123822 -0.060716126 0.085264646
000090 e8 89 7d bc b2 87 f9 3c c6 7d a6 3d 7c ac b2 bd
       -0.015474774 0.030460212 0.08129458 -0.08724305
0000a0 b5 8e 30 3c 91 3c 9f bd e3 92 94 3d 51 2f 96 bd
       0.0107762115 -0.07775224 0.07254579 -0.07333244
0000b0 c9 fb 4b 3c 98 ae 1d 3d e7 8e 20 3d 46 fc 54 bd
       0.012450167 0.038496584 0.039198782 -0.0519984
0000c0 ac 94 bd 3c c4 84 38 3d 5b 2e 98 bd 05 f9 16 3d
       0.023142181 0.04504849 -0.074307166 0.036858577
0000d0 35 32 e3 3c ba a4 54 bd cd 07 92 3d 89 aa 48 3d
       0.027733902 -0.051914908 0.07130394 0.04899076
0000e0 ba a8 15 bc 1f 4f 56 bd ab 67 a0 3d fc 45 69 3d
       -0.009134466 -0.05232155 0.07832273 0.056951508
0000f0 df 16 b6 bb 90 85 9a bc 2f 6c 12 bd c9 ad 94 bd
       -0.0055569257 -0.018862516 -0.035747703 -0.072597094
000100 f9 79 6c bd b0 d4 d2 bc c5 ea 46 bd d6 5a 23 3d
       -0.05773351 -0.025736183 -0.048563737 0.03988155
000110 e3 02 dc bc 87 e0 07 bc ea f1 83 3c 04 5f 4a 3c
       -0.026856845 -0.008293278 0.016106565 0.012351755
000120 7e 65 09 bd 85 00 8b 3d 2d 31 74 3d 5c bd 6e bd
       -0.033544056 0.067872085 0.05961721 -0.058286056
000130 7a 2e ac 3d 94 53 7e bb 47 96 5e bd ec 4a 6d bd
       0.08407302 -0.003880714 -0.054342534 -0.05793278
000140 b8 64 a8 bc a0 3f 92 3b ad 44 af 3d 38 b6 49 bd
       -0.020555839 0.004463151 0.08558021 -0.049246043
000150 b7 98 9c bd 1b b1 5b 3d dc 2c a0 bb f4 e4 e2 bc
       -0.076463155 0.053635698 -0.00488816 -0.027697064
000160 a2 94 a4 bd 28 b8 8b 3c 98 d9 02 3c 13 77 75 bd
       -0.08036162 0.017055586 0.007986449 -0.05992801
000170 ad 59 9d bd 0a 50 2e bd cd 34 8a bd b7 c4 64 bd
       -0.0768312 -0.0425568 -0.06748352 -0.055851664
000180 0c b3 a5 bd fc 8b b3 3d 67 af 29 bd 0e 8b a8 bd
       -0.08090791 0.08766934 -0.041427042 -0.082296476
000190 3c 23 4d bc 81 75 9d bc 4e f9 30 bd 79 15 29 3d
       -0.012520608 -0.01922107 -0.043206505 0.041280244
0001a0 2d 32 86 3d f9 b2 73 3b 72 23 8f 3d f2 b2 ac bc
       0.06552539 0.0037185533 0.069891825 -0.021081422
0001b0 23 7a 25 3d b9 f1 92 3d 2a ad 9e 3c 06 c5 e2 bc
       0.04039968 0.07175011 0.01936968 -0.027681839
0001c0 ac 41 57 bd e3 0c 56 bd 84 36 86 3c 5c ae 94 bd
       -0.052552864 -0.052258383 0.016383417 -0.07259819
0001d0 9a 53 84 3d ad 07 87 bd cc 57 b0 bc c0 92 7c 3d
       0.06461258 -0.06593261 -0.02152624 0.06166339
0001e0 af 28 71 3d 40 d7 3d 3d c7 68 21 3d ca 5c b0 bc
       0.05887669 0.046347857 0.039406564 -0.02152862
0001f0 86 02 ac bc 07 eb c5 3c d1 cd 6d bd 00 3c 64 bd
       -0.020997297 0.024159921 -0.05805761 -0.055721283
000200 cf c6 74 3d de 03 5e 3c 7e 52 4e bc 76 3f 05 bd
       0.05975991 0.013550727 -0.01259291 -0.032531224
000210 4c c1 99 3c a3 b0 71 bd 63 9f a8 bd c4 46 ee bc
       0.018768929 -0.059006345 -0.082335256 -0.029086478
000220 9a a9 a2 bd 4d d3 9e bc 31 42 a6 bb 92 15 8c 3d
       -0.07942505 -0.019387865 -0.0050738086 0.06840052
000230 62 46 c1 3c 2d 01 a2 bd a8 cf b2 3d a5 ef 97 3d
       0.023593131 -0.079103805 0.087310135 0.074187554
000240 84 72 83 bd 69 7f 15 bc 63 4d 1f bb 8d 74 0f bd
       -0.064183265 -0.009124615 -0.00243076 -0.03502326
000250 ef 73 9c 3b 17 e8 56 bd db 34 9f 3d 92 39 94 3d
       0.0047745625 -0.052467432 0.07773753 0.07237543
000260 08 5a 64 3d 72 cc 2a bd 9a 46 ac bc 14 de fe 3a
       0.055749923 -0.04169888 -0.02102976 0.0019444847
000270 66 91 2d bc bc 5e b0 bd 1a 41 45 bc fe 40 58 3d
       -0.010593748 -0.08611819 -0.012039447 0.052796356
000280 d3 5e a8 3d 4b 3d b6 bc e4 d1 91 3d 66 8b 5a bc
       0.08221211 -0.022246024 0.071201116 -0.013338899
000290 c1 c2 52 bd 00 ec 47 3d ae f8 75 3b 1b a4 8d bd
       -0.051455263 0.04880905 0.0037532258 -0.06916066
0002a0 d9 81 92 bd cb 44 50 bb c2 80 ac bd 82 d9 d0 ba
       -0.07153673 -0.0031779285 -0.08422996 -0.0015933963
0002b0 c3 da 80 bd f9 a6 97 bd 00 22 31 3c 2f 64 7b bd
       -0.062917255 -0.074048944 0.010811329 -0.06137484
0002c0 d2 b9 16 bd 96 67 81 bd c5 d8 70 3d c5 7b f3 bc
       -0.036798306 -0.063185856 0.058800478 -0.029722104
0002d0 b2 7c a5 bd 78 0a 23 bd 0c ee 25 bd b2 6d 12 3d
       -0.08080424 -0.039804906 -0.040510222 0.035749145
0002e0 d3 25 ba 3c 5e 8b 76 3d 53 30 98 3c 15 70 a5 bd
       0.022723114 0.060191505 0.01857773 -0.080780186
0002f0 05 7d 21 bd d3 cb 17 bd 88 6f a7 bc 55 8c d4 ba
       -0.03942587 -0.037059616 -0.020438924 -0.0016216139
000300 92 1f 0c bd c7 17 39 bd af 8a ac 3d 8a db 23 3d
       -0.034209795 -0.04518869 0.08424889 0.04000429
000310 41 67 e4 3c 2d a0 92 bd fd a6 8b bd ff b3 99 3c
       0.027881267 -0.07159457 -0.0681896 0.018762587
000320 49 40 86 bd 0a 43 8f 3d c8 b8 92 bd a4 4d 43 bd
       -0.0655523 0.069952086 -0.071641505 -0.047681466
000330 08 9c 0e bd bb 49 b6 3c c6 31 80 3c f4 6d 1f 3a
       -0.03481677 0.022251954 0.015648734 0.0006081753
000340 11 5c 4e 3d e2 5e c3 3b 59 e5 86 bd e0 d4 98 3d
       0.05038077 0.0059622386 -0.06586713 0.07462478
000350 e8 f8 1f 3d a9 9f 5d bd b6 00 9a bd 3f 10 86 3d
       0.039055735 -0.054107342 -0.07519667 0.065460674
000360 48 73 37 bd a2 23 61 bd eb bf cd 3c 4b cb 87 3c
       -0.044787675 -0.054965623 0.025115928 0.01657643
000370 1b 33 6b 3c bb b6 90 3d 53 36 1e 3d f0 34 6b bd
       0.014355446 0.07066103 0.038626026 -0.057423532
000380 ee ac 89 3d 1c fb 96 3d 7d f0 95 3b 42 95 9b 3d
       0.06722437 0.07372114 0.0045757876 0.07596828
000390 d9 2e 39 bd c9 5d 1d bd 08 a7 ed bb b5 90 62 3d
       -0.045210693 -0.03841952 -0.0072525777 0.055313785
0003a0 6d 7f fe bc 79 6c 5b 3d f0 3b 9d 3b 1c 44 b8 3c
       -0.03106662 0.053570244 0.004798405 0.022493415
0003b0 f6 13 83 bd 95 e2 42 3d 7d da ed 3c 4b 2a 16 3c
       -0.064002916 0.047579367 0.029034847 0.009165357
0003c0 05 a3 81 3d 39 3a 92 3d 1b ec 6a 3d 4f c0 a9 3c
       0.06329922 0.07140011 0.057354074 0.020721583
0003d0 97 ff af 3d 63 96 f5 bc e3 7e 4d 3d 82 d2 22 bd
       0.08593672 -0.029978937 0.050169837 -0.039751537
0003e0 ef de 10 3d bc 64 92 3b 99 d2 8d bd 52 cb 75 3d
       0.035368856 0.004467575 -0.06924934 0.060008354
0003f0 5a 17 a4 3a 34 2a 82 3d a7 f9 9f 3d e6 24 95 3d
       0.0012519166 0.06355706 0.07811289 0.072824284

policy_net.0.input_layer.bias f4 [81]
000000 0b 43 33 bd 51 eb c1 bc 3d e6 da 3b 83 2a 2f 3d
       -0.04376511 -0.023671778 0.0066802786 0.04276515
000010 24 55 79 bd 35 f4 fb 3c 9c b7 39 3c 34 8f 6f bd
       -0.060872212 0.030756095 0.01133528 -0.05848618
000020 01 68 99 bd bf 32 cc bc a1 ff 97 3d 75 16 16 3d
       -0.0749054 -0.024926541 0.07421804 0.03664251
000030 85 5a a1 bd f9 bf b4 3d 1c 36 0e bd 3d 57 ab 3c
       -0.07878593 0.088256784 -0.03471957 0.020915622
000040 ea b3 8e bd e4 23 da bc f3 a4 a1 3d 30 ed 39 bc
       -0.0696791 -0.026628442 0.0789279 -0.011348054
000050 0f e6 34 bc 1e 87 8f bd 78 3a 07 3d f1 f4 dc 3c
       -0.011041178 -0.070081934 0.033014745 0.026972266
000060 0b 0c 88 bd c9 99 56 3c 9c c7 e6 bc 3c e1 b5 bc
       -0.06642922 0.013098189 -0.028171353 -0.022202127
000070 0f 83 82 bd 09 02 11 bc 4f 50 fb 3c c3 cf 25 3d
       -0.06372654 -0.008850583 0.030677943 0.04048134
000080 67 ae 4a 3d f5 cc 8e 3d 62 4f 7f bd e0 1c 2e bc
       0.04948273 0.06972686 -0.062331565 -0.0106270015
000090 e7 09 78 bd 32 1f 8c 3c 62 ab d7 bc 13 00 49 3d
       -0.06055632 0.017104719 -0.026326839 0.049072336
0000a0 a9 5b 3d bd 3f 37 21 bd b6 68 63 bc 85 df 3e bd
       -0.046229992 -0.039359327 -0.0138799455 -0.046599884
0000b0 51 8b 66 3d 3d 78 5b 3d 2d 97 b3 bd 7a 54 a7 3d
       0.056285206 0.053581465 -0.08769069 0.081704095
0000c0 ff d7 b6 3b b7 f7 4d 3b 58 9d 84 bc 5b 2c b7 3c
       0.005579948 0.0031428167 -0.016188309 0.022360018
0000d0 ba 24 20 3d 6d 1a 9d 3d ae db aa 3c 84 6b bb 3c
       0.039097525 0.07671056 0.020856705 0.022878416
0000e0 e4 a8 e7 3c b7 80 3b 3d b3 e8 b1 bb 7a 78 ae bd
       0.028278776 0.04577705 -0.0054293512 -0.08519073
0000f0 f2 f5 a5 3d 38 3a ab 3b e1 cb f6 bc 83 ff 7a bd
       0.08103551 0.005225446 -0.030126514 -0.06127883
000100 74 53 49 bd 4a a4 be 3c 83 9f 67 3d ba 93 66 3d
       -0.049151853 0.023271699 0.056548607 0.056293227
000110 23 46 20 3d 6f ba a4 3c 71 7c fe 3c 13 89 b8 3c
       0.039129388 0.02010843 0.031065198 0.0225263
000120 91 33 43 3d b8 71 fa 3b 01 ad e2 3c 21 be 9e 3d
       0.0476566 0.007642951 0.027670385 0.07751108
000130 87 9c ed bc fc 23 bb 3c 59 c4 34 3d c7 21 a5 3d
       -0.029005302 0.022844307 0.044132564 0.08063083
000140 a0 ec 05 3d
       0.032696366

policy_net.0.output_layer.weight f4 [81, 81]
000000 0b f7 c0 3d 56 be 4b bc 31 c0 73 bd 9d a6 c3 bc
       0.0942212 -0.012435516 -0.05950946 -0.023883158
000010 99 bb 37 bd 19 6a a4 3d c9 74 c2 bd 32 de dc bd
       -0.04485664 0.08028049 -0.09494931 -0.10784568
000020 dd 2f a0 3c f2 b7 8e bc 59 5b 7e bd ae e5 61 3d
       0.019554073 -0.017421696 -0.062098835 0.05515068
000030 c0 02 2a 3d b9 5c e8 bc f2 c2 2a bd 24 13 ae 3d
       0.04150653 -0.028364526 -0.04168982 0.084997445
000040 ab 38 96 3d 69 7a 93 bd 7e 52 87 3d f0 d3 c3 bb
       0.07335027 -0.07201082 0.06607531 -0.0059761927
000050 ae de 2b bd e7 8a 31 3d 3c 64 b4 bb 9c 65 60 bc
       -0.04196041 0.04334536 -0.005505113 -0.013696101
000060 33 27 a9 3b 32 16 ab bd fb 47 b2 3d ab f5 6e 3d
       0.0051621436 -0.08353843 0.087051354 0.058339756
000070 95 3a d8 3c d0 35 da 3d dd 36 a6 3d f2 97 88 3c
       0.026395122 0.10654795 0.08115933 0.016674016
000080 44 c7 2a 3d 15 d4 ac 3d f9 cc 8f 3c 46 40 e5 bc
       0.04169394 0.08438889 0.017553793 -0.02798475
000090 d5 2b 45 bc bf f9 94 3d 6b 3b 8c bc a5 fd cb 3d
       -0.012034376 0.07274198 -0.017118176 0.09960488
0000a0 d9 ad 87 bd 72 41 37 3d e1 02 77 3d 57 1b d1 bd
       -0.06624956 0.044740148 0.06030548 -0.10210293
0000b0 d2 fb c0 bd 09 90 d2 3d 94 3a d8 bd c8 63 05 3b
       -0.09423031 0.10281379 -0.10558048 0.0020353664
0000c0 8b da 5b bd fb 40 b9 3d ba 38 10 bc b0 ae ae bd
       -0.053675216 0.09045597 -0.008802587 -0.08529413
0000d0 0f 4f 02 3c 50 fa 9c 3b 2d c0 c1 b8 5d dd da bd
       0.007953419 0.0047905818 -9.238753e-05 -0.10686753
0000e0 dd e5 10 3d be f9 e0 bd 8e bc 6d bb e5 49 de 3d
       0.035375465 -0.109851345 -0.0036275717 0.10853938
0000f0 1f c1 86 bd 79 4c c2 bd 10 5f 98 3d 20 f3 9e bd
       -0.06579804 -0.09487242 0.07440007 -0.07761216
000100 b4 c9 b1 3d a0 e0 26 3d e2 41 a4 bd c5 9c a4 3d
       0.0868105 0.040741563 -0.08020379 0.08037714
000110 48 a2 32 bc 4e 16 a6 3d 82 fa a8 3d fd 2b 55 3d
       -0.010902949 0.08109723 0.082509056 0.052043904
000120 62 b4 54 ba 0b 52 7f bd 7e 68 8e 3d 72 25 71 3d
       -0.00081140373 -0.0623341 0.06953524 0.0588736
000130 a0 9e 21 3d ab cf 8b 3b de d4 b1 bc 46 1b 2d 3c
       0.039457917 0.0042666993 -0.021707948 0.0105655845
000140 95 b4 b8 3d 3d ad 23 bd 6b 2b 71 3d d3 c0 52 bc
       0.09018818 -0.039960135 0.058879297 -0.012863356
000150 56 ce 16 3c e4 44 ae 3d 6e 68 63 3d 90 81 d0 3b
       0.009204468 0.085092336 0.055519514 0.0063631013
000160 ce c2 f2 bc 12 4a c4 3d d4 53 df 3d 15 0e f8 3c
       -0.029633906 0.0958444 0.10904661 0.030280152
000170 52 25 d9 bd 00 62 44 bc 7f 9b 39 bc 07 b6 6d bd
       -0.106028214 -0.011986256 -0.011328577 -0.058034923
000180 47 2a bf 3d 55 3f e3 3d 19 dc 0d bc 79 32 f5 bc
       0.09334236 0.11096064 -0.008658432 -0.029931294
000190 de 50 7f 3d 35 02 95 bd 07 98 b8 3d c7 df 5c bd
       0.06233298 -0.072758116 0.09013372 -0.05392435
0001a0 00 4d 59 3d 65 6c c3 bd e7 cc c4 bd 8e 1f 30 3d
       0.05305195 -0.09542159 -0.096093945 0.042998843
0001b0 70 51 a5 bd 1d de e5 bc 19 3b 8f bd 55 70 d4 3d
       -0.080721736 -0.028060013 -0.06993694 0.10372988
0001c0 1f ac e5 3c fd 42 31 bd e7 64 b1 bd 54 b7 48 3c
       0.028036175 -0.043276776 -0.08661824 0.01225074
0001d0 bd f2 60 3d 40 2d cc 3c c5 e6 7e 3d 90 6f e0 ba
       0.054918993 0.02492392 0.062231798 -0.0017123092
0001e0 9e c6 d1 bc cb 22 1c bd 22 fc 8e bd 25 d6 5e bd
       -0.025607403 -0.03811912 -0.06981684 -0.054403443
0001f0 00 f5 36 3c 15 bf ba bc 0a 63 ab ba 09 e8 70 3a
       0.011166811 -0.022796193 -0.0013075781 0.00091898494
000200 b0 63 a6 bd 67 1a 55 3d f9 4f 08 bd ff 5f 7f 3c
       -0.08124483 0.052027132 -0.033279393 0.015586852
000210 97 6b 91 3d 1d ed bb bd 14 a4 db bd d6 0f 96 bc
       0.07100599 -0.09176085 -0.10724655 -0.018318098
000220 61 5b 5b 3d c0 4f 03 bd f1 38 c5 bc a5 b5 13 bd
       0.053553943 -0.032058477 -0.024075003 -0.0360619
000230 5b 4c cc bd e4 a5 94 3d 3e 14 b1 bd 0e 92 06 3c
       -0.09975501 0.072582036 -0.08646439 0.008213533
000240 dd d2 ea bc ae cf 68 bd 52 d9 92 bd 62 8d b4 3d
       -0.028665 -0.056838684 -0.07170357 0.08816029
000250 4e de ca bd ae 8e 30 bd 3b 94 91 bd e2 f7 09 3c
       -0.099056825 -0.04310482 -0.07108351 0.008420916
000260 c3 50 78 3d a0 c9 83 3d 40 63 e0 3c d7 e5 a5 bd
       0.060623895 0.06434941 0.027391076 -0.08100479
000270 00 7e a1 3d 64 81 aa bd ae 40 bd 3d 6c 79 20 bd
       0.07885361 -0.083254606 0.09240852 -0.039178297
000280 7a eb 41 bd fc da 2d 3d ce c3 3d bd 7e 22 ab bd
       -0.04734371 0.042445168 -0.046329312 -0.08356188
000290 79 a3 b1 bd 40 cd 91 3d 25 17 3e 3d 0d 4f 77 bc
       -0.08673758 0.071192265 0.04640879 -0.015094531
0002a0 e1 b0 9e 3b 1e 3b e2 bb e0 1e 38 3d 66 e2 35 bb
       0.004842863 -0.00690402 0.04495132 -0.0027753352
0002b0 99 5a 6a bd e5 1b ce bd 3d 27 c9 bd b7 98 8c 3d
       -0.057215307 -0.10063914 -0.09821937 0.068650655
0002c0 07 66 52 bd 92 6c ba bd 7e 0f 9c 3d d2 b1 66 bd
       -0.051366832 -0.091027394 0.076201424 -0.056321926
0002d0 ae b8 9e bd 89 79 92 3d f2 10 8d bc d5 bb 89 bd
       -0.077500686 0.07152087 -0.017219994 -0.06725279
0002e0 d5 14 cb bd c0 6c ce 3c 72 76 2c 3d 85 10 af 3d
       -0.09916083 0.02519834 0.042105146 0.08548073
0002f0 24 7c d1 3c b2 77 d8 bd 44 7d 7c bd 0e f1 3e 3d
       0.02557189 -0.10569705 -0.0616429 0.046616606
000300 80 a8 77 3c 32 8b a3 bc 3e 77 df 3d 4d 71 ab 3c
       0.015115857 -0.019963834 0.109114155 0.02092805
000310 f3 7c e0 ba b5 f6 03 3d 77 5a a4 3d 0c a6 05 bd
       -0.0017127082 0.0322177 0.08025067 -0.032629058
000320 8d e0 9b bd 7a b6 92 3c ce 03 90 3d 3d 1e 30 3d
       -0.07611189 0.017909277 0.07031976 0.042997587
000330 d4 3e d7 bc 52 f9 5f bd 29 ef 8f 3d 75 4f 42 3d
       -0.026275076 -0.05468113 0.07028038 0.047439057
000340 27 6c 61 3d 57 d8 85 3d f7 a4 91 3d a5 41 8e bd
       0.055034783 0.06535404 0.07111543 -0.069461145
000350 59 49 05 3d f9 15 c4 3d c7 db e5 3b e5 3f c8 bd
       0.032540653 0.095745035 0.007014725 -0.09777812
000360 d2 7b 24 3d 4e cf 56 bb d0 5b 86 3d 2d 7c d9 3d
       0.040157147 -0.0032777372 0.065604806 0.10619388
000370 f6 c1 19 3d ff b9 22 bb 39 1b 21 bd 89 71 aa 3d
       0.03753849 -0.00248301 -0.039332602 0.08322436
000380 c9 26 df 3d b5 91 bf bd ab 4e da 3d f4 f1 86 bd
       0.108960696 -0.09353963 0.10659536 -0.06589118
000390 88 23 3d 3d b7 f1 e1 bd 19 de b5 3d 5b 74 d4 bd
       0.046176463 -0.110324316 0.088802524 -0.103737555
0003a0 39 b0 3d 3d 27 c5 68 3d d7 91 a1 bd e9 0e d2 bd
       0.046310637 0.056828644 -0.07889145 -0.1025675
0003b0 1b c3 a3 3d e0 f6 40 bd e3 8f c7 bb 34 44 8a bd
       0.07996198 -0.04711044 -0.0060901507 -0.0675129
0003c0 b8 ad bd bc 1b 4e cd bd d2 67 42 bd ae 1c b4 3d
       -0.023154125 -0.10024663 -0.047462292 0.08794533
0003d0 df 7e f8 bc 9e f6 27 3d eb 12 6c bd f5 80 4b bc
       -0.030333934 0.041006677 -0.05763523 -0.0124208825
0003e0 10 82 02 3b 07 c2 9b 3c f9 b6 48 3d 5d 9e 3a bd
       0.001991395 0.019013418 0.04900262 -0.045561183
0003f0 19 aa b8 3d 06 e5 09 bb 8e ce 5c bd f2 12 43 3d
       0.090168186 -0.002104105 -0.053907923 0.04762549

policy_net.0.output_layer.bias f4 [81]
000000 90 a8 84 bd 34 01 94 bb ee bc 3e 3d 62 b2 99 3d
       -0.06477463 -0.004516745 0.046566896 0.07504727
000010 8d cb ad bb b6 23 1d bc 3d 27 7a 3d 79 c4 32 bd
       -0.005303806 -0.009591034 0.061072577 -0.043644402
000020 80 8b c0 bc de 96 bb 39 02 5e ce bd 45 b1 bb 3d
       -0.023504019 0.00035779824 -0.10076524 0.09164671
000030 a5 6a 78 3d 00 4e 9a 3d 2b ba a3 bd e0 59 8e bd
       0.06064858 0.075344086 -0.07994493 -0.06950736
000040 38 b2 f2 bc 95 9e c9 3c 87 00 41 3d f9 c0 56 3d
       -0.029625997 0.02461175 0.047119644 0.052430127
000050 cd c9 90 bd 94 d6 ac 3d 24 a3 ca 3d 97 95 8c 3d
       -0.070697404 0.08439365 0.09894398 0.068644695
000060 49 72 eb bb 29 1d ce 3d c0 6d 24 bd e0 fb 8a bd
       -0.0071852547 0.100641556 -0.04014373 -0.067863226
000070 56 47 04 3b fd 37 16 bd f2 ed 5c 3d 2a ff 4b 3c
       0.002018412 -0.03667449 0.05393786 0.012450973
000080 1d 23 ba bd c8 73 c3 37 d1 85 e7 3c f3 b0 3b 3c
       -0.090887286 2.3299726e-05 0.02826205 0.011455762
000090 c7 b2 45 bc 1e 84 88 bd 10 74 8c 3d 1d 1a 83 bd
       -0.01206655 -0.06665824 0.06858075 -0.06401465
0000a0 c0 e7 96 bd fe e6 2b 3c 0c b0 74 3c f4 5c bc bd
       -0.073684216 0.010492085 0.014934551 -0.09197417
0000b0 20 99 8e bd 5b 3b df bd c8 e4 f3 bc 35 dc aa bd
       -0.069628 -0.10899993 -0.029772177 -0.083427824
0000c0 63 9b bf 3c 6b 45 39 bd 89 c2 c1 bd 1d e4 d6 3c
       0.023389524 -0.045232218 -0.09460933 0.02623182
0000d0 b2 dd 7b bd 1b 86 90 bd cb 0b 2c bd 0d 5d bc bd
       -0.061490722 -0.070568286 -0.042003434 -0.091974355
0000e0 b5 65 b5 bd a4 85 a5 3d 7d 97 46 bc f2 5f 65 bd
       -0.0885729 0.080821306 -0.012121079 -0.055999704
0000f0 f2 9e 83 3d 59 17 82 bd f2 2e 40 bd 55 e9 bb bd
       0.06426801 -0.063521095 -0.04691977 -0.09175364
000100 37 d9 b3 bd e2 b2 80 bd d2 1f b3 bc 4d 62 61 bc
       -0.08781665 -0.06284119 -0.021865759 -0.013756347
000110 a3 d7 89 bb ce 02 d6 bc 63 e1 bf 3c ab e5 9c 3b
       -0.004206614 -0.026124384 0.023422902 0.0047881207
000120 37 2b 85 3d fe 69 c7 bd e7 03 64 3d 12 a2 26 bd
       0.06502383 -0.09737013 0.055667784 -0.040681906
000130 8b e2 2a 3d 12 09 13 bd 7b ec 96 3d 97 3c e1 3d
       0.041719954 -0.035897322 0.07369324 0.10997885
000140 3d 6b 8b bd
       -0.068075635

policy_net.0.attention.in_proj_weight f4 [243, 81]
000000 1a 7e 66 3c a2 b5 3b bd 8c 03 de 3d 6f 31 a0 bd
       0.014068151 -0.045827515 0.1084052 -0.07821929
000010 36 9e 07 3e 3d f8 ee bd ae 9a f8 3d 8b 1c cf bd
       0.13243946 -0.116684414 0.12138878 -0.10112866
000020 50 1c 70 3c 76 58 55 bd 33 41 00 3d 7c cb 86 3d
       0.014655188 -0.052086316 0.03131218 0.0658178
000030 76 f9 99 bd d3 15 f6 3d 4a 65 a7 3d 35 c0 1f bd
       -0.07518284 0.120158814 0.08173616 -0.039001662
000040 dd 24 30 bc ff 60 b8 3d 3f d9 a5 3d c9 b5 62 3d
       -0.010750976 0.090028755 0.08098077 0.055349145
000050 c2 6e 8e bd c6 c8 42 bd 07 35 19 bc 1f 06 dc 3d
       -0.06954719 -0.047554754 -0.009351022 0.10743355
000060 82 2d 78 bb 48 38 b0 3d 56 69 fa 3d d1 72 7a 3d
       -0.0037868922 0.08604485 0.122271225 0.061144654
000070 6c 21 26 3d 2a e9 e9 bd 61 2d b8 bc 9e aa a0 bd
       0.040559217 -0.11421426 -0.022482576 -0.07845043
000080 5c cb bf bd 21 ed 90 bd 72 d9 d7 3d 95 7b fc 3d
       -0.093649596 -0.07076479 0.10539521 0.12328259
000090 3a fd 88 bd 4e 14 47 bd 2e 61 de 3d 44 14 cf bb
       -0.06688924 -0.04860335 0.10858379 -0.0063195545
0000a0 3c d6 80 3d 15 60 c0 bd 4f 4d d0 3d 79 5b 4f bd
       0.06290862 -0.09393326 0.101709954 -0.050624344
0000b0 07 c7 0a 3d e8 ae 8a 3a d4 1d 08 bd 18 7f 8c bd
       0.033881214 0.001058069 -0.03323157 -0.06860179
0000c0 b8 bb cf bd 0a 88 19 bc 97 df c6 bc aa 18 15 3d
       -0.101432264 -0.009370813 -0.024276538 0.036400475
0000d0 2e 82 a8 3d b0 3f 07 3e e8 f0 f1 bd 43 80 84 bc
       0.08227955 0.13207889 -0.11813527 -0.016174441
0000e0 db a8 a3 bc 54 46 80 3d 3d 97 c6 3d 88 c6 0d bd
       -0.019977977 0.06263414 0.09696815 -0.034613162
0000f0 74 a7 07 3d 4d 51 b4 bd bd 46 8f bd b2 4e 16 3d
       0.03311868 -0.088045694 -0.06995914 0.036696143
000100 f1 f4 14 bd f6 10 02 be 17 40 20 3d 62 45 c1 3b
       -0.036366407 -0.12701783 0.03912362 0.0058981637
000110 00 e5 e1 bd a4 23 f2 bc 5e df e9 3d 4d 6c 32 bd
       -0.110300064 -0.02955801 0.11419557 -0.043560315
000120 0d eb d7 3b 13 87 c8 3d df 15 94 3d 5b 37 16 3d
       0.0065892995 0.09791388 0.07230734 0.036673885
000130 7e dc fe bd 38 f3 cd bd 7f f0 51 3d 21 3a 7e 3b
       -0.12444399 -0.10056156 0.051254746 0.0038791972
000140 de 98 c4 bd 4c 5b 7e 3d e0 42 3d bd 43 20 98 bd
       -0.095994696 0.062098786 -0.046206355 -0.074280284
000150 1a cf 92 3d db 1b 94 bd c1 9e 06 be 75 92 0f bc
       0.07168408 -0.072318755 -0.13146497 -0.008762945
000160 d9 55 08 3e 00 77 29 bd 01 58 46 bd 0d c6 18 bc
       0.13313998 -0.041373253 -0.04842377 -0.009324563
000170 f4 e6 a9 3d a0 6c 99 bd 45 11 13 bc b6 4f b9 3c
       0.08296004 -0.07491422 -0.008976285 0.022621017
000180 47 f4 07 3e b6 a1 07 be 89 cf ba bc 25 4a f7 bd
       0.13276778 -0.13245282 -0.022804039 -0.12074689
000190 ed e3 99 bc f8 4e 07 be 31 5c dc 3c db 4d 77 bd
       -0.018785441 -0.13213718 0.026899429 -0.060376983
0001a0 8e 18 bf bd d0 5e ac 3d 14 9d 8a bb aa df 02 be
       -0.09330855 0.084165215 -0.004230151 -0.12780634
0001b0 a7 d1 b4 bd 97 a8 8c 39 ce 0e 93 3d 60 ed 14 bd
       -0.088290505 0.0002682849 0.07180558 -0.03635919
0001c0 8e e0 f3 3d 3b 82 7a bd 5e 36 07 3e e5 6e d9 3d
       0.11908065 -0.061159354 0.13204333 0.106168546
0001d0 fe dd 8a bc a4 1a 02 3e ef 3f f0 bd c5 b3 6c 3d
       -0.016951557 0.12705475 -0.11730944 0.05778863
0001e0 e3 dd 04 bd 8b 7a 0a 3e b9 62 ca 3d 18 0f 99 3c
       -0.03243817 0.13523309 0.09882111 0.018683955
0001f0 a8 ba e0 3c 62 9c ae bd 33 2a e5 3d 52 16 ad bb
       0.027432755 -0.085259214 0.111896895 -0.005282202
000200 77 ff cb bd d5 cf 83 3d 3b f3 33 3d 0d 0f 4d 3d
       -0.099608354 0.06436125 0.043933135 0.05006318
000210 85 41 d6 bb 2f 97 03 be cc a9 74 bd 04 4f fc bd
       -0.0065385723 -0.1285064 -0.059732243 -0.123197585
000220 fe 26 0a be fd e5 37 bd 58 92 8a 3d 81 79 b7 bd
       -0.13491437 -0.04489707 0.06766194 -0.08958722
000230 70 72 de 3d 73 4e 3e 3c 75 b9 1d 3c d7 3e c8 3d
       0.10861671 0.011615383 0.009626736 0.09777611
000240 e9 04 0b 3c e1 75 74 3d 69 ae 94 bd 07 dc 62 bd
       0.008485057 0.05968273 -0.072598286 -0.055385616
000250 0c 55 8e 3c 15 f3 dd 3d 2c d0 b3 3c 07 e3 31 bd
       0.017374538 0.1083738 0.02194985 -0.0434294
000260 0b d0 87 bd fc ec a0 3d dd 30 09 be fa 48 2d bd
       -0.06631478 0.07857701 -0.13397546 -0.042305924
000270 a7 52 b0 bb 85 83 0b 3d 05 94 88 3d 42 a0 a3 bd
       -0.0053809467 0.034060974 0.066688575 -0.07989551
000280 bc 52 4d bd b9 03 38 3d b7 38 d1 bc 62 33 1d bd
       -0.05012773 0.044925425 -0.025539739 -0.03837908
000290 65 7a 13 3c b4 f5 a2 bd 98 cc ce bd f6 24 62 bd
       0.009001349 -0.079570204 -0.10097617 -0.05521103
0002a0 0c fa 50 3d 00 77 d9 bd e0 85 cd bd 6f c6 6d 3d
       0.051019713 -0.106184006 -0.100353 0.05805057
0002b0 7e 44 aa bd 75 93 00 be 3c f1 a0 bc f1 3f f9 3d
       -0.08313845 -0.1255625 -0.01964628 0.12170399
0002c0 b3 39 cb 3d 63 85 e1 3d 95 bd 33 bd 81 b5 8a 3d
       0.09923115 0.110117696 -0.04388197 0.067729004
0002d0 f6 3c 6e 3c 3b c8 ef bd bc 63 94 bd e2 67 c9 bd
       0.014540901 -0.11708113 -0.07245585 -0.09834267
0002e0 dd cb f5 3d ea e2 81 3d af b6 4f bd 89 fa f7 3d
       0.120017745 0.063421085 -0.05071133 0.12108333
0002f0 d0 a9 09 3d 8b 74 13 bb 0f f6 a0 3d bf 49 4f bd
       0.03360921 -0.0022499885 0.07859432 -0.05060744
000300 73 a5 a8 bd 95 a0 01 bd bd 6c bd 3d 12 53 b4 bd
       -0.08234682 -0.031647284 0.09249256 -0.08804907
000310 be 42 04 3e 7b 67 cc bd fa 99 89 3b d3 5c df 3c
       0.12916085 -0.09980675 0.0041992636 0.027265942
000320 22 f9 cf bd db 3c 85 bd 91 ca 93 bd 6b 6b bb bc
       -0.1015494 -0.06505748 -0.07216371 -0.02287837
000330 ed 6c fd 3d 5c d7 76 bd da 38 66 bd 03 2f d6 3c
       0.123742916 -0.060263976 -0.05620656 0.026145464
000340 53 6c fb bc 01 d3 b4 ba 66 02 f6 3d ab 2c 27 bc
       -0.030691301 -0.0013795794 0.12012176 -0.010203521
000350 49 a8 bc bc 09 02 8b bd 07 72 c9 3c 2b e1 2a 3b
       -0.023029463 -0.067874976 0.024590505 0.0026074152
000360 7e 3f fc 3c ea 95 57 bd 15 31 96 bd fd 5f df 3c
       0.030791994 -0.052633204 -0.073335804 0.02726745
000370 61 dc db ba 59 90 c6 3d 5f a8 ec 3d 0c d8 7d bd
       -0.0016774052 0.09695501 0.11555552 -0.061973616
000380 69 43 ca 3d a3 31 a4 3d 7f 0b fd 3d a1 af 6b 3d
       0.09876139 0.0801728 0.12355708 0.05754054
000390 ae 45 3a 3d 2e e6 f5 3d dc af ca bd 11 f1 1d 3d
       0.045476608 0.12006794 -0.09896824 0.038559977
0003a0 73 52 48 bc 30 f3 a1 bd dd 91 18 bc 90 2a 08 3e
       -0.012226689 -0.079077125 -0.00931212 0.13297486
0003b0 90 2c d0 3d f6 88 2c 3d c9 5b b1 bd 22 89 84 bd
       0.101647496 0.042122804 -0.08660085 -0.064714685
0003c0 05 8e 2d bd c4 1b 94 3d b7 43 96 bd 92 f8 e5 3c
       -0.04237177 0.072318584 -0.07337134 0.02807263
0003d0 dc 43 02 3e 13 47 31 bd 63 27 c9 3d c4 0d da 3c
       0.12721199 -0.043280672 0.098219655 0.026617892
0003e0 fe 7f 0d 3d d7 26 0d bd b7 43 4d bd 70 03 e0 bd
       0.03454589 -0.03446087 -0.050113406 -0.10938156
0003f0 ca 85 7e 3d f4 1e 85 3d 85 36 2a 3c e4 61 07 3e
       0.06213931 0.065000445 0.010388975 0.13220936

policy_net.0.attention.in_proj_bias f4 [243]
000000 49 c7 6a ac 16 5d d2 ae cf 9a c9 2d 37 6e 65 2e
       -3.3364026e-12 -9.56623e-11 2.2919803e-11 5.2166462e-11
000010 2d 7d 9e ad 57 5f 2e 2e 59 cd f3 2d cf aa 2d ae
       -1.801811e-11 3.96477e-11 2.7717094e-11 -3.9487354e-11
000020 be cd 30 2f 5f 73 a8 ad f4 6b da 2d 64 10 9c 2e
       1.6080201e-10 -1.9150624e-11 2.4831671e-11 7.09697e-11
000030 5e 50 bc 2e a7 20 ba 2e 8c 72 c7 ac 65 b9 87 2d
       8.563526e-11 8.464101e-11 -5.6686374e-12 1.5430055e-11
000040 1b 1d 52 2e 89 d4 35 ae f1 1c 27 2e 41 ec 96 2e
       4.7774323e-11 -4.1343404e-11 3.799711e-11 6.8631774e-11
000050 ba 6f 0b ac 52 74 53 ad ff 2a 3d ae 3c e4 54 ae
       -1.9815109e-12 -1.201979e-11 -4.3011813e-11 -4.8405932e-11
000060 d3 2f 3a ad e9 90 62 2e b9 49 b6 ad 55 d3 2c 2e
       -1.0583495e-11 5.1515157e-11 -2.0723744e-11 3.9295973e-11
000070 51 7f 2f ac 83 72 50 2d ae f1 80 ae 2d f4 cc 2d
       -2.493967e-12 1.1848858e-11 -5.863697e-11 2.330055e-11
000080 66 3d 04 2e f6 9d d7 2d b7 47 2e 2e 3d c5 20 2d
       3.0067858e-11 2.4512819e-11 3.9626715e-11 9.138743e-12
000090 33 4f b7 2d 6b c0 34 ae a6 80 12 2c 03 97 3d ae
       2.0839863e-11 -4.1098163e-11 2.0819262e-12 -4.310775e-11
0000a0 fc a6 7f ae 26 e5 23 2e 98 0a 32 ae f0 f7 03 af
       -5.81286e-11 3.7265434e-11 -4.0481923e-11 -1.2002466e-10
0000b0 b1 87 1c ac 4b 20 ab ad 61 de d0 2b 95 8a 01 ad
       -2.2244257e-12 -1.945479e-11 1.4841011e-12 -7.363572e-12
0000c0 08 a0 9b 2d 7f ff 1f 2e 9e 6e e9 2d 54 e9 38 2e
       1.7692528e-11 3.637934e-11 2.6538157e-11 4.2043993e-11
0000d0 d8 3d 0e ad 62 3f 90 2e 2f c7 26 ae 41 4e df ae
       -8.0854975e-12 6.559621e-11 -3.792094e-11 -1.01547666e-10
0000e0 e4 02 6b 2d e4 e7 9d ad d1 17 f9 ad 5b 94 ed 2d
       1.3358845e-11 -1.7951814e-11 -2.83186e-11 2.7009664e-11
0000f0 88 49 3f 2e d6 80 91 ad dd 4e af 2e 96 c5 f4 2d
       4.349368e-11 -1.6541806e-11 7.9720876e-11 2.7827334e-11
000100 cd 15 83 2e be b4 39 ad 70 db 41 ae 89 d2 9d 2e
       5.961063e-11 -1.0556165e-11 -4.407802e-11 7.176932e-11
000110 38 49 61 2d ec 17 90 2e 00 a3 4c 2e 2b 01 f2 2d
       1.2806027e-11 6.552611e-11 4.6529003e-11 2.7512733e-11
000120 2a c6 e1 ad 2e 28 fc 2c d0 de d2 2c 93 df 89 2e
       -2.5667541e-11 7.1667316e-12 5.993296e-12 6.2697535e-11
000130 1d d2 26 ae b3 36 b2 2e a8 c9 ad ae dc 1d f1 ac
       -3.7930648e-11 8.1042194e-11 -7.9029505e-11 -6.852947e-12
000140 d1 2d 78 ae 12 8d bb 22 ca b4 dd a3 b1 b6 31 a3
       -5.6429365e-11 5.0835816e-18 -2.4037435e-17 -9.633876e-18
000150 2a f1 e5 21 f9 2c 2f 23 40 6f 94 a3 30 09 78 23
       1.5581479e-18 9.496292e-18 -1.6093308e-17 1.34460525e-17
000160 5f c0 e7 a2 ab 38 cd a3 a3 04 a0 a2 26 8a 0d 23
       -6.2816356e-18 -2.2250144e-17 -4.3372996e-18 7.672879e-18
000170 fb 0a e2 a3 5b f6 9c a1 94 73 50 a2 e0 7b b7 a1
       -2.450762e-17 -1.0636181e-18 -2.8250443e-18 -1.2433352e-18
000180 82 b6 c6 23 e6 d8 3f a3 9a e4 3b a2 e7 c5 a8 23
       2.1544498e-17 -1.0400061e-17 -2.5464246e-18 1.8298411e-17
000190 e6 fa d0 23 2e a5 ca a2 8d da cc a2 5a 0b 86 23
       2.2657665e-17 -5.49271e-18 -5.552571e-18 1.4533117e-17
0001a0 f4 e6 00 a3 d5 07 8d a3 9d 78 65 23 53 14 12 a3
       -6.9878e-18 -1.5290568e-17 1.2439656e-17 -7.91898e-18
0001b0 c2 c1 1d 23 1e 12 83 22 12 6e bd 22 bc 1e cb a2
       8.552017e-18 3.5526803e-18 5.1345094e-18 -5.50558e-18
0001c0 d6 0a db 22 f7 ab ea 22 56 88 81 22 09 4b 09 23
       5.937154e-18 6.36079e-18 3.510987e-18 7.442674e-18
0001d0 ba 92 2f 23 1c d7 31 a1 a8 d9 ab 23 75 94 7d 20
       9.5178396e-18 -6.025463e-19 1.8632038e-17 2.1479054e-19
0001e0 19 5c 1c 23 31 7f 41 a3 b0 64 d5 20 3d bf 29 a3
       8.476279e-18 -1.0489485e-17 3.6150233e-19 -9.202005e-18
0001f0 6b bd a3 a2 55 92 dd a2 df bf 27 22 02 fd 98 a1
       -4.4381793e-18 -6.0057105e-18 2.2734296e-18 -1.0366891e-18
000200 cd 44 67 a1 16 4a 83 a2 16 f4 32 a3 a9 a3 8c a2
       -7.83569e-19 -3.5586063e-18 -9.7010865e-18 -3.812036e-18
000210 d2 a4 27 a2 ab c9 ba a2 11 9c 11 23 07 0d a9 a2
       -2.2719975e-18 -5.0628925e-18 7.893514e-18 -4.5821335e-18
000220 49 88 e3 a1 39 a2 23 a2 4c 96 a3 21 a7 f5 5e a2
       -1.5418193e-18 -2.21765e-18 1.1085093e-18 -3.0216658e-18
000230 63 a7 1e 23 73 6c af 21 81 d3 a6 20 d7 01 c6 a0
       8.600643e-18 1.1887168e-18 2.8261455e-19 -3.3543722e-19
000240 fb 78 0f a0 23 a2 8d 23 ab 52 6e 22 67 77 d7 a2
       -1.21526e-19 1.5355918e-17 3.2298779e-18 -5.840229e-18
000250 1e 57 46 a2 cd 49 0d a1 96 89 26 21 03 10 a4 a1
       -2.6880123e-18 -4.7870333e-19 5.642508e-19 -1.1117311e-18
000260 7d 7e e8 22 46 3e f4 a2 7a 0d 0e 23 0c 07 a2 22
       6.301765e-18 -6.6202267e-18 7.700689e-18 4.391765e-18
000270 e0 15 d7 a2 6c 7f 99 a2 d4 42 71 21 af df f4 a2
       -5.8299028e-18 -4.1605646e-18 8.174242e-19 -6.6373167e-18
000280 85 f3 21 a2 a4 1e eb 22 6b 7c 35 32 bb 99 a2 b1
       -2.1948487e-18 6.372932e-18 1.0563876e-08 -4.7322977e-09
000290 05 df 16 b2 1e 66 92 31 c1 29 ad b1 c1 eb e3 31
       -8.781858e-09 4.2607686e-09 -5.0397095e-09 6.6333716e-09
0002a0 34 54 bc b0 31 81 e7 af 2e c6 7c b1 00 36 8a 32
       -1.3702732e-09 -4.211045e-10 -3.6783478e-09 1.608987e-08
0002b0 a3 6d 58 32 5e d8 b8 31 73 89 0a 32 44 05 a6 b2
       1.2597783e-08 5.379703e-09 8.0639095e-09 -1.9327338e-08
0002c0 f3 8b dd 31 15 ff ae 31 12 06 96 31 23 b9 cd b0
       6.447857e-09 5.093066e-09 4.3662647e-09 -1.4968332e-09
0002d0 ce 2f 94 b0 7a 6c 1a 32 85 2c 18 b2 1b 09 28 31
       -1.0782004e-09 8.9886445e-09 -8.857687e-09 2.4452393e-09
0002e0 ca 53 78 b2 e8 aa fa b1 bb aa 99 b0 14 f7 85 b0
       -1.4454551e-08 -7.2953874e-09 -1.118074e-09 -9.747247e-10
0002f0 42 8f 26 b1 4a 8b a6 31 58 cf 5e 30 e2 7c 37 31
       -2.4237612e-09 4.847071e-09 8.105778e-10 2.6700993e-09
000300 bc 08 b3 b0 62 17 5b b2 b1 80 88 31 f3 7d c4 30
       -1.3026447e-09 -1.2752794e-08 3.9727515e-09 1.4296674e-09
000310 e1 06 56 32 84 2e 8d 31 82 70 20 31 91 d3 5b b1
       1.24580035e-08 4.1089283e-09 2.3347018e-09 -3.1988956e-09
000320 1b 3c 19 b0 96 63 ac 31 33 ee 51 b1 eb 93 e6 af
       -5.574649e-10 5.0171804e-09 -3.0548903e-09 -4.1941858e-10
000330 fd 7b ee 2f e6 88 bf 30 d2 80 98 b1 43 9a 6b 31
       4.3380047e-10 1.3935988e-09 -4.4384274e-09 3.4284688e-09
000340 e8 66 65 30 4e 0a af b2 4d bb e6 b1 e9 45 70 b1
       8.3455953e-10 -2.0377367e-08 -6.7151746e-09 -3.4964336e-09
000350 3c 1f c4 b0 bb a7 14 32 de c5 5b 32 9d d3 31 b1
       -1.4269754e-09 8.652871e-09 1.27924675e-08 -2.5877178e-09
000360 59 cd e1 31 cb ce 17 32 ad 0d 01 b2 d2 19 fe 31
       6.571707e-09 8.836376e-09 -7.511898e-09 7.3953084e-09
000370 32 cc 10 b2 da 8b b0 30 32 78 5d 30 26 09 04 32
       -8.428332e-09 1.2845434e-09 8.057014e-10 7.685491e-09
000380 90 99 29 b2 22 6c 15 31 17 ce c3 b0 f5 bb 57 b1
       -9.872011e-09 2.174382e-09 -1.4246692e-09 -3.139346e-09
000390 ed 8a bb b1 1d 67 13 b2 63 bd 9c b0 98 e3 6b af
       -5.4582103e-09 -8.579971e-09 -1.1404321e-09 -2.1453983e-10
0003a0 35 a2 9f b1 f0 98 93 b1 a4 3e 0c 31 fc 8f 35 30
       -4.64595e-09 -4.29565e-09 2.0408288e-09 6.605203e-10
0003b0 11 c6 e9 31 51 3c c3 30 a5 1e 4e b2 39 48 fb 31
       6.80371e-09 1.420526e-09 -1.1997746e-08 7.313272e-09
0003c0 d4 6d 1f b2 66 d6 97 b0 32 af 2a b2
       -9.27999e-09 -1.1047632e-09 -9.935137e-09

policy_net.0.attention.out_proj.weight f4 [81, 81]
000000 b4 3b 96 bd f2 cd 36 bd 64 9f 93 3d 53 11 ec 3b
       -0.07335606 -0.04463 0.07208136 0.0072042136
000010 2b 12 d7 bd a0 74 19 3d 39 59 79 bc b2 91 be bc
       -0.10501512 0.037464738 -0.015219026 -0.023262832
000020 8e ec d7 3b 24 07 6e bd ee e0 87 3d 1b a6 db 3d
       0.006589479 -0.05811228 0.06634699 0.107250415
000030 b4 8d a5 3d 80 d1 73 bd 35 07 0d 3d 44 72 97 bd
       0.08083668 -0.059525967 0.0344307 -0.07394841
000040 f9 c1 d2 3c 4e a4 cb bd f5 6f 57 bd ae 59 23 bd
       0.025727259 -0.09943448 -0.052597005 -0.039880447
000050 27 d8 ba bd 3d b1 76 3d 52 5d 1c 3d d9 a4 6d bd
       -0.09123259 0.06022762 0.038174935 -0.05801854
000060 f2 b3 19 bc 40 8c 11 bd 4b f5 ce 3d 07 5d b8 bc
       -0.009381281 -0.035534143 0.1010538 -0.022505296
000070 92 7d ad bd 20 8c 64 3d 64 cb af bd 57 7c c8 3d
       -0.08471216 0.055797696 -0.085837156 0.09789341
000080 b9 87 fa bc 72 48 3c bd 5d 26 f4 3c 4e 68 99 3c
       -0.030582296 -0.045967527 0.02980345 0.018726494
000090 9b 89 81 bd 05 17 c2 3d 7d 16 2b 3d db d8 e0 3d
       -0.06325074 0.09477047 0.041769493 0.10978862
0000a0 50 8e c7 3d d9 81 b2 3d 9d 58 dd bd 00 25 84 bd
       0.09743941 0.08716173 -0.10807917 -0.0645237
0000b0 a7 47 b3 3d 80 1b 9d 3c 82 82 e1 bd 84 c2 21 bd
       0.08753901 0.019178152 -0.110112205 -0.039492145
0000c0 bd b3 ca 3d fe e4 8e 3d 55 11 36 3d 07 41 d3 3c
       0.098975636 0.069772705 0.044450123 0.025787843
0000d0 44 da 98 bd 20 7d 6b 3d e0 da 10 bd 72 6b 45 bc
       -0.07463506 0.057492375 -0.035364985 -0.012049543
0000e0 a9 27 a1 bd 47 63 3e 3c 4e 28 b3 3c 72 90 db 3c
       -0.07868893 0.011620349 0.021869805 0.026802275
0000f0 5d 66 48 3d 19 a1 90 3d 52 8e aa b8 fe fc d9 3d
       0.048925746 0.07061977 -8.132741e-05 0.106439576
000100 e5 79 cd 3d 27 49 3a 3d ab a4 4b 3d 39 5d ca bd
       0.10033015 0.04547992 0.049717586 -0.09881062
000110 27 f4 2a 3d 87 a4 40 3d 00 b6 53 3d 14 ef d2 bd
       0.041736748 0.047031906 0.05168724 -0.10299507
000120 85 2e 9c bd 55 5e 56 3c 24 a5 8f bc d5 37 d3 3c
       -0.076260604 0.013084014 -0.0175348 0.025783459
000130 04 4e 18 bd be 80 dc bd f2 16 8e bd 0e e6 80 bd
       -0.037183776 -0.10766743 -0.0693797 -0.062938794
000140 40 dc b5 3c 72 3b b9 3d c8 62 d7 3b 8f 7e 70 3c
       0.02219975 0.090445414 0.006573055 0.014678611
000150 b9 9c 6b bd 60 e1 29 bd be 5d b3 3d 07 a7 0e 3d
       -0.05752251 -0.0414747 0.08758114 0.03482726
000160 80 99 b6 3d c0 90 1a 3d e4 10 92 bd 87 c1 54 bd
       0.089159966 0.0377357 -0.07132128 -0.051942375
000170 c8 12 ee bc 0e 39 d2 bd 0b 98 23 ba 00 04 3b bd
       -0.02906169 -0.102647886 -0.0006240613 -0.04565811
000180 5d 2e 9b bd 50 45 98 3d 47 eb be 3c c6 8a cd bb
       -0.075772025 0.07435095 0.023305548 -0.0062726466
000190 99 19 9d bd f2 fe 8e 3c 39 f6 42 bc eb 6b 80 3d
       -0.07670898 0.017455552 -0.011899524 0.06270584
0001a0 40 ac 8c bd f9 ec 97 bc 10 fc c4 bd db b6 bd 3d
       -0.068687916 -0.018545615 -0.096183896 0.092633925
0001b0 f7 1f 97 bd 3b 2e b8 3d 00 8d c8 3c 07 4b 66 bd
       -0.07379144 0.08993193 0.024481297 -0.056223895
0001c0 47 02 3a bd ee e6 32 bd 64 ef b8 bd eb f4 a2 bd
       -0.045412328 -0.043677263 -0.09030035 -0.07956871
0001d0 39 5b aa 3b 0e 5f 1c bd f4 1c 9e bd 39 55 df 3d
       0.005198863 -0.03817659 -0.07720366 0.10904927
0001e0 b4 ae 8f 3d 0e d5 62 3c 00 fb 50 bc c4 11 31 3d
       0.07015744 0.0138447415 -0.012755156 0.043229833
0001f0 2b c0 92 bc 14 8f 9a bd b2 28 c0 bc bd 0c 67 bd
       -0.017913898 -0.07546821 -0.023456905 -0.056408633
000200 df e0 be ba 2b c3 37 3c 04 b9 26 3d 3d aa 69 3d
       -0.0014562866 0.011215965 0.04070379 0.057047118
000210 90 a3 25 bb 85 17 94 3d 34 41 8d bd c4 97 12 3d
       -0.0025274493 0.072310485 -0.06897202 0.035789266
000220 8b d6 bb bd f9 ec 7c 3d 39 52 5b 3d 97 da db bd
       -0.0917178 0.061749432 0.05354521 -0.10735052
000230 80 22 6d bd 57 f8 ad bb 79 70 0b bd 2b e7 23 3d
       -0.05789423 -0.0053091454 -0.03404281 0.04001538
000240 64 47 68 3c 20 9e 1a 3d ac 28 2e bb 29 fe ce bd
       0.014177177 0.037748456 -0.0026574535 -0.10107071
000250 ab c5 de bd ad b9 a3 bd d9 37 27 bd 84 48 5a 3d
       -0.10877546 -0.07994399 -0.040824745 0.053291813
000260 64 eb 4b 3d e5 56 c8 bd 62 ae 83 3d 7d 92 d0 3d
       0.049785033 -0.09782199 0.06429745 0.101841904
000270 fe 50 b7 3d 92 52 36 3d c7 58 43 bc 8e b4 2e 3d
       0.08950995 0.04451234 -0.011923022 0.04265266
000280 25 78 86 bd 32 c9 6a 3d f2 04 99 bc fd e2 b8 3d
       -0.065658845 0.05732078 -0.018679116 0.090276696
000290 89 a0 df 3d 80 bd 01 bd c0 bc ac bc 15 a2 d3 bd
       0.109192915 -0.031674862 -0.021086097 -0.10333649
0002a0 57 f2 c9 bd e5 2c 8f 3d ae e9 e9 bb 9d d5 92 bc
       -0.09860676 0.06990985 -0.0071384525 -0.017924124
0002b0 40 ef 0b bd f2 91 ee 3b 72 8e 49 bc d2 a8 88 3d
       -0.034163713 0.0072805816 -0.012302028 0.06672825
0002c0 c7 e8 33 3d 57 8e bc bd 79 dd 68 bd 6d 56 be 3d
       0.043923166 -0.09206837 -0.056851838 0.09293828
0002d0 7d bb db bd ce f6 aa bd aa 1c 61 bc ab 57 ac 3d
       -0.1072912 -0.083478555 -0.013739744 0.08415159
0002e0 ce d5 b6 bd 87 b2 85 bd c0 0f 62 bd 55 43 14 bd
       -0.08927499 -0.06528192 -0.0551908 -0.036197025
0002f0 95 63 08 3d 1b e5 a7 ba e7 c3 9c bd 95 89 20 3b
       0.033298094 -0.0012809368 -0.07654553 0.0024496068
000300 b7 f7 92 bd e4 1b e1 bd e4 b8 57 bd ab e4 be bd
       -0.07176154 -0.10991648 -0.05266656 -0.09320959
000310 90 83 87 3d 9d 7d 91 3d 12 38 71 bd cd d7 ca 3d
       0.066168904 0.07104037 -0.058891363 0.09904442
000320 77 28 c2 3d 6e d9 c8 bd 00 7f 26 3c 1e 26 8e 3d
       0.09480374 -0.098070964 0.010162115 0.06940864
000330 69 9f 9b 3d 42 88 9a bd 54 9c 8f 3b 94 d0 b5 3d
       0.075987644 -0.0754552 0.0043826494 0.08877674
000340 b9 50 25 bc e9 1e a8 3d 95 22 b6 bd 7d 79 63 bd
       -0.010090047 0.08209021 -0.08893315 -0.055535782
000350 f7 11 c9 3d 00 e9 22 bc b2 45 20 3d ab 0f 60 bd
       0.0981788 -0.009943247 0.039128967 -0.054702442
000360 d5 22 b6 3c 95 30 83 3c f9 38 ae 3d 1d 02 03 3c
       0.022233406 0.016014377 0.085069604 0.007996109
000370 80 1e bc 3d b9 83 b6 bb 9d bd 26 3c ed ae d1 bd
       0.09185505 -0.005569902 0.010177043 -0.102384426
000380 75 bb 95 3d 60 f6 42 bd 55 45 7d bc 4b 67 c2 bd
       0.07311145 -0.047598243 -0.015458425 -0.09492358
000390 cb 4b e4 3b 6b c2 b2 3c 3d 6f 71 bd 62 70 d6 bd
       0.006967043 0.021821221 -0.058943976 -0.10470654
0003a0 55 76 a0 3c b2 3a cb bc 35 db 71 3d 85 de 8b bd
       0.019587675 -0.024808262 0.059046943 -0.068295516
0003b0 29 1b d5 3d 3d 61 35 bd a4 53 3a 3d 95 ef 97 bd
       0.10405571 -0.044282187 0.045489922 -0.074187435
0003c0 f9 8d c9 3d 7d 7a 2a bd a5 4f 8f 3d a8 0a bd bb
       0.09841532 -0.04162072 0.06997613 -0.0057690926
0003d0 a2 0f 84 bd a5 60 d3 bd 39 21 20 3d 1e 0f c2 bd
       -0.06448294 -0.10321168 0.039094184 -0.094755396
0003e0 a0 07 87 bd c7 df d0 3b f2 62 ab 3c 7b 98 9a bd
       -0.06593251 0.0063743326 0.020921204 -0.075486146
0003f0 6b 79 8e bd 95 62 a7 3d 19 c4 8d bd 92 3c df 3d
       -0.069567524 0.081731 -0.06922168 0.10900225

policy_net.0.attention.out_proj.bias f4 [81]
000000 f0 b6 0f b1 d3 c9 29 b1 b9 21 96 b2 a8 d0 84 31
       -2.0913227e-09 -2.470746e-09 -1.7477634e-08 3.865427e-09
000010 4e 4b 88 b2 8d b8 d6 b2 96 25 49 32 14 2f 80 b2
       -1.5866728e-08 -2.4996803e-08 1.1708286e-08 -1.492257e-08
000020 a1 d0 3b 32 e9 2e 8a 31 80 68 1e b2 eb 33 76 32
       1.0932269e-08 4.0216617e-09 -9.220571e-09 1.4330889e-08
000030 56 8e cb b1 ea 97 b8 b2 52 af 85 b2 da 72 ab b2
       -5.9242593e-09 -2.1489502e-08 -1.5562964e-08 -1.9959248e-08
000040 4f d1 12 32 9a 54 02 b2 e4 8a 2b b1 f8 f3 21 b2
       8.54591e-09 -7.586232e-09 -2.4962725e-09 -9.4269055e-09
000050 a8 1c 71 31 0e e7 b1 b2 1a a7 3c b2 65 f8 96 31
       3.5086405e-09 -2.0710583e-08 -1.0981035e-08 4.3938138e-09
000060 0d 9f c6 31 10 89 31 32 1d d6 7f 31 af 1d 96 31
       5.7806404e-09 1.033392e-08 3.7229093e-09 4.368949e-09
000070 4d 94 88 b2 9d d0 03 32 a9 7c bf b0 bd 22 a4 b1
       -1.5899923e-08 7.672637e-09 -1.393251e-09 -4.7769775e-09
000080 26 ef e3 31 c1 25 84 b2 91 a7 07 b2 2b 85 22 b2
       6.6337575e-09 -1.5383991e-08 -7.896134e-09 -9.45992e-09
000090 4e 54 45 32 80 4e 73 b2 76 80 f8 31 2f 08 8b 32
       1.1486078e-08 -1.416231e-08 7.2323543e-09 1.6185451e-08
0000a0 fa 9b c3 31 63 c9 90 b2 d9 b4 44 b2 16 82 8d b2
       5.6929794e-09 -1.6855386e-08 -1.14498215e-08 -1.6473717e-08
0000b0 9f 3a 98 b2 ac c5 23 b2 8a eb f2 32 a4 fd ca b0
       -1.7721787e-08 -9.532794e-09 2.8279619e-08 -1.4769523e-09
0000c0 5e 6d dd b1 cf c9 a7 30 e0 ec c0 32 45 84 90 b1
       -6.44438e-09 1.2208207e-09 2.245946e-08 -4.205989e-09
0000d0 fa f4 1d 32 67 0b 4f b2 7c 7d 5c 32 18 33 18 31
       9.194304e-09 -1.2051578e-08 1.2834217e-08 2.2147955e-09
0000e0 76 ae 0e 30 b8 e9 05 b2 24 db 91 32 15 7c 72 30
       5.1907223e-10 -7.79476e-09 1.6979875e-08 8.821542e-10
0000f0 f2 1a a1 b2 87 fe 5d 32 1d e0 c1 30 16 61 53 32
       -1.875512e-08 1.2921766e-08 1.4106295e-09 1.2303891e-08
000100 32 a6 46 b2 0b fd 17 32 49 af 82 b1 56 c1 88 b1
       -1.1562905e-08 8.846892e-09 -3.8034256e-09 -3.9801007e-09
000110 78 9f 39 32 4e 65 28 32 bf 50 f5 31 b9 26 e6 30
       1.0804676e-08 9.801921e-09 7.1396182e-09 1.6745708e-09
000120 ad 7d f4 b0 89 8b 13 b2 26 bb 39 32 a6 c6 ac b1
       -1.7789056e-09 -8.588253e-09 1.081097e-08 -5.0284426e-09
000130 46 a5 b0 2e 05 79 11 b1 bd 0a eb 30 5b 3c e2 31
       8.032912e-11 -2.1169069e-09 1.7101552e-09 6.5843273e-09
000140 2a 1e 34 b2
       -1.04842375e-08

policy_net.1.weight f4 [81, 81]
000000 f1 50 a3 bc f7 ce 7c 3b 9b f5 dd 3d 0d 8e ab bd
       -0.019936057 0.003857551 0.10837861 -0.083767034
000010 f9 58 85 3d c5 a0 d8 bd b8 6e 19 bc 72 1d e6 3c
       0.06511111 -0.10577539 -0.009364776 0.028090212
000020 10 3c cb bd 79 46 11 bd 0b 0c 41 3d 32 0b ad bd
       -0.099235654 -0.0354676 0.047130626 -0.08449401
000030 fb cd 55 bd 4d 0a 92 bd 2b 4f 30 bc 97 90 c6 3d
       -0.05219839 -0.07130871 -0.010761063 0.09695547
000040 8d c5 36 bc 14 9b d3 bd 59 81 2c 3d d2 2f e1 bd
       -0.011155498 -0.10332313 0.042115543 -0.10995449
000050 55 32 df 3c 56 cc 79 3c 7d df a9 3c 90 d1 e0 3a
       0.02724568 0.015246471 0.02073645 0.0017152298
000060 8b 83 c5 3d 7b 32 12 3d ce 34 3d 3d 29 59 96 bd
       0.096442305 0.035692673 0.046192937 -0.07341225
000070 32 3c 5c bd 24 b4 a7 bc b2 7b c5 bd 3d c4 b3 3d
       -0.053768344 -0.02047164 -0.09642734 0.08777664
000080 1b 45 92 bd e4 b0 1e 3c ed 57 b4 3d c7 ed 6a 3c
       -0.07142087 0.009685729 0.08805833 0.014338917
000090 9e cc d6 3d 35 a4 a2 3d c5 2c 4a bd c5 42 bd 3d
       0.104882464 0.07941476 -0.0493591 0.09241251
0000a0 2b 10 e0 3d d7 62 94 bd bc 45 4c 3c b6 9d 08 bc
       0.10940584 -0.07245415 0.012467798 -0.0083383825
0000b0 72 99 48 bd c5 3f 4d 3d ee f8 07 3d 24 d5 94 3d
       -0.04897446 0.050109643 0.033196382 0.07267216
0000c0 eb e0 f4 3c 4b 32 b9 3d 9b bd d7 bd 9d 4b e9 bc
       0.029892405 0.09042796 -0.10534211 -0.028478438
0000d0 0d e9 bc 3d d9 62 6b 3c c0 8e b7 3c 6e 5f bc bd
       0.092241384 0.014366829 0.022406936 -0.09197889
0000e0 8e 99 d4 3d 15 7f 99 bd c7 44 ab bd 89 e2 99 3d
       0.10380851 -0.07494942 -0.083627276 0.07513911
0000f0 ed 43 83 3d e0 f4 9d ba ce d8 95 3d ad eb b3 bd
       0.0640944 -0.0012051128 0.07316743 -0.08785186
000100 e4 24 a7 3a 62 84 ac bd b1 64 53 bd 22 39 b4 3d
       0.0012752083 -0.084236875 -0.0516097 0.0879996
000110 19 85 4e 3d 32 39 cb bc ab 87 74 3d 8e bd ba 3c
       0.0504199 -0.024807546 0.059699696 0.022795465
000120 60 34 7e 3d 5d 82 31 bd 70 f9 c6 3d ac c0 e4 3b
       0.062061667 -0.043337215 0.09715545 0.006980976
000130 60 dc 77 bd 72 a2 f8 3b 9e 8f 18 3c 62 b6 5e bc
       -0.0605129 0.0075877244 0.009311585 -0.013593288
000140 f0 c0 9f bd bd 93 6b bd dd 85 72 3d ab 20 df 3d
       -0.07800472 -0.05751394 0.059209693 0.10894903
000150 ee 6d e3 3d 27 b0 a7 3d de 83 19 3c 72 18 58 3c
       0.11104952 0.08187895 0.0093698185 0.013189422
000160 00 54 d6 bb c7 1a d0 3b 1d 21 9d bc 20 b1 55 3d
       -0.0065407753 0.0063508484 -0.019180829 0.052170873
000170 d2 6a 4c bd 49 54 c1 3d 72 5a d1 3c 72 cc 38 bd
       -0.04990656 0.09439904 0.025555823 -0.04511685
000180 d2 9d 6e bd 19 58 05 bd 92 a5 18 bd a7 79 6d bd
       -0.058255978 -0.03255472 -0.037267275 -0.057977345
000190 34 b6 4a bd 9e 74 c1 3d 47 f5 a4 3d 00 aa ce bd
       -0.04949017 0.09446071 0.080545954 -0.10091019
0001a0 b2 50 c5 bd 60 0e be bd e4 7c 6b bd 19 c2 9b bd
       -0.09634532 -0.092800856 -0.05749215 -0.076053806
0001b0 d9 45 b3 3d 7d 6e d5 bd e4 c2 5a 3b c9 e4 8b 3d
       0.08753557 -0.104214646 0.0033380324 0.06830747
0001c0 a2 59 9d bb 39 3a 27 3d f2 8a 5f bd 45 08 b5 3d
       -0.004801945 0.04082701 -0.054575868 0.08839468
0001d0 72 44 ac bd 8e e3 c1 3b 7f 21 c3 bc c7 4a ca bd
       -0.084114924 0.005917019 -0.023819683 -0.09877544
0001e0 ab 44 2a 3d 12 61 a3 3b c4 97 0a bd 52 f5 9c 3d
       0.041569393 0.004985937 -0.03383614 0.07663979
0001f0 8e 19 38 3d cb 10 a0 bd 29 c3 b8 bd c0 d9 93 bc
       0.044946246 -0.07815703 -0.09021599 -0.018048167
000200 59 85 0f 3d f5 dc 7d 3d 82 dc cf bb fe 51 d4 3d
       0.03503928 0.0619783 -0.0063434253 0.10367201
000210 87 a7 70 3d 59 ac cf bd 0d b8 ca 3d 6d 93 c4 bd
       0.058753517 -0.101402946 0.09898386 -0.09598432
000220 8e 1f 49 3c 59 22 8d 3d a7 0b 32 3d 04 57 6b bd
       0.01227559 0.06891317 0.043468144 -0.05745603
000230 0f b7 27 3c 35 30 42 3d e4 1d b7 3c 36 b6 66 bb
       0.010236516 0.047409255 0.02235312 -0.003520382
000240 96 ce 53 3c b5 1f 45 3d c7 bf 6b 3b f2 e0 bc 3d
       0.012927672 0.04812594 0.0035972463 0.092225924
000250 a4 d9 d4 bc 2d 94 bc 3c e4 64 7e bc 8b 3e 43 3d
       -0.025982685 0.023019874 -0.015526984 0.047667067
000260 84 b6 ba 3d f4 a6 ab 3c 4d 2f c2 3d fb 48 a7 3b
       0.09116843 0.020953633 0.09481678 0.0051051355
000270 55 14 9e 3c 19 8d 5f bd b9 b1 82 bc 39 c2 84 bc
       0.019296804 -0.05457792 -0.015953885 -0.016205894
000280 95 86 9d bd e0 e9 7c bd fd 32 78 37 fe 30 b7 bd
       -0.07691685 -0.061746478 1.47938235e-05 -0.089448914
000290 75 bd 40 bd 07 ab b9 bc d2 1d 4e 3d 95 8e 32 3d
       -0.04705568 -0.02266456 0.050321408 0.043593008
0002a0 be c8 df bd 37 54 96 bd a4 c9 e2 bd 97 ca 97 bd
       -0.109269604 -0.073402815 -0.11073616 -0.07411688
0002b0 64 2f b7 3c b5 be 1d 3d 20 ac 09 3d c5 29 8f 3b
       0.022361465 0.03851195 0.033611417 0.004368993
0002c0 67 5b 1c 3d d2 3e 4d bd 92 9b 89 bd ab cb 7f 3c
       0.038173106 -0.05010874 -0.06719126 0.015612523
0002d0 1d 1e 31 bd 9e f2 a9 bd 29 af d1 3d c0 17 46 bd
       -0.04324161 -0.08298229 0.10238487 -0.048362494
0002e0 e7 3c cd 3d 1d ee 34 3d 35 d8 58 3d 95 b6 30 bd
       0.10021382 0.044172395 0.052940566 -0.043142874
0002f0 e0 5a 2a 3d 89 8d c9 bd 8e 06 e0 bb e4 46 ab bc
       0.04159057 -0.09841449 -0.006836719 -0.020907827
000300 a5 15 83 3d 8d e3 a0 bb 47 63 c5 bc 0b 55 5b bd
       0.06400613 -0.0049099387 -0.02409519 -0.0535479
000310 a5 b6 94 3d e0 d1 de 3d 29 8a c6 bd e0 c2 5c bd
       0.07261399 0.10879874 -0.09694321 -0.053896785
000320 b9 5b 44 bd 80 09 96 3d 0e da 1b 3d 52 18 1b bd
       -0.047939036 0.07326031 0.03804975 -0.03786499
000330 4e 0f ad bd 04 8e bc 3d 75 a2 82 bd fd a6 b8 bd
       -0.08450185 0.09206775 -0.063786425 -0.090162255
000340 72 5c 77 bb 3e 48 9f bd a0 fd 7f 3d eb 63 71 bd
       -0.003774431 -0.07777451 0.062497735 -0.05893318
000350 67 20 6b bd bb 26 df bd ee 91 14 3d 80 6c e0 bd
       -0.05740395 -0.10896059 0.036271982 -0.10958195
000360 ee a3 d4 bd 55 95 73 ba 42 a4 78 bb 8e 98 0d bd
       -0.103828296 -0.00092919666 -0.0037939702 -0.034569316
000370 24 27 2a bd ae 56 ce bd 90 03 ce 3d 54 e2 e2 bd
       -0.041541234 -0.100751266 0.10059273 -0.11078325
000380 c4 e9 47 3d d6 42 07 3b 47 19 e2 3d dd e2 44 3d
       0.04880692 0.0020639203 0.110399775 0.048067916
000390 0c 59 6e 3b 40 70 7c 3d 7e 01 9a bd 67 d1 7e bd
       0.0036368994 0.061630487 -0.07519816 -0.06221142
0003a0 99 14 75 bd 59 50 ac 3d 94 ee d8 bd d2 06 37 bd
       -0.059834097 0.084137626 -0.1059238 -0.04468424
0003b0 97 b1 34 bb 95 1f 44 bd fd 6c ce bd d5 60 c0 3c
       -0.0027571672 -0.04788168 -0.100793816 0.023483673
0003c0 dd 29 77 bd dd 02 d6 3d ce 48 2d bd 1d 25 62 bd
       -0.06034266 0.10449765 -0.04230576 -0.055211175
0003d0 0b bf 53 bc 6b f9 63 bd 64 02 25 bd 1d f1 56 bc
       -0.012923966 -0.055657785 -0.040285483 -0.013119009
0003e0 dd 53 b5 3d 78 85 c4 bb 39 b2 2d 3d 95 c4 c9 3c
       0.08853886 -0.005997356 0.042406294 0.02462987
0003f0 cb d3 69 3d 17 71 8a bb 8a 62 7e bd 1c 9f cb 3d
       0.057086747 -0.004224907 -0.062105693 0.09942457
