scripts/models/602/34/4/vModel.pth (torch, 264307 bytes, 11 tensors)

value_net.0.input_layer.weight f4 [96, 128]
0	0xbd20be1d	-0.039243806
1	0x3da37a40	0.07982302
2	0xbcbda7e5	-0.023151347
3	0xbc3f804f	-0.011688306
4	0x3cfad10d	0.030617261
5	0xbc82a19f	-0.015946208
6	0xbd65441f	-0.05597317
7	0xbd7e7261	-0.0621208
8	0x3d8ea51d	0.069650866
9	0xbd3b9b50	-0.045802414
10	0x3d99481b	0.07484456
11	0x3d662ea6	0.05619683
12	0x3da36407	0.07978063
13	0xbd180c7d	-0.037121285
14	0xbd0ab765	-0.033866305
15	0xbce9fe97	-0.02856378
16	0x3ca9bfae	0.020721283
17	0xbda83221	-0.08212686
18	0xbd8346a8	-0.06409961
19	0xbcb10457	-0.021608515
20	0xbd50a796	-0.050941072
21	0xbb94c31d	-0.004539861
22	0xbdbda789	-0.092604704
23	0xbd063c2e	-0.032772236
24	0x3ca0d3c2	0.019632224
25	0xbd330aa3	-0.043711316
26	0xbb4dcb04	-0.0031401524
27	0xbd8b316b	-0.06796535
28	0xbda01612	-0.078167096
29	0xbc73d16b	-0.014881472
30	0x3d8e9155	0.06961314
31	0xbdc34e39	-0.09536404
32	0xbbbfd965	-0.005854773
33	0x3c1ff2d7	0.009762487
34	0xbd97452a	-0.07386239
35	0xbca85098	-0.020546243
36	0xbd1f1157	-0.038834896
37	0xbca8467e	-0.020541426
38	0xbd86adfd	-0.065761544
39	0xbd09886d	-0.03357737
40	0xbd8f9fa9	-0.07012875
41	0x3cd21db5	0.025648931
42	0x3d09692c	0.033547565
43	0x3d759458	0.059955925
44	0xbd26fc1e	-0.04076778
45	0xbd6cc1c0	-0.057801962
46	0xbd441828	-0.0478746
47	0x3ca96f8f	0.020683078
48	0xbd843953	-0.06456246
49	0xbd3ce3f8	-0.046115845
50	0xbd92c2a2	-0.071660295
51	0x3d832f73	0.064055346
52	0xbd05cf06	-0.032668136
53	0x3d5e9556	0.054341637
54	0xbd7bc535	-0.06146737
55	0x3ca191a9	0.019722776
56	0x3cdf7770	0.027278632
57	0xbc6985c6	-0.0142530855
58	0x3b608d1d	0.0034263798
59	0x3d500cc0	0.05079341
60	0x3d4f8202	0.050661094
61	0xbd149f1c	-0.03628455
62	0xbd60b1b1	-0.05485696
63	0xbdc1af03	-0.09457209
64	0x3daf50c8	0.0856033
65	0xbd269f9e	-0.040679567
66	0xbc1d0d4f	-0.009585693
67	0xbdcb8c91	-0.0993892
68	0xbd05eab3	-0.03269453
69	0xbdcacf4e	-0.099028215
70	0x3c582639	0.013192707
71	0x3d9bed9d	0.076136805
72	0x3ca196bd	0.019725198
73	0x3cd9ac9a	0.02657156
74	0xbd056fa3	-0.03257717
75	0xbd18075c	-0.037116393
76	0xbc93b1f8	-0.018029198
77	0x3c44a016	0.012001058
78	0x3d4ee9f4	0.050516084
79	0xbdbbfa7f	-0.09178638
80	0x3bb378cc	0.0054770466
81	0xbdb68388	-0.08911806
82	0xbd0db56c	-0.034596846
83	0xbdb9fee0	-0.09081817
84	0x3d0db61f	0.034597512
85	0xbd0fd719	-0.035117242
86	0xbdaa0628	-0.083019555
87	0x3d2694f4	0.040669397
88	0xbd855c0f	-0.065116994
89	0x3bee5abb	0.0072739995
90	0xbd58ab6b	-0.052897852
91	0xbd4fa4e0	-0.050694346
92	0xbd7f40c6	-0.062317632
93	0x3d0cd911	0.0343867
94	0x3c4413e9	0.011967638
95	0xbd9fec9f	-0.07808804
96	0xbcdca021	-0.026931824
97	0x3d24c07d	0.040222634
98	0x3d745cad	0.059658695
99	0x3c2f5e11	0.0107035795
100	0x3d1cacf1	0.038250867
101	0xbbe97c5d	-0.007125421
102	0x3d40553a	0.04695628
103	0xbdb555a4	-0.08854225
104	0x3db18d91	0.0866958
105	0x3b1623b3	0.0022909462
106	0xbca620e1	-0.02027935
107	0x3d3c002b	0.045898598
108	0xbbdf4968	-0.0068141706
109	0x3d99f403	0.07517245
110	0xbdc12f20	-0.094328165
111	0xbd5692d0	-0.052386105
112	0x3d8e0485	0.06934456
113	0x3d66939c	0.056293115
114	0x3d1d9695	0.038473684
115	0xbd44e0f4	-0.048066095
116	0xbd1beae4	-0.038065806
117	0xbcf0b32a	-0.029382307
118	0x3d17eac2	0.037089117
119	0x3cdfb03a	0.027305711
120	0x3d64386f	0.05571788
121	0xbd0019ae	-0.03127449
122	0xbd85b45e	-0.06528543
123	0x3d8c26c4	0.068433315
124	0xbdb1f37c	-0.08689019
125	0xbd0c7e4f	-0.034300145
126	0xbd811600	-0.06303024
127	0x3d4da16a	0.050202765
128	0xbd819f95	-0.06329266
129	0xbca5c768	-0.020236686
130	0x3d65907c	0.056045994
131	0xbba7c837	-0.005120303
132	0xbbd362ab	-0.006450971
133	0xbdabdaf7	-0.083913736
134	0x3d85e83d	0.065384366
135	0xbd8550a5	-0.06509522
136	0xbd235030	-0.039871395
137	0xbd0375f1	-0.0320949
138	0xbd5b568b	-0.05354933
139	0xbd3561b8	-0.044282645
140	0xbcb1826a	-0.021668632
141	0xbc6abb6e	-0.014326913
142	0xbdaa1627	-0.083050065
143	0xbdb48bf8	-0.088157594
144	0x3d0d925f	0.03456342
145	0x3d65fdad	0.056150127
146	0xbd0cfd0e	-0.03442102
147	0x3d218e97	0.039442625
148	0xbd519781	-0.051169876
149	0x3da05c3a	0.07830091
150	0xbc20b6cd	-0.009809208
151	0x3d7091a9	0.058732662
152	0x3d8996e8	0.06718236
153	0x3c0e16b4	0.008672405
154	0xbd4bca85	-0.049753685
155	0xbd939ccf	-0.07207643
156	0xbd96345d	-0.07334206
157	0x3ce6f7a7	0.028194262
158	0xbd31d88e	-0.043419413
159	0xbc9d5d2a	-0.019209463
160	0xbc201328	-0.009770192
161	0x3d2e01d5	0.042482216
162	0x3d8f3291	0.06992067
163	0xbd8d0cc8	-0.068872035
164	0x3b848469	0.004044105
165	0x3d6e49e9	0.058175955
166	0xbdca182e	-0.09867893
167	0x3cfd3f88	0.030914083
168	0x3cfb8e5b	0.030707529
169	0xbd9766e7	-0.07392674
170	0x3cca56c8	0.024699584
171	0xbdb0f790	-0.08640969
172	0xbc9e4edd	-0.019324714
173	0xbce822e4	-0.02833695
174	0x3d873373	0.0660161
175	0xbd87e8d7	-0.066362076
176	0xbba04c9a	-0.004891944
177	0xbd54050a	-0.051762618
178	0x3d737832	0.0594408
179	0xbc4d3f66	-0.012527322
180	0x3bd25120	0.0064183623
181	0x3c0fc1b1	0.008774207
182	0xbd9fbdf0	-0.077998996
183	0x3d0cb3bf	0.034351107
184	0xbd7f5823	-0.062339913
185	0x3d05afc3	0.032638323
186	0xbd0f9280	-0.035051823
187	0xbd28e41a	-0.04123316
188	0xbdb74cd1	-0.089501984
189	0x3c46b0ac	0.012127083
190	0x3d9820dd	0.07428143
191	0x3c155b2c	0.009115975
192	0xbdbd6ed9	-0.09249658
193	0xbd99872b	-0.07496484
194	0xbdae4acf	-0.08510362
195	0xbc83924b	-0.016060969
196	0x3ac7eae8	0.0015252503
197	0xbd9e8be0	-0.07741523
198	0x3c958d75	0.018255929
199	0x3d81ef61	0.06344486
200	0x3d7cbe5d	0.061704982
201	0x3d22ee39	0.039777968
202	0xbd087c27	-0.033321526
203	0xbdc37618	-0.09544009
204	0x3d131e92	0.035917826
205	0x3d2531b8	0.04033062
206	0xbd75e5b4	-0.060033515
207	0x3d69d59e	0.057088487
208	0xbc8d66e9	-0.017260985
209	0x3ab8baf7	0.0014093806
210	0x3d8c8545	0.06861357
211	0x3d54f5e9	0.05199233
212	0xbd99db08	-0.0751248
213	0x3d8fb6a5	0.070172586
214	0xbb3243b9	-0.002720101
215	0xbd87eeec	-0.066373676
216	0x3d8f0492	0.069832936
217	0xbdb37342	-0.08762218
218	0x3d5eb965	0.054376025
219	0x3d900e3b	0.07033964
220	0x3b134e00	0.0022476912
221	0x3d474d67	0.0486578
222	0x3d866aee	0.06563364
223	0xbd5c0f77	-0.053725686
224	0xbd6283a6	-0.05530133
225	0xbd924912	-0.07142843
226	0x3d4995cd	0.049215127
227	0x3d8676f5	0.06565658
228	0x3cace5e8	0.021105722
229	0x3bdc74b4	0.0067277793
230	0xbcd577df	-0.026058136
231	0xbdc5df7a	-0.096617654
232	0xbc5a726f	-0.013332947
233	0xbd6b8f11	-0.057509486
234	0xbd1885a4	-0.037236825
235	0xbd47c37e	-0.04877042
236	0x3d5e972b	0.054343384
237	0xbd7edd50	-0.06222278
238	0x3c175f94	0.009239096
239	0xbc0d6b50	-0.008631542
240	0x3d564301	0.052309994
241	0xbdb5db3e	-0.08879708
242	0x3d204eb8	0.039137572
243	0xbbaa346b	-0.005194237
244	0xbd268e00	-0.040662766
245	0x3d930203	0.07178118
246	0xbd36ea57	-0.044657078
247	0x3a5161be	0.0007987282
248	0xbd92570d	-0.0714551
249	0xbba09ae8	-0.0049012788
250	0xbd9fe5b3	-0.078074835
251	0xbdaa7d90	-0.083247304
252	0x3ce4c2bc	0.027924888
253	0xbdab9738	-0.08378452
254	0x3ca95c26	0.020673823
255	0x3bc93aa0	0.006141022

value_net.0.input_layer.bias f4 [96]
0	0x3d0bde0a	0.0341473
1	0xbdb5fb28	-0.08885795
2	0xbccbaf11	-0.024863752
3	0xbdaf5c89	-0.085625716
4	0x3cb57efc	0.022155277
5	0xbd4d20ee	-0.050080232
6	0x3d2ec0ea	0.042664446
7	0xbcff4d15	-0.031164685
8	0xbdbd37d8	-0.09239167
9	0xbd84a3f9	-0.06476588
10	0xbc1107be	-0.008851944
11	0x3d550bac	0.052013084
12	0x3b57c9d4	0.0032926695
13	0xbd8ef2f8	-0.06979936
14	0xbc646e80	-0.013942361
15	0xbca8abf7	-0.020589812
16	0x3bbd782d	0.0057821483
17	0xbd2c1727	-0.042014267
18	0xbc5ec2ea	-0.013596276
19	0xbd714e60	-0.058912635
20	0xbd8d10df	-0.068879835
21	0x3d897803	0.067123435
22	0x3d1aeff6	0.0378265
23	0xbd35c71b	-0.044379335
24	0xbce10c1f	-0.0274716
25	0xbd2b7198	-0.04185638
26	0xbd1b09a6	-0.037851
27	0x3ceb1ffc	0.028701775
28	0x3d8113e9	0.06302626
29	0x3d8d35c9	0.06895024
30	0xbca52ce7	-0.020163013
31	0xbd44f610	-0.048086226
32	0x3d9b8fb7	0.07595771
33	0xbd0982fb	-0.03357218
34	0xbcd63f2c	-0.02615317
35	0x3d8e3044	0.069428
36	0x3ca558ba	0.02018391
37	0xbcbb5eba	-0.022872318
38	0x3d1d4579	0.038396332
39	0xbdcd461c	-0.10023138
40	0xbc8e7e6c	-0.017394267
41	0x3d8f5e06	0.070003554
42	0xbc755a08	-0.014975078
43	0xbcaab9d3	-0.020840561
44	0x3d9719f7	0.07377999
45	0x3cbf64f4	0.023363568
46	0x3cefdcd7	0.02928011
47	0x3d9cdbfc	0.07659146
48	0xbceff22a	-0.029290278
49	0x3d5698f8	0.052391976
50	0xbd94f7b2	-0.07273807
51	0xbd2a3932	-0.041558452
52	0x3d77b8a5	0.060478825
53	0xba52d5ba	-0.0008042712
54	0x3d6bda51	0.05758125
55	0xbd1d0218	-0.038332075
56	0xbd82cf15	-0.06387154
57	0x3c860a27	0.016362263
58	0xbd03d93f	-0.032189604
59	0xbd6c9e9f	-0.05776846
60	0xbd414e8f	-0.04719406
61	0xbd8fd17f	-0.0702238
62	0x3d88f10a	0.066865996
63	0x3d6e0c2d	0.05811708
64	0x3d599ab6	0.05312606
65	0x3d46fb97	0.04857978
66	0x3d8fa5c7	0.070140414
67	0xbd2e1685	-0.042501945
68	0x3c4cd0db	0.012500967
69	0xbc255246	-0.010090416
70	0xbb18acad	-0.0023296282
71	0xbccf0c5c	-0.025274448
72	0xbd492c7a	-0.04911468
73	0x3dabfc2f	0.083977096
74	0xbcae5f0f	-0.021285562
75	0xbda81037	-0.08206218
76	0xbba3929a	-0.0049918415
77	0x3da7e70a	0.08198364
78	0xbd7873b7	-0.06065723
79	0xbdbee626	-0.09321241
80	0x3d2f2571	0.042760316
81	0xbcfaad18	-0.030600116
82	0xbd361269	-0.04445115
83	0xbdb4edbb	-0.08834406
84	0x3d911a58	0.07085103
85	0xbb88d28e	-0.0041754907
86	0xbda1ceed	-0.07900796
87	0xbccc8563	-0.024965947
88	0x3d3359a5	0.043786664
89	0xbd72f612	-0.059316702
90	0xbc754afa	-0.014971489
91	0x3d09d507	0.033650424
92	0x3d4ce034	0.050018504
93	0xbd705872	-0.058678098
94	0xbd2236c3	-0.039603006
95	0xbc9c7c34	-0.019102193

value_net.0.output_layer.weight f4 [96, 96]
0	0xbd8f2311	-0.0698911
1	0x3ccf8f09	0.02533676
2	0xbc1df75c	-0.009641495
3	0xbd8f1c7e	-0.06987856
4	0x3ac9b0aa	0.0015387733
5	0x3db84ec1	0.08999396
6	0x3db3ef1b	0.0878584
7	0x3c9d5d22	0.019209448
8	0x3d376c1a	0.044780828
9	0x3dbbd852	0.09172119
10	0x3d750dd5	0.059827644
11	0x3c557a54	0.013029654
12	0x3da239c9	0.07921178
13	0xbd6c61cf	-0.057710465
14	0xbdaa89ef	-0.0832709
15	0xbd3b2b1d	-0.045695413
16	0xbcd21af3	-0.025647616
17	0xbd2d93fa	-0.04237745
18	0xbd8a7eee	-0.06762491
19	0x3dae14ad	0.08500037
20	0xbd24c01d	-0.040222276
21	0xbd31ae97	-0.043379392
22	0xbd3d4aac	-0.04621379
23	0xbcfce10e	-0.030869033
24	0xbdb4d49b	-0.08829614
25	0x3db7ebd4	0.089805275
26	0xbd69dee8	-0.057097346
27	0xbce17229	-0.027520256
28	0xbd55f237	-0.052232947
29	0xbc23db1c	-0.01000097
30	0x3d5a0020	0.053222775
31	0xbd05f63d	-0.032705534
32	0xbdb15f1b	-0.08660718
33	0xbd09587f	-0.033531662
34	0x3c4700f2	0.0121462215
35	0x3dc6b645	0.09702734
36	0x3d73cc5e	0.05952107
37	0x3cc7422a	0.024323542
38	0xbd0852f7	-0.033282246
39	0xbd951a5f	-0.072804205
40	0xbdd9f7d0	-0.106429696
41	0x3d2046e9	0.039130125
42	0x3d8918a2	0.066941515
43	0xbd9f8022	-0.07788111
44	0x3d83ef8f	0.064421766
45	0xbc41914b	-0.011814426
46	0xbb109419	-0.002206093
47	0xbcbbb2fc	-0.022912495
48	0xbd3102e2	-0.04321564
49	0x3cb592d0	0.022164732
50	0x3db30fb3	0.08743229
51	0xbd0020f5	-0.03128143
52	0xbcc3827d	-0.023865933
53	0xbd78d568	-0.060750395
54	0x3d930ad5	0.071798004
55	0x3d4208aa	0.047371544
56	0x3d393281	0.04521418
57	0x3da8499a	0.082171634
58	0x3ddbfcd1	0.1074158
59	0x3d838c49	0.06423242
60	0x3da06662	0.07832028
61	0x3d68412b	0.056702774
62	0x3ccea8b7	0.025226934
63	0x3cef70fc	0.02922868
64	0xbd998a17	-0.07497042
65	0x3dab0f87	0.08352571
66	0xbd461f8d	-0.048369933
67	0x3d8a8db8	0.06765312
68	0xbd9b2db6	-0.07577078
69	0xbd06b917	-0.03289136
70	0x3ce34971	0.02774498
71	0xbd724023	-0.059143197
72	0xbd96b92f	-0.0735954
73	0x3d45b6c2	0.048269995
74	0xbdb72e82	-0.089444175
75	0xbdb39a5d	-0.08769677
76	0x3c475ffd	0.0121688815
77	0x3d8a884e	0.06764279
78	0x3c8d1e3b	0.01722633
79	0x3d0b9da1	0.034085874
80	0xbda36395	-0.07977978
81	0xbd9e31a1	-0.0772431
82	0xbdb34494	-0.087533146
83	0x3d8f6c51	0.070030816
84	0x3db7fd67	0.089838795
85	0xbdb3b3be	-0.087745175
86	0x3caa5fa3	0.020797556
87	0x3c974e28	0.018469885
88	0xbc9273e1	-0.017877521
89	0x3da914be	0.082559094
90	0x3d315368	0.043292433
91	0xbd80f4f4	-0.06296721
92	0x3d6f1a09	0.05837444
93	0x3dc0538f	0.093909375
94	0xbcba77e9	-0.022762256
95	0x3d88d6b4	0.06681576
96	0x3ab672b5	0.0013919683
97	0xbdbc325d	-0.091892935
98	0xbd5a30c8	-0.053269178
99	0x3bc794f2	0.0060907537
100	0x3d092b34	0.033488467
101	0x3cdba33d	0.026811237
102	0x3d8c8968	0.06862146
103	0xbcc36e6a	-0.02385636
104	0xbcb6f2e6	-0.02233262
105	0x3dd8007e	0.10546969
106	0xbd120ad2	-0.03565485
107	0x3c02a950	0.007974938
108	0x3c122cac	0.008921783
109	0xbd3130d7	-0.043259468
110	0xbd0dbdff	-0.034605023
111	0x3d37d368	0.044879347
112	0xbd8d28ea	-0.06892569
113	0xbdb573df	-0.08859991
114	0x3d748af7	0.05970284
115	0x3c002576	0.007821431
116	0x3d90a491	0.070626386
117	0x3d4ac7fd	0.04950713
118	0x3d9be86f	0.076126926
119	0xbabca99a	-0.0014393807
120	0x3db1dd61	0.08684803
121	0xbc317fe2	-0.010833712
122	0xbdec8d68	-0.115504086
123	0x3dd5c0d9	0.104371734
124	0xbdd8a6c5	-0.10578684
125	0x3d568c45	0.052379865
126	0xbdbe5fdb	-0.09295627
127	0xbd76f47c	-0.060291752
128	0xbd8659f7	-0.06560128
129	0xbd9a81ec	-0.07544312
130	0xbd2e31d6	-0.042527996
131	0xbc1dafbc	-0.009624418
132	0xbdc0a56a	-0.0940655
133	0xbd86523d	-0.065586545
134	0x3cd09544	0.0254618
135	0xbc4a9570	-0.01236473
136	0x3d5bc660	0.053655982
137	0xbd3a5f34	-0.04550095
138	0xbda7fc09	-0.08202369
139	0xbd1a6718	-0.037695974
140	0xbd50e323	-0.050997864
141	0x3daa56d2	0.08317341
142	0xbc831eed	-0.016005957
143	0xbd5296a1	-0.051413182
144	0x3d7ddb72	0.061976857
145	0x3dc38db7	0.09548514
146	0xbda38844	-0.07984975
147	0xbd4a28fc	-0.049355492
148	0xbcebdea8	-0.028792694
149	0x3d076e2d	0.033064056
150	0x3d2fa7f4	0.042884782
151	0x3d7cfe47	0.061765935
152	0xbcae0f6b	-0.021247586
153	0xbd9b1f27	-0.07574301
154	0x3d9e5f9f	0.07733082
155	0x3cc784bb	0.024355283
156	0x3cffae73	0.031211114
157	0xbcaa2c57	-0.020773096
158	0x3db13f45	0.08654646
159	0x3dabd908	0.08391005
160	0x3d4ec4bc	0.05048059
161	0xbd915507	-0.07096296
162	0x3b7d6a13	0.0038667961
163	0xbd5501d8	-0.05200371
164	0x3d485213	0.048906397
165	0xbd674ecc	-0.05647163
166	0x3c2454c7	0.010029978
167	0x3d35d367	0.044391062
168	0xbd395ef7	-0.04525658
169	0xbd3cef14	-0.04612644
170	0xbd598981	-0.05310965
171	0xbc7d0906	-0.015444046
172	0xbcbc0a9b	-0.022954276
173	0xbdc1159e	-0.09427951
174	0x3ced659e	0.028979119
175	0x3cb454c3	0.022013074
176	0x3d5e53b8	0.05427906
177	0x3dafee56	0.08590381
178	0x3d125430	0.03572482
179	0x3d9fdc35	0.07805673
180	0xbd6210a8	-0.055191666
181	0xbd7bbf04	-0.061461464
182	0xbd3980e9	-0.045288954
183	0x3da0f02d	0.0785831
184	0x3beb35af	0.0071780304
185	0xbd7f1252	-0.06227333
186	0xbdb96513	-0.090524815
187	0x3db7c407	0.08972936
188	0xbddd39a5	-0.108020104
189	0xbdada7a5	-0.08479241
190	0xbcb7c23f	-0.022431491
191	0xbd7126df	-0.05887496
192	0x3d1c3bc3	0.03814293
193	0xbbf0b061	-0.0073452448
194	0x3c9ce41b	0.019151738
195	0xbd9f5ad0	-0.07780993
196	0x3cea967f	0.028636215
197	0x3d516a34	0.051126674
198	0x3cab389d	0.020901019
199	0xbdce34a0	-0.10068631
200	0x3d3ec620	0.046575665
201	0xbb0bc520	-0.0021327212
202	0x3cb5961c	0.022166304
203	0x3d9732b9	0.073827215
204	0x3da1a576	0.07892887
205	0xbd2847c1	-0.041084055
206	0x3d76926d	0.060198236
207	0x3dceb8ce	0.100938424
208	0x3caf3a5c	0.021390133
209	0x3ce4395f	0.027859388
210	0x3cd6affe	0.026206966
211	0x3c957d08	0.018248096
212	0xbcc78d62	-0.024359409
213	0xbbeaa138	-0.007160332
214	0x3d1c6a6e	0.038187437
215	0x3da2f168	0.07956201
216	0x3c9ddb33	0.019269561
217	0xbd4997f0	-0.049217165
218	0x3d5463a4	0.051852837
219	0x3d8c632c	0.06854853
220	0xbd97088a	-0.073746756
221	0xbdab2274	-0.08356181
222	0xbcb5347a	-0.02211975
223	0x3da138b4	0.078721434
224	0x3db6cb85	0.08925537
225	0xbbcfa2ce	-0.0063365465
226	0xbd675fb0	-0.05648774
227	0x3d3e64b6	0.046482764
228	0x3de1ede1	0.110317
229	0x3dc52537	0.09626239
230	0x3b8875ff	0.004164457
231	0xbd2ad723	-0.041709077
232	0x3db030c5	0.08603052
233	0x3cf32688	0.02968146
234	0xbd87b7ae	-0.06626831
235	0x3dbf43fc	0.09339139
236	0x3d6f31f1	0.058397237
237	0xbd2b06e4	-0.04175462
238	0x3da44854	0.08021608
239	0xbcb6f78f	-0.022334842
240	0xbc8dcd83	-0.01730991
241	0x3cd7d1f2	0.026345227
242	0xbd0c357b	-0.03423069
243	0xbd85d063	-0.06533887
244	0x3d8c987e	0.06865023
245	0xbd74b5c5	-0.05974366
246	0x3cabe17c	0.020981543
247	0x3db4ce9f	0.08828472
248	0x3d0d28b6	0.034462653
249	0xbc2bce60	-0.010486215
250	0xbc835db3	-0.01603589
251	0xbd9f05d9	-0.07764787
252	0xbd9d35e3	-0.07676294
253	0xbba6c23a	-0.0050890716
254	0x3d7db898	0.06194362
255	0xbda069c3	-0.078326724

value_net.0.output_layer.bias f4 [96]
0	0xbdae6a1c	-0.085163325
1	0x3c903bd0	0.017606646
2	0xbbbe5bfa	-0.0058093043
3	0xbd8cbb19	-0.068716235
4	0x3cb03b4e	0.021512654
5	0xbd9e37b8	-0.07725471
6	0xbd6cd9af	-0.057824787
7	0xbde0a894	-0.10969654
8	0xbd97e299	-0.07416267
9	0xbd4397d1	-0.047752205
10	0xbcf53ad5	-0.02993528
11	0x3d76b540	0.060231447
12	0x3d8d1c8a	0.06890209
13	0xbdc2a03f	-0.09503221
14	0xbcc56d7e	-0.024100062
15	0x3d6712b4	0.05641432
16	0xbd660768	-0.056159407
17	0x3da19b71	0.07890976
18	0xbdc46c6a	-0.09590991
19	0x3c768ef2	0.015048729
20	0x3d8bec8c	0.06832227
21	0xbc14364c	-0.0090461485
22	0xbdadc46a	-0.08484729
23	0xbd27184d	-0.04079466
24	0x3d9ea5f1	0.077464946
25	0xbcc35cb5	-0.023847917
26	0x3d8e8ff5	0.069610514
27	0x3cd6f175	0.026238183
28	0xbc2a0dc0	-0.010379255
29	0xbc9adcee	-0.018904176
30	0xbde4876d	-0.11158643
31	0xbd7269dd	-0.05918299
32	0xbd292379	-0.041293595
33	0x3ccb3139	0.024803745
34	0xbdbde150	-0.092714906
35	0x3c917965	0.01775808
36	0x3db41216	0.08792512
37	0xbc7da560	-0.015481323
38	0x3d27ed81	0.040997986
39	0x3d2c5dd7	0.04208168
40	0xbd375fcf	-0.044769105
41	0x3d24f039	0.040268157
42	0xbdcd66e7	-0.10029393
43	0xbd86f0cc	-0.06588897
44	0x3da1e129	0.07904274
45	0xbdd07f08	-0.10180479
46	0x3a9a2651	0.0011760687
47	0xbbaddefb	-0.0053061224
48	0xbdaca914	-0.084306866
49	0xbd47cb65	-0.048777957
50	0xbd68ae2f	-0.05680674
51	0xbd020530	-0.03174323
52	0x3cc769c0	0.024342418
53	0x3d8b1c25	0.067924775
54	0x3c83ff1f	0.016112862
55	0x3dc93d24	0.09826115
56	0xbdbc11c3	-0.09183075
57	0x3c139c6e	0.009009464
58	0xbdadcb04	-0.08485988
59	0xbd44ea5f	-0.048075076
60	0x3d9f9200	0.07791519
61	0x3d962852	0.07331909
62	0x3d130c2f	0.03590029
63	0xbc5e38b6	-0.013563326
64	0x3d265ef1	0.040617887
65	0x3d0cb1d5	0.03434928
66	0xbd0735a7	-0.03301015
67	0xbda643ee	-0.08118425
68	0xbd13657e	-0.035985462
69	0xbd1223b4	-0.03567858
70	0xbdb2669f	-0.0871098
71	0x3d8f4dfc	0.06997296
72	0x3d30d494	0.04317148
73	0xbd9334e1	-0.0718782
74	0x3dcfa4d7	0.101388626
75	0xbd3f47ef	-0.04669946
76	0x3bba1e27	0.005679864
77	0x3d4252e1	0.04744232
78	0x3db734a9	0.08945591
79	0x3d9a1ded	0.07525239
80	0x3da44332	0.08020629
81	0x3cbdc8a8	0.02316697
82	0x3d4abf35	0.049498755
83	0xbdb54869	-0.08851702
84	0x3d320208	0.04345897
85	0x3d3931c3	0.045213472
86	0x3d6c08f0	0.05762571
87	0x3d29e42c	0.041477367
88	0xbd89a01d	-0.06719992
89	0xbd9bea09	-0.07612998
90	0xbdc17639	-0.09446377
91	0x3c923682	0.017848257
92	0xbd150ea0	-0.0363909
93	0xbd9ed949	-0.077562876
94	0x3c8a111d	0.016853863
95	0x3c41bc22	0.0118246395

value_net.0.attention.in_proj_weight f4 [288, 96]
0	0x3d1fb620	0.038992047
1	0x3da65cbc	0.081231564
2	0xbd890314	-0.0669004
3	0xbca907c0	-0.020633578
4	0xbd0f26dc	-0.03494917
5	0xbc4ea1f0	-0.012611851
6	0xbd4ac364	-0.049502745
7	0xbc460640	-0.012086451
8	0x3d78fbec	0.060787126
9	0xbd178868	-0.03699532
10	0x3da20dde	0.07912801
11	0xbdb0c294	-0.08630863
12	0xbab13e00	-0.0013522506
13	0xbd310228	-0.043214947
14	0xbd8e5aae	-0.069508895
15	0x3df65fbc	0.12029979
16	0x3d4c06cc	0.04981117
17	0xbdab6462	-0.08368756
18	0x3db4e4f4	0.08832732
19	0x3d6e2d00	0.058148384
20	0x3d314268	0.04327622
21	0xbdc1aef8	-0.09457201
22	0xbd8a5968	-0.06755334
23	0xbddc11fe	-0.10745619
24	0xbda9296a	-0.08259852
25	0xbd70e9cc	-0.058816716
26	0x3c80e648	0.015734807
27	0x3d3a9594	0.045552805
28	0x3d078a14	0.033090666
29	0x3da23b28	0.079214394
30	0xbdd0c8ee	-0.10194574
31	0xbd89763a	-0.06712003
32	0xbcbeba60	-0.02328223
33	0xbcfa0120	-0.030518115
34	0xbdca259e	-0.09870456
35	0x3d83c08e	0.06433211
36	0xbdf4f55c	-0.11960861
37	0x3c5d8630	0.013520762
38	0x3c4cdd90	0.0125039965
39	0x3c84c5a0	0.016207516
40	0x3d1360d8	0.03598103
41	0x3db1c13e	0.08679436
42	0xbc9f4a90	-0.019444734
43	0x3ce0d810	0.027446777
44	0x3d222624	0.039587155
45	0xbc430800	-0.011903763
46	0xbd6ffadc	-0.058588848
47	0xbd90306e	-0.07040487
48	0xbd95d2b8	-0.07315582
49	0x3d3f8b30	0.0467636
50	0x3cf0bbb8	0.029386386
51	0xbde195fa	-0.11014934
52	0xbd92bf48	-0.0716539
53	0x3d7d2a4c	0.061807916
54	0xbc42e840	-0.011896193
55	0xbd12d9a4	-0.03585209
56	0x3cacd650	0.021098286
57	0x3dfc4c74	0.1231927
58	0x3d1def98	0.038558573
59	0x3dca8444	0.09888509
60	0xbd3116e4	-0.04323472
61	0xbde13690	-0.10996735
62	0xbc00d8d0	-0.007864192
63	0x3c9e17b0	0.019298404
64	0xbd1a0d70	-0.03761047
65	0xbd8206c2	-0.06348945
66	0xbd89e180	-0.06732464
67	0x3de224aa	0.11042149
68	0x3d6449a4	0.05573429
69	0xbd23500c	-0.03987126
70	0xbc644770	-0.013933048
71	0xbd9a09ba	-0.075213864
72	0xbdcff7a6	-0.10154657
73	0xbdf8d168	-0.12149316
74	0x3d03a068	0.032135397
75	0xbd606734	-0.054785922
76	0x3d9b274e	0.07575856
77	0xbbdb5540	-0.006693512
78	0xbda217d4	-0.07914701
79	0xbdba01f2	-0.09082402
80	0x3c12ef60	0.008968204
81	0x3da62ef6	0.08114426
82	0x3d902130	0.0703758
83	0xbde28df8	-0.11062235
84	0xbcbad268	-0.022805408
85	0xbd9c4cba	-0.07631822
86	0xbcf480e8	-0.029846624
87	0xbdd0c6de	-0.10194181
88	0x3dc70e8e	0.09719573
89	0xbce1efe8	-0.027580217
90	0x3de8dd64	0.11370352
91	0x3d8e8b40	0.069601536
92	0xbdcb489e	-0.0992596
93	0xbdc40458	-0.09571141
94	0x3cd6c6a8	0.026217774
95	0xbcb465c8	-0.02202119
96	0xbdaa86c0	-0.08326483
97	0xbd852162	-0.06500508
98	0xbddec6d2	-0.10877766
99	0xbdd5b658	-0.1043517
100	0xbd39f4f4	-0.04539962
101	0x3d9da54e	0.07697545
102	0xbdd6fcba	-0.104974225
103	0xbdfd4430	-0.12366521
104	0xbd57b210	-0.052660048
105	0xbce18ce8	-0.02753301
106	0xbcd19de8	-0.02558799
107	0x3de362e8	0.11102849
108	0xbdc95c30	-0.098320365
109	0x3d69b848	0.05706051
110	0x3d25c6b4	0.0404727
111	0xbda6870c	-0.08131227
112	0xbdc9459c	-0.0982773
113	0x3d140f40	0.036147356
114	0xbcb1bcd8	-0.021696493
115	0xbd9a904a	-0.07547052
116	0x3cbe3b30	0.023221582
117	0xbd9a0b72	-0.07521714
118	0x3dfa6ecc	0.12228164
119	0x3d591988	0.053002864
120	0xbde223d0	-0.11041987
121	0xbdf35346	-0.118811175
122	0xbdeceddc	-0.115688056
123	0xbd84a7c0	-0.06477308
124	0x3db21326	0.086950585
125	0xbdac2a42	-0.084064975
126	0xbde59a9e	-0.112111315
127	0xbcf80fb0	-0.030280918
128	0x3d881c06	0.0664597
129	0x3dc36b6c	0.095419735
130	0xbdae496e	-0.08510099
131	0xbd8a96a4	-0.06767014
132	0x3d28e384	0.0412326
133	0xbdc93d86	-0.09826188
134	0x3d8f1b8e	0.069876775
135	0xbc03f5c0	-0.008054197
136	0x3db4d356	0.08829372
137	0xbcb89f60	-0.022536933
138	0x3dc86002	0.09783937
139	0x3d77d8a0	0.060509324
140	0xbdccaed8	-0.09994286
141	0x3d286b64	0.04111804
142	0xbd281b4c	-0.041041657
143	0x3c91dc70	0.017805308
144	0xbc9f0160	-0.019409835
145	0xbcb373a0	-0.02190572
146	0xbda936ee	-0.0826243
147	0xbdab00d8	-0.0834977
148	0x3da57b98	0.08080214
149	0xbd51c3d8	-0.05121216
150	0x3d3102c4	0.043215528
151	0x3d961c6e	0.07329641
152	0x3dc085de	0.09400533
153	0xbdc3aaec	-0.09554085
154	0x3dcabe46	0.09899573
155	0x3de96348	0.113958895
156	0xbdc25d8c	-0.09490499
157	0x3d83bcf0	0.06432521
158	0xbd7748c0	-0.060372114
159	0x3db5d79a	0.08879013
160	0xbbf5fb60	-0.007506773
161	0x3d5c2e54	0.05375512
162	0x3dda52f6	0.10660355
163	0x3d255dec	0.040372774
164	0xbdaadac6	-0.08342509
165	0xbdcb35fe	-0.099224076
166	0xbdf257cc	-0.11833152
167	0xbca8e980	-0.020619154
168	0x3db52c14	0.08846298
169	0xbdae0a4a	-0.08498056
170	0x3d2c04e0	0.041996837
171	0xbddbaeec	-0.10726723
172	0xbd498cf0	-0.049206674
173	0x3d86f086	0.06588845
174	0xbc5ae9b0	-0.0133613795
175	0x3d739150	0.059464753
176	0xbc825ea8	-0.015914276
177	0xbdc32c26	-0.09529905
178	0x3beb1160	0.007173702
179	0xbd65d2ec	-0.056109354
180	0x3d996556	0.074900314
181	0x3df6a382	0.120429054
182	0x3de5b472	0.11216058
183	0xbdae596c	-0.085131496
184	0x3db9fb98	0.09081191
185	0x3d719b30	0.05898589
186	0xbdfe94e6	-0.12430744
187	0x3d3bbb6c	0.045833036
188	0x3d106570	0.03525299
189	0x3d7cc2a0	0.061709046
190	0xbd0e4ed8	-0.03474316
191	0xbba9c900	-0.005181432
192	0x3de812bc	0.11331698
193	0xbc6875d0	-0.014188245
194	0x3d354880	0.044258595
195	0xbd955646	-0.07291846
196	0x3daf9120	0.08572602
197	0x3dd4b400	0.10385895
198	0x3de0dc38	0.109795034
199	0xbc6b2060	-0.0143509805
200	0xbd0a5710	-0.033774436
201	0x3dabed3c	0.08394858
202	0xbdedc9f0	-0.11610782
203	0xbd4e89d8	-0.050424427
204	0xbcdb9cc0	-0.026808143
205	0xbd5731a8	-0.05253759
206	0xbdca9032	-0.09890784
207	0x3c660a50	0.014040545
208	0xbde7a082	-0.11309911
209	0xbd94aa82	-0.07259084
210	0x3d978aae	0.07399498
211	0x3db54a74	0.088520914
212	0xbd749df8	-0.059720963
213	0x3dfe35de	0.12412618
214	0x3db760b8	0.089539945
215	0x3d04c21c	0.03241168
216	0xbd8ee504	-0.06977275
217	0xbded1d84	-0.11577895
218	0x3d51d1a0	0.051225305
219	0x3de428ae	0.111405715
220	0x3daacd6a	0.08339961
221	0x3d9e6d54	0.077356964
222	0x3d4a8af0	0.049448907
223	0xbc2872e0	-0.010281295
224	0x3deceff4	0.11569205
225	0x3da8c1c8	0.08240086
226	0xbdcb1264	-0.09915617
227	0x3dd4a366	0.10382728
228	0x3df34a88	0.1187945
229	0xbd05a890	-0.032631457
230	0x3d99499a	0.074847415
231	0x3cf8db28	0.03037794
232	0xbdb70bb6	-0.089377806
233	0x3bdbca80	0.0067074895
234	0xbdebe306	-0.11517911
235	0xbdee197c	-0.116259545
236	0x3d8ea0c8	0.0696426
237	0xbd047200	-0.03233528
238	0xbdad0126	-0.08447485
239	0x3bab7800	0.005232811
240	0xbdb8aa36	-0.0901684
241	0xbdca2b30	-0.098715186
242	0xbdec6074	-0.115418345
243	0xbdd001ea	-0.10156615
244	0xbce1a388	-0.027543798
245	0x3ce0f178	0.027458891
246	0xbdd8b0f4	-0.10580626
247	0x3db3a148	0.08770996
248	0x3dc11988	0.09428698
249	0x3dcb49d4	0.09926191
250	0xbdeabedc	-0.11462185
251	0x3dc68be8	0.09694654
252	0x3d88f56a	0.06687434
253	0xbd8fd56a	-0.070231274
254	0xbd8c5716	-0.06852548
255	0x3d6252bc	0.055254683

value_net.0.attention.in_proj_bias f4 [288]
0	0x00000000	0.0
1	0x00000000	0.0
2	0x00000000	0.0
3	0x00000000	0.0
4	0x00000000	0.0
5	0x00000000	0.0
6	0x00000000	0.0
7	0x00000000	0.0
8	0x00000000	0.0
9	0x00000000	0.0
10	0x00000000	0.0
11	0x00000000	0.0
12	0x00000000	0.0
13	0x00000000	0.0
14	0x00000000	0.0
15	0x00000000	0.0
16	0x00000000	0.0
17	0x00000000	0.0
18	0x00000000	0.0
19	0x00000000	0.0
20	0x00000000	0.0
21	0x00000000	0.0
22	0x00000000	0.0
23	0x00000000	0.0
24	0x00000000	0.0
25	0x00000000	0.0
26	0x00000000	0.0
27	0x00000000	0.0
28	0x00000000	0.0
29	0x00000000	0.0
30	0x00000000	0.0
31	0x00000000	0.0
32	0x00000000	0.0
33	0x00000000	0.0
34	0x00000000	0.0
35	0x00000000	0.0
36	0x00000000	0.0
37	0x00000000	0.0
38	0x00000000	0.0
39	0x00000000	0.0
40	0x00000000	0.0
41	0x00000000	0.0
42	0x00000000	0.0
43	0x00000000	0.0
44	0x00000000	0.0
45	0x00000000	0.0
46	0x00000000	0.0
47	0x00000000	0.0
48	0x00000000	0.0
49	0x00000000	0.0
50	0x00000000	0.0
51	0x00000000	0.0
52	0x00000000	0.0
53	0x00000000	0.0
54	0x00000000	0.0
55	0x00000000	0.0
56	0x00000000	0.0
57	0x00000000	0.0
58	0x00000000	0.0
59	0x00000000	0.0
60	0x00000000	0.0
61	0x00000000	0.0
62	0x00000000	0.0
63	0x00000000	0.0
64	0x00000000	0.0
65	0x00000000	0.0
66	0x00000000	0.0
67	0x00000000	0.0
68	0x00000000	0.0
69	0x00000000	0.0
70	0x00000000	0.0
71	0x00000000	0.0
72	0x00000000	0.0
73	0x00000000	0.0
74	0x00000000	0.0
75	0x00000000	0.0
76	0x00000000	0.0
77	0x00000000	0.0
78	0x00000000	0.0
79	0x00000000	0.0
80	0x00000000	0.0
81	0x00000000	0.0
82	0x00000000	0.0
83	0x00000000	0.0
84	0x00000000	0.0
85	0x00000000	0.0
86	0x00000000	0.0
87	0x00000000	0.0
88	0x00000000	0.0
89	0x00000000	0.0
90	0x00000000	0.0
91	0x00000000	0.0
92	0x00000000	0.0
93	0x00000000	0.0
94	0x00000000	0.0
95	0x00000000	0.0
96	0x00000000	0.0
97	0x00000000	0.0
98	0x00000000	0.0
99	0x00000000	0.0
100	0x00000000	0.0
101	0x00000000	0.0
102	0x00000000	0.0
103	0x00000000	0.0
104	0x00000000	0.0
105	0x00000000	0.0
106	0x00000000	0.0
107	0x00000000	0.0
108	0x00000000	0.0
109	0x00000000	0.0
110	0x00000000	0.0
111	0x00000000	0.0
112	0x00000000	0.0
113	0x00000000	0.0
114	0x00000000	0.0
115	0x00000000	0.0
116	0x00000000	0.0
117	0x00000000	0.0
118	0x00000000	0.0
119	0x00000000	0.0
120	0x00000000	0.0
121	0x00000000	0.0
122	0x00000000	0.0
123	0x00000000	0.0
124	0x00000000	0.0
125	0x00000000	0.0
126	0x00000000	0.0
127	0x00000000	0.0
128	0x00000000	0.0
129	0x00000000	0.0
130	0x00000000	0.0
131	0x00000000	0.0
132	0x00000000	0.0
133	0x00000000	0.0
134	0x00000000	0.0
135	0x00000000	0.0
136	0x00000000	0.0
137	0x00000000	0.0
138	0x00000000	0.0
139	0x00000000	0.0
140	0x00000000	0.0
141	0x00000000	0.0
142	0x00000000	0.0
143	0x00000000	0.0
144	0x00000000	0.0
145	0x00000000	0.0
146	0x00000000	0.0
147	0x00000000	0.0
148	0x00000000	0.0
149	0x00000000	0.0
150	0x00000000	0.0
151	0x00000000	0.0
152	0x00000000	0.0
153	0x00000000	0.0
154	0x00000000	0.0
155	0x00000000	0.0
156	0x00000000	0.0
157	0x00000000	0.0
158	0x00000000	0.0
159	0x00000000	0.0
160	0x00000000	0.0
161	0x00000000	0.0
162	0x00000000	0.0
163	0x00000000	0.0
164	0x00000000	0.0
165	0x00000000	0.0
166	0x00000000	0.0
167	0x00000000	0.0
168	0x00000000	0.0
169	0x00000000	0.0
170	0x00000000	0.0
171	0x00000000	0.0
172	0x00000000	0.0
173	0x00000000	0.0
174	0x00000000	0.0
175	0x00000000	0.0
176	0x00000000	0.0
177	0x00000000	0.0
178	0x00000000	0.0
179	0x00000000	0.0
180	0x00000000	0.0
181	0x00000000	0.0
182	0x00000000	0.0
183	0x00000000	0.0
184	0x00000000	0.0
185	0x00000000	0.0
186	0x00000000	0.0
187	0x00000000	0.0
188	0x00000000	0.0
189	0x00000000	0.0
190	0x00000000	0.0
191	0x00000000	0.0
192	0xbb083880	-0.002078563
193	0xbac7993e	-0.0015228165
194	0x3b18e1b5	0.0023327891
195	0xbbd30be1	-0.006440625
196	0xbc243ab4	-0.010023762
197	0xbbb49f9d	-0.0055121914
198	0xbc16e81d	-0.009210614
199	0xbb94763e	-0.004530697
200	0xbc60f886	-0.013731128
201	0xbb4082ba	-0.0029374794
202	0xbbebe9b9	-0.007199493
203	0x3a2eda65	0.00066701166
204	0xbb4c541c	-0.0031178063
205	0xbc16fc43	-0.009215417
206	0x3be52204	0.0069925804
207	0x3c47c7c5	0.012193625
208	0x3c3460a5	0.01100937
209	0xbb39ece0	-0.0028369948
210	0x3c35e4ed	0.011101943
211	0xbc063d66	-0.0081933495
212	0xbb050308	-0.0020295996
213	0x3be6d3d2	0.007044294
214	0x3c602ff9	0.013683313
215	0xbc4efe5a	-0.012633884
216	0xbb93b023	-0.004507081
217	0x3b82d49a	0.0039926292
218	0x3bbcbc55	0.0057597556
219	0x3b590881	0.003311664
220	0xba525172	-0.00080230006
221	0xbbcf1ca9	-0.006320555
222	0x3bfbc8b2	0.007683837
223	0x3aac57d8	0.0013148738
224	0xbb44bb3b	-0.0030018825
225	0xbc3ae4cd	-0.011407089
226	0x38cc6a23	9.7472475e-05
227	0x3c2a422d	0.010391754
228	0x3a692bb9	0.000889476
229	0xbb0ccb4f	-0.0021483486
230	0xbc5ae2ce	-0.0133597385
231	0x3ad9f672	0.0016629233
232	0x3baf46f1	0.005349033
233	0x3a9d5c40	0.0012005642
234	0xb9ff9532	-0.0004874855
235	0xbbb6a148	-0.0055734254
236	0x3b2fb6ab	0.002681176
237	0xbc384f80	-0.011249423
238	0x3c078368	0.008271076
239	0x3c32953b	0.010899837
240	0xbbcbd8b0	-0.0062208995
241	0x3c03471b	0.008012558
242	0xbc51f74d	-0.012815309
243	0xbc145a82	-0.009054782
244	0x3ba6c16b	0.005088975
245	0x3aba3d11	0.0014208873
246	0xbc26e21d	-0.010185746
247	0xbc2931cb	-0.010326813
248	0x3c60a7e3	0.013711902
249	0xbc51d796	-0.012807747
250	0xba1143dc	-0.0005541423
251	0xbcbcf6da	-0.023066927
252	0xba3d8617	-0.0007229759
253	0x3a4bd115	0.0007774991
254	0x3c1fba91	0.009749071
255	0xbc1d6e57	-0.009608827

value_net.0.attention.out_proj.weight f4 [96, 96]
0	0xbcfadba4	-0.030622311
1	0xbd8f19e2	-0.06987359
2	0x3cf48b9a	0.029851723
3	0x3d8a89fc	0.067646
4	0x3d5d96a5	0.054098744
5	0xbd9428a4	-0.07234314
6	0x3c8502c0	0.016236663
7	0x3d827ec8	0.06371838
8	0x3d1988cd	0.03748398
9	0xbc8d9400	-0.017282486
10	0xbc77163c	-0.015080985
11	0xbdb3550f	-0.08756458
12	0xbd5bd6b5	-0.053671557
13	0xbd1e2787	-0.038611915
14	0x3c139792	0.009008305
15	0x3d2c86fb	0.042120915
16	0xbd8c4c8e	-0.06850539
17	0x3d550385	0.05200531
18	0xbdb30b19	-0.08742351
19	0xbd7c2f71	-0.06156868
20	0x3dab0118	0.08349818
21	0x3dcecdd9	0.10097856
22	0x3d81d57e	0.063395485
23	0x3d1c38ba	0.038140036
24	0x3d8ca1fd	0.06866834
25	0xbde3aa17	-0.111164264
26	0xbd37bac6	-0.044855855
27	0xbca0dff8	-0.019638047
28	0x3b305ec3	0.002691195
29	0x3dda6005	0.106628455
30	0x3dd1b3c4	0.10239366
31	0xbd72de6c	-0.05929415
32	0xbd00a449	-0.031406675
33	0xbd53c6db	-0.051703315
34	0xbd2f3b3a	-0.042781092
35	0x3dc20823	0.09474208
36	0x3d280462	0.041019805
37	0x3dd59975	0.1042966
38	0x3db7195a	0.08940382
39	0xbc004e1e	-0.007831125
40	0xbdcf6e63	-0.101284765
41	0x3d933758	0.0718829
42	0x3d26a50c	0.040684745
43	0xbc53c0fa	-0.012924427
44	0x3d391f2e	0.04519575
45	0x3d49a813	0.049232554
46	0x3b84c177	0.004051383
47	0x3dc5c279	0.09656233
48	0x3d8ce8e8	0.06880361
49	0xbd54396c	-0.051812574
50	0xbd242077	-0.040070023
51	0xbd40797b	-0.046990853
52	0xbd901eb9	-0.0703711
53	0xbda24835	-0.07923929
54	0x3daecdf1	0.08535374
55	0x3c8fb62f	0.017542927
56	0xbd81a100	-0.063295364
57	0x3b872dc9	0.004125331
58	0x3d9fcb95	0.07802502
59	0x3ccc2c87	0.024923576
60	0x3d7a2924	0.06107439
61	0xbcd2adcd	-0.02571764
62	0xbc0e3f4f	-0.008682086
63	0x3c6b2153	0.014351207
64	0xbcc7f2cb	-0.024407765
65	0x3dcc22a7	0.09967547
66	0x3d8b821b	0.06811925
67	0x3d31ac2f	0.043377098
68	0x3d4d890f	0.050179537
69	0x3dc74498	0.0972988
70	0xbc1b81a8	-0.009491362
71	0xbc0a869f	-0.008454948
72	0xbc351538	-0.011052422
73	0x3d153a49	0.03643254
74	0xbdba0b22	-0.09084155
75	0x3db67034	0.0890812
76	0x3d6379f3	0.05553622
77	0x3d553395	0.052051146
78	0xbd3d55dd	-0.046224464
79	0x3d3d5d5c	0.046231613
80	0xbdbb8790	-0.09156716
81	0x3da606a1	0.08106733
82	0xbce1786d	-0.027523244
83	0xbda78c25	-0.08181027
84	0x3d9c012f	0.07617413
85	0x3dc648d0	0.09681857
86	0xbcecbf2c	-0.028899752
87	0xbd7fb39f	-0.06242716
88	0xbd89841e	-0.067146525
89	0x3d8b0b72	0.067892924
90	0x3cf39f02	0.029738907
91	0xbd071567	-0.032979395
92	0xbcf01bbe	-0.029310104
93	0x3d23feae	0.040037803
94	0xbd829b82	-0.06377317
95	0x3d9f208d	0.077698804
96	0x3db41328	0.08792716
97	0x3b040e8b	0.002015027
98	0x3d0e5af6	0.034754716
99	0x3d981dab	0.07427534
100	0xbc12286a	-0.008920768
101	0xbdc320fb	-0.09527775
102	0xbd6d7626	-0.057974003
103	0xbda38dff	-0.07986068
104	0x3b024189	0.0019875488
105	0x3d393883	0.04521991
106	0xba824b7a	-0.0009940707
107	0x3c1b99a9	0.009497085
108	0x3d9692c6	0.073522136
109	0xbd2268e9	-0.03965083
110	0x3ce966ca	0.028491396
111	0xbc15a81b	-0.009134318
112	0x3dafbdef	0.08581149
113	0x3dc1e267	0.09467011
114	0xbd89fcc9	-0.06737668
115	0xbd6dfc55	-0.05810197
116	0xbd02dc4c	-0.031948373
117	0x3dc3a1a9	0.095523186
118	0x3dab3cdc	0.083612174
119	0xbcf6ced5	-0.030127922
120	0x3dbab854	0.09117189
121	0x3d02c75a	0.031928398
122	0xbc71c7f8	-0.014757149
123	0x3dae56d2	0.085126534
124	0x3d3e7484	0.046497837
125	0x3da6e01f	0.081482165
126	0x3a6549c3	0.0008746648
127	0x3d3ad3b8	0.045612067
128	0xbdceb829	-0.100937195
129	0x3c6b8cab	0.0143768
130	0x3dc71dac	0.09722456
131	0x3ce97135	0.028496364
132	0x3b9c45b4	0.0047690514
133	0xbd631726	-0.055441998
134	0x3c710d31	0.014712618
135	0xbdcb5e38	-0.0993008
136	0x3d9b0c84	0.075707465
137	0x3d39358e	0.04521709
138	0x3d9cc2cf	0.07654344
139	0xbcaa3f12	-0.020782027
140	0x3d36e681	0.04465342
141	0x3daae4ae	0.083443984
142	0xbd2c3298	-0.042040437
143	0xbdc77a1d	-0.09740088
144	0x3ad362ab	0.0016127428
145	0x3ddcac04	0.10774997
146	0x3c4f7c81	0.012663961
147	0xbc9c21d9	-0.019059109
148	0x3dc580a3	0.09643676
149	0xbdc81151	-0.09768928
150	0x3d0ffea7	0.035154965
151	0x3c0bf15b	0.00854143
152	0xba446967	-0.0007492513
153	0xbbe6f062	-0.007047699
154	0x3b5d65c5	0.0033782583
155	0xbdac01e2	-0.083987966
156	0xbcc59b04	-0.024121769
157	0x3d9bb29e	0.07602428
158	0x3d0e814b	0.034791272
159	0xbd5244e1	-0.05133522
160	0xbd77b76e	-0.060477667
161	0xbd8e99f4	-0.06962958
162	0x3d257a6b	0.04039995
163	0x3d9573e4	0.07297495
164	0x3d2a1f98	0.041534036
165	0xbd10f336	-0.035388194
166	0x3db0233c	0.086004704
167	0xbcfcb0a1	-0.030845942
168	0x3d440a9c	0.04786168
169	0xbd35e032	-0.044403262
170	0x3bd11288	0.006380383
171	0xbd3807a0	-0.044929147
172	0x3d865958	0.0656001
173	0x3c9f2539	0.019426929
174	0x3d4c7424	0.049915448
175	0x3d2bcd1b	0.04194365
176	0xbd303259	-0.043016765
177	0xbd291205	-0.04127695
178	0xbc95e72b	-0.018298706
179	0x3d5124d4	0.051060513
180	0x3d5f3cad	0.054501224
181	0xbd56c099	-0.05242977
182	0x3ccbb704	0.024867542
183	0x3da7a974	0.081866175
184	0xbdd333d4	-0.1031262
185	0x3c9c0cbc	0.019049041
186	0xbda79f0c	-0.08184633
187	0xbd33f32b	-0.043933075
188	0xbd219811	-0.039451662
189	0xbd992a83	-0.074788116
190	0x395710ca	0.00020510252
191	0x3d962492	0.07331194
192	0x3d5d8c9f	0.054089185
193	0xbbe40883	-0.0069590225
194	0xbd7a310f	-0.061081942
195	0xbd7835ab	-0.060598057
196	0x3c9fe6fd	0.019519323
197	0x3ba8dff5	0.005153651
198	0xbd1dac1b	-0.03849421
199	0xbd90dc0b	-0.0707322
200	0xbc17c6f4	-0.009263743
201	0xbd3c6e41	-0.046003584
202	0xbcb9ca52	-0.022679482
203	0x3d0b439d	0.034000028
204	0xbdbe71c9	-0.092990465
205	0x3dc17bda	0.09447451
206	0x3cc4a6d1	0.024005326
207	0x3d06c21a	0.032899953
208	0x3c53f1c6	0.012936061
209	0x3ca35c1c	0.019941382
210	0xbcf8bd56	-0.03036372
211	0x3cfb8406	0.030702602
212	0xbd65156e	-0.05592864
213	0x3daef695	0.085431255
214	0x3c8473c9	0.016168492
215	0xbda39b1c	-0.07988569
216	0x3b8406d0	0.0040291324
217	0xbd666137	-0.056245055
218	0x3d55157a	0.052022435
219	0x3d654e00	0.05598259
220	0x3d60b504	0.05486013
221	0x3ce67b49	0.028134959
222	0x3d35eaa8	0.04441324
223	0xbd859bdf	-0.06523871
224	0xbd8bbb03	-0.06822779
225	0x3d20a0ba	0.03921578
226	0x3d34c65b	0.04413448
227	0x3dcdc25f	0.10046839
228	0x3d9deef1	0.0771159
229	0x3da5c3e3	0.08094003
230	0x3d90957d	0.070597626
231	0x3d58864f	0.05286246
232	0xbdb8522e	-0.090000495
233	0x3d65fd9b	0.05615006
234	0x3db7b166	0.08969383
235	0x3d6eef30	0.058333576
236	0x3d8956fb	0.06706043
237	0xbccb9371	-0.024850579
238	0x3c5e8d53	0.013583499
239	0x3c87359e	0.016505059
240	0x3c67098e	0.014101399
241	0x3bf95386	0.0076088337
242	0xbba72a7a	-0.005101499
243	0xbd64be05	-0.05584528
244	0xbd8b1078	-0.067902505
245	0x3d9a07b0	0.075209975
246	0x3cc57aa0	0.024106324
247	0xbd95af69	-0.073088475
248	0xbd4be68e	-0.04978042
249	0x3db9b30d	0.09067354
250	0xbc629119	-0.013828539
251	0x3d5be682	0.053686626
252	0x3db5bcb5	0.08873884
253	0xbcbf16ed	-0.023326362
254	0x3d2d0519	0.04224119
255	0x3cc0fa80	0.023556948

value_net.0.attention.out_proj.bias f4 [96]
0	0xbc195c75	-0.009360422
1	0x3ae457ab	0.0017421147
2	0xbb1c4ddf	-0.0023850126
3	0xbc076792	-0.008264439
4	0xbaecd0b5	-0.0018067571
5	0x3b6c0144	0.0036011497
6	0xbb93a7d1	-0.0045060893
7	0xbc439637	-0.0119376695
8	0xbc42b12e	-0.011883063
9	0xbc4aea1b	-0.012384917
10	0x3b57e57b	0.0032943178
11	0xbb04c20d	-0.0020257265
12	0x3b841d26	0.004031795
13	0xb91643bc	-0.00014330348
14	0x3bc27998	0.0059349053
15	0xbbcb79d7	-0.006209593
16	0xbbc4b82b	-0.0060034
17	0x3ab7078e	0.0013964043
18	0x3c0d1088	0.008609898
19	0x3bd8524f	0.006601609
20	0x3b669129	0.0035181737
21	0xbbd24128	-0.0064164586
22	0x3c7c43d4	0.015397031
23	0x3bafd837	0.005366351
24	0xbc373347	-0.011181659
25	0xbc294bd8	-0.010333024
26	0x3ba339f7	0.004981275
27	0xbac5a964	-0.001508039
28	0xbbe9faf1	-0.0071405102
29	0xbc4fe8ec	-0.01268981
30	0xbaf4c48b	-0.0018674297
31	0xba12dbca	-0.0005602209
32	0x3b79c7a4	0.003811338
33	0x3c44aa62	0.012003513
34	0x3b830c46	0.003999266
35	0x3b9c4d23	0.0047699376
36	0xbc3e8336	-0.011627963
37	0x3b06cb37	0.0020567903
38	0x3af94837	0.0019018714
39	0xbc1daefb	-0.009624238
40	0xbb90968e	-0.004412479
41	0xbc7bd5fc	-0.015370842
42	0xb8efc0de	-0.000114323324
43	0x3abf5178	0.0014596423
44	0xbb9f4eae	-0.0048616743
45	0x3b079a49	0.0020691326
46	0xbbc7e9d4	-0.0061008725
47	0x3c827d6d	0.015928948
48	0xbc1a2c6c	-0.009410005
49	0x3c01fbcd	0.007933569
50	0xbba0106e	-0.004884771
51	0x3b8826fa	0.004155037
52	0xba12e284	-0.00056032115
53	0x3b0ca1aa	0.0021458664
54	0x3b122af4	0.0022303434
55	0xbb0069cb	-0.0019594308
56	0xbb48748f	-0.0030587052
57	0xbbc8cf47	-0.006128225
58	0x3bb33105	0.00546849
59	0xbb37dec5	-0.0028056365
60	0xbb5a7a16	-0.003333693
61	0x3a1010b1	0.0005495651
62	0xbc02d979	-0.00798642
63	0x3c37a835	0.011209537
64	0xba685fd3	-0.00088643766
65	0xbb8e3513	-0.004339823
66	0xbc0703b3	-0.008240628
67	0xbc2c4db5	-0.010516574
68	0xbb34baaf	-0.0027577092
69	0x36174e37	2.254628e-06
70	0xb9d48371	-0.00040533722
71	0xba1bb812	-0.00059402094
72	0x3b832c45	0.00400308
73	0x3acd71a6	0.0015674129
74	0xbbe565bf	-0.0070006545
75	0x3b38ead5	0.0028216143
76	0x3c2e52ac	0.010639828
77	0x3be9aefb	0.007131455
78	0xbbfa902a	-0.00764658
79	0xbb80f0de	-0.0039349636
80	0xbc3b4889	-0.011430868
81	0x3c28e5b5	0.010308673
82	0x39d110c3	0.00039876075
83	0xbbbc9574	-0.005755121
84	0xbc0ff30f	-0.008785977
85	0xbb53a447	-0.0032293962
86	0xbc7e4ce9	-0.0155212665
87	0x3b8fd888	0.004389826
88	0x3b89c658	0.0042045526
89	0xbc469fa1	-0.012123019
90	0x3bab6118	0.0052300803
91	0x3c05d3b9	0.008168154
92	0x3b10aa9c	0.0022074347
93	0xbbed13e6	-0.007235038
94	0x3c16949f	0.0091907075
95	0xbab80fad	-0.0014042758

value_net.1.weight f4 [64, 96]
0	0xbd4026a3	-0.046911847
1	0xbd773154	-0.060349777
2	0x3c2c4263	0.010513875
3	0xbd546853	-0.051857304
4	0xbd4f130c	-0.050555274
5	0xbc881ac5	-0.016614327
6	0xbd60330c	-0.054736182
7	0xbc69847d	-0.014252779
8	0x3d7a33b1	0.061084453
9	0x3d95290c	0.0728322
10	0xbdb5687f	-0.08857822
11	0x3d628bfb	0.055309277
12	0x3d3dded8	0.0463551
13	0xbd53be17	-0.051694956
14	0x3bf335af	0.007422171
15	0xbce9e7c9	-0.028552907
16	0xbd2a6df1	-0.041608755
17	0xbc5cd949	-0.013479539
18	0x3c2ac20f	0.010422244
19	0x3dd9cb77	0.10634511
20	0x3d1f4ce1	0.038891677
21	0xbdd078f9	-0.10179324
22	0xbdc13f05	-0.09435848
23	0xbdc7d76f	-0.097578876
24	0x3d5353fc	0.051593766
25	0xbc8b1e1e	-0.016982134
26	0x3d328930	0.043587863
27	0xbdd143c1	-0.10218001
28	0x3c12898a	0.008943925
29	0xbd8f8ffe	-0.07009886
30	0xbdbbe4c1	-0.09174491
31	0x3d748b57	0.059703197
32	0xbd9b8e7a	-0.075955346
33	0x3d754c69	0.059887324
34	0xbda4ce53	-0.08047166
35	0x3c5cc0f5	0.013473739
36	0x3d45e038	0.048309535
37	0x3b803ba1	0.0039133583
38	0x3d8002b0	0.062505126
39	0xbd3c1a60	-0.04592359
40	0xbd465b87	-0.04842713
41	0x3d9e6d0a	0.07735641
42	0x3c6a4977	0.014299742
43	0x3da971db	0.08273669
44	0x3dc4e773	0.09614458
45	0xbddcf0d5	-0.107881226
46	0x3cf68935	0.030094722
47	0xbccdd53e	-0.025126096
48	0x3c83614c	0.016037606
49	0xbc93769e	-0.018000897
50	0xbcd240ee	-0.025665727
51	0x3a863424	0.0010238928
52	0xbdd6161e	-0.10453437
53	0x3d700a1b	0.058603387
54	0xbd8c022f	-0.06836354
55	0x3d96891e	0.07350372
56	0xbac87a6f	-0.0015295277
57	0x3c49f85c	0.01232728
58	0xbd206fd0	-0.039169133
59	0x3d9acaa1	0.0755818
60	0x3d89631e	0.06708358
61	0xbd2660d9	-0.040619705
62	0xbd6e43af	-0.058170017
63	0x3d245d33	0.040127944
64	0x3d915657	0.07096546
65	0x3d12e765	0.035865206
66	0x3c0e8323	0.008698258
67	0xbd84a2b3	-0.06476345
68	0x3d0476e1	0.032339934
69	0x3d20a1fb	0.039216977
70	0x3dc10d86	0.094264075
71	0x3d931376	0.07181446
72	0x3ca69c66	0.020338248
73	0x3d082f45	0.033248205
74	0x3d5ea39b	0.054355245
75	0xbdaa9301	-0.0832882
76	0x3c0e0200	0.008667469
77	0xbcf87865	-0.030330846
78	0xbd39c8ef	-0.04535764
79	0x3d2aca18	0.041696638
80	0xbbd4740d	-0.006483561
81	0x3cc2af71	0.023765298
82	0x3db7d825	0.08976773
83	0x3ccdd815	0.02512745
84	0xbd4cd303	-0.050005924
85	0xbd2419cb	-0.04006366
86	0x3ce33296	0.027734082
87	0xb9b93bc4	-0.0003533048
88	0xbda1879a	-0.07887192
89	0xbc77159a	-0.015080834
90	0xbd2997d1	-0.04140455
91	0xbc9172b8	-0.017754897
92	0x3d5acf83	0.053420555
93	0xbd520753	-0.051276516
94	0x3d713b40	0.058894396
95	0x3d85d283	0.065342925
96	0xbdce4c51	-0.1007315
97	0x3db413c2	0.08792831
98	0xbd87058d	-0.065928556
99	0x3d59e6b4	0.05319853
100	0x3cbd2e4f	0.02309337
101	0x3d66f22c	0.056383297
102	0xbb6b589d	-0.0035910972
103	0xbd88da07	-0.066822104
104	0xbda45e4a	-0.08025797
105	0x3cac093d	0.021000499
106	0xbd3ae935	-0.04563256
107	0x3bbc4ec5	0.0057466947
108	0xbd85221f	-0.06500649
109	0x3dbb0f1c	0.09133741
110	0xbdd3c955	-0.103411354
111	0x3daaaeff	0.08334159
112	0xbd047a12	-0.032342978
113	0x3c12e654	0.008966047
114	0xbd8714b2	-0.06595744
115	0x3d7a5595	0.061116774
116	0x3d3acccb	0.045605462
117	0x3ce80a34	0.028325178
118	0x3bf8a05c	0.0075874757
119	0x3dbad52b	0.0912269
120	0xbd2578d7	-0.040398445
121	0xbda14a4a	-0.07875498
122	0xbdd022a8	-0.1016286
123	0x3d1eb5fe	0.03874778
124	0x3dd25feb	0.10272201
125	0xbbaa6752	-0.005200305
126	0xbd49893f	-0.049203154
127	0x3ce2c602	0.027682308
128	0xbd87b73f	-0.06626748
129	0xbd2c12f7	-0.042010274
130	0x3cbbd4f3	0.02292869
131	0x3db560bc	0.08856341
132	0x3d0d4e44	0.034498468
133	0xbd9dbd4f	-0.077021234
134	0xbd3c9219	-0.046037767
135	0xbd90c314	-0.07068458
136	0x3c18533b	0.009297187
137	0x3c02e03b	0.007988031
138	0xbc0688ae	-0.008211298
139	0x3c3a80ea	0.011383275
140	0xbd91ae6c	-0.071133465
141	0xbbdf2e7b	-0.006810961
142	0x3dc72b9d	0.097251154
143	0x3d848d25	0.06472234
144	0xbdadaa60	-0.08479762
145	0xbd511eb1	-0.05105466
146	0xbda564b7	-0.080758505
147	0xbdd37642	-0.1032529
148	0xbb5155c2	-0.0031941985
149	0x3db06259	0.08612508
150	0x3d29cde7	0.04145613
151	0xbd655eef	-0.05599874
152	0x3db437fc	0.08799741
153	0x3d9a0a88	0.0752154
154	0x3d8a0729	0.06739647
155	0xbd9c37d0	-0.07627833
156	0xbdcf8860	-0.10133433
157	0xbdb12d25	-0.08651189
158	0xbdd34a89	-0.10316951
159	0x3ce7d4b1	0.028299661
160	0x3dc4e222	0.09613444
161	0xbdc1d91a	-0.09465237
162	0x3da41509	0.08011825
163	0xbbb7896d	-0.005601099
164	0x3d85a309	0.06525237
165	0xbdc51c92	-0.0962459
166	0x3b5120f1	0.0031910504
167	0xbd877910	-0.06614888
168	0xbd80fa19	-0.06297702
169	0xbda3c277	-0.079960756
170	0x3d2b9c6d	0.041897226
171	0xbd83a089	-0.06427104
172	0x3ccf112a	0.02527674
173	0xbcb9db0f	-0.022687463
174	0x3c8a09be	0.016850349
175	0xbdca555b	-0.098795615
176	0x3d27ca2e	0.040964298
177	0x3caed067	0.021339608
178	0xbd8403cd	-0.064460374
179	0xbd349b53	-0.04409344
180	0xbcc9d8ec	-0.02463957
181	0xbd7ef395	-0.062244017
182	0x3d3e5db3	0.046476077
183	0x3ab3e645	0.0013725242
184	0xbcd1aa5d	-0.02559393
185	0x3bcd72ba	0.00626978
186	0x3d1fb9aa	0.038995422
187	0x3ce9cb79	0.028539406
188	0xbd1c8ea5	-0.038221974
189	0x3cbc2015	0.022964517
190	0xbd5af4d4	-0.053456143
191	0xbd1dcd51	-0.038525883
192	0x3db3cc91	0.08779252
193	0x3d90d2b5	0.07071439
194	0xbd5e3ee8	-0.05425921
195	0xbdc9fb0d	-0.09862337
196	0xbd7f6216	-0.0623494
197	0xbd457381	-0.048205856
198	0x3de0aedd	0.109708525
199	0xbbae7172	-0.0053235823
200	0xbd8d2bf0	-0.06893146
201	0x3da75218	0.08169955
202	0xbdb72a5e	-0.08943628
203	0x3d40c8ec	0.047066614
204	0xbd482ae8	-0.048869044
205	0x3b9c85c5	0.0047766888
206	0x3dabaac7	0.083821826
207	0x3d9f1949	0.07768495
208	0xbd97b37e	-0.07407282
209	0x3d428588	0.047490627
210	0x3dc33b8f	0.09532844
211	0x3d96efcf	0.073699586
212	0x3d8903e5	0.06690196
213	0xbdad4d35	-0.08461992
214	0xbd200146	-0.039063714
215	0xbd95ae9a	-0.07308693
216	0x3c8d44d2	0.01724473
217	0x3d81d040	0.06338549
218	0xbda28823	-0.07936122
219	0x3d865b6b	0.06560405
220	0x3d9c1b6f	0.0762242
221	0xbd3c2cfb	-0.045941334
222	0xbdac6483	-0.084176086
223	0xbdc52693	-0.09626498
224	0xbc8d745b	-0.017267397
225	0xbd85a6a0	-0.06525922
226	0x3d253579	0.0403342
227	0x3d86b340	0.06577158
228	0xbdcc72e6	-0.09982853
229	0x3dbcb45a	0.09214087
230	0xbd6b16ef	-0.057394918
231	0xbdb3d88f	-0.0878154
232	0xbdbe181b	-0.092819415
233	0x3d10296e	0.03519576
234	0x3be62613	0.007023582
235	0x3ce208e1	0.027592124
236	0xbceff0f3	-0.029289698
237	0xbd52e0e7	-0.051484015
238	0xbc36229c	-0.01111665
239	0x3daae696	0.08344762
240	0x3dce3d5c	0.10070297
241	0x3cfd9548	0.030954972
242	0xbd8aa434	-0.067696005
243	0x3cfdf881	0.031002285
244	0xbda37f11	-0.0798322
245	0xbdad211c	-0.08453581
246	0xbdb830d6	-0.0899369
247	0x3d839c8e	0.06426345
248	0xbdc896b4	-0.09794369
249	0x3dab27dc	0.08357212
250	0x3cd6087f	0.026127098
251	0x3d8c87fd	0.06861875
252	0xbd8e1159	-0.069369026
253	0xbd9aee80	-0.075650215
254	0x3ccf1e00	0.02528286
255	0xbd9a33d0	-0.07529414

value_net.1.bias f4 [64]
0	0xbd32fb88	-0.04369691
1	0x3cf7582a	0.030193407
2	0xbb6015ae	-0.003419261
3	0xbda1f9aa	-0.07908948
4	0x3cf59ea6	0.029982876
5	0x3bce3f97	0.0062942016
6	0xbd91c26b	-0.071171604
7	0x3d430c56	0.047619186
8	0xbca311f6	-0.019906025
9	0xbd8c7c6b	-0.06859668
10	0xbd5f7f02	-0.054564483
11	0xbc090e82	-0.008365275
12	0xbdc5fd12	-0.0966741
13	0xbd66a5b4	-0.05631037
14	0xbcd95415	-0.026529351
15	0xbd3c718c	-0.046006724
16	0x3d87f714	0.06638923
17	0xbd658090	-0.05603081
18	0xbce63cde	-0.028105196
19	0x3d2b810c	0.041871116
20	0x3c193b4b	0.009352515
21	0x3d614900	0.05500126
22	0x3d61ff14	0.055174902
23	0xbc943b46	-0.01809467
24	0x3ca368cf	0.019947438
25	0xbd6087d0	-0.05481702
26	0xbc7ffae1	-0.015623779
27	0xbd913458	-0.07090062
28	0x3db49a8c	0.0881854
29	0x3c07d8b2	0.00829141
30	0x3d0874d8	0.033314556
31	0xbdc47b80	-0.09593868
32	0xbd88a1ee	-0.06671511
33	0xbc6ca2d2	-0.014443116
34	0x3d497fd3	0.04919417
35	0xbde0b442	-0.109718814
36	0xbd2bea08	-0.041971236
37	0xbc86aa7b	-0.016438713
38	0x3c091fde	0.008369414
39	0x3cc984df	0.02459949
40	0xbce49b08	-0.027905956
41	0x3cdc9424	0.026926108
42	0xbdad90e0	-0.08474898
43	0xbc41b918	-0.011823915
44	0x3d0bcb39	0.034129355
45	0x3dac03c1	0.083991535
46	0xbd71aa47	-0.05900028
47	0x3da976f8	0.082746446
48	0x3dab7c00	0.083732605
49	0x3dc27794	0.09495464
50	0xba1c240d	-0.00059563
51	0xbd0041df	-0.03131282
52	0x3d42021d	0.047365297
53	0xbdd4360d	-0.10361872
54	0xbd5e6148	-0.054291993
55	0x3bb0f20c	0.005399948
56	0xbd46a8ed	-0.048500944
57	0x3d6e1f7a	0.058135487
58	0x3b96214a	0.004581605
59	0x3d709623	0.05873693
60	0xbd99c65b	-0.075085364
61	0x3cd3e816	0.025867503
62	0x3db12017	0.08648699
63	0xbd84f03c	-0.064911336
