scripts/elites/602/34/2/actorModel.pth (torch, 673570 bytes, 12 tensors)

policy_net.0.input_layer.weight f4 [144, 256]
00000000: c074 58bd c420 1ebd 883e 13bd db29 d4bc
00000010: 2a7c 0a3d 9884 7c3c 3024 c0bc 9057 7e3d
00000020: 9405 773d 429d 6f3d f5b7 f53c 88f8 043c
00000030: 58bc 5a3c 0682 0f3d 7013 5abd f0a2 fa3c
00000040: 42ac 5d3d 803a b3bb 60ab 7fbd 7d44 af3c
00000050: 02d8 16bd 6455 6cbd 7807 bdbc 82a4 183d
00000060: 9791 febc a4b2 b4bc 9e73 723d a081 0a3b
00000070: 393a ff3c 240c 14bd 28d4 563c 0fe9 21bc
00000080: 2e5b 5d3d 31f2 0f3c fc1c 733d cc16 06bd
00000090: d4ad bbbc 1a1e 0abd 1a6d 1dbd c004 9dba
000000a0: 6402 403b 01b4 723c 5ad7 4abd aef5 513d
000000b0: 5ced 303d 8415 13bd 641a 483b c09d eabc
000000c0: 361f 3d3d f0a6 5cbc 3655 27bd 0e2c 5dbd
000000d0: 00e3 3fbd 7357 d2bc 2c92 8cbc 60cc 37bb
000000e0: 46ac 123d c84f 6a3c 6c15 103d 0ec3 07bd
000000f0: c0f2 e83b 686a a3bc a431 13bd a884 723d
00000100: fc24 06bd b6b5 3e3d cd7a b73c 8455 343d
00000110: fcd5 e53c b495 393d 1fb9 c8bc 407d 41bd
00000120: f46a 7bbd 20ca 063c 608e 73bd c0dd b7ba
00000130: c29e 30bd dc1b 70bb d939 443c e015 6fbb
00000140: b057 453d 821c 7abd 28a8 4fbd 6094 543c
00000150: 9251 2c3d 8369 bdbc 3c30 11bd 4c07 113d
00000160: f2d3 00bd 7c6e 2abb 545b 8cbc 5e34 7ebd
00000170: f60d 32bd 2c2e ee3c d67c 28bd a8a2 c3bc
00000180: 6052 113c de44 dfbb 6064 703d 6a61 6d3d
00000190: 4047 39bc 12cc 113d 600e 9f3c a0f9 98bc
000001a0: b8ec 5e3d 7928 293c 2067 173b 9501 9b3c
000001b0: 2041 bf3c f2b8 02bd 1680 4b3d f8f2 56bd
000001c0: a6ed 2d3d b923 b33c 3e5a 11bd 984e 3ebd
000001d0: 1e5e 4f3d 204e cb39 6f6a ccbc 90a9 51bd
000001e0: 2452 bebc 10ea 063d 766a 2d3d 268b 6f3d
000001f0: 345d 17bd 7b21 febc 007d 37bc b0b3 683c
00000200: 3f7f 1abc 0c49 fabc b098 6d3c 5efd 4cbd
00000210: f67d 75bd 6e8c 45bd 88c7 f6bc be0d 8dbb
00000220: 551b e23c 34d3 cdbc 4f9d 1cbc 26e2 42bd
00000230: ae15 463d 809e 343a f8d7 603c c6a9 7a3d
00000240: d93d ac3c 6a20 63bd 9571 c33c 703d 7b3d
00000250: f99f 973c 9612 01bd d2e2 ec3b 7b2c c4bc
00000260: 00c2 d93b 2017 b83b 12b6 223d ea81 59bd
00000270: e613 43bd 7406 a8bc de42 5d3d a00a cebc
00000280: a03f 8dbb e6e7 013d 35a5 9b3c 91c3 4b3c
00000290: 17b7 f9bc 420c 683d 00fa 22bd 91d9 6e3c
000002a0: 7a13 27bd f133 683c 12ac 453d da01 70bd
000002b0: 22b7 09bd c071 0ebd 12f0 c73b 3c5c 62bd
000002c0: 77df 45bc 2ee0 dcbb 809f efba bbad b4bc
000002d0: 069d 66bd 7e8b 9fbb 9067 083c a7c0 05bc
000002e0: 4798 94bc 81ac 9738 6acf 23bd 8c22 87bc
000002f0: e16e 193c 3022 d33c 9011 8fbb cc66 20bd
00000300: f2f8 59bd 8446 2abd f9f2 ef3c bca6 e93c
00000310: fcb6 c2bc a813 4d3d b893 64bd 40bc 1ebb
00000320: 4f69 b1bc 1296 193d 102b 0dbd f18f 893c
00000330: 9ce6 643d d8c7 26bd 38ed b9ba 52a2 32bd
00000340: 00be a6b9 b44b 4b3d 0c3b 6e3d 402f f5ba
00000350: 3aab 75bd 8bc9 95bc f864 90bc 69bc a83c
00000360: ceaf dbbb 48fd 3bbd b60c 36bd 2c3c 24bd
00000370: 34ce b23c 3e81 2abd e84e ae3c f420 c2bc
00000380: dfd7 36bc a82d 5b3d 1a02 503d fe10 483d
00000390: 9864 f5bc e09d 23bc 1cb0 30bd a4a0 013b
000003a0: a2b0 7fbd 140b 50bd d8e3 5e3c 7f57 08bc
000003b0: e9b2 1c3c d492 573d ac16 523d 0c61 a3bc
000003c0: eeb0 55bd eee6 0dbd 3ac7 73bd 5f40 91bc
000003d0: a91f 163c 0eee 0fbd bc32 773d 47c5 efbc
000003e0: d002 c53b 401f 5b3b 4ff7 3abc 2020 70bc
000003f0: 2e2c 75bd 78f5 6bbc 1858 603d 5869 1f3d
-0.052845716 -0.038605466 -0.035948306 -0.025898864 0.03380982 0.015412472 -0.023454756 0.062095225
0.060308054 0.058499582 0.029994944 0.008115895 0.013350569 0.03503611 -0.053241193 0.030595273
0.054119356 -0.00546962 -0.062419295 0.021394962 -0.036827095 -0.057698622 -0.02307485 0.037266262
-0.031075282 -0.022057839 0.059192292 0.0021134391 0.031155692 -0.03614439 0.013112105 -0.009882226
0.054042034 0.00878577 0.059353814 -0.032736585 -0.022910036 -0.033720113 -0.038434125 -0.0011979565
0.00292983 0.014813424 -0.04952178 0.05125969 0.043195114 -0.03590919 0.0030533308 -0.028639674
0.046172343 -0.013467535 -0.040852748 -0.053997092 -0.046847343 -0.025676465 -0.017159544 -0.00280454
0.035808824 0.014301248 0.03517668 -0.033145003 0.007109016 -0.0199482 -0.035936013 0.059208542
-0.032750115 0.04656001 0.022397423 0.044026867 0.028056137 0.045308784 -0.024502335 -0.04723859
-0.061381295 0.008226901 -0.05946195 -0.0014027879 -0.043120153 -0.00366377 0.011976683 -0.0036481544
0.04817933 -0.061062343 -0.050697476 0.0129748285 0.04206998 -0.023121601 -0.03544639 0.03540735
-0.031452127 -0.0026005795 -0.017133392 -0.06206166 -0.043470345 0.02907475 -0.041134678 -0.023881271
0.008869737 -0.0068136295 0.058689475 0.05795423 -0.011308491 0.035595007 0.019416034 -0.018673718
0.05442497 0.010324591 0.0023102239 0.018921653 0.023346484 -0.03191466 0.0496827 -0.052477807
0.042462967 0.02186762 -0.035486452 -0.04646167 0.050626867 0.00038777385 -0.024953095 -0.051187098
-0.023232527 0.032938063 0.042337857 0.05848231 -0.03695412 -0.031021824 -0.011199236 0.014202997
-0.009429752 -0.03055241 0.014501736 -0.050046317 -0.05993458 -0.048229627 -0.03012444 -0.0043046167
0.027600924 -0.025125124 -0.00955899 -0.047578953 0.04836052 0.00068900734 0.013723366 0.061197065
0.021025585 -0.055450834 0.023857871 0.06133789 0.018508898 -0.031511866 0.0072291875 -0.023946991
0.006645441 0.005617991 0.039724417 -0.05310241 -0.0476264 -0.02051089 0.054018848 -0.02515155
-0.004310563 0.031715296 0.018999675 0.012436763 -0.030482812 0.056652315 -0.0397892 0.014578239
-0.04079006 0.01417254 0.048259802 -0.058595516 -0.033621915 -0.03477645 0.0061016167 -0.055263743
-0.012077204 -0.0067405915 -0.0018281788 -0.022055497 -0.056302093 -0.0048689237 0.0083254725 -0.008163608
-0.018139018 7.2323724e-05 -0.039992727 -0.016495965 0.0093648145 0.025773138 -0.0043661073 -0.039160535
-0.05321593 -0.041571155 0.029290663 0.028521888 -0.023768894 0.050067574 -0.055804938 -0.0024221092
-0.02165666 0.037496634 -0.034464896 0.01679227 0.05588399 -0.04071793 -0.0014185077 -0.043611832
-0.00031803548 0.049632743 0.05816178 -0.0018706098 -0.059977747 -0.01828458 -0.01762627 0.020597653
-0.006704307 -0.045895845 -0.044445716 -0.040096447 0.021826841 -0.04162716 0.02127786 -0.023697354
-0.011159866 0.053510338 0.050783254 0.04884433 -0.029955193 -0.009986371 -0.0431367 0.0019779587
-0.06242431 -0.050791815 0.013604127 -0.008321642 0.00956414 0.05263026 0.051291153 -0.019943736
-0.052170686 -0.03464406 -0.05951617 -0.01773089 0.009162822 -0.035139136 0.06035112 -0.029268874
0.006012298 0.0033435374 -0.011411502 -0.014656097 -0.059856586 -0.014401786 0.054771513 0.038918823

policy_net.0.input_layer.bias f4 [144]
00000000: 4afd 75bd 06d3 68bd a425 21bd 20aa 47bd
00000010: 220e cebb 7e02 94bc a3a4 37bd cebd 223d
00000020: ae7b d63c 6a06 70bd f680 f63c 52fe 8b3b
00000030: 0c4d 5ebc 3ebd 1a3d b61b 353d f76b 39bd
00000040: dfa8 18bd e00f 71bd 4594 eebc 24d4 503d
00000050: a8e1 9abc bd49 24bb ed58 4e3d a45e ce3c
00000060: c9fa 72bc c011 64bd 48bf a6bc 387b a43c
00000070: 7bb9 eb3c 5409 56bd 9641 e3bc d711 3fbd
00000080: 0a53 89bc 1808 2bbd eba2 53bc e01d 2f3d
00000090: 23cc 03bd ae8c 483d de36 73bb e84f b13c
000000a0: 7f5e 133c 21e2 4a3c 720d 51bc 1759 093d
000000b0: 9e32 5c3d 8d66 a93c 795b 5f3d ad31 52bd
000000c0: 8103 103b 4db5 21bd b827 323c 30c1 4c3d
000000d0: 5807 0f3c e00c 9fbc 1c78 7b3d e232 5f3d
000000e0: 3d0c 733d b0e3 4bbd d5e1 6dbc 0b9e 6d3d
000000f0: 06ae 6abd ea5c 22bd af79 5d3d db41 393c
00000100: 2a7d db3c 0fed d73c 40b6 44bc aa18 ab3c
00000110: dc7d b3bc 5dcf 8fbc 4b35 183c 7623 c03b
00000120: a811 9b3c b66a 0b3d e420 643d 0eb5 893c
00000130: 32ed 623d c85e 61bd e3e5 253d f5c9 b3bc
00000140: 5d00 893c ec09 57bd a52f 673d 12c3 7b3d
00000150: 9802 bb3c 8e8f 4fbc 00e0 bfbb 59c3 f9bc
00000160: 3e4f 30bc b1ff 1b3d ecc6 08bd 4a9d 623d
00000170: ce27 89bc 8ee6 5f3d 9dd8 b93c e1e1 c83c
00000180: f986 5cbd 5b32 353d a431 503d 8905 f23c
00000190: f785 31bc 9b74 5cbd 7120 2ebd 7035 003d
000001a0: aad6 493d ce1d 793d 095e 29bd d461 5c3d
000001b0: 89e0 f23b 52ac 3f3c 7d1f 783d a83a c8bb
000001c0: 3917 233d 76c4 003d 657a 35bd 4a4a cb3c
000001d0: ac69 353d a8a5 9e3c 0ee3 e23a d1e1 6dbd
000001e0: 9f32 59bd 0a33 2d3d 4dce 783d 4dd2 bb3b
000001f0: 32e3 b33c bc1d 833c 3e8b 90bc 4b4e 72bc
00000200: e07c 6a3d 7568 4e3d 5eae 4f3d 9fbc 683d
00000210: 3c11 cfbc 9bce 283c 1501 68bd 9e31 7bbd
00000220: 6ba0 1abd a6ef 163c 95ab 703d f74b 08bc
00000230: c8df 1abc cf19 bebc 1c1a bf3c c849 d7bc
-0.06005601 -0.056841873 -0.039342538 -0.04874623 -0.006288306 -0.018067595 -0.044834744 0.039731793
0.026182022 -0.058599867 0.03009079 0.0042722607 -0.013568174 0.03777813 0.04421588 -0.04526898
-0.037270423 -0.05885303 -0.029123435 0.050983563 -0.01890643 -0.0025068366 0.050377775 0.025191613
-0.0148303 -0.05568099 -0.020354882 0.020078287 0.028774967 -0.05225499 -0.027741235 -0.046647873
-0.016763229 -0.041755766 -0.012917261 0.0427531 -0.0321771 0.048962288 -0.003711156 0.021644548
0.008994698 0.012383015 -0.012759553 0.03353223 0.05375921 0.020678783 0.054530594 -0.051316906
0.0021974745 -0.039479543 0.0108737275 0.049988925 0.008729778 -0.019415319 0.061393842 0.054491885
0.059337843 -0.049777687 -0.014519175 0.05801205 -0.057294868 -0.03963939 0.054071125 0.011307205
0.026793081 0.026358156 -0.012006342 0.020885784 -0.0219106 -0.017554933 0.00929005 0.0058636023
0.018929318 0.034037314 0.05569543 0.016809966 0.05540199 -0.05502203 0.04050244 -0.021946887
0.016723806 -0.052499697 0.05644192 0.06146533 0.022828385 -0.012668503 -0.0058555603 -0.030488657
-0.01076108 0.038085643 -0.03339283 0.055325784 -0.016742613 0.054663233 0.022686297 0.02452177
-0.053839657 0.044237476 0.05082859 0.029543655 -0.010835162 -0.05382214 -0.042511407 0.031300962
0.049276985 0.06081944 -0.041349445 0.053804234 0.0074120206 0.011698799 0.060576905 -0.006110508
0.03981707 0.03143736 -0.044306178 0.024815697 0.04429023 0.0193661 0.0017310099 -0.058076683
-0.05302679 0.042285003 0.06074362 0.005731857 0.021958921 0.01600539 -0.01764452 -0.014789174
0.057247996 0.050392587 0.0507034 0.056820508 -0.025276773 0.010303165 -0.056641657 -0.061326616
-0.037750643 0.00921241 0.058757383 -0.008318893 -0.009452768 -0.023205666 0.02332788 -0.026280299

policy_net.0.output_layer.weight f4 [144, 144]
00000000: b23e 883c 14cc 6dbd 41ed d73c bdd8 50bd
00000010: e0fa 04bd d877 903d 78e4 cdbb fd2c 98bc
00000020: aed4 0abd 2562 523d 67fd d93c 57eb 0cbc
00000030: 54bc a23c f223 aabd 2d12 08bd a957 553c
00000040: 303a a6bd c5fd 9f3d b31b 24bd c6e7 65bd
00000050: 32ba 873d dccc 5bbd 690f 203d 1a21 6b3c
00000060: 5577 eabb 63a7 733d 4018 133d 7e30 8b3d
00000070: f753 ab3c c3c1 c73c 5d4a 46bd 3345 52bd
00000080: 7853 513d 92d8 7c3c 02eb 063d c8ec 4b3c
00000090: 105b 953d 3519 38bc ed90 293d 6bc0 0d3d
000000a0: ee85 d3bb 09c3 3b3d 48af 3cbc 6561 76bd
000000b0: f885 21bd c9b3 33bd d9c4 543d e7c7 363c
000000c0: 335b 38bc 632d 133d db32 ad3b 963b 4e3d
000000d0: e21a bebc 72f6 8abd 06a1 7c3d 9b40 81bd
000000e0: 7258 aa3d bc01 6e3c 7938 2d3a a6a7 7cbc
000000f0: ca53 27bd 31a0 e73c fae3 913d 1022 8f3d
00000100: b0f1 833d fa52 aebc ec93 3a3d 957d 803d
00000110: d829 30bd f194 81bc 877a dfbc 2b34 a63d
00000120: eb9f 223d 960c 28bd 0bc5 fe3c 53be e9bc
00000130: 3e95 50bd a662 e63c cfc3 4dbd df7f 04bd
00000140: cde9 6bbd 879c 9c3d 249d 01bc d1d2 6d3d
00000150: f793 433d 5e90 5c3d d6d0 923d d278 2abc
00000160: 3cf2 3fbd 1fa3 073d 61ae a13d b98f 903d
00000170: 6f97 b4bc 59b7 6e3c 66ea 41bd 99f2 47bd
00000180: 79a3 0e3c 16fb 47bb c233 973d f429 4d3d
00000190: 44d7 07bc 02d6 91bd 6d69 f1bc c047 e7bc
000001a0: 47c5 24bc 9e3a 2e3d 6430 13bd 18cc a13d
000001b0: 00ad 773d 0e33 04bc 6afc 93bd 921c 09bd
000001c0: a902 3a3d 5340 923d 5218 483d 177d 74bc
000001d0: 4e3b 573d fd8d 4dbd 54db d03b 8c3a ca3a
000001e0: c13f a7bd 0cac f63b c19d 663d 826e 813d
000001f0: e12f a03d 0fd4 18bd 23e5 103d 95eb 5e3d
00000200: 2810 eb3c fc56 13bd c1ee ae3b 725a 96bd
00000210: 74fb 9a3d 6641 9fbc 7b6e a9bd 4f9a 03bc
00000220: c0e9 6dbd 45cb ac3c 478b 7abc 3589 66bc
00000230: cf7e 9a3d 86dc 9bbd 3e59 363d 4624 683d
00000240: 0263 9fbd cbd0 573c 0070 153c 26a0 e93c
00000250: eb2e 8cbb 3883 853d 5674 76bd 13ea a8bd
00000260: 7f9e 85bd 86fc 683d 48fd 56bd 6394 373d
00000270: 3836 a83d d42d 86bd 38a6 723d 0095 34bd
00000280: e60f 0bbd 1bdf 913d 4bbd 473d c34d 1dbd
00000290: 2b00 f23b 72fb 8d3d abba 9abc 4386 063d
000002a0: b600 013d e0c2 b73c d6db 26bc 335a 85bd
000002b0: 0e4e 523d abcb b33c eedf 5fbd 40b8 05bd
000002c0: 8b97 67bd b6f2 203c d6e7 91bd 8e21 963d
000002d0: 5638 45bd 6ec3 993d bbf4 a83c 345c a83d
000002e0: 56e7 5cbb 9b94 50bd 885b 253d a038 9c3d
000002f0: 20cf 053d 4bdc 2b3c 9387 8e3d ab1c dcbc
00000300: 90ea f2bc 74d9 88bd ebbf 68bd ae97 353d
00000310: eb6f 30bc cb2b 0b3c d627 f4bb 1395 493d
00000320: d668 13bd 8051 a8bc 0649 31bd e0d9 9d3c
00000330: 5e6f 243d 0ea4 9f3d c322 5bbd 0f55 8ebd
00000340: 8041 f5bc 90a4 dfbc d6b4 a73c b664 8f3c
00000350: 8671 393d 000d 273b 8bc2 ef3c 280c 6b3d
00000360: 2311 4bbd abde 6abc d616 eabb 2eba 8cbd
00000370: b307 7d3d ee45 23bd d856 5e3d 8f3b 93bd
00000380: 6e64 4e3d 2038 7ebd 00e3 f8ba eb7f 24bc
00000390: 46d6 1abd 965a afbb 671f 9fbd a344 963d
000003a0: 6bef be3b 5671 4b3b b370 9dbd b8e3 373d
000003b0: 8bfe febc 0665 1abd 0057 083c d86a 483d
000003c0: fb61 e53c 00c9 e5bc 0b5d 493c ca6d 94bd
000003d0: 2b17 3abc be7b 0bbd 566b 0cbc 9381 29bd
000003e0: 402f 873c 4059 de3c c06c 1abd 360f 8cbc
000003f0: 361b ba3c 30bd b93c 160c e0bb 5896 a63d
0.016631458 -0.058055952 0.026358249 -0.050987948 -0.032465816 0.070541084 -0.006283339 -0.01857614
-0.033894233 0.05136313 0.02661009 -0.008601031 0.019865192 -0.08307637 -0.03322046 0.013021388
-0.08116567 0.078120746 -0.04006548 -0.05612924 0.06627311 -0.053662166 0.039077196 0.014351154
-0.007155339 0.059485804 0.0359118 0.067963585 0.020914061 0.024384385 -0.048410762 -0.051335525
0.051104993 0.015432494 0.032938965 0.01244659 0.072927594 -0.011236479 0.041397978 0.034607332
-0.0064551746 0.045840297 -0.0115164 -0.060151476 -0.039434403 -0.04387263 0.05194554 0.011156059
-0.011252212 0.035931956 0.0052856035 0.050349794 -0.023206178 -0.06785287 0.061677 -0.06311151
0.08317651 0.014526781 0.00066078414 -0.01542083 -0.04085139 0.028274627 0.07123561 0.06988919
0.064425826 -0.0212798 0.045551226 0.06273953 -0.043008655 -0.015818091 -0.027280105 0.08115419
0.03970329 -0.041027628 0.031099817 -0.028533136 -0.05092358 0.028123211 -0.050235566 -0.03234851
-0.057596017 0.07647043 -0.007911 0.05806238 0.047748532 0.053848617 0.071687385 -0.010404782
-0.046861872 0.03311455 0.07894588 0.07058663 -0.022044865 0.014570081 -0.04734268 -0.048815344
0.008705967 -0.003051465 0.07382919 0.050088838 -0.008291069 -0.07120897 -0.029469216 -0.028232455
-0.0100568 0.04253637 -0.03593482 0.07900256 0.06046772 -0.008068813 -0.072258785 -0.033474512
0.045412693 0.07141175 0.04885132 -0.014922402 0.05254679 -0.05018424 0.006373802 0.0015428825
-0.08166457 0.007527834 0.05630279 0.06319906 0.07821632 -0.03731161 0.03537477 0.054423887
0.028694227 -0.035971627 0.0053385203 -0.0734147 0.07567492 -0.019440364 -0.082730256 -0.0080323955
-0.05808425 0.02109302 -0.015291995 -0.014070799 0.07543718 -0.07610421 0.0445187 0.056675218
-0.07782556 0.013172339 0.009120941 0.028518748 -0.004278054 0.065191686 -0.06016954 -0.08247771
-0.06524371 0.05688145 -0.05248764 0.044819247 0.082134664 -0.0655171 0.05924055 -0.04408741
-0.03395071 0.07122632 0.04876451 -0.038404237 0.007385274 0.06932725 -0.018887838 0.032842886
0.03149482 0.02243179 -0.010184249 -0.06511345 0.05134397 0.021947702 -0.054656915 -0.032646418
-0.056541007 0.009823492 -0.07124297 0.07330619 -0.04814943 0.075079784 0.02062451 0.08220711
-0.0033707223 -0.05092297 0.040370494 0.07627988 0.032668233 0.010489534 0.069594525 -0.026869139
-0.029652864 -0.06682101 -0.056823652 0.044334106 -0.010768871 0.008494328 -0.007451038 0.049214434
-0.03598865 -0.020546675 -0.04328253 0.01926893 0.04014527 0.07794963 -0.05349995 -0.069498174
-0.02993846 -0.02730015 0.020471971 0.017504077 0.04527428 0.0025489926 0.02926757 0.05738464
-0.04957689 -0.014335315 -0.0071438355 -0.068714485 0.06177492 -0.039861612 0.05428204 -0.07189094
0.050388746 -0.062065244 -0.001898855 -0.010040264 -0.037802003 -0.005351375 -0.077696614 0.0733731
0.0058268807 0.0031042895 -0.07687511 0.044894904 -0.031127235 -0.037694 0.008321524 0.04893002
0.028000822 -0.028049946 0.01229025 -0.07247503 -0.011358063 -0.034053557 -0.008570513 -0.041383337
0.016502023 0.027142167 -0.03770137 -0.017097097 0.022718053 0.02267322 -0.0068373783 0.081341445

policy_net.0.output_layer.bias f4 [144]
00000000: f7c2 7cbb e43f 9cbd ae7f f53c 0bd1 39bb
00000010: f5c4 c83a cf3f bb3c a064 263d d6de 3e3d
00000020: 64fb 3b3d bc8e 763d d6e9 50bd 8cb8 973d
00000030: 5d0e 933d 5b1f a7bd 69d2 ad3c c8c4 94bd
00000040: cb66 cc3c 3b8d a3bd 9537 88bd be8b 9bbd
00000050: 5f24 803d ab54 7d3d 56bc 953d 3ed8 a4b9
00000060: 1c2b 4ebd b16a b8bc 956a 2a3d bc37 a6bd
00000070: 9351 d33b f6c3 f0bb dd0f 9dbd 947b 193d
00000080: eee9 40bd c1e9 46bd ab9c c03a b6c5 57bd
00000090: 2750 473d 2ea4 0dbd 6e36 8d3d 86e7 773c
000000a0: 573e 403d c2d4 48bd 60de 95bd 19db a83c
000000b0: b073 b2bc 67f1 633d dd82 153d 5669 6e3d
000000c0: f8fd 8abd 1e53 48bd cb00 43bd bc3b 473d
000000d0: af67 723d a79d 733d 6422 d63c 027e 5ebc
000000e0: 9b99 8d3c 42e4 f43c 59ef 413d f165 363d
000000f0: e300 a9ba 8ed0 a03c ef45 d23c 5f29 5a3d
00000100: 27c7 e7bc afc3 cd3c 9617 09bc 4751 173d
00000110: 5770 d0bc da1a 2abc 823a e93c 0b2e b03c
00000120: 9731 903d 588d 923d 46f1 9b3d e118 58bd
00000130: 10b3 7e3c 4277 cabc cca8 953d 6706 b83c
00000140: 1e4d a63d e3fe 843d a3f0 613d 4167 6e3d
00000150: 37fc 38bd 2c20 8abd f40d f83c a1bc 6fbd
00000160: dd36 e3bc 9b9c 0f3c 5991 663d 05ae f43b
00000170: 442f 1cbc fe60 813d d3d0 0a3b b5d4 18bd
00000180: 08ab 043d a5e9 883d a485 a8bc 943d 363c
00000190: 4ab5 de3c a2d1 3bbc f694 1b3d 030d 963d
000001a0: abdd bdbc 46a6 033d 8411 84bc 19f7 02bd
000001b0: f37a 443d d496 9cba 3d6a 983d ce8d 35bc
000001c0: b3aa a23d dd1b 26bd fe51 763c 5704 853d
000001d0: 7465 bd3c 5a18 1b3d 4709 33bd b885 8cbd
000001e0: 6f34 a6bd e139 4fbd c7c0 13bc a1e0 31bd
000001f0: 7848 7fbd 1a0b 87bd 455f c63a 2b1d 86bc
00000200: e807 89bd 38c3 29bc 2f50 a23d 5c0e 9e3d
00000210: a80d 313d 2359 cc3c 90ff 9a3d bf66 4abd
00000220: 6ee4 0dbd 9558 593d 54b3 32bd b167 3a3c
00000230: a673 213d 0b8a 7bbd ad8c 713d 28a4 35bd
-0.0038568357 -0.07629374 0.029968109 -0.002835336 0.0015317487 0.022857575 0.040623307 0.04659923
0.04589404 0.060194716 -0.051004253 0.074082464 0.07180474 -0.081602775 0.021218495 -0.072640955
0.02495136 -0.07985922 -0.066512264 -0.07595013 0.06256937 0.061848324 0.07311313 -0.0003144163
-0.05033408 -0.022511812 0.04160555 -0.08116099 0.0064489334 -0.007347579 -0.07669041 0.03747137
-0.047098093 -0.04856277 0.0014695128 -0.052678786 0.048660424 -0.034580402 0.06895147 0.015130883
0.046934452 -0.049031027 -0.07317805 0.020612286 -0.02178368 0.05565014 0.036501754 0.058205925
-0.06786722 -0.04890739 -0.047608178 0.04864095 0.05918091 0.05947652 0.026139446 -0.013579847
0.017285159 0.029893998 0.0473474 0.044530813 -0.0012893941 0.019630697 0.025668113 0.05326211
-0.028293205 0.025117723 -0.00836744 0.036942746 -0.025444193 -0.0103823785 0.028470282 0.02150633
0.070407085 0.071558654 0.07614379 -0.0527581 0.0155456215 -0.02471507 0.07307586 0.02246399
0.08120178 0.06493928 0.05516113 0.05820394 -0.045162406 -0.067444175 0.03028009 -0.0585295
-0.027736122 0.008765365 0.056290958 0.007467034 -0.009532753 0.06317328 0.0021181598 -0.03731223
0.03238967 0.06685189 -0.020571537 0.01112308 0.027186055 -0.011463555 0.037983857 0.073267005
-0.023176989 0.032140993 -0.016121633 -0.031973932 0.047968816 -0.0011946806 0.07442138 -0.011081172
0.079427145 -0.040553916 0.015034197 0.064949684 0.023119666 0.03786502 -0.04371002 -0.06861442
-0.0811547 -0.050592307 -0.00901813 -0.043427113 -0.06232497 -0.06593914 0.0015134594 -0.01637133
-0.06690961 -0.010361485 0.0792545 0.077175826 0.043225914 0.024944847 0.07568276 -0.049414393
-0.034641676 0.053062994 -0.043628052 0.011377261 0.03941693 -0.061410945 0.05897205 -0.044346005

policy_net.0.attention.in_proj_weight f4 [432, 144]
00000000: f3ed 6cbd 3861 19bd dd8b d6bc 485d a6bb
00000010: 4678 8bbd 2828 9b3d ad72 6fbd 6ec4 cb3d
00000020: 27d9 ce3d ea6e 903d e732 95bd c6e2 ccbd
00000030: 00de 5f3c fd49 723c 3f97 473d e2a8 dd3c
00000040: fae1 993d 22a1 233c 0712 9dbd f021 ec3c
00000050: add0 203d cda0 3abd 610f 153c 1318 f13c
00000060: 03bd 03bd 87cb 683d c819 33bd 5b47 043d
00000070: 38ff cd3c 9c66 5b3d 840b a6bd 5707 cc3c
00000080: a601 b5bd 8198 a5bc b725 753c 89da 6fbc
00000090: 68eb b6bd a36b 043d 2a0d b9bd 1c46 39bd
000000a0: a0e7 a7b9 4aba 2dbd 7418 2ebd 1c13 ac3d
000000b0: 74d0 31bc fed8 fd3c 0f51 b53d 91ff c63d
000000c0: 1795 283d fb40 42bc c4ce b2bd 4079 a43c
000000d0: a634 ae3d 785f cabd 5452 84bc 7c1f 0ebd
000000e0: 79a3 9a3d b9c7 213c 6624 043d ac41 0fbd
000000f0: 3021 0cbb aea3 933c e416 40bc 30f3 bdbd
00000100: f009 213c f464 82bd c066 173d f639 83bd
00000110: 09ef 953d 2d0f 5fbc f7e6 903d c563 bc3d
00000120: f234 c93d f200 8abd 73ac 393c 0a36 17bd
00000130: 1595 ddbc 046d 24bd 47de 873d f277 a83d
00000140: fba7 c5bd d4a3 42bc 5fc9 883c b344 c2bd
00000150: 0032 8cbd 4245 5c3d f06b bbbd c84c 6bbd
00000160: e771 083d 97b3 92bd 40fe c83d 7b1a 2f3d
00000170: 6186 893d 68db 11bc a30f bd3d e4e4 833c
00000180: 49b1 aabd 1d63 83bd bdd4 43bd ffee 4b3c
00000190: 8746 c83c 1c5b 103d 4ea7 12bd 6a8c 8abd
000001a0: bbe2 a2bc 8c16 353d c5b9 51bd a530 253d
000001b0: 4e43 6f3d afec f6bc 128b c53c 0e42 7fbb
000001c0: 73b1 323d 7cd6 76bd 8050 37bd 0069 bc3d
000001d0: ba2a b1bc b42d 5e3d 01d2 103c 3a58 9f3d
000001e0: 4591 73bd da92 60bd c736 34bd 22fd 8bbd
000001f0: df68 9a3d 0603 b63d f39e 043d 8fad ca3d
00000200: addc 10bd c729 2a3d bb56 85bd 8b59 383d
00000210: 4cda 5bbd f8c7 a53d 08e5 1a3d 181a f9bc
00000220: e870 5b3c 0004 a4bd 696b 84bd 06e4 f83b
00000230: 812b aebc af3b bebd d56d 28bd d05a 35bc
00000240: 4435 c43c 344e 373d f764 3b3d 7fc4 ba3d
00000250: 7b56 33bc 97a8 943d 0275 10bd 36c5 6c3d
00000260: 581b acbd 3341 7dbc 5feb 7e3d 5b4d bcbd
00000270: 9e3c f0bc 4769 0d3d 3d98 20bb c6e7 fabc
00000280: 8174 a4bd df87 92bd 8be0 bf3b ddca 1fbd
00000290: 482b 99bc a3a5 a8bd 978a 833c 12b5 b5bd
000002a0: 8a58 db3c b399 4f3d 7361 15bd 61c8 8ebd
000002b0: 427b 99bd 7881 b13d f9d6 253b 9e06 6a3d
000002c0: 2904 2dbd 97c3 163c 9d84 afbd 722f 603c
000002d0: 34cc b63c 3658 a9bd 09ff 823d 049c b2bc
000002e0: 5c16 cf3c 555c 953c f3a9 88bd 5341 b5bc
000002f0: acf5 9abd a218 c5bd 7b1a 883d 1da7 b63d
00000300: 6a01 cebd 5917 81bd 0104 dbbc d13d 70bd
00000310: a7e5 97bc 2073 893d dbd2 93bc 457b 353c
00000320: d0dd 50bd 011f 033b 3a62 c2bc b0d3 293d
00000330: f006 8abc 568c 883c 2763 8b3d c467 59bd
00000340: 156f ac3a 9ee8 cd3b 52ee febc 5834 d7bc
00000350: d95f 323d eb88 b4bd 289e 83bd 35e9 78bd
00000360: 8aad 983d 95bb c0bd e949 bbbd 13ce 993d
00000370: 0eff 9bbc 47bc 72bd 21e6 bcbb 4b48 e13c
00000380: 5149 ae3d 2ee0 5b3d 117b 553d 4692 c4bd
00000390: f82b 7dbd 576e 4f3c 4924 aa3d a7f2 e4bc
000003a0: 75fb 923d ea44 5c3d a72e 653d 24d6 bb3b
000003b0: 5454 4ebd 2ced 303d c320 68bd af1d c1bd
000003c0: 8926 86bd e431 063c 8139 2cbd 9b97 623d
000003d0: f78a ca3d 729a 203d 7a3f 14bc a71b 343d
000003e0: 849e 56bd be38 2f3d e927 a2bb 94cd b7bb
000003f0: 7a8d 92bd 5fec 75bb b3f2 ba3d 04da 013d
-0.057844114 -0.03744623 -0.026189739 -0.005077038 -0.0681005 0.075760186 -0.058458973 0.09949575
0.10100012 0.07052405 -0.072850995 -0.10004191 0.013663769 0.014788148 0.048728224 0.027058069
0.07513805 0.0099871475 -0.07669454 0.028824776 0.03926151 -0.045563508 0.009097905 0.029430425
-0.032162677 0.056834724 -0.04372576 0.032294612 0.025146112 0.053564653 -0.08107665 0.024905844
-0.08838205 -0.020214321 0.014962605 -0.014639505 -0.08931619 0.032329213 -0.09035714 -0.045232877
-0.00032025296 -0.042413987 -0.04250379 0.08402082 -0.010852922 0.030987259 0.08853351 0.09716714
0.04115781 -0.011856313 -0.08730844 0.020077348 0.08506136 -0.098814905 -0.016152538 -0.034697995
0.07550711 0.009874278 0.032261275 -0.03497474 -0.0021382086 0.018022384 -0.011724208 -0.092749
0.009829029 -0.063669115 0.036963224 -0.064075395 0.07320983 -0.013614458 0.07075303 0.09198717
0.09824552 -0.067384616 0.011332619 -0.03691677 -0.027048627 -0.040143028 0.06634193 0.08226003
-0.0965118 -0.01187988 0.016697584 -0.094857596 -0.06845474 0.053776987 -0.09151447 -0.05744627
0.03331175 -0.0716316 0.09814119 0.042749863 0.06715084 -0.008902408 0.09231498 0.016100354
-0.08334596 -0.06415389 -0.047810305 0.012447118 0.024447693 0.03524314 -0.035804085 -0.06765063
-0.019883504 0.044210956 -0.051202554 0.040329594 0.058413796 -0.030142156 0.024114165 -0.0038949284
0.04362626 -0.060263142 -0.044754505 0.09199715 -0.021626819 0.054242805 0.008839131 0.077805
-0.05946471 -0.05482755 -0.043997552 -0.068353906 0.07539534 0.088872954 0.03237815 0.09896385
-0.035366703 0.04154375 -0.06510683 0.04500727 -0.05367498 0.08094782 0.037816077 -0.03040795
0.013393618 -0.080085754 -0.06465799 0.007595542 -0.021260979 -0.092887275 -0.04112037 -0.011069015
0.02395118 0.044752315 0.045750584 0.0911951 -0.0109459115 0.072587185 -0.035267837 0.057805263
-0.08403653 -0.015457439 0.062236186 -0.09194442 -0.02932578 0.03452423 -0.0024504804 -0.030628096
-0.08030034 -0.071548216 0.005855625 -0.039011825 -0.018697396 -0.08234718 0.016057296 -0.08872427
0.026775617 0.05068369 -0.036469888 -0.06971813 -0.07494213 0.08667272 0.0025305136 0.057135217
-0.042240296 0.009201906 -0.08570216 0.013683187 0.022314169 -0.08268778 0.063963 -0.02180291
0.025279216 0.018232504 -0.0667304 -0.022125876 -0.075663894 -0.09623839 0.06645676 0.08918593
-0.100588635 -0.06303281 -0.026735308 -0.058652703 -0.018542124 0.067114115 -0.01804488 0.011076753
-0.050992787 0.0020007493 -0.023728479 0.041461647 -0.016849011 0.01666848 0.06806021 -0.053077474
0.0013155664 0.0062838336 -0.0311195 -0.026270077 0.04354844 -0.088151775 -0.0642665 -0.06076928
0.07454975 -0.094107784 -0.091449566 0.07510009 -0.019042518 -0.059261587 -0.005764738 0.027500292
0.08510078 0.05368059 0.05211932 -0.09598212 -0.06180951 0.012660584 0.08307702 -0.027947737
0.07176868 0.05377666 0.055952694 0.0057323147 -0.05037339 0.043194935 -0.05667187 -0.0942949
-0.06550319 0.008190606 -0.042047027 0.055320363 0.09889787 0.03920979 -0.009048337 0.043971684
-0.052397266 0.042778723 -0.0049486053 -0.0056092236 -0.07155891 -0.0037524921 0.091283225 0.031702057

policy_net.0.attention.in_proj_bias f4 [432]
00000000: 8807 1630 7278 6c2f 7a0d 1bb0 a975 10b0
00000010: a8b5 f8af 9547 df2d 2f25 b6b0 5a18 2830
00000020: 82f0 1db0 473f e7ae 6524 c1af 610f 712f
00000030: e9c4 5cb0 29be 322f c472 99b0 6d9c d1af
00000040: 9c46 e3af c7b1 3a2f b35c c52f c51f 82b0
00000050: 18cf d92e 0fc9 4f30 bad6 ba30 a437 c72f
00000060: 22f3 f72f 955b 7a30 77f8 6730 6279 1130
00000070: bad3 b32f fc12 4bb0 54a8 f52f 6f79 85b0
00000080: b132 912f fe5f 27b0 5c49 92b0 6f3a 8aaf
00000090: 3ad6 5d2f fd65 01b0 1114 f430 55a2 0fb0
000000a0: 85ae fdaf 6e6b 27b0 7323 8d30 1869 a530
000000b0: 4f13 19b0 9c54 80b0 8860 d42f 4b02 d3af
000000c0: d23f 46b1 d2e8 c530 34b3 2eb1 b0d9 5431
000000d0: e7f5 9cb1 3595 4531 19d5 8531 ea70 f1b0
000000e0: d8a0 b330 e9ad 86b1 44e5 55b0 9d0c b2af
000000f0: 6985 7bb1 8c88 02b1 03e1 9231 2c78 96ae
00000100: 12ca 5bb1 e6c7 1431 ba40 89b0 71cf 33b1
00000110: b5f0 2831 79ce f6b0 1793 bb30 871c 6231
00000120: de0a 3531 dcd2 f0b0 56c1 3931 ccf1 93b1
00000130: e823 4d31 9621 2731 1351 fd30 f37a 32b0
00000140: f242 90b0 68a4 42b0 3280 bf2f 476f 85b1
00000150: 2b04 66b1 c781 a8b0 2658 9d2f 9611 16b1
00000160: 7be1 a9b1 84ea 2131 9129 8030 4e31 c930
00000170: b137 d2b1 1f99 ae30 7419 ed30 001d 0a31
00000180: cdcf c6b0 cf9d 8930 d9f5 31b0 999c 0e30
00000190: 9d1a 8831 8ba1 a1b0 4719 f930 d56b 4fb0
000001a0: 9bde 72b0 7c84 fab0 985d e330 3144 662f
000001b0: e772 902f cc1b fb30 ecd6 8f2e c70f d0b0
000001c0: 90d2 edae ed57 af30 780f 9b30 408c 8bb1
000001d0: 3fe1 6330 d59f 4b31 6ac4 21b1 d80d 8230
000001e0: c31c 1331 df36 5cb0 bd8d 04b1 88e4 2a31
000001f0: aa0a 5230 c2ee 60b1 9d19 ad31 85be ed30
00000200: a87a 9030 c5e6 c230 9e20 9330 d305 5531
00000210: 1ccf a4b0 49eb 0faf ce28 4530 6f00 da30
00000220: 3163 60b1 b16c 0430 2a7c a930 92d2 95b0
00000230: 34af 2a30 35eb a330 b7ed 70b0 5cb0 9d30
00000240: 8651 a923 9e3d bca5 1152 88a5 8ba3 3ca5
00000250: e361 43a6 1398 f6a5 9798 5526 dc63 3826
00000260: 3a01 9125 632f 55a5 e3af ae22 4da1 54a5
00000270: e14f e4a4 d4e6 e0a5 f4c5 8c25 5c65 5b26
00000280: a607 0527 5c99 c3a6 d271 99a6 13f6 c5a5
00000290: 9441 db25 705b ac26 1063 29a6 a196 50a5
000002a0: 99f3 d926 d151 2626 2009 9e24 bec2 cd21
000002b0: 047a faa5 e224 1426 fb0b da25 a522 86a6
000002c0: 9db4 42a6 751b 9625 25e2 b8a5 8ebe 86a5
000002d0: a066 4026 eedd c526 1a71 9126 0a12 32a6
000002e0: 05a7 1726 b335 1225 0921 ef25 cd69 3a26
000002f0: c4d1 82a6 1587 6726 ac78 20a5 d38e 57a6
00000300: 4ed1 e6a5 c557 8fa6 3006 d9a6 c323 97a5
00000310: a60d ff26 bb4a 0625 5626 a6a6 d16a bb26
00000320: bd27 2724 37db a325 4a17 79a6 d50a 6925
00000330: 0dd8 12a6 3ce9 b124 ed6a ad26 f67a 2f24
00000340: 2dcd 93a5 0c5d a7a5 b2c8 6e25 6e97 b6a5
00000350: 4d5e 59a6 ac7b 0c26 5465 28a6 a7c0 d225
00000360: 7654 d6a5 1d03 4126 09a2 8c26 806e 2826
00000370: ab9c 5b23 6465 84a5 235b d623 8ac0 3e26
00000380: 9f0f 0326 af87 3b26 dca8 7ba6 5acb 59a6
00000390: 934e 1825 32b4 ad26 1ab0 63a5 8a94 a7a5
000003a0: f8d0 6c26 c002 ef24 962f 08a6 3607 d925
000003b0: d44a 7726 8956 06a3 d17e 8826 629a 58a6
000003c0: 65fd b4a2 09a9 ab24 3bda eea4 0b7b f1a4
000003d0: a0dd 4a23 b8b0 2923 dc11 8725 0eb3 db24
000003e0: af2a 64a5 275d 3ea4 f080 1625 0712 2fa3
000003f0: c483 6a25 66ac 62a5 0291 93a3 c459 00a5
5.4580385e-10 2.1506866e-10 -5.6407823e-10 -5.25541e-10 -4.5240012e-10 2.5383954e-11 -1.3252811e-09 6.115265e-10
-5.745805e-10 -1.0515904e-10 -3.5132355e-10 2.1924286e-10 -8.031536e-10 1.6256564e-10 -1.1164834e-09 -3.8128026e-10
-4.134123e-10 1.697976e-10 3.5899958e-10 -9.467774e-10 9.904805e-11 7.559188e-10 1.359431e-09 3.6237424e-10
4.5101795e-10 9.1079616e-10 8.43904e-10 5.292319e-10 3.271035e-10 -7.387795e-10 4.4684845e-10 -9.711537e-10
2.6411365e-10 -6.089066e-10 -1.0643748e-09 -2.5143573e-10 2.0175941e-10 -4.707486e-10 1.775904e-09 -5.2253785e-10
-4.6144435e-10 -6.0906913e-10 1.0269176e-09 1.20352e-09 -5.5688515e-10 -9.337273e-10 3.8631165e-10 -3.8382306e-10
-2.884907e-09 1.4399808e-09 -2.5422198e-09 3.0973801e-09 -4.5681534e-09 2.8752087e-09 3.895036e-09 -1.756715e-09
1.3069679e-09 -3.9196846e-09 -7.7814755e-10 -3.2386974e-10 -3.6601142e-09 -1.8995108e-09 4.27474e-09 -6.842557e-11
-3.1983558e-09 2.1650464e-09 -9.986458e-10 -2.6165845e-09 2.4584044e-09 -1.7957539e-09 1.3647846e-09 3.2903544e-09
2.6345144e-09 -1.7522228e-09 2.7030942e-09 -4.305752e-09 2.9851837e-09 2.432079e-09 1.8431215e-09 -6.4930744e-10
-1.0496406e-09 -7.0810424e-10 3.4833786e-10 -3.88346e-09 -3.3471774e-09 -1.2260494e-09 2.8620767e-10 -2.183787e-09
-4.9441815e-09 2.356189e-09 9.32504e-10 1.4638688e-09 -6.1181358e-09 1.2703686e-09 1.7251254e-09 2.0098128e-09
-1.4465457e-09 1.0012914e-09 -6.4741595e-10 5.188184e-10 3.9611465e-09 -1.1760205e-09 1.8124319e-09 -7.54594e-10
-8.835543e-10 -1.8227548e-09 1.6543025e-09 2.0942605e-10 2.627509e-10 1.8270554e-09 6.541065e-11 -1.5138476e-09
-1.08149156e-10 1.2757916e-09 1.1282131e-09 -4.061377e-09 8.2902213e-10 2.9631242e-09 -2.3540232e-09 9.46268e-10
2.1407665e-09 -8.011351e-10 -1.9289097e-09 2.486816e-09 7.641271e-10 -3.2732008e-09 5.0378746e-09 1.7298168e-09
1.051224e-09 1.4180946e-09 1.0704928e-09 3.099889e-09 -1.1991435e-09 -1.3089364e-10 7.172617e-10 1.5861711e-09
-3.2652674e-09 4.817578e-10 1.2331658e-09 -1.0901025e-09 6.209462e-10 1.1926661e-09 -8.7649304e-10 1.1473378e-09
1.8357543e-17 -3.2654555e-16 -2.364785e-16 -1.6361811e-16 -6.7786877e-16 -4.2777247e-16 7.410602e-16 6.397316e-16
2.5154322e-16 -1.849086e-16 4.734902e-18 -1.844272e-16 -9.901456e-17 -3.901422e-16 2.4420267e-16 7.6118256e-16
1.8461604e-15 -1.3572411e-15 -1.0647359e-15 -3.43408e-16 3.8034882e-16 1.1959682e-15 -5.876791e-16 -1.8092159e-16
1.5123427e-15 5.77037e-16 6.8537036e-17 1.3942888e-18 -4.3450768e-16 5.13978e-16 3.782509e-16 -9.307508e-16
-6.755205e-16 2.6039458e-16 -3.2072153e-16 -2.337442e-16 6.6752464e-16 1.3729775e-15 1.0092052e-15 -6.1780603e-16
5.2615003e-16 1.2681675e-16 4.1482277e-16 6.46751e-16 -9.077419e-16 8.0327295e-16 -1.3918673e-16 -7.478667e-16
-4.004047e-16 -9.946408e-16 -1.5059077e-15 -2.6218558e-16 1.7697879e-15 1.1647967e-16 -1.1528955e-15 1.3004684e-15
3.6246012e-17 2.8424538e-16 -8.642079e-16 2.0213199e-16 -5.094673e-16 7.715663e-17 1.2033269e-15 3.8051228e-17
-2.5639468e-16 -2.9032933e-16 2.0711208e-16 -3.167458e-16 -7.54148e-16 4.8739864e-16 -5.8424034e-16 3.655974e-16
-3.7180315e-16 6.6964545e-16 9.758371e-16 5.8436464e-16 1.19051895e-17 -2.2967055e-16 2.3240524e-17 6.618043e-16
4.5470926e-16 6.5062544e-16 -8.7311966e-16 -7.556259e-16 1.321052e-16 1.2053128e-15 -1.9748777e-16 -2.9070536e-16
8.2162154e-16 1.03654386e-16 -4.724897e-16 3.7648386e-16 8.579675e-16 -7.282479e-18 9.471269e-16 -7.514928e-16
-4.905739e-18 7.4445785e-17 -1.03585744e-16 -1.0472553e-16 1.0997373e-17 9.19893e-18 2.343087e-16 9.527944e-17
-1.979031e-16 -4.1278586e-17 1.3054112e-16 -9.4905864e-18 2.0340909e-16 -1.9660786e-16 -1.5999185e-17 -1.1132644e-16

policy_net.0.attention.out_proj.weight f4 [144, 144]
00000000: 90c8 20bc 5921 7e3d 54f1 053d 555c 92bd
00000010: fe1b 583d 21ca 9ebd cdaa 4abc a738 7bbd
00000020: d9e5 b43c 29ab b6bc 0487 a23d e1f2 16bd
00000030: 2144 6bbc 943a 59bc afaf a5bd 7504 b63a
00000040: ef8e 013d ba83 45bc 444a 85bb 6bdb 3fbd
00000050: ac86 9b3c ca1d 48bd 34a6 913c c3d5 423d
00000060: 40ff 763d 247f 963d ef63 a43b 63ca 10bc
00000070: be47 7a3d 422b 313d 79dc 843a e890 92bc
00000080: 8e5c b43b cc20 fab9 a3ba 83bd 25aa 7abd
00000090: 768f 7abd 588d 6a3c a542 983c 3070 07bd
000000a0: 572f 84bd b6a2 3d3c c939 813d c0ff 563d
000000b0: 0495 523d 6f05 1d3b 9de9 923d b85e 7b3d
000000c0: edda 9fbd 09ef a33d b373 8fbb 73c6 343d
000000d0: 229e 37bd 577e ad3c c311 883d ee1c f2bc
000000e0: 1589 913a cf36 ddbc 2db5 a3bd f587 043d
000000f0: 3b8e 47bc 9f09 9f3b a998 49bd d579 57bd
00000100: 70f1 92bc cf08 78bd dbc2 4cbb b7c5 473d
00000110: a1f8 5bbc f7f7 72bd 56f5 92bc c188 8ebd
00000120: fe9f 09bd 011c 4abd 3326 1d3d 254a 43bb
00000130: 1a87 efbc 2d35 91bc 8b2d 9d3c c64d 5fbc
00000140: 532d 343c 909e 91bd 9a9d a7bd c428 a7bd
00000150: 3063 1f3d 29af 8e3c 1750 4a3d e8ba 163c
00000160: ffb9 403d 16ef 08bd 9263 4b3c 84f0 343d
00000170: 436a 92bd accc e13c 0d52 84bd f1f3 c7bc
00000180: 271b 803d 405f 393d 66b7 50bc 71f9 0bbd
00000190: df7f 24bd c220 0bbd ac92 8f3c 39a1 2fbd
000001a0: 883f 843d a5db 903d f39c 073d fc6f 593b
000001b0: 1384 4e3d 0434 72bd dc45 7f3c 9315 3cbc
000001c0: 482e 823d c3aa cc3c 3f29 eb3c 1340 98bd
000001d0: 022a 96bd 0c41 3f3d 26c0 143d cf6f 883c
000001e0: 361d 18bd 1edd 293c c383 8cbd 3f5a 5ebc
000001f0: da27 573c 8621 36bc 81aa febc 2067 98bd
00000200: fb7e 99bd d3eb 3c3c fd2d 323d af91 2cbd
00000210: a0dc e3bc bb01 3abc 8769 793d a770 05bd
00000220: cfb6 d83c d48d 973d f3ca bfbb 6d7f b9bc
00000230: 0a48 413c e505 313d 3c8f 4fbb 967f 32bd
00000240: b5ca f5bc 5bd2 ee3b 1227 733d 9ea0 983d
00000250: 4f6c 92bd 79a5 acbb 5157 5f3a e36e 01bd
00000260: 5709 35bd 03c4 09bd 46ce 56bd 9db6 9abc
00000270: 0ce1 31bd 7009 a83d b223 7f3d 1d37 903d
00000280: b840 06bd af33 6cbd 9033 9a3d a5cd 0ebd
00000290: 7c13 a93d 7a57 6a3c 0146 323d 0922 2a3b
000002a0: 1f4e 5ebd fbf4 44bc b533 573d ae38 073c
000002b0: 8fdc 6f3d 1d3f 663d 2ce4 843d 9b96 0abc
000002c0: d2b8 f63c 394f 6cbd 6cbc 97bd edb0 0e3d
000002d0: 1f44 9f3d a72a 8dbc be10 553c 370b 38ba
000002e0: 8e56 a63d 96c2 8d3c b131 a0bd a409 bebb
000002f0: 95c2 033d 9f80 943d 4a61 813d 8492 993d
00000300: 1e47 ce3c 731f d9bc c51a edbc f9e0 873d
00000310: b946 51bd 7185 a3bd 6ea8 843d 6234 2abd
00000320: dfaa 563d 2de1 a5bd ff87 0ebd b186 56bd
00000330: f630 983d c20b 09bb 4533 aebc bbf0 7c3c
00000340: 24d0 9e3c 0e80 983d 5276 8ebd 2560 4ebd
00000350: e2b0 6f3c ff0f d63c e150 093d f730 93bc
00000360: 6eb3 0cbc db6e 56bd 7502 63bd 73f0 56bc
00000370: 6aaa eb3c 6444 893d cf8a 823d a80e bb3b
00000380: f676 0f3c ec6e 723b 6388 abbc cdba 5c3c
00000390: 53e9 1c3d 4f1d 23bd 1eaf 30bd 72ed 95bd
000003a0: 5428 743d 6ae1 733c 679e 933d 7ebb 6dbd
000003b0: ab53 4bbc 2454 3bbd eaa2 d53c 452c 33bd
000003c0: 6f6a c53b b7cb 87bd eaec 47bd 2845 993d
000003d0: f961 903d 94eb fe3c 15f4 933d d3d5 b53b
000003e0: 83f4 4b3d 8bd7 523d e93b 5b3c 03c7 973d
000003f0: 17aa 943d 6ace 0abd 8326 7fbd f28d 7cbd
-0.009813443 0.06204352 0.03270085 -0.07146517 0.05276107 -0.07753397 -0.012369824 -0.061333325
0.022082256 -0.022298412 0.079359084 -0.03685272 -0.014359505 -0.013258595 -0.080901496 0.0013886826
0.031630453 -0.012055332 -0.004067691 -0.046840113 0.018985115 -0.048856534 0.017779447 0.04756714
0.06030202 0.07348469 0.005016796 -0.008837315 0.061103575 0.043254144 0.0010136507 -0.017891362
0.0055041974 -0.0004770815 -0.064320825 -0.06119742 -0.06117197 0.014315926 0.018586466 -0.033065975
-0.06454342 0.011574438 0.0630985 0.052489996 0.051411644 0.0023959538 0.071734644 0.061369628
-0.07805429 0.08004577 -0.004377806 0.04413457 -0.04482854 0.021178408 0.06644013 -0.02955481
0.0011103476 -0.027003674 -0.07993541 0.03235622 -0.0121799065 0.004853442 -0.049217854 -0.052606422
-0.017937392 -0.060555276 -0.0031244073 0.04877254 -0.013425977 -0.05931851 -0.01793925 -0.069596775
-0.033599846 -0.049343113 0.038366508 -0.0029798832 -0.029239226 -0.017725552 0.019186756 -0.0136293825
0.010997134 -0.071103215 -0.08184357 -0.08162072 0.038912952 0.017417507 0.049392786 0.009199835
0.04705238 -0.033431135 0.012413876 0.044174686 -0.07149174 0.027563415 -0.064609624 -0.024408313
0.06255179 0.045256853 -0.012739038 -0.034173433 -0.04016101 -0.033966787 0.017525993 -0.042878363
0.0645743 0.07073144 0.033108663 0.003317832 0.050418925 -0.059131637 0.015580621 -0.011479753
0.06356484 0.02498377 0.028706191 -0.07434096 -0.07332231 0.046692893 0.03631606 0.016654877
-0.037137233 0.01036766 -0.06861069 -0.013571321 0.01313206 -0.011116391 -0.031087162 -0.074415445
-0.07494923 0.011530834 0.04350089 -0.042131122 -0.027815163 -0.011352952 0.060891654 -0.032578137
0.026454357 0.074000984 -0.005853051 -0.02264377 0.011796961 0.043218512 -0.0031671068 -0.043578707
-0.030003885 0.00728826 0.059363432 0.0745251 -0.071495645 -0.0052687493 0.0008519786 -0.03159989
-0.04419836 -0.033634197 -0.05244281 -0.018885905 -0.043427512 0.08204925 0.0622899 0.07041762
-0.032776564 -0.057666477 0.07529366 -0.034864087 0.082556695 0.014303083 0.043523792 0.0025960228
-0.05427372 -0.0120212985 0.052539546 0.00825326 0.05855995 0.056212533 0.06488833 -0.008458759
0.030117426 -0.05769274 -0.074089855 0.0348367 0.07776665 -0.017232252 0.01300448 -0.0007020714
0.08121978 0.0173047 -0.07821978 -0.005799489 0.03216799 0.07251095 0.063173845 0.07498649
0.025180396 -0.026504254 -0.028943429 0.06634707 -0.051092837 -0.07984436 0.06477438 -0.041553862
0.05240905 -0.080995895 -0.034797665 -0.052374545 0.074312136 -0.002091155 -0.021264682 0.015438254
0.019386359 0.074462995 -0.069561616 -0.05038466 0.0146295745 0.026130674 0.033524398 -0.017967684
-0.008587701 -0.052351814 -0.055422265 -0.013118851 0.028767783 0.067024976 0.06374132 0.0057085343
0.00875639 0.0036992384 -0.020939058 0.013472271 0.038308453 -0.039822873 -0.043135755 -0.0732068
0.059608772 0.014885286 0.07207947 -0.058040135 -0.012410085 -0.04573454 0.02607866 -0.04374339
0.0060246508 -0.066306524 -0.048809923 0.07483894 0.07049937 0.031118192 0.07224289 0.0055491715
0.04979373 0.05147509 0.013380983 0.07411005 0.072590046 -0.033888258 -0.062292587 -0.061658807

policy_net.0.attention.out_proj.bias f4 [144]
00000000: e047 afb3 0b4f 72b0 ce1a b833 e2d4 4433
00000010: ca77 3cb3 bc62 84b1 e966 adb2 f1a8 6633
00000020: ffe6 ce33 0142 7732 d1a7 d033 015a ec32
00000030: b2b6 0434 df8b 1533 ce40 f6b2 df0d 0133
00000040: 476a 8ab3 62e2 8433 47d0 6033 f14f b4b3
00000050: 983d 8e33 8b78 e232 7d70 8932 70a1 91b2
00000060: fc30 46b3 5fd2 b933 c979 cbb3 af3e cb33
00000070: 4962 e0b2 123a cd32 e013 1a33 284c 07b4
00000080: 9391 5fb3 4533 46b3 fe7a deb2 8464 48b3
00000090: deb0 7033 14a2 b132 f3f9 0bb4 0412 b430
000000a0: e127 8133 e6da 99b3 6cc6 96b2 b245 bb33
000000b0: 8592 0134 d0e6 04b4 99ee 03b3 ddbb 5e33
000000c0: d997 0c33 d41d 10b3 b47f 4c32 2883 67b3
000000d0: 599f 0e33 bd2a b633 b2fd 93b3 be65 e6b3
000000e0: 5e96 a632 23da 0b33 aa53 aa32 f4ff 32b3
000000f0: 6f58 6db2 ccec 06b4 ddad f232 cf57 bf33
00000100: 797f 26b4 fa6d 4cb3 036a 02b4 295d b033
00000110: 4cdd a9b3 b60c 8bb3 8929 6c33 99e6 6a33
00000120: ac42 ff32 b742 0ab3 c580 5933 1353 a630
00000130: 5388 00b4 b97d dbb2 8b36 0b32 6c3e 1fb4
00000140: f664 6433 21b0 68b1 1d7f b7b3 09f4 0332
00000150: 2d2f 1434 fd71 d4b3 c0c0 56b3 67be 0334
00000160: 4966 6433 2eea 2fb3 fdef 53b3 da70 80b3
00000170: a3d7 a4b1 3dbb f8b3 5efc 7933 2b8e 9d33
00000180: 1977 7133 4df1 1133 f597 3134 c8f5 9534
00000190: b4f1 dab2 baa6 a333 1c87 c432 57c8 77b3
000001a0: 510a 57b3 be13 e2b2 dc58 ffb2 ccbe abb2
000001b0: 58e1 9332 bcdf 3733 2963 8432 4f02 aab2
000001c0: 8b1d 1634 55b3 2c33 0288 f832 b960 e532
000001d0: ef17 d833 4bec c032 72c3 84b2 463e a533
000001e0: 6206 5932 4c88 d5b2 b8a5 cbb3 7c5f f3b3
000001f0: 2147 d333 df9b 95b2 27da 1232 b201 8c33
00000200: 199f 0c34 bf66 69b2 c49a c8b3 b60e 4033
00000210: cd4e 45b1 953b dd33 fa10 de32 51a3 3db3
00000220: e814 9bb3 9b7a 1533 73fa b733 217d 3eb3
00000230: d6bd 7633 738d 79b3 c2bc 2e32 5993 3833
-8.1621465e-08 -8.8151414e-10 8.5730434e-08 4.5828422e-08 -4.388111e-08 -3.8529304e-09 -2.0186649e-08 5.37047e-08
9.6346405e-08 1.43923e-08 9.7162804e-08 2.7514945e-08 1.2359922e-07 3.4818978e-08 -2.8667639e-08 3.004777e-08
-6.4454575e-08 6.187908e-08 5.234349e-08 -8.3964444e-08 6.623594e-08 2.636468e-08 1.6000053e-08 -1.6953635e-08
-4.614502e-08 8.653e-08 -9.475077e-08 9.464326e-08 -2.6121727e-08 2.3891548e-08 3.5873995e-08 -1.260056e-07
-5.2053633e-08 -4.6147097e-08 -2.5900132e-08 -4.6657547e-08 5.6040214e-08 2.0679217e-08 -1.3036315e-07 1.3101844e-09
6.0142845e-08 -7.164435e-08 -1.755253e-08 8.7205436e-08 1.2067365e-07 -1.2377427e-07 -3.0717818e-08 5.1859264e-08
3.2734395e-08 -3.355474e-08 1.1903399e-08 -5.3903165e-08 3.3206877e-08 8.4828095e-08 -6.891368e-08 -1.07287164e-07
1.9393323e-08 3.2561854e-08 1.982865e-08 -4.1676643e-08 -1.3815323e-08 -1.2565869e-07 2.8251572e-08 8.910103e-08
-1.5506329e-07 -4.7597474e-08 -1.214576e-07 8.2125844e-08 -7.9099294e-08 -6.475004e-08 5.4985808e-08 5.4692098e-08
2.9716226e-08 -3.2191306e-08 5.0641365e-08 1.2101701e-09 -1.1970523e-07 -2.5552128e-08 8.1032665e-09 -1.4830738e-07
5.317721e-08 -3.386056e-09 -8.544723e-08 7.680691e-09 1.3800737e-07 -9.8927536e-08 -5.0001063e-08 1.2269594e-07
5.3178415e-08 -4.0958348e-08 -4.9345534e-08 -5.980992e-08 -4.7975433e-09 -1.15824584e-07 5.8204357e-08 7.3367424e-08
5.6220504e-08 3.3979905e-08 1.6539691e-07 2.7932242e-07 -2.5488454e-08 7.6206064e-08 2.2878844e-08 -5.7691377e-08
-5.006797e-08 -2.631884e-08 -2.9726316e-08 -1.9993784e-08 1.7215527e-08 4.2811493e-08 1.5411915e-08 -1.9791655e-08
1.3980586e-07 4.0209972e-08 2.8932849e-08 2.6703093e-08 1.0062637e-07 2.2459195e-08 -1.54557e-08 7.694739e-08
1.2632514e-08 -2.4858444e-08 -9.483068e-08 -1.1332938e-07 9.8383914e-08 -1.7416765e-08 8.547921e-09 6.5195664e-08
1.3096395e-07 -1.3585747e-08 -9.3413774e-08 4.4716863e-08 -2.8712066e-09 1.03019524e-07 2.5851921e-08 -4.4153527e-08
-7.221553e-08 3.4803275e-08 8.567158e-08 -4.4351626e-08 5.7448993e-08 -5.8103478e-08 1.0171052e-08 4.297485e-08

policy_net.1.weight f4 [144, 144]
00000000: c891 84bd 70e3 9f3c fbbb 7fbd e077 813d
00000010: 2673 0fbd 7610 a83d 2b7b 31bd 5018 b9bc
00000020: 13b2 6dbd 660f 8e3d 5808 7bbd 3421 bb3b
00000030: 745b 143d 1b93 94bd a048 b23c 3695 76bd
00000040: c022 c9bc 9f8a 4d3d 963d c0bb 795a 0d3d
00000050: f746 a7bc 00b2 33bd b8e8 41bd 0076 59bd
00000060: 35bc 3dbd 6046 893d d367 75bc 1b89 0ebc
00000070: 5039 9cbd 55aa fa3c a344 e8bc 096f 9bbd
00000080: 7b0a 80bc 80c6 94bd eeea 59bd 8b7d 3f3d
00000090: fb71 473d 8ec2 30ba c94c 5f3d c599 7abb
000000a0: ba93 be3c 2c59 9fbc 800a a03d a763 723d
000000b0: fbcc 3b3d 8e31 f5bc 071e 76bd 409f a0bb
000000c0: 2b52 603d eb01 7cbd 2061 e6bc d246 8c3d
000000d0: dbf1 013d f512 1fbd 4792 1d3d bcf8 2c3d
000000e0: e2ea 813d 5132 003d dbdc 7c3c dfad 4f3c
000000f0: 23a4 0cbd bd8d fe3c b99a 813d f536 82bd
00000100: ada9 a63d e00e 59bd bfc4 96bd 3b6c 763c
00000110: ce0f 903d d7a8 243d 25d4 a1bd 961c 343d
00000120: 4479 823d 03d3 3abb 226c 89bc 7348 8abc
00000130: d90e 083c de8c 973d 6882 9e3d 9b57 a73c
00000140: fe50 83bd 0030 923c e4dc 633c 319c 44bc
00000150: f8c7 72bd 5819 14bd 8e59 a83d f1f8 dbbc
00000160: 585a 93bc 9e7c f73a b151 95bd 3b4b 3fbd
00000170: 979b 2d3d fe79 a2bd 70b6 9f3d 9c9f 373d
00000180: 6dbc a6bd 2f86 37bd 128c 983d 50cc 55bd
00000190: 0032 c03b d8c8 47bc 0bfa 753d a69a 933c
000001a0: e313 e3bb b07d fa3c e477 e03c 0fa5 ac3c
000001b0: 43a6 3fbd 1b75 b2bc bbac 213b 2bce ef3c
000001c0: e110 073c b63e 983d 4041 c53c 3371 acbc
000001d0: eaca 91bd c519 c33c 180e 3d3d 8860 373d
000001e0: 284e 4d3d 78ad 1a3d 87ef f33c f1a4 f33c
000001f0: 6896 39bc 005c a73b 04f3 7bbd a01e 603c
00000200: 876e c03c 0608 93bd 99de bebc 1b79 42bd
00000210: e0f5 0e3c 3313 a4bd 94ac b83c 7911 37bc
00000220: e6a7 5abd de9c 363c 2827 673c ee39 35bd
00000230: e147 f33c eb66 93bd 9407 453d 7043 d73c
00000240: 001d 843d 1bd0 833c 421a 93bd d677 0f3d
00000250: 53ab 843d eaee 48bd aec7 273d 45b8 763d
00000260: 0a30 683c b07e b4bc abe9 8fbb 1e6c 4abd
00000270: c517 303d f3cb 143d a748 993d 8e30 7abd
00000280: dfe8 89bd 3c1e 853d 53dc 93bd eb42 513d
00000290: 3f59 b33c 8402 923d c884 1abd a53c 97bb
000002a0: 1e69 94bd 9ab6 253d acb5 f33c db2e 7ebb
000002b0: c72d 28bd eff8 873c 92f3 823d 1b81 a63d
000002c0: 5efb 913b d373 de3b 80a6 8dbb 603d 473d
000002d0: df0e fb3b 470f 26bd 6f39 cabc 8db0 413d
000002e0: feb2 953d eb8c 52bc 0b6e 1c3c 58e0 2cbd
000002f0: 55bd 6a3d 6d4d 493d 96c4 693c a06c a63d
00000300: b678 503d d85a 3a3d 5f3c 59bd 7048 5ebd
00000310: 10d9 893d fea3 a7bd d5d0 24bd b597 5d3d
00000320: 0094 d03b 1b6a 8cbd e08f 6abd 5f05 ddbc
00000330: 3cb5 6f3d 0fbf 653c 53cf 1c3d 0eec 5e3b
00000340: deab 16bc 00da 9abd 1e64 393d 2a45 433d
00000350: 88ed b23b 947b 6bbd c6a3 923d 4bc9 223c
00000360: c39c a73d 1cc7 8dbd 26cd 273d 8d4b c13c
00000370: 2ac1 ebbc 6827 52bd dee9 92bd c2d5 98bd
00000380: 9552 2fbc 6bc7 a3bd da74 a1bd fe09 88bd
00000390: b6e2 64bd b5fc 85bd 0fa4 8b3d d0c6 8cbc
000003a0: b0e1 7b3c 1b06 783d a00a 803d b0de 053b
000003b0: 6252 5c3d ec93 233b 2aca c33c 60ee 98ba
000003c0: c551 183d ca3a 2a3d 9c8e 253c 308e db3c
000003d0: 5698 75bd ff03 24bd f003 3d3d b30c 6ebd
000003e0: cbd4 03bd 602b 0f3c e6a3 62bd ba52 733d
000003f0: 2b45 943d 1e5c 733d f061 9b3d 8879 113d
-0.06473118 0.01951763 -0.06243513 0.063216925 -0.035021923 0.08206265 -0.043330353 -0.0225946
-0.058031153 0.06936531 -0.061287254 0.005710745 0.03622003 -0.07254621 0.021763146 -0.060200892
-0.024552703 0.050181028 -0.0058667166 0.03451011 -0.02041958 -0.043870926 -0.04734108 -0.05309105
-0.046322066 0.06702876 -0.014978367 -0.008699681 -0.07628119 0.030598799 -0.028353041 -0.07589538
-0.015629997 -0.07264423 -0.053202562 0.046750586 0.048692685 -0.0006742858 0.054516587 -0.0038238626
0.0232638 -0.0194517 0.07814503 0.059177067 0.04584978 -0.029930856 -0.06008723 -0.0049017966
0.05476586 -0.061525267 -0.028122485 0.068494454 0.031724792 -0.03883644 0.03846958 0.0422294
0.063436285 0.031297985 0.015433515 0.012675731 -0.03433622 0.031073445 0.06328339 -0.063581385
0.08137832 -0.0529927 -0.07361745 0.015040453 0.070342645 0.04020008 -0.079017915 0.043972574
0.06370786 -0.002850712 -0.016775195 -0.01688025 0.008304321 0.07399915 0.07739717 0.020427516
-0.064119324 0.017845154 0.013907645 -0.01200013 -0.059272736 -0.036156982 0.08220206 -0.026852103
-0.017987415 0.0018881743 -0.07290972 -0.046702605 0.04238471 -0.079334244 0.07798469 0.04482995
-0.08141408 -0.0448057 0.07448591 -0.0521968 0.0058653355 -0.012193881 0.060052913 0.018018078
-0.006929861 0.03057751 0.027400918 0.0210748 -0.04678942 -0.021784356 0.0024669606 0.029273113
0.00824377 0.07433836 0.024078965 -0.021050071 -0.07118781 0.023815999 0.04615602 0.044769794
0.050123364 0.03776309 0.029777301 0.029741736 -0.011327364 0.005107403 -0.061511055 0.013679177
0.023490204 -0.07179265 -0.023299502 -0.047478776 0.008725613 -0.080114745 0.02254323 -0.011173599
-0.053382777 0.0111457985 0.014108457 -0.0442447 0.02969736 -0.071973644 0.04810293 0.026277274
0.06450844 0.016090443 -0.07182743 0.035026394 0.0647799 -0.04905597 0.040961914 0.060234327
0.01417161 -0.022033066 -0.004391869 -0.049419515 0.04299142 0.036327314 0.074845605 -0.06108146
-0.0673387 0.064999074 -0.07219758 0.05108921 0.021893142 0.07129386 -0.037724286 -0.0046153837
-0.07246612 0.040457346 0.029749714 -0.0038785252 -0.04105928 0.016598193 0.063941136 0.08130094
0.004455014 0.0067887097 -0.004322827 0.048642516 0.007661685 -0.040541913 -0.02468559 0.047287513
0.07309531 -0.01285098 0.009547721 -0.04220614 0.057309467 0.049146105 0.014268061 0.08126187
0.05089637 0.04549679 -0.05303609 -0.0542683 0.067308545 -0.08185576 -0.04023822 0.054099757
0.006365299 -0.068561755 -0.057266116 -0.0269801 0.058522448 0.014022603 0.038283657 0.0034015211
-0.00919625 -0.075611115 0.045261495 0.047673382 0.005460445 -0.0574909 0.071601436 0.009935687
0.08184197 -0.06922743 0.04096713 0.023595596 -0.028778631 -0.051307112 -0.07173513 -0.07462646
-0.010700841 -0.0799702 -0.07883616 -0.06642531 -0.05588027 -0.06542341 0.06818401 -0.017184645
0.015373632 0.060552698 0.062520266 0.0020426922 0.053789504 0.0024959994 0.02390011 -0.0011667721
0.037187357 0.041559972 0.0101048015 0.026801199 -0.059959732 -0.040042873 0.046146333 -0.05811758
-0.032185357 0.008738369 -0.055332087 0.059405066 0.07239755 0.05941402 0.075870395 0.03551629
