scripts/models/602/34/144/vModel.pth (torch, 264307 bytes, 11 tensors)

value_net.0.input_layer.weight f4 [96, 128]
0	0xbd0d1125	-0.03444018
1	0xbd972c20	-0.07381463
2	0xbcd7759e	-0.026301201
3	0xbd0ea670	-0.034826696
4	0xbb93c887	-0.0045099887
5	0xbe088705	-0.13332756
6	0xbdee1d9e	-0.11626743
7	0x3c83f896	0.016109746
8	0xbcdda007	-0.027053846
9	0xbcd53327	-0.026025368
10	0xbb7bb6b4	-0.003840846
11	0xbc601791	-0.013677494
12	0xbded9a05	-0.116016425
13	0xbd4672c3	-0.04844929
14	0x3d472326	0.048617505
15	0xbd00aee3	-0.031416785
16	0xbd090d67	-0.033460047
17	0x3ce0517c	0.027382605
18	0xbc8cdec1	-0.017196061
19	0x3c6d94ec	0.014500838
20	0x3c5bc9f8	0.013414852
21	0xbca48272	-0.020081732
22	0xbc9893d1	-0.018625172
23	0xbcc9f6d2	-0.024653826
24	0xbd94f032	-0.07272376
25	0x3ce940f6	0.028473359
26	0xbdc7ddd3	-0.097591065
27	0xbd5ae91d	-0.05344497
28	0xbd83a69b	-0.06428262
29	0x3b1bc942	0.0023771082
30	0x3cf48dbc	0.02985274
31	0x3d3960ca	0.04525832
32	0x3ca27aee	0.019834008
33	0xbd61463a	-0.054998614
34	0xbada5a58	-0.0016659005
35	0xbce98d5f	-0.028509794
36	0x3ad6f50b	0.0016399933
37	0x3a0f1f2c	0.0005459662
38	0xbdd0a907	-0.101884894
39	0xbe32c1fb	-0.1745681
40	0xbd769e34	-0.060209468
41	0x3cf627b3	0.030048227
42	0xbca46085	-0.020065555
43	0x3d99b664	0.075054914
44	0x3cc18270	0.023621768
45	0xbbdbaa52	-0.0067036534
46	0x3b5fd058	0.0034151282
47	0xbcc20f0f	-0.023688821
48	0xbdeddbb2	-0.11614169
49	0x3c914797	0.017734332
50	0xbccac40a	-0.024751682
51	0xbd25d96d	-0.040490557
52	0xbbf3e5f5	-0.0074431845
53	0xbd10ddf6	-0.03536793
54	0xbddb6f51	-0.10714591
55	0xbdc0cc27	-0.09413939
56	0xbcf6ce3d	-0.030127639
57	0x3daff284	0.08591178
58	0xbce35d84	-0.027754553
59	0xbcbc01a8	-0.022950009
60	0xbdd206e8	-0.102552235
61	0x3d321d22	0.043484814
62	0xbd1f248b	-0.03885321
63	0x3c29253d	0.01032382
64	0x3d56b68a	0.052420177
65	0xbd3c0a8b	-0.045908492
66	0xba96a0da	-0.0011492029
67	0x3c53f9d6	0.0129379835
68	0xbc8d0e15	-0.017218629
69	0xbd335920	-0.043786168
70	0x3b0d465f	0.0021556837
71	0xbda3f687	-0.08006006
72	0xbdf1667c	-0.117871255
73	0xbd0ac100	-0.033875465
74	0x3da5951a	0.080850795
75	0xbc48dd3b	-0.012259777
76	0xbceb2c46	-0.028707635
77	0xbbf9f25e	-0.0076277694
78	0xbc95d2c7	-0.018288983
79	0xbd423e36	-0.04742261
80	0x3c13642a	0.008996049
81	0xbc844864	-0.0161478
82	0x3d6e4b39	0.058177207
83	0x3ca0b665	0.019618222
84	0xbdb730de	-0.089448676
85	0xbd2dac37	-0.042400565
86	0xbd8c8fcc	-0.068633646
87	0xbcbd879f	-0.023135958
88	0xbc4b7381	-0.012417675
89	0x3d14a72f	0.03629225
90	0xbd4fecc7	-0.050762918
91	0x3c57c881	0.013170362
92	0x3cbf5887	0.023357643
93	0x3cc0f87a	0.023555983
94	0xbd501922	-0.05080522
95	0x3c8fa3c6	0.017534148
96	0xbd96c159	-0.07361097
97	0xbd355474	-0.044269994
98	0x3d40cf18	0.0470725
99	0xbc2e7124	-0.010647092
100	0x3d251a27	0.040308144
101	0x3cfe3dce	0.03103533
102	0xbcd1afa8	-0.025596455
103	0xbe119424	-0.14216667
104	0xbdbb1fba	-0.09136911
105	0xbce0bb0b	-0.027432939
106	0x3bf48e3f	0.007463246
107	0xbd6a021c	-0.057130918
108	0x3c3c1f00	0.011482
109	0xbcf63c03	-0.030057913
110	0xbd9eb5a9	-0.07749493
111	0xbc056918	-0.008142732
112	0xb92b51c0	-0.00016338285
113	0xbd4b700d	-0.049667407
114	0xbc9e3a03	-0.019314772
115	0x3d9c957a	0.07645698
116	0x3d168874	0.036751226
117	0xbbe58184	-0.007003965
118	0x3d088902	0.033333786
119	0xbdfb411e	-0.122682795
120	0xbd594c5c	-0.053051338
121	0xbc3fe673	-0.011712658
122	0xbe31dac5	-0.1736861
123	0xbca65c6d	-0.020307744
124	0xbde2920f	-0.11063015
125	0xbc7d7acb	-0.015471171
126	0xbbb99b3d	-0.005664258
127	0x3d5c4520	0.05377686
128	0x3c2a2331	0.010384367
129	0xbd02a6fe	-0.031897537
130	0xbd81412f	-0.06311261
131	0xbd8b1bee	-0.067924365
132	0xbc92160c	-0.017832778
133	0xbd124580	-0.03571081
134	0x3cd5bb66	0.026090335
135	0xbd92ff8a	-0.071776465
136	0x3c6628a9	0.01404778
137	0xbc3eaf46	-0.011638468
138	0x3d300b4e	0.04297953
139	0x3bf237d9	0.0073919115
140	0xbc9e4f04	-0.019324787
141	0xbdde73e2	-0.10861947
142	0x3d2ffecc	0.042967603
143	0x3c2fb11a	0.010723377
144	0x3bb4fddf	0.005523428
145	0x3b4299b7	0.0029693672
146	0xbde93f06	-0.11388974
147	0xbc402132	-0.011726664
148	0xbd228880	-0.039680958
149	0x3dcab9d7	0.098987274
150	0xbcf87e6c	-0.03033372
151	0x3d94940a	0.07254799
152	0xbd0ac3d8	-0.033878177
153	0xbdbb4bd4	-0.091453224
154	0xbdb0e31c	-0.08637068
155	0xbbab9a36	-0.0052368892
156	0x3c20a8ae	0.009805841
157	0xbcf7632b	-0.030198654
158	0xbcad4728	-0.021152094
159	0xbdc532e4	-0.09628847
160	0x3d045503	0.032307636
161	0x3d921045	0.071320094
162	0x3c844f50	0.0161511
163	0xbda84f40	-0.08218241
164	0x3d86cd5f	0.0658214
165	0xbdc51cf0	-0.0962466
166	0xbd9ce8f8	-0.07661623
167	0xbb7d7adf	-0.0038677973
168	0x3d0a1840	0.033714533
169	0xbd8f53d0	-0.06998408
170	0x3c956ca0	0.018240273
171	0xbdec90cf	-0.115510575
172	0xbdb65f20	-0.089048624
173	0xbcdc4e12	-0.026892696
174	0xbd42c063	-0.047546756
175	0x3cebd29f	0.028786955
176	0xbca50ead	-0.0201486
177	0xbd8b5c9f	-0.068047754
178	0xbdbc9691	-0.09208406
179	0x3d15a120	0.036530614
180	0x3d0f99f4	0.03505893
181	0x3bd8d96b	0.006617715
182	0xbbb5c193	-0.0055467575
183	0xbc07781c	-0.008268382
184	0x3db9a91d	0.09065459
185	0x3d8a9847	0.06767326
186	0xbda58c99	-0.080834575
187	0xbd0f1204	-0.03492929
188	0xbd58a0c7	-0.052887704
189	0x3d418b60	0.04725206
190	0xbd9429d0	-0.072345376
191	0x3c968d49	0.018377917
192	0xbe080501	-0.13283159
193	0xbd86fbf6	-0.065910265
194	0xbd86cc61	-0.06581951
195	0x3d8db31d	0.06918929
196	0x3cb5121f	0.022103367
197	0xbc98d45d	-0.01865595
198	0xbcb66953	-0.02226702
199	0xbda4411b	-0.080202304
200	0xbdc45881	-0.09587193
201	0x3d4faa8b	0.05069975
202	0xbd62091a	-0.05518446
203	0x3c286963	0.010279032
204	0x3d796daf	0.060895618
205	0xbd370006	-0.044677757
206	0xbcf110e2	-0.029426996
207	0xbbd39ae0	-0.0064576715
208	0xbdbbcf28	-0.09170371
209	0xbd80e2d5	-0.06293265
210	0xbd03c0fa	-0.03216646
211	0xbd2d3eec	-0.042296335
212	0xbc3023e8	-0.010750748
213	0xbd43769a	-0.04772053
214	0x3d60d13c	0.05488704
215	0xbdf12fbc	-0.11776683
216	0xba9ccc91	-0.0011962821
217	0xbd087342	-0.033313043
218	0xba4be6b7	-0.00077782146
219	0xbd633db1	-0.055478755
220	0xbcb4a4a1	-0.022051157
221	0xbd7cc710	-0.06171328
222	0xbd51b2fb	-0.05119608
223	0x3cc5210f	0.024063615
224	0xbcbda6ad	-0.023150766
225	0xbaed9f20	-0.0018129088
226	0xbd7a00ba	-0.06103585
227	0x3d9d760f	0.076885335
228	0x3a5038b3	0.0007943019
229	0xbdc0e9d4	-0.09419599
230	0xbd1ef9dd	-0.038812507
231	0x3d8bdd75	0.06829349
232	0x3ce42fd5	0.02785484
233	0xbdb90c00	-0.09035492
234	0x3d011df2	0.0315227
235	0xbd37b63b	-0.044851523
236	0xbd02b7ae	-0.03191345
237	0xbd36f307	-0.044665363
238	0xbd3774d3	-0.044789147
239	0xbd53e838	-0.051735133
240	0xbcf64a20	-0.030064642
241	0xbdb3ebcc	-0.08785209
242	0xbca8e16f	-0.020615308
243	0x3d0a7e83	0.033812057
244	0xbd979080	-0.07400608
245	0x3d8c4082	0.068482414
246	0xbcc5b598	-0.024134442
247	0xbcd81cd3	-0.026380932
248	0x3c8430c5	0.016136536
249	0x3ba20482	0.004944385
250	0xbd89a157	-0.06720226
251	0xbc96f3e9	-0.018426852
252	0xbdd0d4c4	-0.10196832
253	0x3d86b739	0.06577916
254	0xbdbc2903	-0.0918751
255	0xbd71ef6b	-0.059066217

value_net.0.input_layer.bias f4 [96]
0	0xbd7969f9	-0.06089208
1	0xbbe63bc5	-0.007026168
2	0xbd42f045	-0.04759242
3	0xbd65bb5c	-0.056086883
4	0x3cfaa203	0.030594831
5	0xbdf6eac6	-0.12056498
6	0xbbd59835	-0.0065183886
7	0xbc9d44c6	-0.019197833
8	0xbd3381f9	-0.043825123
9	0xbdd51de4	-0.10406092
10	0x3d224113	0.03961284
11	0xbcf20ddf	-0.02954763
12	0xbdc66e48	-0.09689003
13	0xbd032fd0	-0.03202802
14	0xbd187635	-0.037222106
15	0xbd975c24	-0.07390621
16	0xbc47df1c	-0.0121991895
17	0x3c1e02f9	0.009644263
18	0xbd350d48	-0.04420212
19	0xbd92ca5d	-0.07167504
20	0xbcac988d	-0.021068836
21	0x3d0c41cc	0.034242436
22	0xbd7f9a7e	-0.062403195
23	0xbc1884e3	-0.009309026
24	0xbdbde4ef	-0.09272181
25	0x3cef60c6	0.02922095
26	0xbd3cea5f	-0.04612195
27	0xbdf7ed14	-0.12105766
28	0xbcd8b341	-0.026452662
29	0xbc7594d0	-0.014989093
30	0xbd8b46e0	-0.06800628
31	0x3d592738	0.053015918
32	0x3d42bf65	0.04754581
33	0xbcaf3a8c	-0.021390222
34	0x3d10ca52	0.035349198
35	0xbdb6951f	-0.08915161
36	0xbdba4551	-0.09095252
37	0xbd8470ed	-0.064668514
38	0xbbebe225	-0.0071985894
39	0x3c89b54f	0.016810087
40	0xbd142538	-0.036168307
41	0xba409a44	-0.0007347206
42	0x3bb84df4	0.005624527
43	0xbdc75951	-0.09733833
44	0xbdd7a031	-0.10528601
45	0x3c66f0ac	0.014095467
46	0xbd308bdf	-0.04310214
47	0x3c26d400	0.010182381
48	0xbccd6b70	-0.025075644
49	0xbd7cf04c	-0.061752602
50	0xbdf27703	-0.11839106
51	0x3d0067ec	0.031349108
52	0xbda57d44	-0.08080533
53	0x3d167403	0.03673173
54	0xbc0de033	-0.00865941
55	0xbd7084e4	-0.058720484
56	0xbdf9abae	-0.121909484
57	0xbda94b41	-0.08266307
58	0x3c58bdbd	0.013228831
59	0xbe066600	-0.13124847
60	0xbd251899	-0.04030666
61	0xbd9ed754	-0.07755914
62	0xbd91c4b8	-0.07117599
63	0xbdaccbfb	-0.08437344
64	0xbcdd2ba7	-0.026998354
65	0x3d057b0e	0.032588057
66	0xbc0ed20b	-0.00871707
67	0xbdc9e39c	-0.09857866
68	0xbc9763e0	-0.018480241
69	0xbb9239ad	-0.004462442
70	0xbdac20e5	-0.08404712
71	0xbd8d290e	-0.06892596
72	0x3d1592bb	0.036516886
73	0x3d1c0514	0.03809078
74	0x3d0f49fe	0.034982674
75	0xbdc973b4	-0.09836522
76	0xbda0f8ea	-0.078599766
77	0xbdf5aee3	-0.119962476
78	0x3ccf5e21	0.025313439
79	0xbd057cff	-0.03258991
80	0x3c583089	0.013195165
81	0x3d47bf51	0.048766438
82	0x3cbba9a9	0.022908049
83	0xbe10f3a1	-0.14155437
84	0x3d742c01	0.059612278
85	0xbdcb1030	-0.09915197
86	0xbd62cada	-0.055369236
87	0xbd12037d	-0.035647858
88	0xbdc23741	-0.09483195
89	0x3c4a3b5c	0.012343254
90	0xbc85c212	-0.016327891
91	0xbd504907	-0.050850894
92	0xbdd39fa6	-0.10333185
93	0xbc6b1fff	-0.01435089
94	0xbd657f87	-0.056029823
95	0xbcc6ae6b	-0.02425309

value_net.0.output_layer.weight f4 [96, 96]
0	0x3d22f531	0.039784614
1	0x3c3c590a	0.011495838
2	0xbd16e024	-0.03683485
3	0x3c217733	0.009855079
4	0xbdbfc22c	-0.09363207
5	0x3d503fe2	0.050842173
6	0xbdfaa7c4	-0.1223903
7	0x3df83ad0	0.121205926
8	0xbd8d66ae	-0.0690435
9	0x3d1ca93e	0.03824734
10	0x3d0d27ca	0.034461774
11	0x3d85eab6	0.06538908
12	0x3d1de2b5	0.038546283
13	0xbdf990da	-0.12185831
14	0x3ca70832	0.02038965
15	0xbd015bc4	-0.031581655
16	0xbd2b6596	-0.041844927
17	0xbb7c93bf	-0.0038540212
18	0xbce499c9	-0.027905362
19	0xbd34849e	-0.044071786
20	0xbc454f56	-0.012042841
21	0xbd52228f	-0.05130249
22	0x3d8abc3f	0.06774186
23	0x3d390e67	0.04517975
24	0x3c7402bf	0.014893233
25	0xbddc36bd	-0.10752628
26	0x3c24dc00	0.010062218
27	0xbcaedb24	-0.021344729
28	0x3d1c0de0	0.03809917
29	0xbdb3beee	-0.08776651
30	0xbdda84f3	-0.10669889
31	0xbd306034	-0.043060496
32	0xbca05224	-0.019570418
33	0x3daa485a	0.08314581
34	0x3d4aee12	0.049543448
35	0x3d21989a	0.039452173
36	0xbd88daaf	-0.066823356
37	0xbdd41b7e	-0.10356806
38	0xbd1ffbc8	-0.039058477
39	0x3dbc7819	0.09202594
40	0xbd6c2843	-0.057655584
41	0xbcbfe8fc	-0.023426525
42	0x3c113a63	0.008864018
43	0x3e1abbd6	0.15110716
44	0x3d914c4d	0.07094631
45	0x3e0ad76e	0.13558742
46	0xbdbb561d	-0.09147284
47	0x3c785bcf	0.015158608
48	0x3d9cf230	0.07663381
49	0x3da1dace	0.07903062
50	0xbd805f01	-0.062681206
51	0x3cf4cfac	0.029884182
52	0x3d2be8ad	0.041969944
53	0xbd5a60af	-0.05331486
54	0x3d19efb6	0.03758212
55	0x3cc47ae0	0.023984373
56	0x3d65bf48	0.056090623
57	0x3ddb0656	0.10694568
58	0x3d8c51ff	0.06851577
59	0xbbdd1507	-0.0067468914
60	0x3d4091b4	0.047013953
61	0xbc82b520	-0.015955508
62	0xbd0bc6d8	-0.03412518
63	0x3d980200	0.074222565
64	0xbd903adb	-0.07042476
65	0xbcd1df7d	-0.025619263
66	0x3d4a3592	0.049367495
67	0xbda9580c	-0.08268747
68	0x3b9fc394	0.0048756097
69	0x3c937de3	0.018004363
70	0x3da806f3	0.082044505
71	0x3c863e43	0.01638711
72	0xbb4e3a28	-0.003146777
73	0x3d1ba45c	0.037998542
74	0x3d4e8b02	0.050425537
75	0xbd7a94fc	-0.06117724
76	0xbd1bf381	-0.03807402
77	0xbc7a6e6d	-0.015285117
78	0xbca365bd	-0.019945974
79	0xbcd8a063	-0.026443666
80	0x3c9aafa3	0.018882578
81	0x3d31d877	0.043419328
82	0xbd9362bf	-0.07196569
83	0xbc9c5735	-0.019084552
84	0x3d45c1cb	0.04828052
85	0x3cdfa9a0	0.027302563
86	0xbd9c2b46	-0.07625441
87	0x3de0a0fd	0.10968206
88	0xbda8073a	-0.08204503
89	0xbacc38e6	-0.0015580922
90	0xbd0e91b4	-0.034806922
91	0x3d8d0a3a	0.06886716
92	0xbacd1098	-0.0015645204
93	0xbb9bc3f7	-0.0047535854
94	0x3d300e4a	0.042982377
95	0x3a158ed4	0.0005705182
96	0xbdf28012	-0.11840834
97	0x3bc5a6b9	0.006031838
98	0x3d2368f4	0.039895013
99	0x3c2dbede	0.010604588
100	0xbd22a042	-0.039703615
101	0xbc35903b	-0.0110817505
102	0xbdaca90c	-0.08430681
103	0xbdc63c8b	-0.096795164
104	0xbd7e14b7	-0.062031474
105	0xbdc8e932	-0.098101035
106	0x3b6168c9	0.0034394732
107	0x3db62234	0.088932425
108	0x3c22f875	0.009946932
109	0x3cdf04aa	0.027223904
110	0x3d1d76bc	0.038443312
111	0x3c281d99	0.010260963
112	0xbaf97d3e	-0.0019034517
113	0xbcb7231f	-0.022355614
114	0xbc7546d8	-0.014970504
115	0x3ceadc25	0.028669426
116	0xbcc88a14	-0.024479903
117	0xbc7cf6a0	-0.015439659
118	0xbc990cce	-0.018682864
119	0xbcabfe88	-0.020995393
120	0x3d3eb1f3	0.046556424
121	0x3d4a9b40	0.049464464
122	0xbd91f642	-0.07127048
123	0x3c3f8eb4	0.011691738
124	0x383df5aa	4.5289904e-05
125	0xbcf44454	-0.029817738
126	0xbd8cc738	-0.068739355
127	0xbd2e04e1	-0.04248512
128	0xbdc71e56	-0.09722583
129	0x3c822646	0.01588739
130	0x3d1edd33	0.03878517
131	0xbc6fa212	-0.014626043
132	0x3dab1d3e	0.08355187
133	0xbcf8e9b5	-0.030384878
134	0x3d0f8052	0.035034485
135	0xbcc1c90f	-0.023655443
136	0xbd709bb9	-0.05874226
137	0xbc7d5130	-0.015461251
138	0x3e0d9cc4	0.13829333
139	0x3e091e8d	0.1339056
140	0xbcbdc002	-0.023162846
141	0x3db92835	0.09040872
142	0xbd8e85b2	-0.06959094
143	0x3da9fd25	0.083002366
144	0xbd361c23	-0.044460427
145	0xbbb6f903	-0.0055838837
146	0x3cdf9818	0.027294204
147	0x3c20ae08	0.009807117
148	0xbd8543b6	-0.065070555
149	0xbddd1e27	-0.10796767
150	0x3a245ae4	0.0006269647
151	0xbdf9d8e8	-0.12199575
152	0x3b7b0c6f	0.0038306972
153	0x3dc0b51b	0.09409543
154	0xbcdb00aa	-0.026733715
155	0x3d92ce39	0.0716824
156	0xbac32bb4	-0.0014890344
157	0x3c843fef	0.016143767
158	0x3cdb0cf7	0.02673958
159	0x3cf36764	0.029712386
160	0x3da9b66d	0.08286748
161	0x3d1fb101	0.038987163
162	0x3d81147a	0.06302734
163	0xbb3e1ff6	-0.002901075
164	0x3db1cbd0	0.08681452
165	0xbbb6bf1e	-0.005576982
166	0xbda59148	-0.08084351
167	0xbc8bff4c	-0.017089508
168	0xbdde8388	-0.10864931
169	0x3d3fa000	0.046783447
170	0x39c73973	0.0003799904
171	0xbd8d85ff	-0.06910323
172	0xbdd57caf	-0.10424172
173	0xbcdc1688	-0.026866212
174	0xbd3065b5	-0.043065745
175	0x3d459f8f	0.04824787
176	0xbd3e874d	-0.04651575
177	0x3cd1be53	0.025603449
178	0xbdf5704e	-0.11984311
179	0x3b9158d6	0.004435639
180	0xbc0b7f2a	-0.008514205
181	0xbda7870a	-0.081800535
182	0x3dbd9407	0.092567496
183	0x3d592e5b	0.053022724
184	0xbcdcf927	-0.026974274
185	0xbb5995b7	-0.003320081
186	0xbd104193	-0.035218786
187	0xbd097d12	-0.033566542
188	0xbc6248f4	-0.013811339
189	0x3cb6a5c4	0.02229584
190	0xbd167f84	-0.036742702
191	0xbc7f0810	-0.015565887
192	0x3d6e3a07	0.058160808
193	0x3cb7a827	0.022419048
194	0x3dbe1e81	0.09283162
195	0xbc64c4c1	-0.013962925
196	0xbd9658f9	-0.07341189
197	0xbd22f506	-0.039784454
198	0x3d238d2a	0.039929546
199	0xbd8a7268	-0.067601025
200	0xbcbb3d47	-0.022856368
201	0x3d095bb3	0.033534717
202	0x3daeaccf	0.085290544
203	0x3d0f6f2f	0.035018142
204	0xbd11a4f6	-0.03555771
205	0xbcbc4e2b	-0.022986492
206	0x3b9b3cd8	0.0047374777
207	0x3cde32c5	0.027123818
208	0xbb9aa6d8	-0.0047195964
209	0x3c5c0859	0.013429725
210	0xbd5a6998	-0.05332336
211	0xbde7b24e	-0.11313306
212	0x3d45ddb3	0.048307132
213	0x3bce679f	0.0062989737
214	0x3d3ee506	0.046605133
215	0xbc865a80	-0.016400576
216	0x3d7eb7df	0.062187072
217	0xbd81f910	-0.06346333
218	0xbcb3940d	-0.021921182
219	0xbcc714b6	-0.024301868
220	0xbd5a21a5	-0.053254742
221	0xbd8ad6b2	-0.06779231
222	0xbccdf8c5	-0.025143037
223	0xbd62f932	-0.055413432
224	0x3c613e65	0.013747786
225	0x3d0a9684	0.03383495
226	0x3d6cbb49	0.057795797
227	0x3c3cae68	0.011516191
228	0x3d6c9124	0.057755604
229	0xbcf9999f	-0.03046876
230	0x3d1c1905	0.038109798
231	0x3dbefc19	0.093254276
232	0x3d0419f7	0.032251325
233	0x3c6d9428	0.014500655
234	0x3e11e77b	0.14248459
235	0x3c80ffc5	0.01574696
236	0x3d296a72	0.04136128
237	0x3c249a85	0.010046606
238	0xbd924a3f	-0.071430676
239	0x3e083f50	0.13305402
240	0x3be44c8d	0.0069671334
241	0x3dcdac85	0.10042671
242	0xbd81131f	-0.06302475
243	0x3d5f0dfe	0.054456703
244	0x3b9354ba	0.004496184
245	0x3c97f6ea	0.018550355
246	0x3c9054a6	0.017618489
247	0xbd14039d	-0.03613626
248	0xbb2e6d8a	-0.0026615583
249	0x3d5e78db	0.054314476
250	0x3cac6cfc	0.021048062
251	0x3bc1f210	0.0059187487
252	0xbdf1ed60	-0.11812854
253	0xbd724c9b	-0.059155088
254	0x3df5ac27	0.11995726
255	0xbd25bb1f	-0.040461656

value_net.0.output_layer.bias f4 [96]
0	0xbcff2a1b	-0.031148007
1	0x3bd92105	0.0066262507
2	0x3c6d9dc5	0.014502947
3	0x3d237bc8	0.03991297
4	0xbde68947	-0.11256652
5	0xbd29cc90	-0.04145485
6	0xbd910f70	-0.070830226
7	0xbdf9f9e1	-0.12205864
8	0xbd42f2f2	-0.047594972
9	0x3c1230bc	0.008922752
10	0xbdf1d19d	-0.11807559
11	0xbd776b09	-0.06040481
12	0x3c8bd795	0.017070571
13	0xbbffcbda	-0.0078062834
14	0xbe063534	-0.13106233
15	0xbce80e02	-0.028326992
16	0xbcda8389	-0.026674049
17	0xbd6d8f60	-0.05799806
18	0x3b9015e2	0.00439714
19	0xbc4f6fd1	-0.012660936
20	0xbd2c6505	-0.042088527
21	0xbd9841b2	-0.074344054
22	0x3d1575bc	0.036489233
23	0xbe08750b	-0.13325898
24	0xbd15f99c	-0.036615
25	0x3c236fbb	0.009975369
26	0xbd36ce31	-0.044630233
27	0xbda3fbb2	-0.080069914
28	0xbd052f1f	-0.03251564
29	0xbdc59a42	-0.09648563
30	0xbdc0383b	-0.09385725
31	0xbd9c61b8	-0.07635826
32	0xbc708998	-0.014681242
33	0xbd41f61b	-0.047353845
34	0x3c259fdb	0.010108913
35	0x3ca5e112	0.020248923
36	0xbd47371f	-0.048636552
37	0xbdd7cf97	-0.105376415
38	0xbcaa5d1b	-0.02079635
39	0xbdfac2a6	-0.122441575
40	0xbc6ed7ed	-0.014577848
41	0x3ccf6d7e	0.025320765
42	0x3c5dfa95	0.013548513
43	0x3d3bf140	0.04588437
44	0xbc7b7cd9	-0.01534959
45	0x3c9b0804	0.01892472
46	0xbca0a52a	-0.019610006
47	0x3c5e458d	0.013566387
48	0x3ca4c3f4	0.020112969
49	0xbda8eda0	-0.08248448
50	0xbd15cc71	-0.036571924
51	0xbb620101	-0.0034485462
52	0xbdaa6846	-0.0832067
53	0xbc4732ff	-0.0121581545
54	0xbd85e1fc	-0.06537244
55	0xbd99a197	-0.07501524
56	0xbce3920e	-0.027779605
57	0xbd09be2d	-0.03362863
58	0xbd64def4	-0.055876687
59	0xbdb4df0f	-0.088316076
60	0xbc24d434	-0.010060359
61	0xbd14ee0b	-0.036359828
62	0xbdfe6515	-0.124216236
63	0xbdd27d70	-0.102778316
64	0xbce891c7	-0.028389825
65	0xbe102183	-0.14075284
66	0xbc557844	-0.013029162
67	0xbcdcbf23	-0.02694661
68	0xbd0243a9	-0.031802807
69	0xbcb356f9	-0.021892058
70	0x3c0ff508	0.008786447
71	0xbe10e43d	-0.14149566
72	0xbc9acabf	-0.018895505
73	0xbdd0b75c	-0.10191223
74	0x3ba02987	0.004887763
75	0xbd283db8	-0.041074485
76	0x3d0015ea	0.0312709
77	0x3cb54eb0	0.022132248
78	0xbb6d9348	-0.0036251117
79	0xbd5309eb	-0.05152313
80	0xbba5a0c2	-0.005054564
81	0xbd01dd4b	-0.031705182
82	0x3cbc7c8e	0.023008611
83	0xbc876723	-0.016528672
84	0xbd2593da	-0.040424205
85	0x3de6507f	0.11245822
86	0xbde80e12	-0.11330809
87	0xbd6823d3	-0.05667479
88	0xbc5cc960	-0.013475746
89	0x3b56d893	0.0032782897
90	0xbd8251b3	-0.06363239
91	0x3ca5181e	0.020153102
92	0xbd8526b5	-0.065015234
93	0x3c0ed4ef	0.0087177595
94	0xbd1478f4	-0.036248162
95	0xbd18569f	-0.037191983

value_net.0.attention.in_proj_weight f4 [288, 96]
0	0x3dd8b0f8	0.10580629
1	0x3cb732d8	0.022363111
2	0xbda7acd8	-0.08187264
3	0x3d50b3e4	0.050952807
4	0x3d9994fe	0.07499121
5	0xbdd61e88	-0.10455042
6	0xbcf34508	-0.029696003
7	0xbcd612f0	-0.026132077
8	0xbb3786c0	-0.0028003901
9	0x3d724308	0.059145957
10	0xbc58d4d0	-0.013234332
11	0xbdbb18cc	-0.09135589
12	0x3dd8a90c	0.10579118
13	0xbd0ef3d4	-0.0349005
14	0xbdd3b246	-0.10336737
15	0x3da41694	0.08012119
16	0xbdd53a5c	-0.10411522
17	0x39900e00	0.0002747625
18	0xbd9d9330	-0.076940894
19	0x3c9649d8	0.018345758
20	0xbdce3dd6	-0.10070388
21	0xbdb6d3a0	-0.08927083
22	0xbd221db4	-0.03957911
23	0xbde1baa8	-0.1102193
24	0x3cdd5d38	0.02702199
25	0x3d8de0dc	0.06927654
26	0x3d8b7e86	0.06811242
27	0xbda89244	-0.08231023
28	0xbd45e66c	-0.04831545
29	0x3ce34908	0.027744785
30	0x3d1ff514	0.039052084
31	0x3de2cf62	0.110747114
32	0xbd95088e	-0.07277022
33	0xbcd17c90	-0.025572091
34	0x3d8a8324	0.06763294
35	0xbd95e8ba	-0.0731978
36	0x3d90bb2e	0.07066952
37	0x3d500ccc	0.050793454
38	0xbdaeb956	-0.08531444
39	0xbc7abea0	-0.015304238
40	0xbdf1bdde	-0.118037924
41	0xbd367c10	-0.04455191
42	0xbcc281e0	-0.02374357
43	0x3dc3f65e	0.09568475
44	0xbda5c586	-0.08094315
45	0x3dc5c50e	0.09656726
46	0xbdd68d6e	-0.10476194
47	0x3d899604	0.06718066
48	0x3db1e9c8	0.08687168
49	0x3d74022c	0.059572384
50	0x3ddb93d4	0.10721555
51	0xbd81e050	-0.06341612
52	0x3d04c74c	0.032416627
53	0x3b525640	0.0032094866
54	0x3ddca8f8	0.10774416
55	0x3d9caafa	0.07649799
56	0xbda19fe8	-0.07891828
57	0xbc664120	-0.014053613
58	0x3da6f8ee	0.08152948
59	0x3dcf43e0	0.10120368
60	0x3d67eeac	0.0566241
61	0xb723c000	-9.760261e-06
62	0xbc92bee0	-0.017913282
63	0xbd55b1b8	-0.05217144
64	0xbd9a1802	-0.075241104
65	0x3d10e18c	0.03537135
66	0xbde90856	-0.11378543
67	0xbc66a820	-0.01407817
68	0xbd79f580	-0.061025143
69	0xbdf489ae	-0.11940323
70	0x3d771098	0.06031856
71	0xbd68fc04	-0.056880966
72	0x3dfc525e	0.12320398
73	0x3c4eaea0	0.012614876
74	0x3d4996b4	0.049215987
75	0x3d2096f4	0.03920646
76	0xbdb0e4b6	-0.08637373
77	0x3dceec18	0.10103625
78	0x3dbb1914	0.09135643
79	0x3cbba928	0.022907808
80	0xbd8a67c4	-0.06758073
81	0xbc78a6f0	-0.01517652
82	0x3daf0a22	0.085468546
83	0xbc812270	-0.015763491
84	0xbd5ebcac	-0.05437915
85	0xbd10d87c	-0.035362706
86	0x3a850a00	0.0010150075
87	0x3c7c5e80	0.01540339
88	0x3d2469cc	0.04013996
89	0xbbce9c00	-0.0063052177
90	0xbcf0cd40	-0.029394746
91	0x3df76036	0.12078898
92	0x3cc378a8	0.023861244
93	0x3cac5580	0.021036863
94	0xbd3f02d0	-0.04663354
95	0x3dee840c	0.1164628
96	0xbd4d9c24	-0.050197735
97	0xbd3839b4	-0.044976905
98	0x3dfe7f90	0.12426674
99	0x3d08d620	0.03340733
100	0xbdb8ec58	-0.09029454
101	0x3ca481e0	0.02008146
102	0xbc917948	-0.017758027
103	0x3b66ab40	0.0035197288
104	0x3dfcacc6	0.123376414
105	0xbdb79ddc	-0.08965656
106	0xbdae62f4	-0.085149676
107	0x3d90c6a4	0.07069138
108	0xbd8a9d68	-0.06768304
109	0x3d000080	0.031250477
110	0xbd347c14	-0.044063643
111	0x3d3007c0	0.04297614
112	0xbde4cad0	-0.11171496
113	0x3dde6bf4	0.10860434
114	0x3da60160	0.08105731
115	0x3de27f28	0.110594094
116	0xbd803106	-0.062593505
117	0x3d0123c0	0.031528234
118	0x3d0de324	0.034640446
119	0x3bc68c40	0.0060591996
120	0xbdfefdac	-0.12450728
121	0xbdab20ae	-0.083558425
122	0x3dfcd174	0.123446375
123	0xbd08b974	-0.033379987
124	0x3de0a9e0	0.10969901
125	0x3ccb2790	0.024799138
126	0xbdd71cce	-0.10503541
127	0x3c7edc70	0.015555486
128	0xbda5d578	-0.080973566
129	0xbdc9e1ec	-0.09857544
130	0x3c302d90	0.01075305
131	0x3cd03c30	0.025419325
132	0x3cff89f8	0.031193718
133	0x3d3fd08c	0.046829745
134	0x3d0891c0	0.033342123
135	0x3dcf1c2e	0.10112797
136	0xbce99a30	-0.028515905
137	0xbcf59330	-0.029977411
138	0xbd02eabc	-0.03196214
139	0x3d85cd9c	0.065333575
140	0xbd6a3114	-0.05717571
141	0x3dc20788	0.09474093
142	0x3d8dcfec	0.069244236
143	0xbdcb2060	-0.099182844
144	0xbdfef1e8	-0.12448484
145	0x3df00976	0.117205545
146	0x3d4cbffc	0.049987778
147	0xbdacdca0	-0.084405184
148	0x3dbd167c	0.09232804
149	0x3de3d2c0	0.11124182
150	0xbcd86040	-0.026413083
151	0xbb7b8c80	-0.0038383305
152	0x3d1fb24c	0.038988397
153	0x3dc0b62a	0.09409745
154	0x3d334e84	0.04377605
155	0x3d796524	0.06088747
156	0x3da49f74	0.08038226
157	0xbcd0bfa8	-0.025482014
158	0xbd6e6c04	-0.05820848
159	0xbdbef164	-0.09323385
160	0xbdcd1f46	-0.100157306
161	0xbdfeb6d6	-0.12437217
162	0xbdbf44ae	-0.093392715
163	0x3dc0bcb2	0.09410991
164	0x3d8437a4	0.06455925
165	0xbd142d88	-0.036176234
166	0x3c849748	0.016185418
167	0x3ca0b678	0.019618258
168	0x3bdb0860	0.006684348
169	0xbd822f64	-0.06356695
170	0xbdded7b4	-0.10880986
171	0xbd8aa63c	-0.06769988
172	0xbdc2942e	-0.09500919
173	0xbd8d6b46	-0.069052264
174	0x3d20b498	0.039234728
175	0xbd1c918c	-0.03822474
176	0x3c212580	0.009835601
177	0x3d09ea14	0.0336705
178	0xbcd32858	-0.025776073
179	0xbd5b9048	-0.053604394
180	0xbd03e95c	-0.03220497
181	0x3c818b10	0.01581338
182	0x3df28c28	0.11843139
183	0x3b4e1780	0.0031447113
184	0x3a91a600	0.0011112094
185	0xbdd47380	-0.103735924
186	0xbc2ab3c0	-0.010418832
187	0xbda9911a	-0.08279629
188	0xbd903860	-0.07042003
189	0xbde30aa4	-0.11086014
190	0xbca27610	-0.019831687
191	0xbda44e1e	-0.08022712
192	0xbdbbc334	-0.091680914
193	0x3d939dc6	0.07207827
194	0xbafc2180	-0.0019236058
195	0x3d098dd4	0.033582523
196	0xbdee6eb4	-0.11642209
197	0x3d39cfc0	0.04536414
198	0xbd1116f8	-0.035422295
199	0xbd5bfe74	-0.053709462
200	0x3bb4f2c0	0.005522102
201	0xbda53462	-0.08066632
202	0xbdb10d56	-0.08645122
203	0x3d9d60c4	0.07684472
204	0x3d3fd5ac	0.046834633
205	0xbce221a8	-0.02760394
206	0x3d8af8e6	0.06785755
207	0xbdf39530	-0.1189369
208	0xbcd21400	-0.025644302
209	0x3c5bdda0	0.013419539
210	0x3de7ce56	0.11318652
211	0xbd2bb0a8	-0.04191652
212	0xbd672ef8	-0.056441277
213	0xbcf52bd0	-0.029928118
214	0xbd7c5654	-0.061605766
215	0x3da32034	0.07965127
216	0x3cf1d460	0.029520214
217	0xbddaabf6	-0.1067733
218	0x3d59cb78	0.05317256
219	0xbd5d7be0	-0.054073215
220	0xbd83f27e	-0.06442736
221	0x3db627ee	0.08894335
222	0x3d3f0174	0.046632245
223	0xbd2db944	-0.04241301
224	0x3dba13ea	0.090858296
225	0xbd6c5330	-0.05769652
226	0xbdd7bf0c	-0.10534486
227	0xbd887080	-0.06662083
228	0x3dae0c16	0.08498399
229	0xbba3c300	-0.004997611
230	0xbdef8c96	-0.116967365
231	0xbd94a20e	-0.07257472
232	0xbdcac55e	-0.09900926
233	0xbd8d05ee	-0.068858966
234	0x3da5317e	0.080660805
235	0x3ddfb9a0	0.10924077
236	0x3ac52e00	0.0015043616
237	0xbd546f88	-0.051864177
238	0x3dae6010	0.08514416
239	0xbd5e4ab4	-0.05427046
240	0xbd70537c	-0.058673367
241	0xbc9c9d98	-0.019118115
242	0x3d6baa38	0.05753538
243	0xbd907c30	-0.07054937
244	0x3d9cd3de	0.07657598
245	0x3d780fa8	0.060561806
246	0xbd763190	-0.06010586
247	0xbd2e0150	-0.04248172
248	0xbd8c06f2	-0.06837262
249	0x3d341524	0.043965474
250	0xbdceb4f4	-0.10093108
251	0xbc6cf5d0	-0.014462903
252	0x3d29465c	0.041326866
253	0x3db575c2	0.08860351
254	0xbdb4aeb2	-0.08822383
255	0x3d8c5f84	0.06854156

value_net.0.attention.in_proj_bias f4 [288]
0	0x00000000	0.0
1	0x00000000	0.0
2	0x00000000	0.0
3	0x00000000	0.0
4	0x00000000	0.0
5	0x00000000	0.0
6	0x00000000	0.0
7	0x00000000	0.0
8	0x00000000	0.0
9	0x00000000	0.0
10	0x00000000	0.0
11	0x00000000	0.0
12	0x00000000	0.0
13	0x00000000	0.0
14	0x00000000	0.0
15	0x00000000	0.0
16	0x00000000	0.0
17	0x00000000	0.0
18	0x00000000	0.0
19	0x00000000	0.0
20	0x00000000	0.0
21	0x00000000	0.0
22	0x00000000	0.0
23	0x00000000	0.0
24	0x00000000	0.0
25	0x00000000	0.0
26	0x00000000	0.0
27	0x00000000	0.0
28	0x00000000	0.0
29	0x00000000	0.0
30	0x00000000	0.0
31	0x00000000	0.0
32	0x00000000	0.0
33	0x00000000	0.0
34	0x00000000	0.0
35	0x00000000	0.0
36	0x00000000	0.0
37	0x00000000	0.0
38	0x00000000	0.0
39	0x00000000	0.0
40	0x00000000	0.0
41	0x00000000	0.0
42	0x00000000	0.0
43	0x00000000	0.0
44	0x00000000	0.0
45	0x00000000	0.0
46	0x00000000	0.0
47	0x00000000	0.0
48	0x00000000	0.0
49	0x00000000	0.0
50	0x00000000	0.0
51	0x00000000	0.0
52	0x00000000	0.0
53	0x00000000	0.0
54	0x00000000	0.0
55	0x00000000	0.0
56	0x00000000	0.0
57	0x00000000	0.0
58	0x00000000	0.0
59	0x00000000	0.0
60	0x00000000	0.0
61	0x00000000	0.0
62	0x00000000	0.0
63	0x00000000	0.0
64	0x00000000	0.0
65	0x00000000	0.0
66	0x00000000	0.0
67	0x00000000	0.0
68	0x00000000	0.0
69	0x00000000	0.0
70	0x00000000	0.0
71	0x00000000	0.0
72	0x00000000	0.0
73	0x00000000	0.0
74	0x00000000	0.0
75	0x00000000	0.0
76	0x00000000	0.0
77	0x00000000	0.0
78	0x00000000	0.0
79	0x00000000	0.0
80	0x00000000	0.0
81	0x00000000	0.0
82	0x00000000	0.0
83	0x00000000	0.0
84	0x00000000	0.0
85	0x00000000	0.0
86	0x00000000	0.0
87	0x00000000	0.0
88	0x00000000	0.0
89	0x00000000	0.0
90	0x00000000	0.0
91	0x00000000	0.0
92	0x00000000	0.0
93	0x00000000	0.0
94	0x00000000	0.0
95	0x00000000	0.0
96	0x00000000	0.0
97	0x00000000	0.0
98	0x00000000	0.0
99	0x00000000	0.0
100	0x00000000	0.0
101	0x00000000	0.0
102	0x00000000	0.0
103	0x00000000	0.0
104	0x00000000	0.0
105	0x00000000	0.0
106	0x00000000	0.0
107	0x00000000	0.0
108	0x00000000	0.0
109	0x00000000	0.0
110	0x00000000	0.0
111	0x00000000	0.0
112	0x00000000	0.0
113	0x00000000	0.0
114	0x00000000	0.0
115	0x00000000	0.0
116	0x00000000	0.0
117	0x00000000	0.0
118	0x00000000	0.0
119	0x00000000	0.0
120	0x00000000	0.0
121	0x00000000	0.0
122	0x00000000	0.0
123	0x00000000	0.0
124	0x00000000	0.0
125	0x00000000	0.0
126	0x00000000	0.0
127	0x00000000	0.0
128	0x00000000	0.0
129	0x00000000	0.0
130	0x00000000	0.0
131	0x00000000	0.0
132	0x00000000	0.0
133	0x00000000	0.0
134	0x00000000	0.0
135	0x00000000	0.0
136	0x00000000	0.0
137	0x00000000	0.0
138	0x00000000	0.0
139	0x00000000	0.0
140	0x00000000	0.0
141	0x00000000	0.0
142	0x00000000	0.0
143	0x00000000	0.0
144	0x00000000	0.0
145	0x00000000	0.0
146	0x00000000	0.0
147	0x00000000	0.0
148	0x00000000	0.0
149	0x00000000	0.0
150	0x00000000	0.0
151	0x00000000	0.0
152	0x00000000	0.0
153	0x00000000	0.0
154	0x00000000	0.0
155	0x00000000	0.0
156	0x00000000	0.0
157	0x00000000	0.0
158	0x00000000	0.0
159	0x00000000	0.0
160	0x00000000	0.0
161	0x00000000	0.0
162	0x00000000	0.0
163	0x00000000	0.0
164	0x00000000	0.0
165	0x00000000	0.0
166	0x00000000	0.0
167	0x00000000	0.0
168	0x00000000	0.0
169	0x00000000	0.0
170	0x00000000	0.0
171	0x00000000	0.0
172	0x00000000	0.0
173	0x00000000	0.0
174	0x00000000	0.0
175	0x00000000	0.0
176	0x00000000	0.0
177	0x00000000	0.0
178	0x00000000	0.0
179	0x00000000	0.0
180	0x00000000	0.0
181	0x00000000	0.0
182	0x00000000	0.0
183	0x00000000	0.0
184	0x00000000	0.0
185	0x00000000	0.0
186	0x00000000	0.0
187	0x00000000	0.0
188	0x00000000	0.0
189	0x00000000	0.0
190	0x00000000	0.0
191	0x00000000	0.0
192	0xbc0bc9e3	-0.00853202
193	0xbc36ade0	-0.0111498535
194	0xbc039b9c	-0.008032706
195	0xbc92ce34	-0.017920591
196	0xbc26c6c1	-0.010179223
197	0xbbd421e3	-0.006473766
198	0xbc822c0e	-0.015890148
199	0xbc1054ba	-0.008809263
200	0x3b4ba1b1	0.0031071717
201	0xbc9cb05f	-0.019127069
202	0x3c9c6973	0.01909325
203	0xbbada910	-0.005299695
204	0xbc8fc081	-0.017547848
205	0x3a8e797f	0.0010869949
206	0x3cb89166	0.022530269
207	0xbc17358f	-0.009229078
208	0xbc9c5fba	-0.019088615
209	0x3bf3f764	0.0074452627
210	0x3b976586	0.004620257
211	0xbb59ad4f	-0.0033214872
212	0x3b781cae	0.0037858891
213	0x3bda5137	0.0066625136
214	0x3ae09aa2	0.0017135928
215	0xbaa1875f	-0.0012323669
216	0x3bde6daf	0.0067879776
217	0x3c2cef6a	0.010555128
218	0xbbffa63e	-0.0078018
219	0xbca2e43b	-0.01988422
220	0x3c89ccd2	0.016821299
221	0x3bd0276f	0.006352357
222	0x3c7f89d9	0.01559683
223	0xbc1a0190	-0.009399787
224	0x3b24d1ee	0.0025149542
225	0xbc9b0dfc	-0.018927567
226	0xbcc4fb61	-0.024045648
227	0xba94a15b	-0.0011339592
228	0x3c14bce1	0.009078235
229	0x3b001cf9	0.001954852
230	0x3b054ac1	0.0020338746
231	0x3ae2c0a9	0.0017299849
232	0xbb998b60	-0.0046858042
233	0x3b99044d	0.004669702
234	0x3c23f7d1	0.0100078145
235	0x3c23c54e	0.009995772
236	0xbc60aaca	-0.013712594
237	0x3b669c79	0.003518848
238	0x3b9ecc48	0.0048461296
239	0x3c38c6e4	0.011277888
240	0xbb564351	-0.0032693932
241	0xbc1b4b1b	-0.009478356
242	0xbc957cc7	-0.018247975
243	0x3b9c6853	0.0047731786
244	0x399b2685	0.00029592603
245	0x3c9aec02	0.018911365
246	0x3c6d4988	0.014482863
247	0x3cbd7893	0.023128783
248	0xbca6460f	-0.020297078
249	0x3cb8730e	0.0225158
250	0x3b995fe2	0.0046806196
251	0x3b9dd78f	0.0048169564
252	0x3cbbc7b2	0.02292237
253	0x3c120c0a	0.008914003
254	0x3b7fcffa	0.0039033876
255	0xbc2fd11f	-0.010731011

value_net.0.attention.out_proj.weight f4 [96, 96]
0	0xbd0883cc	-0.033328816
1	0xbe0881c0	-0.13330746
2	0x3d8c3d0f	0.068475835
3	0x3d0fbe25	0.035093445
4	0x3cd460f2	0.025925133
5	0xbd895cc6	-0.06707148
6	0x3c9522dc	0.018205099
7	0x3cfabc82	0.030607466
8	0x3b3b0fac	0.0028543277
9	0x3d7818ff	0.060570713
10	0x3c795277	0.015217415
11	0x3d61c5ae	0.055120163
12	0x3d4a16d1	0.049338166
13	0xbd9c6b81	-0.07637692
14	0x3b874ea8	0.0041292496
15	0x3d65a6a5	0.056067128
16	0xbbb47636	-0.005507256
17	0xbc8f7114	-0.017509975
18	0x3d9fd492	0.078042164
19	0x3cc9ad9d	0.024618918
20	0xbd165daa	-0.03671042
21	0x3d9a5b3a	0.07536931
22	0xbde389e8	-0.11110288
23	0x3d8baf97	0.068206005
24	0xbd85d64a	-0.06535013
25	0xbbe02cd0	-0.0068412796
26	0xbc8f4a66	-0.01749153
27	0xbdf6b083	-0.12045386
28	0x3d2dab29	0.04239956
29	0x3c9b81e4	0.018982835
30	0x3d544c48	0.05183056
31	0xbc928551	-0.017885836
32	0x3d92f6df	0.07175993
33	0x3cd46dd8	0.025931284
34	0xbdc55cbc	-0.09636828
35	0xbc76507a	-0.015033836
36	0xb869fe2f	-5.5788256e-05
37	0x3d1c9ccf	0.03823548
38	0xbd9a2ed4	-0.07528463
39	0xbd9ea888	-0.077469885
40	0xbd51d775	-0.051230866
41	0xbd20a6d2	-0.039221592
42	0xbd6f87ec	-0.058479235
43	0xbde542a0	-0.11194348
44	0xbd752d59	-0.0598577
45	0x3e25488b	0.16140954
46	0x3cd4ede2	0.025992338
47	0xbd15832e	-0.036502056
48	0xbcc34f09	-0.023841398
49	0x3d70a1a1	0.05874789
50	0x3d4af047	0.049545553
51	0x3c9616c9	0.018321412
52	0x3d481eef	0.048857626
53	0xbe0af396	-0.13569483
54	0xbc279c69	-0.010230162
55	0x3c46e3e8	0.012139298
56	0x3d8f9363	0.07010534
57	0x3b325703	0.0027212508
58	0xbd746a2f	-0.059671577
59	0xbd95e77d	-0.073195435
60	0x3dbce35b	0.09223052
61	0xbcb21ae5	-0.02174134
62	0xbd3a9060	-0.045547843
63	0x3d0c1337	0.034198012
64	0xbde048a9	-0.10951359
65	0x3d13f58b	0.03612284
66	0xbc96e126	-0.018417906
67	0xbd687fff	-0.05676269
68	0x3e096190	0.13416123
69	0x3d36b831	0.044609252
70	0xbd4ac685	-0.04950573
71	0xbd8155da	-0.06315203
72	0xbaa03cc1	-0.0012225137
73	0x3caca103	0.02107287
74	0x3d408ff8	0.0470123
75	0xba0b20c3	-0.0005307311
76	0xbd87ae64	-0.06625059
77	0xbc519641	-0.012792171
78	0xbc866feb	-0.016410789
79	0xbcdcf332	-0.026971433
80	0xbcb07647	-0.021540774
81	0x3b701385	0.0036632728
82	0xbdfe88e6	-0.12428455
83	0x3da008ea	0.078142
84	0xbb8d96a6	-0.004320937
85	0x3d198e3c	0.03748916
86	0x3ccaa76d	0.024738038
87	0x3d8b7510	0.06809437
88	0x3c49869e	0.012300162
89	0xbcf15448	-0.029459134
90	0xbd2d60ce	-0.04232865
91	0xbde84c59	-0.11342687
92	0xbc280915	-0.010256072
93	0xbd0151d5	-0.03157218
94	0x3d6413ee	0.05568307
95	0x3c10c5c1	0.008836211
96	0xbd9ed242	-0.07754947
97	0x3d34168f	0.043966826
98	0xbd3f48b6	-0.046700202
99	0xbd3e00d0	-0.046387494
100	0xbd8be0bc	-0.06829974
101	0xbc736300	-0.014855146
102	0xbdd500e3	-0.1040056
103	0x3cdfbe15	0.027312318
104	0x3b957d85	0.0045620822
105	0xbd525b1e	-0.051356427
106	0x3dade27b	0.08490463
107	0xbb844bac	-0.004037341
108	0xbcbb2f97	-0.022849841
109	0xbd6bfb03	-0.05761243
110	0x3d3ba446	0.04581096
111	0xbdd3db35	-0.10344545
112	0x3d946533	0.07245865
113	0xbb3c7e2a	-0.0028761723
114	0x3d2e6cfc	0.042584404
115	0x3d649dde	0.055814616
116	0x3bb18e80	0.0054185987
117	0x3cf51241	0.02991593
118	0xbd15ba6e	-0.036554746
119	0xbceb8e3d	-0.028754348
120	0xbd45d2fe	-0.04829692
121	0xbd743b78	-0.059627026
122	0x3dc74594	0.09730068
123	0xbdac8acf	-0.08424913
124	0xbd98b1f3	-0.07455816
125	0xbd0c6431	-0.034275237
126	0xb95ad14a	-0.00020868066
127	0x3db4434f	0.088019006
128	0x3c23cadb	0.009997095
129	0xbbb14461	-0.0054097627
130	0x3d3717b0	0.044700325
131	0xbdba0bc4	-0.09084275
132	0x3cfa5bba	0.030561317
133	0x3cd6c5ce	0.026217368
134	0x3d3faaac	0.046793625
135	0x3d82f033	0.063934706
136	0x3d5d4966	0.054025076
137	0x3c7e620b	0.015526305
138	0xbd61a660	-0.05509031
139	0xbc8f87f3	-0.01752088
140	0x3dbb4a59	0.0914504
141	0xbd36f2ca	-0.044665135
142	0xbd29a82f	-0.041420158
143	0xbcae94a1	-0.021311106
144	0x3d4f62af	0.05063122
145	0xbcae75e6	-0.021296453
146	0x3d7407db	0.059577804
147	0xbd94bddf	-0.072627775
148	0xbced22fa	-0.028947342
149	0x3d028ebb	0.0318744
150	0x3c2bae09	0.010478505
151	0xbcb352a1	-0.021889986
152	0xbda01bd1	-0.078178056
153	0x3cf456e7	0.029826595
154	0xbd81d751	-0.063398965
155	0x3dac0aee	0.08400522
156	0x3d418af4	0.047251657
157	0xbd61a7fe	-0.05509185
158	0xbdc7267f	-0.097241394
159	0x3d7860b4	0.0606391
160	0x3d8c2de8	0.068446934
161	0x3d888917	0.06666773
162	0xbdb660b0	-0.089051604
163	0x3d93de5d	0.07220147
164	0x3d6b4c8f	0.05744606
165	0xbdcd525d	-0.10025475
166	0xbcfd95cc	-0.030955218
167	0xbc068432	-0.008210229
168	0x3d827501	0.06369973
169	0x3d53061d	0.051519502
170	0x3d913ab5	0.070912756
171	0xbd8ff58c	-0.07029256
172	0x3dee0dc2	0.11623718
173	0x3c2e1954	0.010626156
174	0x3df5bd34	0.11998978
175	0x3d5a3335	0.05327149
176	0x3d2e8661	0.042608622
177	0x3d0607b5	0.032722194
178	0x3d7ddf63	0.061980616
179	0x3d914c64	0.070946485
180	0x3ba2d8e1	0.0049697016
181	0x3cea1200	0.028573036
182	0xbc1b4757	-0.009477458
183	0x3e0c6158	0.13709009
184	0xbd71865a	-0.05896602
185	0x3d2ffa4b	0.042963307
186	0x3d9b8d78	0.075953424
187	0xbd34ec25	-0.044170517
188	0xbd725089	-0.059158836
189	0x3cc34091	0.023834499
190	0x3d48ffd8	0.049072117
191	0xbd6de75a	-0.058081962
192	0x3d3c3c40	0.045955896
193	0xbd92c378	-0.07166189
194	0x3cf38a2d	0.029728973
195	0x3db27420	0.08713555
196	0xbcb665e2	-0.022265378
197	0x3d8f6add	0.070028044
198	0x3d33c83a	0.043892123
199	0xbd19bbdf	-0.037532683
200	0xbbf20f1c	-0.007387055
201	0xbd7774ef	-0.06041425
202	0xbdbac8a2	-0.09120299
203	0x3cda3721	0.026637616
204	0x3d800f2d	0.062528946
205	0x3cc63751	0.024196299
206	0xbbe8e512	-0.0071073854
207	0xbb7b1e76	-0.0038317717
208	0x3d62991b	0.055321794
209	0x3b5d431c	0.0033761924
210	0x3cdd78a3	0.027035063
211	0x3d956d9d	0.07296298
212	0x3c80141b	0.015634587
213	0xbd55d5f5	-0.052206
214	0x3cef3cf8	0.029203877
215	0x3d960ef7	0.07327073
216	0xbd1d6de5	-0.03843488
217	0x3c4e75ec	0.012601357
218	0x3da1a4ec	0.078927845
219	0x3c661bca	0.014044711
220	0xbde4dc0b	-0.11174782
221	0x3ae5d6e8	0.001753536
222	0x3da1921a	0.07889195
223	0xbd825382	-0.06363584
224	0xbcc5f66c	-0.024165355
225	0x3d7292b7	0.05922195
226	0xbe00f1a6	-0.12592182
227	0x3d6a98b5	0.05727454
228	0xbd5d49f4	-0.054025605
229	0xbcf218a5	-0.029552767
230	0xbd75778f	-0.059928473
231	0xbd574221	-0.0525533
232	0x3d463f30	0.048400104
233	0x3d446754	0.047950104
234	0xbc0c0f1f	-0.008548527
235	0xbd765f0c	-0.060149238
236	0x3d9a4c6f	0.0753411
237	0x3da18ac3	0.07887795
238	0xbdac06b7	-0.08399718
239	0xbc9c4153	-0.019074118
240	0x3cb38cba	0.02191769
241	0xbd38e371	-0.04513878
242	0x3d6f4e97	0.05842456
243	0x3d2d3bca	0.042293347
244	0x3d93237e	0.07184504
245	0xbd170955	-0.036874134
246	0xbd247fef	-0.04016107
247	0x3da0dda7	0.07854777
248	0x3dd12394	0.10211864
249	0x3cd569d9	0.026051449
250	0xbd897bc0	-0.067130566
251	0xbd6e4f50	-0.058181107
252	0xbc4599dc	-0.012060609
253	0x3c9fdee0	0.019515455
254	0x3bf65f0e	0.0075186556
255	0x3cbcc34d	0.023042345

value_net.0.attention.out_proj.bias f4 [96]
0	0x3b95895c	0.0045634937
1	0x3c1f08a7	0.009706653
2	0xbddd826e	-0.10815893
3	0x3c008807	0.007844931
4	0x3d90979e	0.07060169
5	0x3c6ed5b0	0.014577314
6	0x3cab9de2	0.020949308
7	0xbc9027f7	-0.017597182
8	0x3c9b21d7	0.018937035
9	0xbb9bf4a7	-0.0047593894
10	0xbcdd58b2	-0.027019832
11	0xbbe8e384	-0.0071072
12	0x3ca1ceea	0.019751985
13	0x3c61fe8b	0.013793598
14	0x3c1a603c	0.009422358
15	0x3caf45af	0.021395532
16	0xbd9dd25a	-0.07706137
17	0xbcaf4594	-0.021395482
18	0xbbee5ec8	-0.0072744824
19	0x3d9b5006	0.07583623
20	0x3c19f643	0.009397092
21	0xbc6ecc7f	-0.014575123
22	0xbd1a9e10	-0.037748396
23	0xbaf7f3d9	-0.0018917277
24	0xbd05bfa0	-0.03265345
25	0x3ccdb0c4	0.025108702
26	0x3c8d7ec2	0.017272357
27	0x3c510fff	0.012760161
28	0xbca00b02	-0.019536499
29	0x3c94da26	0.018170428
30	0x3c835a71	0.016034337
31	0x3da67e75	0.081295885
32	0x3cb4486a	0.022007186
33	0x3aa30093	0.0012436084
34	0xbc9455eb	-0.018107375
35	0xbd110c69	-0.035412226
36	0xbce433e2	-0.02785677
37	0x3d1b0a6f	0.037851747
38	0x3bcf69a7	0.0063297334
39	0xbcf11bf6	-0.029432278
40	0x3ce88668	0.028384402
41	0xbc835700	-0.016032696
42	0xbd5ba48b	-0.053623717
43	0xbd38ae0f	-0.04508787
44	0xbb9bd039	-0.0047550467
45	0xbdc184b0	-0.09449136
46	0xbbc2ade0	-0.0059411377
47	0x3ca1a7af	0.019733278
48	0xbca72eb7	-0.020408018
49	0xbdd5e693	-0.10444369
50	0xbad57c3c	-0.0016287635
51	0xbd5e47e3	-0.054267775
52	0x3c553d55	0.013015111
53	0x3b9555b0	0.004557334
54	0xbc366075	-0.011131396
55	0x3d389280	0.04506159
56	0xba38688c	-0.00070346217
57	0xbcfee6da	-0.031115938
58	0xbc7e86e9	-0.015535095
59	0xbb277b6c	-0.0025555743
60	0x3cbaf02a	0.022819597
61	0xbc67451d	-0.014115599
62	0xbcbb32c1	-0.02285135
63	0x3cc0475e	0.02347153
64	0xbcaf8e90	-0.021430284
65	0xbcf5e7bb	-0.030017724
66	0x3d34728d	0.044054557
67	0xbc29d550	-0.010365799
68	0x3b69f170	0.0035696886
69	0x3bda38aa	0.006659587
70	0xbb01b14d	-0.0019789517
71	0xbd72190d	-0.05910592
72	0x3ca3c074	0.01998923
73	0x3c52bfd2	0.012863116
74	0xbc57aa9a	-0.013163233
75	0x3c59845d	0.013276187
76	0x3c074e21	0.0082583735
77	0xba555fcf	-0.0008139582
78	0x3c70be43	0.014693799
79	0xbc8e42c8	-0.017365828
80	0x3d80e8b9	0.06294388
81	0x3bd78643	0.0065772845
82	0x3c9074f0	0.017633885
83	0xb984e26c	-0.000253457
84	0x3a28a7d0	0.00064336974
85	0x3bfe4280	0.0077593923
86	0xbd06def1	-0.032927457
87	0xbb9a3a5f	-0.0047066654
88	0x3be3bd99	0.006950092
89	0x3d041bd8	0.032253116
90	0x3d1d5192	0.03840787
91	0x3cb8009a	0.022461224
92	0xbcc3b041	-0.023887755
93	0xbc90156d	-0.017588342
94	0xbc3cd201	-0.011524678
95	0xbc8c4f8a	-0.01712777

value_net.1.weight f4 [64, 96]
0	0x3d21ff69	0.03955022
1	0x3d548fce	0.051894955
2	0x3c70c20a	0.0146947
3	0xbbf52edf	-0.007482394
4	0xbc58c764	-0.013231132
5	0x3d85a098	0.065247715
6	0xbb966d92	-0.0045906985
7	0x3c93e8f9	0.018055426
8	0xbd904e56	-0.070461914
9	0xbd6ea7b6	-0.05826541
10	0xba66568c	-0.00087867
11	0xbc2e5fb1	-0.010642932
12	0xbcef67de	-0.029224332
13	0xbd803c87	-0.06261545
14	0x3b6f9280	0.0036555827
15	0x3c368cec	0.011141997
16	0x3d31d244	0.043413416
17	0x3ce2cbd5	0.027685085
18	0x3bb62f98	0.005559873
19	0xbd8ec011	-0.069702275
20	0x3c892453	0.016740954
21	0x3dbb5b9e	0.09148334
22	0xbbe9aac0	-0.0071309507
23	0xbd93cc45	-0.07216696
24	0xbd481997	-0.04885253
25	0x3dc60345	0.09668592
26	0x3d497b1b	0.04918967
27	0xbd96dd67	-0.07366448
28	0x3dacbc09	0.08434302
29	0xbb7f1b42	-0.003892616
30	0x3d49a1c0	0.049226522
31	0x3ca1a93c	0.019734018
32	0x3ca485dc	0.02008336
33	0x3cd22d2d	0.025656307
34	0x3d0d69b7	0.034524646
35	0xbda76ef7	-0.08175462
36	0x3d970055	0.0737311
37	0x3d8fd8e3	0.0702379
38	0x3c2fa3da	0.010720218
39	0xbd2bbc43	-0.041927587
40	0xbd3d4650	-0.046209633
41	0x3d82fdfb	0.06396099
42	0x3d068d22	0.03284944
43	0xbd4577ba	-0.048209883
44	0x3d098096	0.033569895
45	0x3d385743	0.045005094
46	0xbd4a78bf	-0.04943156
47	0x3d55d8e8	0.05220881
48	0xbdc84864	-0.097794324
49	0x3dd0f6d8	0.10203332
50	0x3d6e7c64	0.058224097
51	0x3dbd58de	0.09245466
52	0x3d486d39	0.048932288
53	0x3d21b927	0.039483216
54	0xbd381b3c	-0.044947848
55	0x3c5b7a8e	0.0133959185
56	0x3d65d5fc	0.056112275
57	0xbda2000a	-0.07910164
58	0x3c7c5e0c	0.015403282
59	0xbd8318f3	-0.06401243
60	0x3d983bd6	0.07433288
61	0x3ce599fa	0.028027523
62	0x3c684eba	0.014178926
63	0x3abc8e44	0.001438566
64	0x3da36792	0.07978739
65	0xbcfe0a07	-0.03101064
66	0x3d0c0e86	0.034193538
67	0x3de6526f	0.11246192
68	0x3cdd95fd	0.027049059
69	0x3d15bd3c	0.03655742
70	0x3c7ae4cc	0.0153133385
71	0x3d850a47	0.06496101
72	0xbc6f8084	-0.014618043
73	0x3da0b202	0.07846452
74	0xbd17d968	-0.03707257
75	0xbdecf619	-0.11570377
76	0xbd0a7eed	-0.033812452
77	0x3dc26eda	0.094937995
78	0xbda8915d	-0.08230851
79	0x3ce3d3ca	0.02781095
80	0x3d7b30b3	0.06132574
81	0x3d34eaaf	0.044169124
82	0xbd8c3ce7	-0.06847554
83	0x3d623391	0.05522496
84	0xbd5ddfc7	-0.05416849
85	0x3d92b6a7	0.071637444
86	0xbd2e3a56	-0.042536102
87	0x3b367e30	0.002784621
88	0x3d944a08	0.07240683
89	0xbdb1a3b1	-0.086738
90	0x3d4585d3	0.048223328
91	0xbc413a3e	-0.011793671
92	0xbbd06ccb	-0.0063606254
93	0x3d3c6c26	0.046001576
94	0x3bdabc2e	0.006675265
95	0xbd2b5f1f	-0.04183876
96	0xbca845ff	-0.02054119
97	0xbbbe3c56	-0.0058055324
98	0xbe055963	-0.1302238
99	0x3c08f0c9	0.008358189
100	0xbde5d94c	-0.11223087
101	0xbc9e025b	-0.019288233
102	0x3d8240cd	0.06360016
103	0x3c752516	0.014962455
104	0xbd2f9fe1	-0.04287708
105	0xbd6c4eba	-0.057692267
106	0xbd91f7a8	-0.07127315
107	0xbd913dcb	-0.07091864
108	0xbd8de9c6	-0.06929354
109	0x3d179923	0.037011277
110	0x3d6b9450	0.05751449
111	0xbc7d0402	-0.01544285
112	0x3d517836	0.051140033
113	0x3cf475e5	0.029841373
114	0x3d32f628	0.043691784
115	0x3db22f0e	0.08700381
116	0xbc1892b6	-0.009312322
117	0xbd5c0146	-0.053712152
118	0xbd37b631	-0.044851486
119	0xbc2b266b	-0.010446171
120	0xbdd4a061	-0.10382152
121	0x3dbb6965	0.09150962
122	0x3dc03174	0.093844324
123	0x3d6f4643	0.058416616
124	0x3d564bd7	0.05231842
125	0xbdeb3efd	-0.114866234
126	0xbdc618e6	-0.09672718
127	0x3cefcb81	0.029271843
128	0xbdafdf04	-0.08587459
129	0x3d0fbe8f	0.03509384
130	0xbd2b067f	-0.041754242
131	0x3d0d3387	0.03447297
132	0xbce3e623	-0.027819699
133	0xbdd27cca	-0.10277708
134	0x3cd90578	0.026491866
135	0x3cbf39df	0.023343025
136	0xbda1a140	-0.07892084
137	0x3c0dc456	0.008652767
138	0x3d8448c8	0.064591944
139	0x3d3c2427	0.045932915
140	0xbd929355	-0.071570076
141	0xbe18ee08	-0.14934552
142	0xbd8f0071	-0.06982506
143	0x3dbfe4fc	0.09369847
144	0xbd318fbe	-0.043349974
145	0x3cee5a1f	0.029095707
146	0xba8b8420	-0.0010644235
147	0xbcf9615a	-0.030441929
148	0x3d22567c	0.03963326
149	0x3d464ba2	0.048411973
150	0xbda1d5bb	-0.07902094
151	0xbdb4d28f	-0.08829223
152	0x3dba092a	0.09083779
153	0xbde79ec9	-0.11309583
154	0xbd9c7f97	-0.07641523
155	0xbda0fa28	-0.078602135
156	0xbdf6c2b2	-0.12048854
157	0x3bd346b9	0.00644764
158	0x3d9c8213	0.07641997
159	0x3d934b05	0.07192043
160	0x3ad715f4	0.0016409741
161	0xbc993a94	-0.01870469
162	0x3d8dbfdd	0.06921361
163	0xbd0318c4	-0.03200604
164	0xbcc1448a	-0.023592252
165	0xbc03cf05	-0.008044963
166	0xbd9268da	-0.07148905
167	0xbda95fee	-0.0827025
168	0xbc529189	-0.012852081
169	0xbd2a62b0	-0.041598022
170	0x3dd6a08a	0.10479839
171	0x3c37eb6f	0.011225565
172	0xbd788bfa	-0.060680367
173	0xbd1386e5	-0.036017317
174	0xbd8f27d3	-0.06990018
175	0xbb4ee7f8	-0.003157137
176	0x3d985ce1	0.0743959
177	0x3d09a184	0.0336013
178	0xbdf156df	-0.117841475
179	0x3c59376a	0.013257841
180	0xbda62b6d	-0.081137516
181	0xbe35d27c	-0.17756075
182	0xbd9a79ad	-0.07542739
183	0x3c44ee6c	0.012019735
184	0xbc79df95	-0.01525106
185	0xbc73ab4d	-0.014872384
186	0xbd418d2e	-0.04725378
187	0xbdef7d67	-0.116938405
188	0xbdaa6d81	-0.083216675
189	0xbd450681	-0.048101906
190	0xbc88efda	-0.016715933
191	0x3ced031f	0.028932152
192	0xbda5527a	-0.08072372
193	0x3d11aeb5	0.035567004
194	0x3d26d9cc	0.04073505
195	0x3d0fa678	0.035070866
196	0xbc9e35b2	-0.019312713
197	0xbd401962	-0.046899207
198	0x3d2bda2d	0.041956116
199	0xbd10f034	-0.035385326
200	0x3c4fdac9	0.01268644
201	0xbd2c6222	-0.042085774
202	0x3d6b607e	0.05746507
203	0x3cbe5d80	0.023237944
204	0x3c535eb4	0.012900997
205	0xbc3ca06e	-0.011512859
206	0x3d8a28d8	0.067460716
207	0x3d9165ad	0.07099471
208	0x3d859e4b	0.065243326
209	0x3d0e622f	0.034761604
210	0xbd58ac11	-0.05289847
211	0x3cca0207	0.02465917
212	0xbd9caeba	-0.07650514
213	0xbd8774d3	-0.06614079
214	0xbd4c7322	-0.049914487
215	0xbd8b3b0c	-0.06798372
216	0x3d98030b	0.074224554
217	0xbd3a43da	-0.045474865
218	0x3de749a5	0.112933435
219	0x3db62bdb	0.088950835
220	0x3d88a292	0.06671633
221	0x3d533ff4	0.051574662
222	0x3c115160	0.008869499
223	0x3aee2b75	0.001817091
224	0xbdd473fc	-0.10373685
225	0x3d17868d	0.036993552
226	0xbd340512	-0.043950148
227	0xbd4a4f74	-0.04939218
228	0x3cb37cd9	0.021910118
229	0x3d1a22b1	0.03763074
230	0x3db586a3	0.088635705
231	0x3d258e4e	0.040418915
232	0xbd7f91d4	-0.062394932
233	0x3cbf1430	0.023325056
234	0x3c06faf1	0.00823854
235	0x3d8e70eb	0.06955131
236	0x3d9ff31a	0.0781004
237	0x3d88238b	0.06647404
238	0xbd719bf7	-0.05898663
239	0xbd9acac0	-0.07558203
240	0xbd841d56	-0.06450908
241	0x3c7e871a	0.01553514
242	0xbd474175	-0.04864641
243	0x3ce046bf	0.027377484
244	0xbd452e36	-0.048139773
245	0xbca302e6	-0.019898843
246	0xbc30ddc0	-0.010795057
247	0x3d980ee8	0.07424718
248	0x3c73413d	0.014847097
249	0x3c1ea59e	0.009683041
250	0x3bdeac26	0.006795424
251	0xbc7f2eaf	-0.015575095
252	0x3d663f1b	0.056212526
253	0x3c455f85	0.012046699
254	0x3c2398d7	0.00998517
255	0xbd68b755	-0.056815464

value_net.1.bias f4 [64]
0	0xbcba1aa9	-0.02271779
1	0x3c898476	0.016786795
2	0x3c0dd264	0.008656118
3	0x3e015100	0.12628555
4	0xbbffacf2	-0.007802599
5	0xbbf6663c	-0.0075195115
6	0xbbecc3a5	-0.007225471
7	0xb93d9e86	-0.00018083499
8	0x3dc9e26d	0.098576404
9	0x3bfcab3c	0.0077108424
10	0xba859c6e	-0.0010193714
11	0x3c47913c	0.012180623
12	0xbceee958	-0.029164001
13	0xbc24e030	-0.010063216
14	0xbd4addd5	-0.04952796
15	0x3c4e1874	0.012579072
16	0x3989af69	0.00026261367
17	0xbc593ca3	-0.013259086
18	0x3c3e3a2e	0.011610551
19	0xbb8299fa	-0.0039856406
20	0xbc3eeeb8	-0.011653595
21	0xbb4d5000	-0.0031328201
22	0xbcda2818	-0.026630446
23	0xbc8533ea	-0.016260106
24	0xbbbc054a	-0.005737935
25	0x3b12469a	0.0022319914
26	0xbd85f143	-0.06540158
27	0xbc8f39ad	-0.017483557
28	0xbd77fb7b	-0.060542565
29	0x3c30a993	0.010782617
30	0x3c5d7190	0.013515845
31	0xbc908858	-0.017643139
32	0x3a7fc3f9	0.000975668
33	0xbcbde622	-0.023181025
34	0x3c1873e9	0.009304979
35	0xbc9231f9	-0.017846094
36	0x3a874000	0.0010318756
37	0x3c0e725f	0.00869426
38	0xbbba3b53	-0.0056833415
39	0x3bdfb1bd	0.006826608
40	0xbca060d5	-0.019577423
41	0x3c60d420	0.01372245
42	0xbc3ad3bd	-0.011403021
43	0xbcbf078d	-0.02331903
44	0x3b9faaaa	0.0048726397
45	0xbcb8e1ab	-0.022568544
46	0xbcac0292	-0.02099732
47	0x3b4a41e4	0.0030862028
48	0x3ba6573c	0.005076317
49	0xbd7c154f	-0.06154376
50	0x3ade8270	0.0016976129
51	0x3bd24594	0.0064169858
52	0x3c18854a	0.009309122
53	0x3bc8e211	0.006130465
54	0x3ba5aee1	0.0050562476
55	0xbb074c97	-0.0020645016
56	0xbdd45087	-0.10366922
57	0xbd43f28d	-0.047838736
58	0xbb527b89	-0.003211709
59	0xbb241ada	-0.002504042
60	0xbc24cf96	-0.010059258
61	0xbbd3249c	-0.006443573
62	0x3ab5a760	0.0013859086
63	0xbc682eb1	-0.014171288
