scripts/models/602/34/2/vModel.pth (torch, 264307 bytes, 11 tensors)

value_net.0.input_layer.weight f4 [96, 128]
000000 02 f5 9e 3d a3 29 63 3d 50 09 91 3d 7b 0b a8 bd
       0.07761575 0.05545963 0.07081854 -0.08205315
000010 8d fa 96 3d 6a a7 5d bd a6 e5 b5 bc 66 81 cb 3b
       0.073720075 -0.054114737 -0.022204231 0.006210494
000020 26 2b cd bc c8 36 b4 3c 02 0b d5 bc 53 31 2f bc
       -0.025044989 0.021998778 -0.026006225 -0.010692912
000030 22 a7 a8 bd ea 37 9a 3c 94 00 9e bd 40 9f 37 bd
       -0.08235003 0.01882549 -0.07714954 -0.044829607
000040 6a 34 8e 3d fa 34 04 3c 69 38 7e 3d ab 7e 0c 3d
       0.06943591 0.008069271 0.062065516 0.034300487
000050 b0 b8 e2 3c eb 15 b4 bd ba 5f b3 3b 50 ce 80 bd
       0.027675956 -0.08793243 0.005474058 -0.06289351
000060 1d 26 ff 3c 2d 5b 04 3d 9e 15 2a bd a6 95 8f 3d
       0.031146104 0.032313515 -0.041524522 0.07010965
000070 d6 4b 8c bd be 44 85 3c 19 25 2d 3d 85 2f 57 3d
       -0.06850402 0.01626813 0.042271707 0.052535553
000080 6e 60 29 3d 7f 86 ab bc 96 48 8c bd a8 7e c1 bc
       0.04135173 -0.020938156 -0.06849782 -0.023619965
000090 16 30 d6 3b 34 99 41 bc 2d da a2 bd 67 8e 4f 3d
       0.006536494 -0.011816312 -0.0795177 0.050672915
0000a0 e2 3c 74 bc d2 ca 7d bd a4 e6 7f 3d 01 e4 5e bc
       -0.014907094 -0.061961003 0.062475815 -0.013604165
0000b0 67 49 02 3d 9a 28 ab bd ba 40 5e 3d 2a 83 84 bc
       0.031808283 -0.083573535 0.054260947 -0.016175825
0000c0 27 3f 03 bd 49 85 b5 3d 37 04 6e 3d 43 05 18 3d
       -0.03204265 0.08863313 0.05810949 0.037114393
0000d0 e9 4b 12 3d cb f8 8c 3d 90 52 95 bd 7f ec 81 bd
       0.035716925 0.06883391 -0.07291138 -0.06343936
0000e0 4b d4 90 3d 5e 02 a2 3d ca 66 7b 3a 9b bd 2f 3d
       0.07071742 0.07910608 0.0009590207 0.04290543
0000f0 2a e4 b3 bd 4d 90 81 3c d4 dd ac bb 48 7c cc bb
       -0.08783753 0.015815878 -0.0052754674 -0.0062404014
000100 b4 e9 b7 3d 84 fb 53 3d b1 d5 48 bd 9a 9c a6 bd
       0.08980122 0.051753536 -0.049031917 -0.08135338
000110 10 b7 4f bb cd 11 f3 3c ee 2e aa bd bb c6 2d 3d
       -0.0031694807 0.029671574 -0.083097324 0.042425852
000120 3a 7e 7e bc 0e b9 62 bc a4 bd bd bd 28 cd 5b 3c
       -0.015533024 -0.013838066 -0.09264687 0.013415612
000130 77 7f ae 3b 25 88 60 bd 57 e9 9d 3c 3f 01 9e bd
       0.0053252536 -0.054817338 0.019276304 -0.077150814
000140 a5 fd bb bd a6 95 e8 bc 82 c4 2c 3d d1 19 5c 3c
       -0.09179238 -0.02839167 0.042179592 0.0134338895
000150 0b 7a 41 3d 7e 65 e8 3c c1 f2 fa bc eb e0 bf bd
       0.04723553 0.028368708 -0.030633332 -0.093690716
000160 6a a4 3b 3d 9b 10 60 3d 72 4d 86 3d f6 d2 b1 3d
       0.045811094 0.054703336 0.0655774 0.08682816
000170 c2 33 5b 3d 00 3d bb bc d2 2a 43 3c 6f cc 87 bd
       0.053516157 -0.022856236 0.011912065 -0.066307895
000180 90 83 b0 bd f6 63 81 bd 53 43 8f 3d f4 a5 ee bc
       -0.086188436 -0.06317894 0.06995263 -0.029131867
000190 64 ee 95 3d 1f bd 8a 3b b4 f0 9e 3d b1 54 81 3c
       0.0732086 0.004233971 0.07760754 0.015787454
0001a0 f2 76 86 bd 7c 86 6a 3d e8 7b 29 3d cb d1 48 bd
       -0.06565656 0.05725716 0.04137793 -0.0490282
0001b0 a8 86 76 bd 68 fa 3d bc 2c 32 2c 3d a9 76 81 3d
       -0.060187012 -0.011595346 0.042040035 0.06321461
0001c0 cc 4c 2b bd 40 65 90 bc 2d 0f ba bd b5 dd 6a bc
       -0.041821286 -0.017626405 -0.09084926 -0.014335086
0001d0 77 65 91 3c b0 22 0d bc 39 c9 fb 3c 75 7d c8 bc
       0.017748578 -0.008614227 0.030735599 -0.024473885
0001e0 19 50 89 3d 6c 5f 39 bd 7a d2 18 3d 89 64 33 3d
       0.067047305 -0.045257017 0.0373101 0.04379705
0001f0 08 a3 42 bd 54 a1 03 3d f1 e1 e4 3c cf 50 66 bc
       -0.04751876 0.032136276 0.027939769 -0.014057352
000200 c2 e0 b7 bc 94 0d 3f bd 60 eb 57 3d 02 79 89 bd
       -0.02244604 -0.04664381 0.052714705 -0.067125335
000210 99 5c d6 bc 97 97 6c 3d 55 c9 35 3d 9e f4 a2 bd
       -0.0261672 0.057761755 0.04438146 -0.07956813
000220 fa 55 31 bd 75 61 41 bd 1d c5 54 3c b7 32 0b bd
       -0.043294884 -0.047212083 0.012986449 -0.033983912
000230 b3 0e 66 3d 94 89 a5 bd 70 3a b5 3c d7 ac 41 3d
       0.056166362 -0.080828816 0.022122592 0.047283974
000240 50 d1 8d bd 79 b0 13 3d da 89 2f 3d aa a0 0f 3d
       -0.06924689 0.03605697 0.042856075 0.03506533
000250 29 1c ac bd 56 11 d5 bc f7 93 5e 3d 0f ab 51 bd
       -0.084038086 -0.026009243 0.05434033 -0.051188525
000260 7c 8a d0 3b 91 04 76 bd de 17 83 bc b6 7b 95 bc
       0.006364165 -0.06006295 -0.016002592 -0.018247467
000270 60 17 4d 3d 75 82 67 3d c5 f1 a9 bd d4 e4 62 3c
       0.05007112 0.056520898 -0.08298067 0.013848502
000280 c8 83 6c 3d 5f 4f 3f 3d 36 99 d4 3c 40 38 69 3d
       0.057742864 0.046706554 0.025951963 0.05693841
000290 8c 78 63 3d 31 a8 02 3c 3f de 89 bc 90 40 22 bd
       0.055534884 0.00797467 -0.016829608 -0.039612353
0002a0 f1 20 c7 bd 1a d8 6c bd ec af 5f 3d ed c4 ca bd
       -0.0972308 -0.057823278 0.05461113 -0.09900842
0002b0 a7 e2 0d 3d 7e fe 08 bc ce db 09 bd 01 d6 5f bd
       0.03463998 -0.008361457 -0.033656888 -0.05464745
0002c0 75 ca 1d 3d f2 08 5c 3d 64 8a 44 bd 88 e4 bb bc
       0.038523156 0.05371947 -0.047983542 -0.02293612
0002d0 2d a1 c0 bc bf bc 76 bd ad 1c 99 bb 71 80 bf bd
       -0.023514355 -0.060238596 -0.004672608 -0.0935067
0002e0 94 b3 04 3d 8d bb 5c 3c 83 15 6e 3d 3f 24 a0 3d
       0.03239782 0.01347245 0.058125984 0.078194134
0002f0 1a 09 3c 3d bd 0d 57 bc 85 6d 14 3d 95 37 47 bc
       0.045907117 -0.013125834 0.03623726 -0.012159248
000300 43 fa 66 3d 74 79 97 bd d3 c0 67 3c 59 b6 78 bc
       0.056391012 -0.07396212 0.014145094 -0.015180194
000310 25 6b 99 bd 6e f8 23 bd 43 34 03 3d 8a 50 63 bd
       -0.07491139 -0.040031843 0.032032263 -0.05549673
000320 4f 93 a9 bc 13 d3 a8 bd 3b 99 47 bd 2b 19 c3 3c
       -0.020700125 -0.08243384 -0.048730116 0.023815712
000330 33 a2 64 3d e7 9f 6e bd 2b 5d 5e 3d 66 eb 98 bc
       0.055818748 -0.058257964 0.05428807 -0.018666934
000340 44 c2 b8 3c e2 6e fc 3c 67 ff 96 bd 3a c4 89 bd
       0.02255357 0.030814592 -0.07372933 -0.0672688
000350 18 04 1d bd 0e 61 53 bd 97 92 b8 bc 40 a4 fa 3c
       -0.038333982 -0.05160623 -0.022530837 0.030595899
000360 9a c1 c5 bd 9f f4 6d 3d 33 4c de bc 36 c5 73 3d
       -0.09656067 0.058094617 -0.027135944 0.059514247
000370 8a ae 1a 3d 9b 89 8a bc ea c5 15 3a ef 72 3e 3d
       0.03776411 -0.016911319 0.00057133904 0.046496328
000380 ef 45 36 bc be 71 8c 3c f9 db 87 bc 2f 7b 60 3d
       -0.011125072 0.01714408 -0.016584383 0.054804977
000390 34 e4 42 3d bb eb 20 bd 9c 51 8c 3c b2 6a d9 3c
       0.047580913 -0.03928731 0.017128758 0.026540134
0003a0 e2 46 ad bd 51 ca 8d bd d7 5a 58 3d c8 d4 8a bd
       -0.084607854 -0.069233544 0.052821007 -0.06778866
0003b0 3c c0 8c bb 58 a7 a7 bd 94 fc 37 3d b8 94 5c bd
       -0.004295377 -0.08186215 0.04491861 -0.053852767
0003c0 71 f3 79 3d bd 29 1f 3c 46 35 81 bd 18 6a 82 bd
       0.06102318 0.009714541 -0.06308989 -0.06367892
0003d0 80 df e3 bb 3a 6e ca bb 53 56 a6 3c 33 78 1c 3c
       -0.0069541335 -0.006177691 0.020304834 0.009550142
0003e0 01 0c 92 bd 2b 61 37 3d 13 75 ae 3a 1e 0b 7f 3d
       -0.07131196 0.0447704 0.0013310037 0.06226646
0003f0 b6 bc 37 3d 2e e9 6c 3c 0b 11 7f 3d 96 b3 fc bc
       0.044857703 0.014459891 0.062272113 -0.030847352

value_net.0.input_layer.bias f4 [96]
000000 17 25 70 3d 5d 24 5e bd 50 3f d6 ba 21 65 a6 bc
       0.05862912 -0.054233897 -0.0016345773 -0.020311894
000010 f8 05 7a bc c7 ee db bb f7 d7 5c 3d d4 0b 7e bd
       -0.015260212 -0.006711814 0.053916898 -0.062023
000020 cf c0 a6 bb 8a 9b 90 3d 7b d8 84 bd 51 24 95 bd
       -0.0050889025 0.07060917 -0.06486603 -0.072823174
000030 2b b5 f7 bc 64 a5 22 3d bf da 7f bd 39 0f 45 bd
       -0.030237755 0.03970851 -0.062464472 -0.04811022
000040 2e fd 56 3d 63 dc 36 3d 5f 49 83 3d c7 af 33 bd
       0.052487545 0.04464377 0.06410479 -0.043868806
000050 1b 09 65 bb e7 c7 ae 3d 42 c6 94 bd d6 b8 a6 bd
       -0.0034948054 0.08534222 -0.07264377 -0.081407234
000060 49 cd 94 3d 6f 9f e6 3c f4 74 88 3d f7 a8 ae bd
       0.072657175 0.028152196 0.06662932 -0.08528321
000070 d3 7d 4a bd ea b7 03 3b 50 8b 24 bd 9f 93 8c bd
       -0.0494364 0.0020098635 -0.04017192 -0.06864094
000080 40 ca ba bd b3 6c 48 bd 1d 06 0d bd 96 ec 32 3d
       -0.091206074 -0.04893179 -0.03442966 0.043682657
000090 ab 4c e6 3b b7 b9 81 3d cf 6d 4b bc 72 51 9e bd
       0.0070281825 0.063342504 -0.012416317 -0.07730378
0000a0 d1 ee b8 3c 56 a6 92 3c 36 ab 97 bc a1 38 ab bd
       0.022574814 0.01790158 -0.018514257 -0.083604105
0000b0 23 b3 f3 3c 93 d2 17 3d 00 96 4e 3d 5a 94 b0 bd
       0.029748505 0.037066054 0.05043602 -0.08622046
0000c0 79 a2 99 bd 44 34 91 3d 00 c6 3d bc 3a 76 3c bd
       -0.07501692 0.07090047 -0.011582851 -0.046011187
0000d0 0e b6 a7 bc 34 b9 54 3d be 58 80 3b 41 b8 2f bd
       -0.020472553 0.051934436 0.003916829 -0.042900328
0000e0 aa 95 87 bd c9 13 f9 bc 57 04 ac bc 48 ce b5 bd
       -0.06620343 -0.030404942 -0.020998163 -0.08877236
0000f0 fc 70 6f 3c dc a5 5f 3c 37 2e a3 3d e0 7e 5e bd
       0.01461434 0.013650384 0.07967799 -0.054320216
000100 90 72 83 3d ef 23 02 bd 6a e6 9e 3d e5 76 b1 3c
       0.064183354 -0.03177255 0.07758792 0.021663139
000110 c5 62 53 3d 5a 5c be 3c a6 b7 1e 3c a9 f3 c6 3c
       0.051607866 0.023237396 0.00968734 0.024286108
000120 96 26 35 3d 98 f8 bf 3d 54 8f 94 bc 9d 4b 78 bc
       0.04422625 0.09373587 -0.01813475 -0.015154746
000130 14 af 2e 3c 66 15 2d bd c8 51 0a bc e9 5f ad 3c
       0.010661859 -0.042256735 -0.00844235 0.021163898
000140 29 44 b6 bd 47 65 70 3d 6e 18 9d bd 62 11 d0 ba
       -0.08899719 0.058690336 -0.07670675 -0.0015874321
000150 30 de 94 bd 98 e3 54 bd 49 78 36 bd 64 10 74 bd
       -0.072689414 -0.051974863 -0.044548307 -0.059585944
000160 2a ca 73 3d 6c e9 80 3d a2 bd 89 bd 84 4a 94 bd
       0.05951897 0.06294522 -0.06725623 -0.07240775
000170 3b 12 9d bd 4b ac 22 3d 78 c1 8d bd 37 ec 1d bd
       -0.07669493 0.039715093 -0.06921667 -0.03855535

value_net.0.output_layer.weight f4 [96, 96]
000000 dd 3f d6 bd a0 48 8e 3a 5a 6f bc 3c 05 f9 3f bd
       -0.104614 0.0010855384 0.023002315 -0.046868343
000010 cb 1b b9 bd 69 75 69 bd d8 26 c3 bd 70 25 71 3d
       -0.09038504 -0.056996737 -0.09528893 0.058873594
000020 bf a1 6d 3d 7c de 09 bc c3 98 bc 3d 10 02 87 3d
       0.05801558 -0.008414861 0.092088245 0.0659219
000030 9f 67 c0 3d 90 0e 00 bd 94 b8 b5 3b 67 e0 b6 bd
       0.09394764 -0.031263888 0.005545685 -0.0892952
000040 de 4e 89 3d 0e 6a dc 3c e8 ab 1a bd f4 94 92 3d
       0.06704496 0.02690604 -0.0377616 0.07157317
000050 7d 4c 44 3d f4 1d 98 bd d5 eb 5a 3d a3 06 bf 3c
       0.047924507 -0.07427588 0.053447563 0.023318594
000060 bd 77 4f bd be 38 6f 3d 34 23 c1 3d 26 26 ab bd
       -0.0506513 0.058403723 0.094305426 -0.083568856
000070 4e c6 44 3d ca 4b 24 bd 16 b7 66 bb 4c 5d ce 3d
       0.04804068 -0.04011134 -0.0035204343 0.10076389
000080 a9 75 d3 bd 6e bb 47 3d 53 07 92 bd 53 fd 9f bd
       -0.10325176 0.04876273 -0.07130303 -0.0781199
000090 8e b6 ea 3a 16 bf ac bb af 67 5c bd 52 da 33 bd
       0.0017907189 -0.0052718027 -0.053809818 -0.04390938
0000a0 f5 32 5d bd 62 40 f6 3c 08 65 82 3c ea 60 2c 3d
       -0.054003675 0.030059997 0.015917316 0.042084612
0000b0 79 e5 96 3d 9d bb 22 3d f6 15 df 3c 0c 5e af 3d
       0.07367987 0.039729703 0.027232151 0.0856286
0000c0 5f f5 6c bd 1b ab c4 3c 2c 85 25 bb 26 c6 57 bd
       -0.05785119 0.02400737 -0.0025256379 -0.052679203
0000d0 97 b1 84 bd 4b 20 93 bc c3 24 c2 bd 9b 8c a4 3d
       -0.06479185 -0.017959734 -0.09479668 0.08034631
0000e0 1a 31 be 3d c5 2b 91 bd ac 1c d5 3d 39 ef ad 3c
       0.09286709 -0.070884265 0.10405859 0.021232234
0000f0 e0 84 70 3d 26 c5 bd 3d 2f f9 e6 3c db 68 a3 3d
       0.05872047 0.09266119 0.028194992 0.07978984
000100 c7 6a f3 bc 62 2d 04 bb 2a dd bc bd 2a ba 9c 3d
       -0.029714001 -0.0020168652 -0.09221871 0.076526955
000110 a4 00 c5 bd b7 ad 9b bd 00 3b a8 bd ba 48 a8 bd
       -0.09619263 -0.07601493 -0.08214378 -0.082169965
000120 81 4e 8c bc 8c 2e 19 bd 72 fd 5d 3d 6a ea bb 3c
       -0.017127277 -0.037397906 0.054196782 0.022938926
000130 8b 2a 8d bd 99 07 e7 3c 92 27 a4 3d 81 47 a4 3c
       -0.0689288 0.028201865 0.0801536 0.020053627
000140 da da c4 3d 06 d0 b9 3d fb 5d 39 3d a2 85 8f 3b
       0.09612055 0.090728804 0.045255642 0.004379944
000150 d5 4b a2 bc a3 af 83 bd eb d1 92 bd 91 d6 af 3d
       -0.01981155 -0.064299844 -0.07168945 0.08585847
000160 7c 5d 0b 3d 7f 03 2b bd 25 f5 2c 3c b2 c6 4b bd
       0.0340247 -0.04175138 0.010556494 -0.049750037
000170 c2 b2 b2 3c 28 38 ce bd 84 e4 91 3c 90 06 5d 3d
       0.021813754 -0.10069305 0.01780916 0.053961337
000180 41 dd 8f ba 44 73 d3 bc 7f 3b 9c bd 01 41 99 3d
       -0.0010975973 -0.025811799 -0.076285355 0.07483102
000190 ec 18 b2 3d fa be 0d bd 07 87 8a bd 93 4c a3 bc
       0.0869616 -0.034605958 -0.06764036 -0.019933974
0001a0 fd 95 1f bd 23 85 5d bd 02 eb 6a bc da 53 03 3a
       -0.0389614 -0.054082047 -0.014338257 0.0005009748
0001b0 37 d3 32 bd 83 07 ce bd 69 94 52 3d 08 3b 63 bc
       -0.04365846 -0.100600265 0.051411066 -0.013869055
0001c0 17 1d 81 3d d5 ac c0 bd f3 ae 2b bc 2c 5a d4 3d
       0.063043766 -0.09407965 -0.010478723 0.103687614
0001d0 12 84 b3 bd 61 40 a3 3d a8 24 05 3d 93 3f 92 bd
       -0.08765425 0.07971264 0.03250566 -0.07141032
0001e0 3f 4e 8b 3d 02 22 1b 3c 45 b9 42 3d 1e 91 3f 3a
       0.06802034 0.009468557 0.047539968 0.0007307696
0001f0 03 3b 21 bd d5 9c 07 3b 17 b8 c3 bc 77 6f 22 3d
       -0.03936292 0.0020692844 -0.023891492 0.039657082
000200 fe 6a d8 3d ee 77 11 bd f5 42 b0 bc 1d c5 8e 3b
       0.10567282 -0.035514764 -0.021516303 0.004356994
000210 c4 9b e0 3d bd c8 1d bd 84 7d a0 bd 51 8d aa bc
       0.1096721 -0.038521517 -0.0783644 -0.020819338
000220 9c e2 84 bd a8 a7 aa bd 0a df 9d 3d 30 ea 4c 3d
       -0.06488535 -0.08332759 0.07708557 0.050028026
000230 cb d6 a2 3d da 35 f0 3c fa 5e e8 bc 21 34 a4 3c
       0.07951125 0.029322553 -0.0283656 0.020044388
000240 94 01 5f 3d 92 8d b3 bc ae 69 f6 bc f3 15 32 3c
       0.054444864 -0.021918092 -0.030079689 0.010869491
000250 8e 6f 4e bd 80 26 6a 3d 57 a6 20 bd 95 98 60 bd
       -0.050399356 0.057165623 -0.039221134 -0.054833014
000260 dc 4e 3f 3a c4 37 0d bd d9 b4 a7 bd fa 65 0d bd
       0.0007297823 -0.03447701 -0.08188791 -0.03452108
000270 53 76 e0 bc 7d f6 d5 bc 5d 11 de bc 83 b6 c9 bd
       -0.027400171 -0.026118511 -0.027107889 -0.098492645
000280 a4 10 8b 3d c0 dd 17 bd 02 e5 8b 3c 4b 05 bf 3d
       0.06790283 -0.03707671 0.017076973 0.093271814
000290 d0 cc e8 3d 89 ed e7 3c f7 b7 92 3b e7 94 1d bd
       0.1136719 0.028311508 0.0044774967 -0.038472082
0002a0 8e a8 ca bb 0b d1 e0 bb 37 51 74 bb 38 48 15 3c
       -0.006184644 -0.0068608574 -0.0037279853 0.009111457
0002b0 d9 ed 79 3d 15 86 ce 3c b1 8b 85 3d 8a c6 6e 3d
       0.061017845 0.02521042 0.06520785 0.05829481
0002c0 f6 57 a7 bd b9 f2 9a bd 53 f1 6e bc 39 cf e0 3c
       -0.08171074 -0.07565827 -0.014583903 0.027442561
0002d0 e9 a4 5b 3d c7 ca 63 bd 5a 63 8d 3d d8 d2 c0 3c
       0.053624067 -0.055613305 0.069037154 0.023538038
0002e0 85 55 ef 3a 9f 0e 23 bd 52 c8 7c 3a d4 22 bd 3d
       0.001825974 -0.039808866 0.0009642887 0.092351586
0002f0 a8 e5 b4 3d 9f 5b 2e bd 71 59 9a 3c a9 ab 67 3d
       0.08832866 -0.042567845 0.018841477 0.056560192
000300 a2 07 41 bd 23 3b 28 bc c1 71 26 3d fd 6b 84 bd
       -0.04712642 -0.010268006 0.040635828 -0.0646591
000310 84 61 8b bd 9e e7 2e bd f7 7a c6 bc 6c a8 08 3d
       -0.06805709 -0.042701356 -0.024228556 0.033363745
000320 ef fe fb bb ab c2 47 bb 04 6d 22 3d 04 11 6f bd
       -0.0076903026 -0.0030481021 0.039654747 -0.058365837
000330 65 79 a9 bd a0 b8 87 bd 79 d2 95 3d 5a 56 94 bb
       -0.08275107 -0.06627011 0.07315535 -0.0045268955
000340 df 43 3d bd 17 eb 13 bd e7 ea d7 bc d5 9f e6 3c
       -0.046207305 -0.03611287 -0.026357127 0.028152386
000350 b4 d5 7e ba 60 14 8a bb 79 63 64 bd fe dd 1f 3d
       -0.00097211753 -0.0042138547 -0.055758927 0.039030068
000360 c7 e7 53 3d 85 5d 84 bd b6 fe 00 3c e9 93 aa 3d
       0.051734712 -0.0646315 0.007873228 0.08328993
000370 62 54 84 3b 69 0c 75 bd 58 7d aa bd db 93 62 bd
       0.0040383795 -0.05982629 -0.08324689 -0.055316787
000380 34 49 82 bd cd 42 8e bd bb c0 cb bd 44 0c 41 bd
       -0.06361619 -0.06946335 -0.0994887 -0.047130838
000390 17 51 5c bd 82 7b 80 3b 7a 4d 9b 3c 8f 86 b1 bc
       -0.05378827 0.0039209733 0.018957842 -0.021670608
0003a0 22 97 84 bd 6f e7 95 bc 85 9f 84 3d b1 91 b2 bd
       -0.06474139 -0.018298833 0.064757384 -0.08719195
0003b0 28 6e b3 3d af cb 21 3c 1d b3 ae 3d bb 9d 22 bd
       0.08761245 0.009875222 0.08530257 -0.039701205
0003c0 6f 15 f5 3c cf ce 0c bb f9 32 51 ba f1 2d b3 bd
       0.029917447 -0.0021485572 -0.0007980313 -0.08748997
0003d0 47 3a c0 bc 27 8c aa 3d 67 10 eb 3b 93 30 1a 3d
       -0.023465289 0.08327513 0.007173586 0.03764398
0003e0 f9 64 40 3d e5 c6 4b bd 68 d9 56 bd 3b b2 b4 3c
       0.046971295 -0.049750227 -0.05245343 0.022057643
0003f0 8d 31 a8 3a 96 f7 5a bd a8 40 c9 bd 97 93 5f bd
       0.001283215 -0.053458773 -0.09826785 -0.054584112

value_net.0.output_layer.bias f4 [96]
000000 09 35 61 3d 8b 38 e8 39 d9 1e 92 3d a3 9f b7 3d
       0.05498222 0.00044292616 0.0713479 0.08965995
000010 55 d9 92 3d 5d 14 bb bd 54 60 b0 bd 8b 6a 90 3d
       0.07170359 -0.09134743 -0.08612123 0.070515715
000020 8f 5f 10 3d 89 1d e2 3c 1f 2a d2 bd 2e d0 66 3d
       0.03524738 0.027601974 -0.1026194 0.05635088
000030 07 a8 c4 3c b9 2b 88 bd e2 9f 82 3d 2c 19 a0 3d
       0.024005903 -0.066489644 0.063781515 0.07817301
000040 82 70 a0 3d d5 63 4b bd 09 57 a2 bd 29 a5 7a 3c
       0.07833959 -0.049655754 -0.07926757 0.015298166
000050 9a 6a b5 3d 2d 4d 2a bc 49 65 8d 3d 14 b5 47 3b
       0.08858223 -0.010394377 0.06904084 0.0030472921
000060 31 26 02 3d d4 74 86 3d 50 3f c5 bc 8a 44 78 3d
       0.031774703 0.06565252 -0.024078041 0.06061224
000070 23 bc d4 3d 8d 45 81 bd a3 3d e1 bb 27 54 d2 bc
       0.10387447 -0.06312094 -0.0068738027 -0.025674893
000080 05 7b a4 bd 42 a8 b2 3d a6 35 ba 3d 41 39 6c 3d
       -0.080312766 0.08723499 0.09092264 0.05767179
000090 80 15 4e bd 7b 6c 01 3c 9b 50 73 3d 03 ff 91 bd
       -0.050313473 0.007899399 0.059403043 -0.07128718
0000a0 6c c6 14 3d f4 a4 5f bd 4e 05 3e 3d 08 b8 9f bd
       0.036322042 -0.05460067 0.046391778 -0.07798773
0000b0 36 d4 b9 3d d7 d7 98 bd ea 7f 7e 3d 2d d8 f2 3c
       0.09073679 -0.07463043 0.062133707 0.029644096
0000c0 18 f8 3b bb 1f 6f 92 bd e2 67 9e bd 04 f8 c7 bd
       -0.002868181 -0.07150101 -0.07734658 -0.09764102
0000d0 2d 85 84 3d a8 78 32 3d 26 ef 6a bd 21 69 28 bc
       0.06470714 0.043572098 -0.057356976 -0.010278971
0000e0 d0 6a 8b bd 92 87 84 bd ca 6c 8d bd d0 df 9a bd
       -0.06807482 -0.064711705 -0.069055155 -0.0756222
0000f0 3c 5a a7 bb 5a c1 85 3d a5 52 50 3d 91 e6 a4 3d
       -0.0051071923 0.065310195 0.050860066 0.080517896
000100 4e fc 2a 3d 5f 96 c0 bd ab 46 bd bd 97 f0 bb 3d
       0.041744523 -0.09403681 -0.092419945 0.09176748
000110 0a 59 77 bd a0 b1 90 b8 a7 a6 c8 bd 59 99 a4 3d
       -0.06038765 -6.89954e-05 -0.097974114 0.08037061
000120 c0 93 6a bd c6 f3 b5 bd 08 ee a4 bd 28 5b 3b 3c
       -0.05726981 -0.08884387 -0.08053213 0.011435308
000130 2f 3f 71 3d f7 51 80 bd d6 3c a7 bd 9d 83 7d bc
       0.058898147 -0.062656336 -0.081659004 -0.015473274
000140 ed 71 bb 3c 16 c5 1a bc 2a 9a d1 3b 7f 3b a2 bd
       0.022881472 -0.009446403 0.0063965516 -0.07921504
000150 68 f1 c7 bd 2b 42 0d 3d 0f 39 a4 3b 1c d5 84 bd
       -0.097628415 0.03448693 0.0050116847 -0.0648596
000160 cb 4c 3d bd 6d 3c 73 bd 43 8f d2 3c a0 54 76 bd
       -0.046215814 -0.0593838 0.025703078 -0.0601393
000170 9d fc 82 3d a6 c2 b6 3d e8 b9 b4 3c 91 e3 34 3d
       0.063958384 0.08923845 0.022061303 0.044162337

value_net.0.attention.in_proj_weight f4 [288, 96]
000000 5c f7 41 bd 02 22 a4 bd c0 dd 15 bc 72 08 cd 3d
       -0.04735504 -0.08014299 -0.009147108 0.100113764
000010 e8 9d 1d bd 98 20 3d 3d 40 3c fb bb 64 1b 84 bd
       -0.03848067 0.046173662 -0.0076670945 -0.06450537
000020 50 a0 b6 3c 6c 4a d8 3d 44 6e 8a 3d 10 28 cb 3c
       0.02229324 0.1056107 0.06759313 0.024799377
000030 f8 7e 83 bc 60 9a 21 bc 0c 18 c7 3d 30 5e 9d 3d
       -0.016051754 -0.009863466 0.097213835 0.076839805
000040 c0 52 9c bd d8 1b 75 bd 10 c8 48 bd 00 db 00 ba
       -0.07632971 -0.059841007 -0.04901892 -0.0004915446
000050 b2 17 ea bd 52 ec e9 bd 30 47 77 3c 7c 30 41 3d
       -0.11430301 -0.11422028 0.015092656 0.04716538
000060 fc b2 6b 3d b0 fd 6c bd 7c ab d7 bd f8 cc fb bc
       0.05754374 -0.057859123 -0.10530755 -0.030737385
000070 3a 72 a2 3d 1c 3c 26 bd 40 fa 9a 3c 4c f3 4f bd
       0.07931943 -0.04058467 0.018918157 -0.050769135
000080 40 56 fe 3d d2 57 c2 bd 8c 90 6b 3d 1c b9 fc 3d
       0.12418795 -0.09489407 0.057510898 0.12339994
000090 e6 af 9e 3d 54 0d 1b 3d c0 7d 68 3b 0a a2 bc bd
       0.07748394 0.037854508 0.0035475343 -0.09210594
0000a0 d2 92 f5 bd 92 38 e8 3d d8 2f e0 bd f0 b9 98 3c
       -0.119908944 0.11338915 -0.109466255 0.01864335
0000b0 c8 c3 c6 3c 2a 7d 9b 3d da 0b 80 3d 90 a7 56 bd
       0.024263278 0.075922325 0.062522605 -0.052405894
0000c0 a2 1b da bd 20 43 0a bd e0 a8 a3 bb 70 0c 57 bd
       -0.10649802 -0.03375542 -0.0049944967 -0.052502096
0000d0 96 f3 a7 bd e0 10 6b 3d 24 99 40 3d 1e 2f 9d bd
       -0.08200757 0.05738914 0.047021046 -0.076750025
0000e0 30 fc 15 bc a2 32 d5 bd 5c ae 1e 3d 5c fe 4d bd
       -0.0091543645 -0.10410048 0.0387405 -0.050291404
0000f0 1e 9c 97 3d d2 0e 9d 3d fc 28 99 3d e0 09 90 bc
       0.07402824 0.076688424 0.0747852 -0.017582834
000100 fe 75 da 3d e6 27 9a 3d b0 88 a0 bd 90 bd 20 bd
       0.106670365 0.07527141 -0.07838571 -0.03924328
000110 e4 1d 28 bd 14 1a 2d 3d c6 27 8d 3d b0 1b 36 bc
       -0.04104413 0.0422612 0.06892352 -0.011115
000120 9c 59 e8 bd 86 3d 84 3d 00 5b 9e 3c 28 5c 17 bd
       -0.11345217 0.06457047 0.019330502 -0.03695312
000130 56 57 93 bd ba 1b d3 bd e8 68 e1 bd 78 9b 90 3c
       -0.071943924 -0.10308023 -0.110063374 0.017652258
000140 e0 9f 79 3d 98 08 3b 3d e0 a5 49 bd aa 3c 80 bd
       0.060943484 0.045662493 -0.049230456 -0.06261571
000150 fe 00 9f 3d c2 da de 3d 08 ca 79 bd 50 19 c4 3c
       0.07763861 0.108815685 -0.060983688 0.023937851
000160 50 75 d9 bd 44 9e 44 3d 6a f0 8c bd 20 16 82 bb
       -0.10618079 0.048002496 -0.06881793 -0.0039699227
000170 d8 ca 95 bc 52 ea ff bd 80 9b 62 3b 02 3c e4 bd
       -0.0182852 -0.12495865 0.0034577549 -0.11144258
000180 90 8f 10 bd 52 9d 9b 3d d4 53 9a bd e8 bb 6d 3d
       -0.035293162 0.07598366 -0.0753552 0.05804053
000190 70 d4 99 bc 78 d3 ba 3c 62 ce a3 3d 12 5d ee bd
       -0.018778056 0.022805914 0.07998349 -0.116388455
0001a0 48 85 dc 3c 76 36 b4 bd 74 e6 bd 3d e6 58 8b 3d
       0.026919022 -0.0879945 0.09272471 0.068040654
0001b0 de f6 fe bd e2 d3 d2 3d ac f5 83 3d 58 14 dc bd
       -0.1244943 0.1029432 0.064433426 -0.10746068
0001c0 a0 d0 5c bd d0 b0 a2 3c bc cc 7e bd 40 0a 00 3b
       -0.053909898 0.019859701 -0.06220697 0.001953736
0001d0 c8 60 e2 bc f2 72 b1 3d c0 8c 1a bb 6c c9 36 bd
       -0.02763404 0.08664502 -0.0023582429 -0.044625685
0001e0 8a 9f 9e bd a8 f8 4b 3d 3a 5e b5 3d 4a 80 8a bd
       -0.077452734 0.049797684 0.08855863 -0.067627504
0001f0 8c bf 5e bd 70 be 90 bc a8 fb c7 bc 46 f9 f5 bd
       -0.054381892 -0.017668933 -0.024411991 -0.12010436
000200 e8 9d c0 3c 40 a1 c6 bc 74 cf 3d bd fa 69 ed 3d
       0.023512796 -0.024246812 -0.04634042 0.11592479
000210 90 10 05 3c e8 18 a7 3c c2 97 cd bd ce 2c c6 bd
       0.008121625 0.020397618 -0.10038711 -0.096765146
000220 ac 6b 69 bd 64 cf 4a bd c2 93 b8 bd d6 11 d0 bd
       -0.05698745 -0.04951419 -0.090125576 -0.10159652
000230 fa 5c b9 3d 58 ce ac bd 68 d9 86 bd ac 12 1a bd
       0.09050937 -0.084377944 -0.06584436 -0.037615463
000240 90 7e 17 3c 28 70 9f bc f8 f1 dc 3c dc 19 06 3d
       0.009246483 -0.01946266 0.026970848 0.032739505
000250 d8 46 87 bc 68 cd ce bd 8c 17 00 3d fc 8b ba bd
       -0.016513273 -0.10097772 0.031272456 -0.09108731
000260 2e 08 c3 3d 68 e1 7d 3d 36 1a b3 3d a4 06 c4 bd
       0.095230445 0.061982542 0.08745234 -0.09571579
000270 64 6c c3 3d 48 a2 2b 3d 8c a0 70 bd dc a3 62 bd
       0.09542158 0.04190281 -0.05874686 -0.05533205
000280 c0 e3 a5 3d 3c 88 c5 bd 60 cc a5 bb c4 7e 7e 3d
       0.081000805 -0.09645125 -0.005059764 0.062132612
000290 b8 18 2f bd 1a d9 bb bd 28 5d 67 3d 68 67 f9 3c
       -0.042748183 -0.09172268 0.056485325 0.030444816
0002a0 c0 ec d8 bd 0a 83 d3 3d 88 b8 f0 bc dc 34 70 3d
       -0.105920315 0.10327728 -0.029384866 0.05864416
0002b0 c0 52 6c 3b 12 e6 83 3d 00 81 c4 bd fc 95 86 3d
       0.0036060065 0.06440367 -0.09594917 0.06571576
0002c0 74 af b5 3d e2 72 a4 3d 0e 6b 9d bd 9a c2 da bd
       0.08871356 0.08029725 -0.07686435 -0.106816486
0002d0 dc c9 5d 3d e0 da 1a bd 20 0d 51 3c fc 4d f7 3d
       0.054147586 -0.03780639 0.012759477 0.12075421
0002e0 2a 05 84 3d d8 c0 5b bd fa fb af bd 00 cb b3 bc
       0.064462975 -0.053650707 -0.085929826 -0.021947384
0002f0 92 d4 aa 3d d4 79 3a bd c4 47 85 bd 9e 03 99 bd
       0.08341326 -0.04552634 -0.06507829 -0.07471393
000300 ae a4 b3 3d 46 1b b2 bd e2 e8 bd bd 64 ef 93 bd
       0.087716445 -0.08696608 -0.092729345 -0.072233945
000310 58 8e 55 bd 5e fa f9 3d ac 26 b6 bd 14 de 59 3d
       -0.052137703 0.12205957 -0.08894095 0.053190306
000320 e0 dd 8e 3d f8 7c 36 bd d2 7e b9 bd c4 4b d5 3d
       0.06975913 -0.044552773 -0.09057392 0.10414842
000330 64 de de 3d ba e3 c0 bd 70 8c 15 3d c4 02 e2 bd
       0.108822614 -0.094184354 0.036510885 -0.11035684
000340 a8 45 43 bd e4 a8 43 3d f0 fc 20 bd c0 a6 67 bb
       -0.04767385 0.04776849 -0.03930372 -0.0035347193
000350 4e aa f4 3d 24 aa 98 bd 54 6f c2 3d 48 51 0a 3d
       0.119465455 -0.07454327 0.094938904 0.033768922
000360 e0 84 02 3d 40 67 05 3b 54 e8 76 bd ac ff e6 bd
       0.031865 0.0020355731 -0.06028016 -0.11279234
000370 e8 f3 c2 3c 6a 25 a7 bd 34 cc 39 3d 80 67 f9 3b
       0.023797944 -0.08161433 0.04536076 0.007611215
000380 d6 47 9f bd dc f6 ce 3d 40 12 e1 3d d0 44 76 3c
       -0.077773735 0.101056784 0.10989809 0.015031055
000390 02 99 d0 bd a0 22 7a 3d 30 05 53 bd 32 e8 a0 3d
       -0.10185434 0.061068177 -0.05151862 0.07856788
0003a0 c0 a6 ce bc 90 6a 35 bd f0 e5 c8 bc d4 71 5e 3d
       -0.025225997 -0.04429108 -0.024523705 0.054307774
0003b0 82 7c 8e 3d 14 79 32 bd 4c c6 27 bd 24 43 58 3d
       0.06957342 -0.0435725 -0.040960595 0.052798405
0003c0 50 8b ad 3c 14 01 47 3d 70 78 cc 3c a0 94 d9 3d
       0.021184593 0.048585013 0.024959773 0.10624051
0003d0 46 c8 90 bd 78 20 90 3c e2 9c a1 bd 80 a3 88 3a
       -0.07069449 0.017593607 -0.07891251 0.0010424703
0003e0 20 97 df 3d 62 45 80 bd 30 1b 49 bc f2 94 94 bd
       0.10917497 -0.06263234 -0.012274548 -0.072549716
0003f0 78 e1 e5 3d 86 d6 b8 3d 50 d6 a3 bd 4a 0d de 3d
       0.112246454 0.09025292 -0.07999861 0.108423784

value_net.0.attention.in_proj_bias f4 [288]
000000 00 00 00 00 00 00 00 00 00 00 00 00 00 00 00 00
       0.0 0.0 0.0 0.0
000010 00 00 00 00 00 00 00 00 00 00 00 00 00 00 00 00
       0.0 0.0 0.0 0.0
000020 00 00 00 00 00 00 00 00 00 00 00 00 00 00 00 00
       0.0 0.0 0.0 0.0
000030 00 00 00 00 00 00 00 00 00 00 00 00 00 00 00 00
       0.0 0.0 0.0 0.0
000040 00 00 00 00 00 00 00 00 00 00 00 00 00 00 00 00
       0.0 0.0 0.0 0.0
000050 00 00 00 00 00 00 00 00 00 00 00 00 00 00 00 00
       0.0 0.0 0.0 0.0
000060 00 00 00 00 00 00 00 00 00 00 00 00 00 00 00 00
       0.0 0.0 0.0 0.0
000070 00 00 00 00 00 00 00 00 00 00 00 00 00 00 00 00
       0.0 0.0 0.0 0.0
000080 00 00 00 00 00 00 00 00 00 00 00 00 00 00 00 00
       0.0 0.0 0.0 0.0
000090 00 00 00 00 00 00 00 00 00 00 00 00 00 00 00 00
       0.0 0.0 0.0 0.0
0000a0 00 00 00 00 00 00 00 00 00 00 00 00 00 00 00 00
       0.0 0.0 0.0 0.0
0000b0 00 00 00 00 00 00 00 00 00 00 00 00 00 00 00 00
       0.0 0.0 0.0 0.0
0000c0 00 00 00 00 00 00 00 00 00 00 00 00 00 00 00 00
       0.0 0.0 0.0 0.0
0000d0 00 00 00 00 00 00 00 00 00 00 00 00 00 00 00 00
       0.0 0.0 0.0 0.0
0000e0 00 00 00 00 00 00 00 00 00 00 00 00 00 00 00 00
       0.0 0.0 0.0 0.0
0000f0 00 00 00 00 00 00 00 00 00 00 00 00 00 00 00 00
       0.0 0.0 0.0 0.0
000100 00 00 00 00 00 00 00 00 00 00 00 00 00 00 00 00
       0.0 0.0 0.0 0.0
000110 00 00 00 00 00 00 00 00 00 00 00 00 00 00 00 00
       0.0 0.0 0.0 0.0
000120 00 00 00 00 00 00 00 00 00 00 00 00 00 00 00 00
       0.0 0.0 0.0 0.0
000130 00 00 00 00 00 00 00 00 00 00 00 00 00 00 00 00
       0.0 0.0 0.0 0.0
000140 00 00 00 00 00 00 00 00 00 00 00 00 00 00 00 00
       0.0 0.0 0.0 0.0
000150 00 00 00 00 00 00 00 00 00 00 00 00 00 00 00 00
       0.0 0.0 0.0 0.0
000160 00 00 00 00 00 00 00 00 00 00 00 00 00 00 00 00
       0.0 0.0 0.0 0.0
000170 00 00 00 00 00 00 00 00 00 00 00 00 00 00 00 00
       0.0 0.0 0.0 0.0
000180 00 00 00 00 00 00 00 00 00 00 00 00 00 00 00 00
       0.0 0.0 0.0 0.0
000190 00 00 00 00 00 00 00 00 00 00 00 00 00 00 00 00
       0.0 0.0 0.0 0.0
0001a0 00 00 00 00 00 00 00 00 00 00 00 00 00 00 00 00
       0.0 0.0 0.0 0.0
0001b0 00 00 00 00 00 00 00 00 00 00 00 00 00 00 00 00
       0.0 0.0 0.0 0.0
0001c0 00 00 00 00 00 00 00 00 00 00 00 00 00 00 00 00
       0.0 0.0 0.0 0.0
0001d0 00 00 00 00 00 00 00 00 00 00 00 00 00 00 00 00
       0.0 0.0 0.0 0.0
0001e0 00 00 00 00 00 00 00 00 00 00 00 00 00 00 00 00
       0.0 0.0 0.0 0.0
0001f0 00 00 00 00 00 00 00 00 00 00 00 00 00 00 00 00
       0.0 0.0 0.0 0.0
000200 00 00 00 00 00 00 00 00 00 00 00 00 00 00 00 00
       0.0 0.0 0.0 0.0
000210 00 00 00 00 00 00 00 00 00 00 00 00 00 00 00 00
       0.0 0.0 0.0 0.0
000220 00 00 00 00 00 00 00 00 00 00 00 00 00 00 00 00
       0.0 0.0 0.0 0.0
000230 00 00 00 00 00 00 00 00 00 00 00 00 00 00 00 00
       0.0 0.0 0.0 0.0
000240 00 00 00 00 00 00 00 00 00 00 00 00 00 00 00 00
       0.0 0.0 0.0 0.0
000250 00 00 00 00 00 00 00 00 00 00 00 00 00 00 00 00
       0.0 0.0 0.0 0.0
000260 00 00 00 00 00 00 00 00 00 00 00 00 00 00 00 00
       0.0 0.0 0.0 0.0
000270 00 00 00 00 00 00 00 00 00 00 00 00 00 00 00 00
       0.0 0.0 0.0 0.0
000280 00 00 00 00 00 00 00 00 00 00 00 00 00 00 00 00
       0.0 0.0 0.0 0.0
000290 00 00 00 00 00 00 00 00 00 00 00 00 00 00 00 00
       0.0 0.0 0.0 0.0
0002a0 00 00 00 00 00 00 00 00 00 00 00 00 00 00 00 00
       0.0 0.0 0.0 0.0
0002b0 00 00 00 00 00 00 00 00 00 00 00 00 00 00 00 00
       0.0 0.0 0.0 0.0
0002c0 00 00 00 00 00 00 00 00 00 00 00 00 00 00 00 00
       0.0 0.0 0.0 0.0
0002d0 00 00 00 00 00 00 00 00 00 00 00 00 00 00 00 00
       0.0 0.0 0.0 0.0
0002e0 00 00 00 00 00 00 00 00 00 00 00 00 00 00 00 00
       0.0 0.0 0.0 0.0
0002f0 00 00 00 00 00 00 00 00 00 00 00 00 00 00 00 00
       0.0 0.0 0.0 0.0
000300 d7 d9 3c 3a b3 44 ac bb 62 42 b0 3c a2 b2 a4 3c
       0.00072040915 -0.005257213 0.021516029 0.02010471
000310 14 c7 59 bc 43 66 06 3c 7a f5 60 3c af 4f ff 3b
       -0.013292093 0.008203092 0.013730401 0.0077914814
000320 89 74 cf bb 79 3c ed bb dd 10 e7 3a ea ff 13 3c
       -0.0063310307 -0.007239875 0.0017628927 0.009033183
000330 fc 17 ea 3b 44 af 25 bc 31 23 78 3c 96 2f 31 bc
       0.0071439724 -0.010112587 0.015145109 -0.010814568
000340 fc 42 fc bb c2 91 7d bb 4a dd 09 bc cd e8 61 3c
       -0.007698415 -0.0038691615 -0.008414576 0.013788414
000350 30 0d 2e 3c 26 40 16 3b 82 ca 0f 3c 35 8d 52 bb
       0.010623261 0.002292642 0.008776309 -0.0032127623
000360 ff 54 c5 3c a3 57 29 bb c8 a5 cf bb a1 94 1b 3b
       0.02408838 -0.002583959 -0.0063369013 0.0023739713
000370 78 6f df ba d4 9b 9e bc b3 0c 92 bb 88 4a 8a 3c
       -0.001704677 -0.019361414 -0.0044570803 0.016881242
000380 5c b6 45 bc ce fc 1c 3c 38 4c 2f 3c 9a 27 c3 bb
       -0.012067404 0.009581758 0.010699324 -0.0059556486
000390 5f 0f 9c bb 9a 5d b2 b9 50 34 46 3b ec 0e 90 bc
       -0.0047625746 -0.00034020544 0.0030243583 -0.01758524
0003a0 d5 85 50 ba f9 14 6e ba 9d fb 55 bb 5b fa aa bb
       -0.0007954513 -0.00090821047 -0.0032651194 -0.005217833
0003b0 95 98 78 bb 58 22 e7 3b ac 6c d9 3a f6 09 b5 bb
       -0.0037932743 0.0070536546 0.0016588173 -0.005524869
0003c0 e5 21 e0 ba 45 59 4d 3b b3 42 94 3b 44 49 18 bc
       -0.0017099945 0.0031333726 0.0045245527 -0.009294812
0003d0 af b8 db 3a 4d 8b 9a bb 30 7f 98 3a 84 01 e9 bb
       0.0016763414 -0.004716313 0.0011634585 -0.0071107764
0003e0 00 36 e2 3b 8f 4e cb 3b 3a 4c 31 3c 74 a6 b5 bb
       0.00690341 0.0062044333 0.0108213965 -0.0055435244
0003f0 96 9c b2 3b 21 ae 15 bb 05 f7 31 3b 61 9e 8d bb
       0.0054507954 -0.0022839385 0.0027155292 -0.0043218588

value_net.0.attention.out_proj.weight f4 [96, 96]
000000 a0 6d bd bd 62 a6 b2 3d ab a0 74 3d e1 79 a9 bd
       -0.09249425 0.08723141 0.059723537 -0.082752
000010 01 4b 48 3d 22 d4 89 bc 53 d8 10 3d 12 f8 34 3c
       0.048899654 -0.016824786 0.035362553 0.011045473
000020 ba 81 59 3d 07 7e 40 3d 4b 7f 9a 3d 97 db c1 bd
       0.053102233 0.04699519 0.075438105 -0.094657116
000030 15 46 9d bd 75 2f 86 bd 19 fd 60 3d 8a 80 4d bd
       -0.07679383 -0.065520205 0.054928873 -0.050171413
000040 ec b7 06 3d 48 09 d5 3d fd 53 3c bd 70 03 a1 3d
       0.032890245 0.10402161 -0.045978535 0.07861984
000050 5d 41 b6 bc 10 c1 ae 3d a7 67 9a 3d 32 94 a3 3d
       -0.022247965 0.085329175 0.07539301 0.079872504
000060 5a ec df bc 57 3a b3 bd bc e0 77 bd 09 70 94 3d
       -0.02733438 -0.08751362 -0.060517058 0.072479315
000070 4f db b1 3d 8c 5c 6f 3d 4a 24 d4 bd 4a 9e e3 3c
       0.08684408 0.05843787 -0.10358484 0.027785439
000080 60 62 52 bd c5 95 91 3d b3 3c 4d 3d 49 54 ad bb
       -0.05136335 0.071086444 0.050106715 -0.0052895886
000090 17 43 4f 3d 08 44 47 bd 15 2b 88 bd 79 7b 4f bd
       0.05060109 -0.048648864 -0.06648842 -0.050654862
0000a0 b7 75 9e 3d 29 d7 5c 3d f6 f9 2a bd 8b e9 a7 bd
       0.07737296 0.05391613 -0.041742288 -0.08198842
0000b0 bc a6 9c 3d 81 42 93 3d e7 16 72 bd 8d ea 38 3c
       0.076489896 0.07190419 -0.059103873 0.01128639
0000c0 e2 dc a4 bd 51 13 62 bd d6 79 d6 3c 0a d5 42 bd
       -0.080499426 -0.055194203 0.026181143 -0.04756645
0000d0 9a e6 15 3c 4a 07 60 bc 83 98 86 3c f5 9b ac 3d
       0.009149218 -0.013673613 0.016430145 0.08428184
0000e0 73 24 95 bb a4 f6 ca 3c eb d7 b5 bd 41 fc a3 bd
       -0.004551464 0.02477581 -0.08879074 -0.08007098
0000f0 92 c2 44 3d cc 63 21 3d 75 15 a8 bc 60 ee 94 3c
       0.04803712 0.039401814 -0.020518044 0.018180072
000100 42 a1 d3 3d 41 37 aa bd dd f8 39 3d dc 0c 74 3b
       0.10333492 -0.0831132 0.04540335 0.003723911
000110 c1 42 97 3d 2e 5a ae bd cf dd ad 3d 72 db bf 3d
       0.07385779 -0.08513294 0.08489572 0.09368028
000120 25 56 be 3d 76 55 28 3c 63 0a 27 bb a5 a6 8d bb
       0.092937745 0.010274282 -0.0025488369 -0.004322844
000130 86 0f 52 bd c0 91 b7 bd 4a a8 b5 bd aa 92 f4 bc
       -0.051284336 -0.089633465 -0.08869989 -0.029855091
000140 dd 9c 84 3d 32 a4 ae 3d 71 bb c0 3c 6d b1 d0 bb
       0.06475232 0.085274115 0.023526879 -0.006368807
000150 d6 bc 8c bd e1 d2 9a 3d ff 38 47 bd ff 6b 83 3d
       -0.06871955 0.07559753 -0.04863834 0.06417083
000160 f4 8b 23 bd 03 81 61 3c 2b 3f e9 3c 08 bc b2 3d
       -0.03992839 0.013763669 0.028472504 0.0872727
000170 93 7a c9 bc f4 4d 93 3d d3 66 c7 3d 4e 7a a0 bc
       -0.02459458 0.07192603 0.09736409 -0.01958957
000180 48 50 22 3b 4d b5 a2 bd b4 ee 65 bd cc 15 49 bc
       0.002476709 -0.07944737 -0.05613585 -0.012273263
000190 c4 2c c7 3d dc ca 4c bd d6 bc 05 bd 00 df 22 bc
       0.09725335 -0.04999815 -0.03265079 -0.009940863
0001a0 2f 88 81 bd b5 61 9d bd d7 3c b0 3d c8 3a c9 3c
       -0.06324803 -0.07684652 0.08605354 0.024564162
0001b0 43 34 fd 3c 60 75 e4 3c 4c 91 9d 3d e3 e4 b3 3d
       0.03090871 0.027888 0.07693729 0.08783891
0001c0 4e 69 d0 bd 97 6c a9 3d 3c 9c 91 bc 5b f2 93 3d
       -0.10176335 0.08272665 -0.017774694 0.0722396
0001d0 12 f4 0f 3c 89 18 dd 3c 25 a6 ac 3d bc a0 87 3c
       0.008786218 0.026989238 0.08430127 0.016556136
0001e0 1d c2 8b bd ba 61 81 bc 6b cd 1f 3d ab 40 8c 3c
       -0.068241335 -0.01579367 0.03901426 0.01712068
0001f0 1a c6 77 3d 0c 77 d4 bd 4b 2f 96 bd 57 80 ce 3a
       0.06049166 -0.10374269 -0.07333239 0.0015754801
000200 19 86 74 bc 34 72 1e 3c 73 4a d3 3c e6 35 64 3d
       -0.0149245495 0.009670783 0.025792336 0.055715464
000210 9b c5 96 3d ee 51 9f 3d 31 73 fa 3c 12 b4 18 bc
       0.07361909 0.07779299 0.030572506 -0.009320276
000220 91 34 68 3d e1 d7 27 3d 83 b1 37 3d f3 df b7 bd
       0.056690756 0.040977363 0.044847023 -0.08978262
000230 72 f2 83 bd 88 54 a0 bc cb 5f 30 3b 62 8f 27 3c
       -0.06442727 -0.019571558 0.0026912566 0.010227056
000240 52 ac 24 3d 5c b9 91 bd 55 3f 3d 3d 97 0f 8e bd
       0.0402034 -0.071154326 0.046202976 -0.06936567
000250 76 0a be bd b1 b4 51 3c 45 a1 f8 3c 35 38 77 bd
       -0.09279339 0.012799428 0.030350337 -0.060356338
000260 40 bd b3 3c a4 db 5a 3d 4b 53 18 bc 26 36 51 bc
       0.021940827 0.053432122 -0.009297202 -0.012769258
000270 1f 9f b4 bc 5b 23 a2 3d 55 0d 9d 3d 3f 03 c3 bc
       -0.022048531 0.079169 0.076685585 -0.023805259
000280 2e be 92 bb 78 2d 08 3c 3a 6f d5 3d ce ff 02 bc
       -0.0044782376 0.008311622 0.104216054 -0.007995559
000290 f3 81 90 bc 72 99 46 bd 4e e3 ca 3a e3 aa 9e 3d
       -0.01764009 -0.04848618 0.0015479119 0.07747438
0002a0 dc 9a 05 bd 83 68 35 3d d3 4f 63 3b 83 61 77 3d
       -0.03261839 0.044289123 0.003468503 0.06039573
0002b0 fc ba 40 3d 06 c0 8e 3c 43 54 15 3d 0b f6 8b 3d
       0.047053322 0.017425548 0.03645731 0.06834038
0002c0 2a a8 22 bc c3 11 ce 3d 3b 3b b9 3d ad 20 08 3d
       -0.009927789 0.100619815 0.090445004 0.033234287
0002d0 ab 10 3c 3d d6 99 61 3d b0 f3 82 3d e0 3a 7b 3d
       0.045914333 0.05507835 0.06394136 0.061335444
0002e0 1b 2d fe 3b 0f 2c 80 bd e9 3e 27 3d 88 fd a3 bd
       0.007756842 -0.062584035 0.04083148 -0.080073416
0002f0 e4 8c 80 3d dc 38 e0 3b 03 55 aa bd 6f a4 c6 bd
       0.06276873 0.0068427157 -0.08316996 -0.09699332
000300 e7 cd af 3d 1d 23 b3 3d f9 b5 04 bc d9 b3 55 3d
       0.08584195 0.08746932 -0.008100026 0.05217347
000310 da 63 04 bd 63 42 7e 3d ee ab 5e bd c5 6e a4 3d
       -0.03232179 0.06207503 -0.054363184 0.0802894
000320 e6 5f 6b 3a 06 5c ae 3d f0 46 53 bd 6b 94 7f 3b
       0.00089788286 0.08513646 -0.051581323 0.0038998376
000330 9c 34 ca bd 05 15 69 bd 92 9b a5 3d e8 8c 1f 3d
       -0.09873316 -0.05690481 0.08086313 0.038952738
000340 c7 4c 82 bc 82 53 93 3c 5f 0b 3f 3d a3 24 90 3c
       -0.01590575 0.017984156 0.046641704 0.017595595
000350 ec 11 95 bd 3a 2a 40 3d ad ba 0c 3c 63 ad 70 bd
       -0.07278809 0.04691527 0.008589429 -0.058759104
000360 4e 42 99 3d 80 25 84 3c b1 41 94 bd 33 92 7d 3d
       0.0748335 0.016131163 -0.07239092 0.061907005
000370 7e ee c1 bc f7 51 54 bd fd b4 ac bd 21 4e 0c 3d
       -0.023673292 -0.05183598 -0.08432958 0.034254197
000380 cf 2b e7 3c 6b b1 d7 bc ed c3 95 3d 04 f4 39 bd
       0.028219132 -0.026329717 0.073127605 -0.045398727
000390 96 f6 65 3d c9 fb 74 3c 30 d3 b7 bd 30 f0 77 bc
       0.056143366 0.014952608 -0.08975828 -0.015132949
0003a0 ee 6c 95 3d f5 af d8 3b 4e 78 2e 3d 52 47 a4 bd
       0.07296167 0.0066127726 0.0425952 -0.08021416
0003b0 ff e7 c4 3d c7 4e 93 bb 78 a3 a9 3d 49 07 94 3c
       0.09614562 -0.004495475 0.08283132 0.01806988
0003c0 79 25 7d 3d 28 cb 44 3d c4 73 7f 3c ee 0e 17 bd
       0.061803315 0.048045307 0.0155915655 -0.036879472
0003d0 43 21 c5 3d da 28 2e bb 3d ed fe bc f7 bb 2a bd
       0.09625485 -0.0026574642 -0.031118983 -0.041683163
0003e0 04 44 16 3c c0 73 c5 bc e8 94 85 bc 66 35 2c 3c
       0.00917149 -0.024103045 -0.016306356 0.010510778
0003f0 34 30 50 bd df da 99 3d 01 12 e1 bd 97 9e a0 3d
       -0.05082722 0.075124495 -0.10989762 0.078427486

value_net.0.attention.out_proj.bias f4 [96]
000000 eb 1a 8d 3b 78 15 2c ba 58 45 68 bb 01 7b dc bb
       0.0043061874 -0.00065644784 -0.0035441723 -0.0067285304
000010 45 0a 48 3b da 00 8e 39 f5 74 42 3c d7 92 a2 3b
       0.00305237 0.00027084985 0.011868705 0.0049613523
000020 54 83 54 bc a4 3b e6 bb 28 41 8f 3b 9e 5e ba bb
       -0.012970764 -0.0070261527 0.004371781 -0.005687549
000030 db f4 05 3a b4 e2 b7 ba 67 90 01 3a bc 01 86 3b
       0.00051100337 -0.0014029355 0.0004942477 0.004089562
000040 a5 eb 29 bc 21 65 ad 3c 6f d7 4b bc 85 d3 3c bc
       -0.010371123 0.021166386 -0.0124415 -0.01152504
000050 8d 4c e7 3b a0 4f 44 bb 0a 71 94 3b d1 97 e6 3a
       0.007058686 -0.0029954687 0.004530077 0.0017592852
000060 dc a5 59 bc cb 2f 13 3c 50 19 02 3c 1b 50 17 3a
       -0.013284173 0.008983563 0.007940605 0.00057721295
000070 f2 ea 01 bc 6b f8 d1 3b 57 15 da ba 9f 04 02 3c
       -0.0079295505 0.0064077876 -0.001663844 0.007935672
000080 99 68 1b bc 45 28 3a 3b 7c 86 70 3b 8d 00 ee 3b
       -0.009485387 0.002840535 0.0036701253 0.0072632493
000090 82 7b 74 bb 5c 50 66 3b a8 6b 44 bc b3 7f fe 39
       -0.0037305062 0.0035143113 -0.011988558 0.000485418
0000a0 27 6b 0b bc 9c 09 7e bb f2 1f 41 bb 9e 54 0b 3c
       -0.008509434 -0.0038763052 -0.0029468504 0.008504061
0000b0 87 8d c1 bb 02 0a d3 b9 f1 ec 95 bb e9 36 8e bc
       -0.005906764 -0.00040252513 -0.0045753648 -0.017360168
0000c0 0c 28 8f bb 8f f2 b7 bb f5 12 26 bc 70 23 02 3b
       -0.0043687876 -0.005613632 -0.010136356 0.0019857548
0000d0 74 31 ec bb 81 55 16 3b e8 b7 2f bc 3b a5 05 bc
       -0.0072080437 0.0022939148 -0.010724999 -0.00815707
0000e0 56 9c 4a bc 97 08 94 39 21 e0 09 3c a2 fb 1f ba
       -0.012366375 0.0002823516 0.008415253 -0.0006102865
0000f0 dc 29 01 3c 74 32 9b 3b 33 ea 08 bb ff 90 25 bb
       0.007883515 0.004736239 -0.0020891547 -0.0025263426
000100 84 1d 5b 3c f6 3a 64 ba b2 a4 84 bc 11 ae 30 bc
       0.013373736 -0.00087062956 -0.016191814 -0.010783688
000110 ca 8f 36 bc a1 4b 6c 38 68 6d e5 bb 8f bd 5a bc
       -0.01114268 5.633722e-05 -0.0070015676 -0.013350858
000120 6e 17 96 3b 93 2a 88 3c 7f 48 63 3a 16 f4 04 bc
       0.0045804298 0.016621863 0.00086701656 -0.008114835
000130 cb c5 48 3c 53 d7 11 3c 5c 1e 33 bc 4e 88 0c 3c
       0.012254189 0.008901435 -0.010932531 0.008577419
000140 0b 78 03 3a a4 cd 0d bb 64 aa 42 bb d2 9e 92 bc
       0.0005015141 -0.0021637464 -0.0029703612 -0.017897997
000150 b2 be 31 bc e6 d2 ba ba 11 ef 11 3c dc 83 10 bc
       -0.010848688 -0.0014253526 0.0089070955 -0.0088205
000160 27 07 b4 b9 73 bd 68 3a d8 32 3b bb 70 bc 09 3c
       -0.00034337604 0.0008878328 -0.002856424 0.008406743
000170 b7 17 fa ba b9 fa ab ba 1b 1b 40 bc 22 35 4f 3b
       -0.0019080554 -0.0013120986 -0.011725212 0.0031617363

value_net.1.weight f4 [64, 96]
000000 ce b1 04 bb 61 39 23 bc a1 09 26 bd df 02 5b bd
       -0.0020247581 -0.009962411 -0.040536527 -0.053469535
000010 ec 7d af bd f0 80 1a bd f3 c6 0c bd 4b 4a b3 3c
       -0.085689396 -0.03772062 -0.03436942 0.021886012
000020 f0 ba c7 3b 87 d6 88 bd 5c a2 bf bc d0 e5 ae bd
       0.0060952827 -0.06681543 -0.023392849 -0.08539927
000030 59 6f c2 bd 2e f2 64 3c c9 6f a9 3d 68 74 19 bd
       -0.09493894 0.013973756 0.082732745 -0.03746453
000040 fc 4e c0 bd 09 eb 5b 3d 62 8a 98 3d ae aa 0c bd
       -0.09390065 0.053690944 0.074482694 -0.03434246
000050 aa d7 c9 bd a4 09 33 bd 4c 4f b2 3d cc f7 c3 3d
       -0.09855588 -0.043710366 0.08706531 0.09568748
000060 ad da 81 3d 1f d0 3f 3d 45 dd 44 bd 45 30 aa bd
       0.06340537 0.04682934 -0.04806258 -0.08309988
000070 2b 2e ca bd 0a 0a 6f bd d5 d3 06 bd 9c d4 b4 3d
       -0.09872087 -0.058359183 -0.032916863 0.088296145
000080 38 fd 94 bd be 50 71 3d c5 b1 2b bd f8 e5 29 3d
       -0.0727486 0.058914892 -0.04191758 0.04147908
000090 5c d3 70 3d 23 cf 4b bd e8 ab 55 3c 88 13 5d bd
       0.058795318 -0.049758088 0.013041474 -0.053973705
0000a0 f8 ed 88 bd be 6f ca bd 44 ac 24 bd 38 2a aa 3c
       -0.06686014 -0.098845944 -0.040203348 0.020772085
0000b0 1a ae 4e 3d 61 fb 6d bd a4 0c 8b bd 7f 17 08 3d
       0.050459005 -0.05810106 -0.067895204 0.033225533
0000c0 ec 45 cf 3d 6e d8 e1 3c d8 ed 38 3c 04 f0 8d 3d
       0.101207584 0.027569022 0.011287175 0.06930545
0000d0 5c 5b 25 3d 0d d6 a8 bd 95 d8 ba bd 15 a1 96 3c
       0.04037033 -0.08243952 -0.09123341 0.018387357
0000e0 04 d3 7a 3c 25 1b 43 bc 02 57 a1 3c aa c4 60 bd
       0.015309099 -0.011908327 0.019694809 -0.054875053
0000f0 34 63 19 bd 83 03 9e bd 11 5f a8 3c ae ff a1 3d
       -0.037448123 -0.077155136 0.020553144 0.07910095
000100 85 5b ab bd ec eb 2d 3d 8a 63 a4 3c f2 08 08 bd
       -0.08367065 0.04246132 0.020066995 -0.033211656
000110 83 8b 88 3d 93 32 95 3d 5e 5c 4b bc 7a 44 b1 3d
       0.06667235 0.07285037 -0.012412159 0.08655639
000120 32 a2 17 3d 52 8b d1 bd 3f 85 0f 3d c9 cd 39 3d
       0.037019916 -0.10231651 0.035039183 0.045362268
000130 c2 dd ad bd f6 f8 43 3b bb eb b0 bd ad e8 c9 bc
       -0.084895626 0.002990303 -0.08638712 -0.024647081
000140 2e 1d bc 3c ce da ba 3d e4 38 00 bd 42 c9 94 bd
       0.022963133 0.09123765 -0.031304255 -0.072649494
000150 5d 67 9b bb 09 bd 9d 3d 39 64 6c 3d fc b5 b2 bc
       -0.0047425465 0.07702071 0.057712767 -0.021815293
000160 03 ce 81 bd 0c 59 7d 3d 9b 6c 84 bd 58 1c 8b 3d
       -0.06338122 0.0618525 -0.06466027 0.067925155
000170 fa a6 d8 bb 6c 44 3b 3d 09 46 79 bc e0 cb 23 bc
       -0.006611702 0.04571955 -0.015214452 -0.009997338
000180 b0 21 f0 3b db ab a7 3d 90 07 fb 3c 17 32 f6 bb
       0.0073282346 0.08187076 0.030643255 -0.0075132954
000190 11 c7 a2 bd eb 1b 1b bd 3d 4c bc bd 76 09 28 3c
       -0.07948125 -0.03786842 -0.09194229 0.010256162
0001a0 44 81 ad bd 5c ac bb bd dd 8a 7c bd 28 e4 a7 bc
       -0.08471921 -0.09163734 -0.061655868 -0.020494536
0001b0 75 81 b1 3c 10 fb ff 3c f0 e7 57 bd e1 c2 aa bd
       0.021668175 0.031247646 -0.052711427 -0.083379515
0001c0 be 3b 0b 3c 30 54 a1 bd b3 33 30 ba 9a 8a c7 3d
       0.00849813 -0.078773856 -0.0006721571 0.09743233
0001d0 f4 a9 0c 3d c9 fb 99 bd 31 fd 31 bc 6a 3c ac 3d
       0.034341767 -0.07518727 -0.010863588 0.084099606
0001e0 28 21 c2 3d 55 29 1f bc 66 87 97 3d e6 aa 58 bd
       0.0947898 -0.009714444 0.07398872 -0.052897356
0001f0 95 ed 33 bd a5 59 4d bd 67 8c 07 bd 86 a6 02 3d
       -0.043927748 -0.05013432 -0.033092882 0.03189709
000200 e0 37 fb bc 6f e1 7b 3d b9 9f ce bd e7 3c 93 3d
       -0.030666292 0.061494287 -0.100890584 0.071893506
000210 97 44 a7 bd dd 3f 67 bd 02 f0 99 3d 3f f0 31 3d
       -0.08167379 -0.05645739 0.07516481 0.043442007
000220 b8 10 ce bd 20 6d 3e 3d bd 6b c7 bd e0 88 b9 ba
       -0.100617826 0.04649079 -0.09737346 -0.0014155172
000230 ee 5f 5b bd 75 c1 69 bc 8b 99 d1 3b 3f bd cc bd
       -0.053558283 -0.014267315 0.0063964776 -0.09997033
000240 2d 50 ca 3d a0 48 6a bc df f0 c8 bd 4d e8 ab bd
       0.098785736 -0.014299542 -0.098115675 -0.08393917
000250 23 fb c2 bd 1b 88 53 3d 07 65 ca bd 06 ac 23 3d
       -0.09520557 0.051643472 -0.09882551 0.039958976
000260 2a c0 ef 3c 25 bb c8 bc 6c c1 31 3d 1c d7 63 bd
       0.029266436 -0.0245033 0.043397352 -0.055625066
000270 75 4a 76 3c 40 1c 3f 39 a7 77 b2 bd f3 8d 91 bd
       0.0150324 0.00018225703 -0.08714228 -0.07107153
000280 bb 9a 8e 3c 62 27 93 3d 7d 92 23 bd a1 41 87 3d
       0.017407766 0.07185246 -0.039934624 0.066043146
000290 67 cd e4 bb a7 b2 fe 3c f1 4d 48 bd 4f 9e c4 bd
       -0.0069824937 0.031091047 -0.048902456 -0.096005075
0002a0 7a ef 12 bc 4e ac a0 bc bc 7a 90 3c 25 c9 a4 3d
       -0.0089682285 -0.019613411 0.01763665 0.08046178
0002b0 41 7e ba bd 7d f1 80 bc 60 7b 13 bc 99 18 2d bd
       -0.09106112 -0.01574015 -0.009001583 -0.042259786
0002c0 5d fd e1 bc 21 12 63 bd 68 73 bf 3d c3 2c 8c bc
       -0.027586633 -0.05543721 0.09348184 -0.017111188
0002d0 f9 f2 07 3d 7c e6 21 bd 9c 00 a3 3a 23 4f af bd
       0.0331907 -0.039526448 0.0012436095 -0.08560016
0002e0 f5 e8 61 bb ef 89 b6 bd fb cd 59 bd fe a3 74 3d
       -0.0034471129 -0.089130275 -0.053174954 0.059726708
0002f0 be 15 26 bd bf c4 2e bd 6b 94 75 bd 27 3a ad bc
       -0.04054808 -0.0426681 -0.059955996 -0.021145893
000300 03 8d 74 3d 75 89 93 bc a3 86 cf bd 3b 65 c6 bd
       0.05970479 -0.01800988 -0.10133102 -0.09687277
000310 58 e7 97 bd b5 c5 32 bd 6d 71 42 3c 19 c3 b2 3d
       -0.07417172 -0.04364558 0.011867863 0.08728618
000320 ef 2c 9a bd 1e 4d 46 3c 7a a1 bc bc d3 d0 9e bd
       -0.07528102 0.012103347 -0.023026217 -0.07754674
000330 7e 66 5d bd 38 e6 27 bd 41 95 1a bd 9c b8 26 3d
       -0.054052822 -0.040991038 -0.037739996 0.0407034
000340 c7 00 73 bd a5 59 9a bd 14 f5 84 3c 59 5d 09 bd
       -0.059326913 -0.075366296 0.016230144 -0.03353629
000350 7f 90 24 3d e2 9e ae 3d 85 ec eb 3b b1 b4 c1 3d
       0.040176865 0.08526398 0.007199826 0.09458292
000360 22 a8 c0 bc 62 e1 36 bd 34 3d 25 bc 43 09 46 3d
       -0.023517672 -0.044648536 -0.010085393 0.048348676
000370 98 2c 3c 3c c1 37 a4 3d 47 8c 77 3d 74 67 93 3d
       0.011485241 0.08018447 0.060436513 0.071974665
000380 34 2e d2 bb 9c 44 37 bd a9 e1 bb bd fc ca 25 bd
       -0.0064141992 -0.044743165 -0.09173901 -0.040476784
000390 16 48 82 3c 14 76 9c 3d d7 86 9d 3d cf 17 b3 3d
       0.015903514 0.07639709 0.07691734 0.087447755
0003a0 d9 57 8b bc 56 f9 90 3d cb fb d7 3c 0b f7 0d bb
       -0.017009662 0.07078807 0.026365181 -0.0021662142
0003b0 5d d8 1e bd 83 2f 9b 3d da 78 11 3d 67 89 98 3d
       -0.03878056 0.075774215 0.035515644 0.074480824
0003c0 6b 1b 89 bd dc d8 87 bd ed 09 10 3d a2 0e a8 3d
       -0.06694683 -0.066331595 0.035165716 0.08205916
0003d0 96 08 a4 3d db 07 d2 3d a0 28 94 3c f5 7f bd bb
       0.0800945 0.102554046 0.018085778 -0.005783076
0003e0 3a 29 9c bc 9e a2 13 bd 4d 6d eb bc a7 a8 c4 3d
       -0.019062627 -0.036043756 -0.028738642 0.096024804
0003f0 c9 22 83 3d 2e 56 9e 3d 23 5f 71 bd cf 2d 3c bd
       0.06403119 0.07731281 -0.05892862 -0.045942124
